Cursed Tennis/Assets/Tennis/results/TennisPro3/Tennis/Tennis-1000006.onnx (onnx, 884278 bytes, 13 tensors)

60 f4 [84]
000000 06 e9 39 40 6e df 0c 40 ff 58 26 40 11 c5 4d 40
       2.9048476 2.201137 2.599182 3.215153
000010 00 88 88 3f 0e 99 e1 40 65 43 56 40 3a ab 0d 40
       1.0666504 7.0499334 3.3478634 2.2135758
000020 3e 3e 88 40 00 88 88 3f 50 12 83 3a ca b3 cd 40
       4.257598 1.0666504 0.0009999964 6.428197
000030 6e df 0c 40 00 88 88 3f c8 e4 1b 3f 6d 20 a2 3e
       2.201137 1.0666504 0.6089597 0.31665364
000040 50 12 83 3a 50 12 83 3a 5b 94 e1 40 65 43 56 40
       0.0009999964 0.0009999964 7.04936 3.3478634
000050 62 18 29 3f 2e 0f 28 40 f7 c6 08 40 0e 51 2b 40
       0.6605283 2.6259265 2.1371439 2.6768222
000060 33 89 51 40 47 50 85 3f 7a 7c e9 40 ac 05 63 40
       3.273999 1.0415124 7.296445 3.5472212
000070 12 f1 12 40 05 7e 87 40 47 50 85 3f 50 12 83 3a
       2.2959638 4.2341332 1.0415124 0.0009999964
000080 e8 6f d3 40 f7 c6 08 40 47 50 85 3f cb 69 20 3f
       6.6074104 2.1371439 1.0415124 0.6266143
000090 d7 35 92 3e 50 12 83 3a 50 12 83 3a 36 78 e9 40
       0.28556702 0.0009999964 0.0009999964 7.295924
0000a0 ac 05 63 40 07 a2 2c 3f 19 f4 10 40 85 ad 02 40
       3.5472212 0.67434734 2.2648985 2.0418408
0000b0 ed 19 30 40 0d 48 55 40 5b 18 81 3f cd 5d f1 40
       2.7515824 3.3325226 1.0085558 7.5427003
0000c0 6c 4c 72 40 61 a1 18 40 5e 74 85 40 5b 18 81 3f
       3.7859144 2.3848498 4.170455 1.0085558
0000d0 50 12 83 3a 38 08 d9 40 85 ad 02 40 5b 18 81 3f
       0.0009999964 6.7822533 2.0418408 1.0085558
0000e0 c1 db 24 3f 7e 91 7a 3e 50 12 83 3a 50 12 83 3a
       0.6439782 0.24469563 0.0009999964 0.0009999964
0000f0 f8 59 f1 40 6c 4c 72 40 0a 96 30 3f 22 c0 e2 3f
       7.5422325 3.7859144 0.6897894 1.7714884
000100 ea 63 f4 3f ce cb 34 40 af 0f 59 40 b1 77 77 3f
       1.9092991 2.8249393 3.3915823 0.9666701
000110 e2 3f f9 40 5a e8 81 40 97 f7 1e 40 2d 0a 82 40
       7.789048 4.059613 2.4838617 4.063742
000120 b1 77 77 3f 50 12 83 3a 77 7c de 40 ea 63 f4 3f
       0.9666701 0.0009999964 6.9526935 1.9092991
000130 b1 77 77 3f 28 42 29 3f d7 1e 40 3e 50 12 83 3a
       0.9666701 0.6611657 0.18761764 0.0009999964
000140 50 12 83 3a 98 3c f9 40 5a e8 81 40 44 02 35 3f
       0.0009999964 7.7886467 4.059613 0.7070658

action_model._continuous_distribution.log_sigma f4 [1, 4]
000000 cd fd b4 bc 39 23 04 be 04 d5 ac bd 78 1f 0d be
       -0.022093678 -0.12904061 -0.08439067 -0.13781536

action_model._continuous_distribution.mu.bias f4 [4]
000000 a1 44 aa 3b 27 68 54 3c 68 d0 f9 bc 4c cf b6 bb
       0.0051961695 0.012964285 -0.030494884 -0.005578911

action_model._continuous_distribution.mu.weight f4 [4, 256]
000000 71 50 6e bc e7 44 49 3a 4e 01 88 3c 77 f1 34 3c
       -0.014545546 0.0007677809 0.016602185 0.011043898
000010 a9 25 a6 bc 7f d1 9c 3c db 69 0f 3a dc b8 5a 3c
       -0.02028163 0.019142864 0.0005470791 0.013349738
000020 a1 df 1d bb ee 8e 18 ba 68 17 08 3d 25 85 90 bc
       -0.0024089592 -0.0005819638 0.033225447 -0.017641613
000030 2b 87 f1 bc 7b f9 16 3d 43 b1 7d bb a3 01 6d 3c
       -0.029483398 0.036859017 -0.0038710393 0.014465722
000040 77 be 34 3c 3a 7f 7b 3c 77 28 e4 3c a2 1d 97 bc
       0.0110317385 0.015350157 0.027851326 -0.018446747
000050 be e1 e3 3c 51 be 1c 3c a5 fd 16 bc f2 10 8f ba
       0.027817603 0.009566859 -0.009215747 -0.0010915084
000060 68 61 83 3c 5b ab 43 3c 1c 33 fe bc 63 d4 e1 bc
       0.016037658 0.01194271 -0.03103023 -0.027567094
000070 5f 68 fd bc f8 64 05 bd 8b 9b 70 3c 8b b1 fb 3c
       -0.030933557 -0.032566994 0.014685522 0.030724308
000080 e1 47 35 bd 71 02 13 3d 8f cd 0b 3d 82 0c ea 3b
       -0.044258002 0.035891 0.034131583 0.0071426043
000090 ad 47 9e bc 38 65 34 bd 8c d1 12 bc 12 87 56 bc
       -0.019321287 -0.044041842 -0.008961093 -0.013093727
0000a0 2a c7 37 bd e5 1c 1d bc ff 87 67 bc 2f f9 79 bb
       -0.044867672 -0.0095894085 -0.014131545 -0.003814291
0000b0 dc 56 3c 3c a0 6f a5 3a 14 41 a5 3b 04 9b d9 3c
       0.011495318 0.0012621768 0.0050431583 0.026563175
0000c0 fc 0e f4 3b 57 3f 5a 3c f3 1f e2 3c f6 77 6a bc
       0.0074480753 0.013320765 0.027603125 -0.0143108275
0000d0 b7 e7 07 bd 06 73 c8 3c a5 cb 8c 38 94 32 8d bb
       -0.033179965 0.02446891 6.713652e-05 -0.004309008
0000e0 dd ca 49 bc 0c 08 9e 3c 09 f7 08 3d e3 3e 32 3d
       -0.012316433 0.019290946 0.033438716 0.043517005
0000f0 ff 2c 67 ba 78 58 98 3c 32 60 bb 3c bb e6 15 bc
       -0.00088186556 0.018596873 0.022873018 -0.009149249
000100 ff 80 96 3c 0b a8 82 bc 01 1a c6 bc 64 f6 92 bc
       0.018372057 -0.01594927 -0.024182322 -0.017939754
000110 99 ba bf 3b ae 10 1c bc c5 7a 09 3d 09 62 cc bb
       0.0058511016 -0.009525461 0.033564348 -0.0062372726
000120 0f 4c a0 3c 39 19 55 bc a6 5c 63 3c 09 0a dd 3c
       0.019567518 -0.013006502 0.01387707 0.026982324
000130 b7 93 4b bc 29 3a 46 bc 6f df c0 bc 5b a6 48 bc
       -0.012425355 -0.012098827 -0.023544041 -0.0122466935
000140 40 ab ef 3b a7 66 a8 bc d4 02 47 3c 99 a5 89 3c
       0.0073141158 -0.020556761 0.01214667 0.016802596
000150 54 2b cf 3c bd 8c 07 3c 88 ed c7 bc 2c 46 2f bc
       0.025289215 0.008273301 -0.024405256 -0.010697883
000160 91 39 6d 3b 3d 4e 4c 3c da 8a 90 3c 74 a1 19 ba
       0.0036197642 0.012469825 0.017644335 -0.0005860545
000170 75 56 03 bd 9a 37 22 3d b5 c1 40 3b ee 4d 24 3c
       -0.032064874 0.039603807 0.0029412333 0.0100283455
000180 bd e8 6a 3c b6 1f 91 3c 37 38 1d 3d 94 43 ef bc
       0.014337716 0.017715316 0.03838369 -0.029207028
000190 c9 1a 9a bc 78 e9 07 bd 4d fc 82 3a 3c a8 42 bc
       -0.0188116 -0.033181638 0.0009993404 -0.0118809305
0001a0 5a 40 34 3d 65 6a 42 3d 0d 6a 0c bc e0 dc 2b 3c
       0.044006683 0.047464747 -0.008570206 0.010489672
0001b0 6f db a7 bc 35 6e 33 bd 81 af 25 3a fb 9a 99 3c
       -0.020490376 -0.043806273 0.00063204026 0.018750658
0001c0 f2 03 1a 3d d7 dc 5b bd 4a 34 09 bc e8 bf 01 3b
       0.03760142 -0.053677406 -0.008374283 0.0019798223
0001d0 b7 db 71 3a 74 1b eb 3c 9f e4 97 3c 29 d3 99 bb
       0.00092261605 0.028699614 0.018541632 -0.0046943617
0001e0 23 c6 39 3c ad 2f 31 bd 64 2a 9c bd 49 c2 2f bc
       0.011338743 -0.043258358 -0.07625273 -0.010727474
0001f0 21 8d f4 3c 7a 86 48 bd 03 ed 4b bc e2 59 17 bc
       0.029852452 -0.04895637 -0.012446645 -0.009237738
000200 e1 81 8b 3c 18 3c 6e bc bc fd 5d bc b7 4f 4d bd
       0.017029705 -0.014540695 -0.0135492645 -0.05012485
000210 fc 87 d2 3c 8a e7 43 3c 1d 7c 16 bb 4b c6 8a 3c
       0.025699608 0.011957059 -0.002296216 0.016940257
000220 92 5c d6 3c 44 47 cb 3c d5 c0 10 bd b5 d3 e8 bb
       0.026167188 0.024814256 -0.03534015 -0.0071053156
000230 ad d9 7b bc 76 ed 9f bc aa 42 d8 bc 04 09 8b bc
       -0.015371722 -0.01952241 -0.026398975 -0.016972072
000240 1c 9e 2e ba ff 2b 06 bd d5 f3 97 3a 4e 6d 34 3d
       -0.00066611334 -0.0327568 0.0011593053 0.044049554
000250 42 08 c8 3c f1 e7 09 bc 4e d3 e3 bc 0b 61 f2 bb
       0.024418 -0.008417116 -0.027810719 -0.0073968223
000260 5f 80 36 bb 80 24 74 bc a9 85 80 3b a0 19 85 3c
       -0.0027847511 -0.01490128 0.0039221835 0.01624757
000270 cd 2a 0a bd 0e c8 4d bc 31 9e 30 3d 2a 21 ac 3c
       -0.033732224 -0.012559904 0.043119613 0.021011908
000280 91 20 d6 3a f7 36 d6 3c 64 e1 64 bd 57 aa bd 3c
       0.001633661 0.026149256 -0.05587901 0.023152513
000290 7f f1 78 bd 04 59 47 bd 3b f3 8a bb e3 dc 1f 3d
       -0.060777184 -0.048668876 -0.004240421 0.039029013
0002a0 0b 14 1d bd 6b 9c ef bb 56 a9 7c bc b7 76 da bc
       -0.038349193 -0.0073123476 -0.015421232 -0.026667936
0002b0 0d e3 b3 3b 61 6d ad 3c 0f 3f 84 bc dc d3 c3 bb
       0.005489713 0.02117032 -0.01614335 -0.0059761833
0002c0 5d b7 0c 3c 32 8f cb bc 0b c6 29 bd 82 ff 8b bc
       0.008588639 -0.024848554 -0.041448634 -0.017089609
0002d0 60 89 13 bd ce 8a df bc ce ef 8e 3c b7 ca 77 3c
       -0.036019683 -0.027287867 0.017448332 0.015124015
0002e0 d9 40 32 3c 17 67 81 39 a6 30 8f 3c 53 7e 28 bb
       0.010879719 0.00024681605 0.017479252 -0.002571006
0002f0 b6 c6 88 3c fd 16 05 bc 19 18 d3 3c 62 6f 34 3c
       0.016696315 -0.008123157 0.025768327 0.011012884
000300 7d e9 c6 bc 1e 11 0c bd 86 e3 da 3c 13 00 fc bb
       -0.024281258 -0.03419601 0.02671982 -0.0076904385
000310 5e 58 05 bd 79 97 11 3c 02 92 af 3c 6d e0 3c bd
       -0.032554977 0.008886212 0.021431927 -0.046112467
000320 b5 88 32 3c e6 82 16 3d d7 2c b1 bc 0e 6c 30 3d
       0.010896851 0.03674593 -0.021627827 0.0430718
000330 88 54 d2 3a 52 bb b3 bc 01 9f 27 bc de 96 d9 bc
       0.0016046921 -0.021939907 -0.010230781 -0.026561197
000340 f5 b5 3b bd 14 4d 89 bb 76 6d 60 39 36 76 5e bc
       -0.045827825 -0.0041900966 0.00021403082 -0.013577988
000350 75 52 5c bd 7c 46 bd bc 14 bd 8a bb 30 82 18 3d
       -0.053789575 -0.023104899 -0.0042339657 0.03723353
000360 82 19 7a 3a 0d b5 95 bc 8e ad de bc 1b 36 10 3d
       0.0009540544 -0.018274808 -0.027182367 0.03520785
000370 e4 31 51 bd 2a b7 9d bb 37 e0 e2 bc 0a cc 9c 3b
       -0.05107297 -0.0048130946 -0.027694805 0.0047850655
000380 e1 85 3a bd 99 89 cb 3b bf 87 91 bc 1f ee ce 3a
       -0.045537833 0.0062114713 -0.017764924 0.0015787518
000390 00 58 3f bc af a0 23 bb f8 04 51 3c 2c 3a 9c 3a
       -0.011678696 -0.00249676 0.012757532 0.0011919192
0003a0 55 37 b7 bb 0f b8 b7 3c 54 f5 fc 3b a6 f6 0b bd
       -0.005591313 0.022426633 0.007719675 -0.03417077
0003b0 55 d2 cc 3b 82 c4 58 39 01 a7 0c bd 0f 79 8a bc
       0.0062506595 0.0002067257 -0.034338955 -0.016903428
0003c0 1a 80 96 3c 16 0a 84 3c 9c 2b 1a bc ac df 56 3b
       0.01837163 0.01611809 -0.009409811 0.0032787127
0003d0 47 c1 1a 3d 7d 23 7c ba 29 38 5f bc 37 18 6f b9
       0.03778198 -0.0009618325 -0.0136242295 -0.00022801837
0003e0 dd 1d 63 3c d8 98 7d bd c8 2b 9c 3a 04 72 24 3c
       0.0138621 -0.06191334 0.0011914903 0.010036949
0003f0 57 75 18 3d 26 1e 9b bb 18 c6 a2 bc 40 2d fa 3b
       0.03722128 -0.0047338186 -0.01986985 0.0076347888

network_body._body_endoder.seq_layers.0.bias f4 [256]
000000 a8 ed 60 bc 37 e0 84 bb 1d 13 c3 3a d1 12 b4 3a
       -0.013728537 -0.004055049 0.0014883016 0.0013738518
000010 92 26 81 39 39 f6 08 bc 93 ce 5a 3c fe ef 4d bb
       0.00024633534 -0.008359485 0.013354915 -0.0031423564
000020 b8 78 8c 3c 11 48 a7 bc 58 62 a5 3b 5f c9 3e 3c
       0.017147407 -0.020420106 0.005047124 0.01164469
000030 69 1b 3b 3c ce eb df 3c 8a 6c 3c 3c b7 80 39 3c
       0.011420109 0.02733412 0.011500487 0.011322192
000040 28 a1 13 3b 2a dd bd 3c dc 3a e2 3b 7f 3d f7 3c
       0.0022526477 0.023176748 0.0069039892 0.03018069
000050 4f 75 6f 3c 9a ce a6 bb 77 d6 31 3c 5f e2 86 ba
       0.014615371 -0.005090547 0.010854355 -0.0010290853
000060 04 88 1b bc 7d 1e a2 3c 58 71 a4 b9 cc 27 7f 3c
       -0.009492878 0.019789929 -0.00031364965 0.015573453
000070 04 c0 9c ba 58 76 4d 3c a8 88 8d 3c 0e 1a 5e bc
       -0.0011959081 0.012540422 0.017277077 -0.013556017
000080 4c 54 1a 3c 64 99 64 bc d8 54 9b 3c d0 48 48 3b
       0.009419512 -0.013952587 0.018961355 0.0030560978
000090 86 1c 08 bc 91 79 83 3c 13 6f 09 bc 5a 8a 2f bc
       -0.008307582 0.016049178 -0.008388299 -0.010714138
0000a0 0b 11 36 ba 00 6a 58 bc 34 60 1b 3c 9b 05 12 3b
       -0.00069452886 -0.013208866 0.009483386 0.0022281173
0000b0 73 86 3a 3c b5 ee 16 3d 3d 30 fb bb 79 d6 02 bc
       0.011384594 0.036848743 -0.0076656626 -0.007985705
0000c0 75 27 04 bd 64 44 c1 bb da 42 e1 3b a0 24 77 bb
       -0.03226419 -0.0058980454 0.0068744244 -0.003771104
0000d0 c4 f1 6a 3c 86 79 61 bc f8 74 af 3b 3b cf 7b bc
       0.014339868 -0.013761884 0.00535452 -0.015369232
0000e0 35 55 98 3c eb 6e 2c 3c dc 1f ae 3c ec 3b e1 bc
       0.018595317 0.010524492 0.021255426 -0.027494393
0000f0 ce 51 1b 3b 74 67 99 3c 52 a9 fc 3c 38 8d e6 3c
       0.0023699882 0.018726088 0.030842457 0.02814351
000100 5a 75 e9 bb 2c 56 1e 3d a7 0e 6e 3c d9 ad 02 bd
       -0.007124585 0.0386564 0.014529861 -0.031904075
000110 87 66 18 bc 53 55 63 bc f6 5c 16 bc 80 c2 2b 3c
       -0.009301788 -0.013875323 -0.009177437 0.010483384
000120 3d 07 09 3c c6 8d 6a bc b2 7e 92 3c 7b 37 ac 3c
       0.008363542 -0.014316028 0.017882679 0.021022549
000130 51 f6 a8 3c 90 4d 42 bc 0e 5e 96 3a 84 6f c7 3c
       0.020625265 -0.011859313 0.0011472122 0.024345167
000140 02 6c 1b 3b 26 1d 25 bd bb bc bb 3b d3 d8 87 3c
       0.00237155 -0.040311 0.0057292855 0.016582882
000150 ef 62 c7 3a c7 03 a3 3c c7 d7 b0 bb a1 65 a4 3c
       0.001521198 0.019899262 -0.0053968164 0.020067992
000160 20 b6 76 bc 08 e6 e1 3a 9c b6 f0 3a de 9a b4 bc
       -0.01505807 0.0017234692 0.0018364969 -0.022046503
000170 e6 d0 ec 3c 9b 25 b5 3a ee de b6 3c 72 16 ff 3c
       0.028908204 0.0013820411 0.022323098 0.031138632
000180 f6 93 57 bc 57 2d a6 3c 25 eb 33 3c a3 dc 14 3c
       -0.013157835 0.020285292 0.010981356 0.009085807
000190 47 3f 51 3b 3c 94 5b 3c 3c 3c cc bb ae ea 85 3b
       0.0031928585 0.013402041 -0.0062327664 0.004086814
0001a0 d8 df e9 bc 76 aa 5b bc 10 91 1f 3b 6d 62 81 3b
       -0.02854912 -0.01340734 0.0024347939 0.003948501
0001b0 78 1c 67 ba 28 5d 87 bc 1b 1a 77 3c 3d 40 9d bc
       -0.0008816193 -0.016523913 0.015081908 -0.01919567
0001c0 33 48 85 ba 6f 73 01 3d 7d 8e fc 3b a0 5b 03 3a
       -0.0010168612 0.031604227 0.0077074156 0.00050109066
0001d0 39 0b 3c 3c 4b 7d d1 3c cd 8b cd ba 5b 28 1f bd
       0.011477285 0.02557244 -0.0015681923 -0.038856845
0001e0 b9 2b 25 3c 8c 44 29 bb 2c ea b7 3b ac 9c d4 3b
       0.010081225 -0.002582821 0.0056126323 0.0064884033
0001f0 6d d4 2c 3b d0 89 99 bb b4 62 24 3b 9f 16 8b 3c
       0.0026371733 -0.004685618 0.0025083246 0.01697856
000200 07 94 21 bc 1f a3 66 bc 0b 25 6a bc 43 1d 8a 3c
       -0.009861953 -0.014076977 -0.014291058 0.016859656
000210 8c 99 62 ba 35 36 95 bb ce d0 95 3c 99 1f 70 3b
       -0.0008644096 -0.004553581 0.018288042 0.0036639927
000220 a8 fd 4d bb 90 b4 14 3c ab 3f 81 3c 15 f9 d1 3b
       -0.0031431708 0.009076253 0.01577743 0.0064078667
000230 fe e5 06 3c 75 a6 15 bc f9 07 d1 3c f4 2e 8e 3b
       0.008233545 -0.009133925 0.025516497 0.0043390933
000240 b0 a8 36 bb 1a 0e 8b 3c c9 4d ba 3b 5d 3e 31 bc
       -0.0027871542 0.016974498 0.0056855422 -0.010818091
000250 b2 01 0e 3c 42 9a 86 3c 8a d2 a4 3b f8 84 39 bc
       0.008667396 0.016430978 0.005029981 -0.011323206
000260 53 32 01 3b 70 52 b6 3c 45 5e 50 ba de 00 b3 3c
       0.0019713833 0.022256106 -0.00079486176 0.021851
000270 67 77 a8 bb 9a ae 82 3c c5 7b c6 3a 31 5e 87 ba
       -0.005141187 0.015952397 0.0015143087 -0.0010327754
000280 94 8d 56 bb 43 d8 0d 3d 99 0b e9 3c 1b 29 3d 3d
       -0.0032738196 0.03463007 0.028447913 0.04618178
000290 fe 77 17 ba 64 c9 bf bc ee ee c1 3b 99 c9 a4 3c
       -0.0005778073 -0.02341146 0.005918375 0.02011566
0002a0 0d 85 d1 3c 46 95 7f bb db 32 9c bc eb f9 02 3a
       0.025576139 -0.0038998886 -0.019067219 0.0004996347
0002b0 8b 3b 36 3c b2 54 c0 39 22 48 68 3c 56 ef 0d 3c
       0.011122595 0.00036684197 0.014177354 0.008663019
0002c0 f9 53 bd 3b 3c e6 03 3c fb 63 c0 bc 78 2f 43 bb
       0.0057778326 0.008050498 -0.023485174 -0.0029782932
0002d0 b7 49 b9 bb c1 63 0b bb 81 fe 9c 3b f9 ca f8 3c
       -0.0056545394 -0.0021269175 0.0047910814 0.030370222
0002e0 8e 3d 15 bc 7c 77 80 bb b8 7d 15 bc db 6b 77 3b
       -0.009108914 -0.0039204936 -0.009124212 0.0037753496
0002f0 13 82 fc 3b e7 0a ae bc ab 14 3e 3c 34 97 66 3b
       0.0077059357 -0.021245433 0.011601607 0.003518534
000300 75 a8 1d 3c e5 86 0f 3d b2 49 8d 39 dd 02 a1 bc
       0.009622683 0.035040755 0.00026948523 -0.019654686
000310 1b ad 28 bb 02 0b 8a 3b 1a 05 ae bb b7 b6 ca bc
       -0.0025737945 0.004212738 -0.0053106667 -0.024745328
000320 c8 c7 8b bc 82 74 ec 3a fe be 8a 3b 29 9d 82 3c
       -0.017063037 0.0018040093 0.004234194 0.01594408
000330 80 1a 7d 3c de 03 76 3b 74 d4 f3 bb 7d a4 6f 3c
       0.015448213 0.0037538926 -0.007441098 0.014626619
000340 ea 2f be 3c 84 a1 56 3c 61 a4 47 3c c0 27 49 3b
       0.023216207 0.013100032 0.012185187 0.003069386
000350 f7 97 d7 3c 2e 73 07 bd 6f 60 53 bb 67 47 84 3c
       0.02631758 -0.03306883 -0.0032253524 0.016147329
000360 8c 73 eb 3c b3 58 ae bc 9f 21 10 bb e3 16 4f ba
       0.02874162 -0.02128253 -0.0021992696 -0.0007899834
000370 e3 e6 ac 3c 7d d1 fe bb d6 dd 3c bc 9e 58 46 bc
       0.02110619 -0.007776438 -0.011527499 -0.012106089
000380 82 f6 8b 3c 30 5c 1d bc 10 d7 bd 3b e8 60 62 3c
       0.017085318 -0.009604499 0.0057934597 0.01381705
000390 14 6f 5b bc 4e 9b 02 bd 97 50 b8 bb 95 4b 9e 3c
       -0.013393182 -0.03188639 -0.0056248414 0.01932315
0003a0 f3 9e 93 3c 0d 4c 96 bc 68 80 d5 bc 21 fe a6 bc
       0.018020129 -0.01834681 -0.026062205 -0.02038485
0003b0 60 49 97 bc 0a d0 d4 3b 62 03 3c 3c 42 a4 b5 3c
       -0.018467605 0.0064945268 0.011475416 0.02217305
0003c0 d8 28 2e bc 7f a6 53 3c 32 56 f7 bc ea d2 6a 3c
       -0.010629855 0.012918114 -0.030192468 0.014332512
0003d0 2b 44 8d 3c ea c3 fe 3b 99 52 b2 3b dd 6b cf 3c
       0.01724442 0.0077748196 0.0054419753 0.025319988
0003e0 b2 33 e7 bc 84 c1 fe 3b 05 ca f4 3c fc 10 2e 3b
       -0.028222892 0.0077745337 0.029881487 0.0026560416
0003f0 d9 ee b3 3b 3e c9 a7 ba 93 b9 b5 3b fe 52 0a bc
       0.0054911193 -0.0012801064 0.005545804 -0.008442638

network_body._body_endoder.seq_layers.0.weight f4 [256, 84]
000000 b1 fb ce bd 6b 0a f6 bc 22 06 23 be 0f 5f 5a bc
       -0.101066 -0.030034265 -0.15920308 -0.013328328
000010 bd c3 39 be 8b d8 49 be 50 de 24 bd 0f cb 1a be
       -0.18141074 -0.19711511 -0.040251076 -0.15116523
000020 c2 4b 04 3e 32 b8 20 bd 52 95 f9 bd 13 cd 60 be
       0.12919524 -0.039238162 -0.12186684 -0.2195323
000030 0a 7b 55 be b0 74 0d 3d 4b 62 cb bd 3e 85 c2 3d
       -0.20847717 0.03453511 -0.09930857 0.0949807
000040 2b 1a 0b be bf 80 24 3d d2 46 ee ba 50 55 3c 3e
       -0.13584201 0.040161844 -0.0018179065 0.18391919
000050 f1 8e 4f 3e e3 0c a0 3c b6 27 83 bd 93 0b 35 3d
       0.20269372 0.019537395 -0.06404059 0.04420049
000060 71 5d 77 3d ac 26 4d 3d 75 37 96 bd 03 2f 07 3d
       0.060391847 0.05008571 -0.07334796 0.03300382
000070 33 50 1c bd 97 67 0d 3e f3 b7 dc 3d ff 69 b6 3d
       -0.03816242 0.13809048 0.10777273 0.08906936
000080 61 02 2e bc 70 cd 3c 3d cc ba 39 3e 8f 18 40 bd
       -0.010620684 0.046094358 0.18137664 -0.04689842
000090 55 67 f0 3d dd 30 44 be 1c 95 8c 3c ac 12 63 bc
       0.11738459 -0.19159265 0.017160945 -0.013859432
0000a0 5f 46 28 3e 56 12 e2 3c 2b 40 53 3e 2c ce bd 3d
       0.16433094 0.027596634 0.20629947 0.0926784
0000b0 0d 70 d9 3d 00 51 4e bd 25 64 a3 3d a6 ee 0e 3d
       0.10617075 -0.050370216 0.079780854 0.03489556
0000c0 e7 fb 60 be c6 64 fb 3c ef 1e aa 3e bc 66 1a be
       -0.21971093 0.030687701 0.33226725 -0.15078253
0000d0 6f ba bd bd 05 7b 63 3d d5 04 bc bc 3c 05 26 3d
       -0.09264075 0.055537242 -0.022951523 0.040532336
0000e0 0b b5 4c 3d 1c 40 59 3d 2d 34 a7 bd e0 23 e2 bd
       0.049977344 0.053039655 -0.081642486 -0.11041999
0000f0 e5 83 fe 3d 1e 9a 31 3e 11 7f 9a bd af fe 7a 3d
       0.12427501 0.17343947 -0.07543767 0.06127804
000100 a4 e1 88 be b3 7e 27 be b4 1d ce 3b 89 ea 93 bd
       -0.2673465 -0.16356926 0.006290162 -0.072224684
000110 42 24 06 3e f8 38 0e be ff a1 95 bd c2 fc 38 bd
       0.13099769 -0.1388892 -0.07306289 -0.045162924
000120 31 04 3d bb 4e 06 22 bd 74 e8 45 3d 3d 49 23 bc
       -0.002884161 -0.039556794 0.048317388 -0.009966192
000130 22 c5 04 bd dc cf 5c be 40 49 e0 3d c2 a6 a6 3c
       -0.032414563 -0.21563667 0.10951471 0.020343188
000140 b9 f1 3a 3d 6d 33 8c bd 87 37 c0 bd f9 04 f4 bc
       0.04564068 -0.06845746 -0.09385591 -0.029787527
000150 10 a1 b8 3d 31 36 67 bd 73 32 0a bb ae 44 6b 3c
       0.09015095 -0.056448165 -0.00210872 0.014359636
000160 86 c7 8b 3d 36 17 2d be 7f 9b 01 3c 2c 0f d2 3d
       0.068251655 -0.16903386 0.007910608 0.102568
000170 ea 43 a6 bd 74 c1 e9 bd 49 74 12 3d 40 ef c5 3c
       -0.08118422 -0.114138514 0.03575543 0.024161935
000180 ef 11 35 be d4 40 9e 3d b9 00 91 3d 0c 5a a4 3d
       -0.17682622 0.07727209 0.07080216 0.080249876
000190 d3 19 8d 3d 9c 96 fe bd 78 b4 41 bd 8b eb b9 3c
       0.06889691 -0.1243107 -0.04729125 0.022695323
0001a0 45 b9 91 bc 55 93 8b bd db 69 ef 3c c9 35 09 be
       -0.017788539 -0.06815211 0.02922528 -0.13399424
0001b0 aa e8 1c be 75 99 39 3d a6 af 4f 3d da ef 2b be
       -0.1532313 0.045312364 0.05070462 -0.16790715
0001c0 b8 28 7b 3b a9 5c ee bc 79 43 3b 3e 28 d6 15 3d
       0.003832383 -0.029096918 0.18287458 0.03658119
0001d0 ec ed be 3d e4 1a 0f be 51 19 d1 bd 7b fa 7a 3d
       0.09322724 -0.13975102 -0.10209907 0.061274033
0001e0 4e 8b 26 3e 8f 40 7a bd ba bd dd bd aa 9a 09 bc
       0.16264078 -0.061096724 -0.10827203 -0.008398691
0001f0 04 a7 8e 3d 39 54 23 3e b8 fa 04 3e 47 d9 20 bd
       0.069654495 0.15950097 0.12986267 -0.03926971
000200 56 49 35 be 91 e4 75 3b a4 f6 94 bd 77 ca e5 bd
       -0.17703757 0.003752027 -0.072736055 -0.11220258
000210 85 00 ba 3d 41 d4 0e bc cf ac e0 bd 7a 25 4d 3d
       0.0908213 -0.008717597 -0.109704606 0.05008457
000220 1f d5 16 be 2b 4c 13 bc 36 11 0c 3e 12 9a b7 bd
       -0.14729737 -0.008990328 0.1367844 -0.089649335
000230 d7 6a c7 bd 1b 0d e6 3d 14 c5 aa bc 54 3c 82 3c
       -0.09737175 0.112329684 -0.020845927 0.015897907
000240 dd 2b 21 bd cf 1a e4 bd 63 b9 98 3d 04 5e 07 3e
       -0.039348472 -0.11137926 0.07457235 0.13219458
000250 8e 47 0d bc 6a db b5 bd 08 4d 17 bd 4a c3 64 bc
       -0.008623017 -0.088797405 -0.036938697 -0.013962576
000260 85 80 a1 bd 83 5c 1a 3e 02 f8 fa bd cf 58 f2 3c
       -0.07885841 0.15074353 -0.12254335 0.029583363
000270 24 6c db bd 0b 91 8d bd d0 7e 5a 3e 14 7a 58 3d
       -0.107139856 -0.069124304 0.21337438 0.052850798
000280 fc ff 08 bd 42 34 31 3d c0 7c 6b bd 74 5b 24 3d
       -0.03344725 0.043262728 -0.057492018 0.04012628
000290 a7 cb 9f 3d f2 4b 16 be 0b 1e f0 3d e2 b0 45 bd
       0.078025155 -0.14677408 0.1172448 -0.04826439
0002a0 79 49 3a 3e 5a 48 98 bd 8c 98 e2 bc fb 80 56 3c
       0.1819209 -0.07435675 -0.02766063 0.013092275
0002b0 ac 27 b8 3c dc dc 81 3d b8 fd 9f 3d a2 5f 30 bd
       0.022479855 0.06340954 0.07812065 -0.043059953
0002c0 57 20 4a 3b 79 94 2a 3e 73 ec c6 3b dc a8 a9 bd
       0.003084203 0.166582 0.0060706674 -0.082841605
0002d0 5c a1 8e bb 7d ab 13 bd 0b 29 c5 bd de 60 ca ba
       -0.0043527316 -0.036052216 -0.09626969 -0.0015440246
0002e0 0d 58 3f bd 19 1a 59 bc ca d9 6d 3e a7 89 24 be
       -0.04671483 -0.013250851 0.23227611 -0.16068135
0002f0 4a 1c cf 3d cd cc 29 3d fc 44 8b 3d 20 c9 31 3e
       0.101128176 0.04145508 0.06800267 0.1736188
000300 63 09 2a 3e e5 95 49 3d 09 92 24 bd 82 0d 47 3d
       0.16605143 0.049215216 -0.040178332 0.048596866
000310 a1 e4 39 3e 6b e6 d2 bd 61 38 bb bd d6 c7 9d 3e
       0.18153621 -0.10297855 -0.09141613 0.30816525
000320 c8 91 41 3d 48 a6 df 3d 39 86 1a 3c d8 ac ff bd
       0.04725817 0.109203875 0.009431415 -0.12484139
000330 48 db 03 3d 52 f3 82 bc 6e 47 eb bd 89 73 8d 3d
       0.032191545 -0.015985165 -0.114882335 0.06906802
000340 2b ec 21 bd a0 4d 82 be 56 00 9d 3d 9e b7 28 3e
       -0.039531868 -0.25449848 0.0766608 0.16476294
000350 f4 ca 14 3e 62 2e 8c 3d 93 13 94 3d 5a ac 18 be
       0.14530545 0.06844784 0.07230296 -0.14909497
000360 2e 24 2f 3d c2 4b 2d 3e b7 5f 82 3b 97 20 0b bb
       0.042759113 0.1692343 0.0039786953 -0.0021229142
000370 81 ec fd 3c aa 53 80 3c de 2d e9 3c af 2e 3a 3b
       0.030996563 0.015664894 0.028464254 0.0028409173
000380 cb 51 b2 bd b8 24 34 3c a6 7e 56 bd 66 ed 01 be
       -0.08707007 0.010995083 -0.052366875 -0.12688217
000390 f6 b6 f5 3d af bc 24 3d 1f 89 75 bc 13 45 0c 3e
       0.11997788 0.040219005 -0.0149863055 0.13698225
0003a0 99 fb 00 3e c6 b8 a7 bd ca ec 39 bc 90 ec b5 3d
       0.12595977 -0.081895396 -0.011347959 0.08883011
0003b0 36 95 61 bc 58 00 bf bd 1e 0a 1c 3e e1 34 13 3e
       -0.013768485 -0.093262374 0.15238234 0.1437564
0003c0 e5 33 2d 3c 54 5f 63 3e d3 e9 d5 bd 68 8b 0b 3d
       0.010571455 0.22204334 -0.10444989 0.034068495
0003d0 93 f2 3c 3d b7 9b 2c bd da 8b ac 3d 0b 74 18 be
       0.046129774 -0.04214069 0.08425112 -0.14888017
0003e0 c7 d9 b7 bb 01 00 03 bb 90 ef e6 3c 77 05 7e bc
       -0.005610678 -0.0019989016 0.028190404 -0.015504233
0003f0 f7 70 82 3d 22 37 3a be e4 4c 0f be e0 20 4c 3e
       0.063692026 -0.18185094 -0.13994175 0.19934416

network_body._body_endoder.seq_layers.2.bias f4 [256]
000000 ce 4d 67 bc 79 f3 4a 3c cc 23 c8 3b 32 fe ac 3c
       -0.014117671 0.01238715 0.006107783 0.021117304
000010 92 5c 0a bc 49 e9 d9 3b ae 37 22 3b b6 ea c0 3a
       -0.008444922 0.006650124 0.0024752426 0.0014718387
000020 e7 49 3c 3c 1c 6f 55 3c d6 a2 aa bc e1 24 44 3c
       0.011492229 0.013026979 -0.0208296 0.011971683
000030 d5 65 5e 3c 2b b2 a3 3c fe f0 8d 3c 25 f5 25 bb
       0.013574083 0.019982418 0.017326828 -0.002532312
000040 8f f0 55 3c a9 75 c3 3c ca d6 65 3c 2c 27 b3 bc
       0.013057842 0.023859816 0.0140282605 -0.021869265
000050 46 25 5d 3c 2f ee 4d 3b 4e 4b 44 3c 2c 2b 81 3c
       0.013497656 0.0031422486 0.011980845 0.015767656
000060 bf da 2f 3c ab eb 2d 3c 47 3b 1a 3c 92 a8 93 bc
       0.0107333055 0.01061527 0.009413547 -0.018024717
000070 53 e6 87 3c 21 42 99 3c 52 50 b8 3a 6a 56 b6 3c
       0.01658932 0.01870829 0.0014062023 0.022258002
000080 4c 05 77 3c 62 48 36 3c 96 cf d3 bc 30 69 b1 bb
       0.0150769465 0.011125656 -0.02585582 -0.0054141507
000090 e0 05 4b 3c 2d 7e 5d 3c 76 9d a2 bc 5c cc e1 bb
       0.012391537 0.013518852 -0.019850474 -0.0068908166
0000a0 e7 f5 ea 3c 5f 91 a5 bc f9 ab 04 bc 81 33 86 bc
       0.028681708 -0.02021092 -0.008097642 -0.01638198
0000b0 f1 c1 a7 bc d9 cf c2 bc 8b 8e a0 bc bb ef f5 bc
       -0.02047822 -0.02378075 -0.01959922 -0.030021539
0000c0 b2 d9 55 3c 91 a4 d0 bb 9f dd b6 3b 3c e4 cf bc
       0.013052391 -0.006367274 0.0055806185 -0.025377385
0000d0 58 f5 87 3c a7 54 21 3a 2b 11 91 3c 14 5d 5f 3c
       0.016596481 0.0006154277 0.017708382 0.013633031
0000e0 4d 1e fc 39 37 5d c5 bb c8 00 b2 3b 38 7d 62 3c
       0.0004808776 -0.006023075 0.005432222 0.0138238
0000f0 6c dc 95 3c 3d 2f 8f 3c d6 87 d8 3c ee 5c 96 3c
       0.018293582 0.01747858 0.02643196 0.01835486
000100 5b 83 1f 3c 64 de 2d 3c 7b a3 12 bd cf 73 ae bb
       0.009735907 0.010612104 -0.03580044 -0.005323864
000110 7e 07 25 bd f4 21 a8 ba 7c 8f 25 bd 42 c5 6d 3b
       -0.04029035 -0.0012827502 -0.04042004 0.0036280905
000120 23 a2 e6 3c 33 14 83 bc bb 49 a7 3c eb f2 16 3a
       0.028153485 -0.016000843 0.0204209 0.00057582435
000130 77 a7 9f bc 0b 27 b1 bc 97 6d e9 bb a2 cb bd 3c
       -0.019489033 -0.021625062 -0.00712366 0.023168389
000140 5f d0 06 3d cc af 0e 3c 56 4a 0d bc bb 45 ff ba
       0.032913562 0.008708905 -0.00862368 -0.0019475737
000150 8c b5 1c 3c da c7 c0 bb dc 86 6a bb 46 94 b0 bb
       0.0095647685 -0.005883199 -0.003578595 -0.0053887693
000160 16 34 bf bc 93 dc 1a bc cd 38 ea bc 9d 91 0f 3c
       -0.023340266 -0.009452003 -0.028591538 0.008762744
000170 31 61 d7 bb 26 97 90 bc 53 e4 3f bb 1e 65 b7 bc
       -0.0065728654 -0.017650198 -0.002928038 -0.022387084
000180 16 b7 fb 3c 9e dc f1 bb 70 96 34 bc fc 00 6f 3c
       0.03072695 -0.007381036 -0.011022195 0.014587637
000190 07 ea 85 3c 54 92 8a bc c9 4b 9f bb 07 a5 e5 3b
       0.016346944 -0.016915478 -0.004861329 0.007008198
0001a0 b9 81 5a 3a 76 66 53 3c b7 da 9c 3b 34 ea 57 3c
       0.000833537 0.012902847 0.004786815 0.013178397
0001b0 46 ba 89 3c a4 d9 05 ba e8 18 17 bb a9 19 00 3c
       0.016812455 -0.00051059783 -0.0023055617 0.007818618
0001c0 68 ed 97 bc 29 4c 58 bc 7e 66 a7 3c f0 34 07 bc
       -0.018545821 -0.013201752 0.020434614 -0.008252367
0001d0 c5 0b 9f bb 34 93 51 3c 9d 53 84 3c 11 05 5f ba
       -0.004853698 0.012791444 0.016153151 -0.000850753
0001e0 a0 14 45 bc fe 0e d2 bb 5a 83 e9 bb 0f cb cc 3c
       -0.012028843 -0.0064104786 -0.007126254 0.02499917
0001f0 66 ec e5 bb 8b a0 fb 3b 49 61 29 3b 21 ad 72 bc
       -0.0070167063 0.0076790503 0.002584534 -0.014811785
000200 2d 32 86 bb 98 f4 80 bc 3a 60 ed 3c 3d ca 1b bc
       -0.004095337 -0.015741631 0.028976548 -0.009508667
000210 67 5c 94 bc 7c 61 d9 bb 22 6b 17 3b a8 e7 95 bc
       -0.018110467 -0.0066339355 0.0023104628 -0.018298939
000220 4b 98 6e bc d4 d1 d8 bc 64 8c d0 3c d1 9d 3b 3c
       -0.014562677 -0.026467241 0.025457568 0.011451201
000230 f8 ba 8e 3c d4 d5 d1 3c 51 fb 87 3c ea 11 27 3c
       0.017423138 0.025614657 0.01659933 0.010197142
000240 f7 fe 4d 3c aa 6e ef bc b1 da de 3c c5 82 1c 3c
       0.012572995 -0.029227573 0.02720389 0.009552662
000250 e5 02 df 3b 4e 43 f8 bc 33 ab 8e bc 8a e5 63 3c
       0.006805765 -0.03030553 -0.017415619 0.013909707
000260 ef 7d a1 3a 0a 8f 84 bc 7f 36 7b bb 79 2e a0 bc
       0.0012320856 -0.016181488 -0.0038332043 -0.01955341
000270 28 bc 87 bb d3 72 02 3d 41 47 b2 b9 0f 66 ad ba
       -0.004142303 0.031847786 -0.00034003894 -0.0013229268
000280 bd 6e 63 bc af 9b b2 bb bc dd 8b 3b f3 9d 58 bc
       -0.0138813825 -0.005450688 0.004268376 -0.013221252
000290 af 64 92 3c fc 27 5c bc e3 ff f1 3b 25 17 d3 bc
       0.017870275 -0.013437267 0.0073852404 -0.025767872
0002a0 b0 c6 2b bc f3 8c 83 3b f8 ae 1e 3c 0c 6b d6 3c
       -0.0104843825 0.004014605 0.0096852705 0.02617409
0002b0 f5 6c de 3b fd 60 8d 3b 22 35 1a bc 39 75 5f 3c
       0.006787891 0.0043145404 -0.009412082 0.013638788
0002c0 68 dd cf bc 02 7c 51 3b 23 92 96 3c cb 5b ac bc
       -0.02537413 0.0031964784 0.01838023 -0.021039864
0002d0 4b 1c 96 3a 37 21 ca 3b c1 c9 b6 3c dc bf a2 3c
       0.0011452524 0.0061685103 0.022313 0.019866876
0002e0 2f 2c a8 3b 47 24 3b 3c 16 b1 9d 3c ae 86 5b 3c
       0.00513222 0.011422223 0.01924948 0.013398809
0002f0 f2 27 a9 3a fd ba 25 3c b9 bc b0 bc 57 9d b8 bc
       0.0012905581 0.010115382 -0.021574365 -0.022535963
000300 7b 98 a1 3c 00 78 95 bb 90 b0 83 3b 6d 51 0d 3b
       0.019726029 -0.0045614243 0.0040188506 0.0021563426
000310 04 f4 53 3b be e7 8c 3c e2 bf aa 3a 1f 7e 8c bc
       0.003234149 0.017200347 0.0013027156 -0.017149983
000320 8b 6f dc 3a 06 e3 5e 3c 4b a9 f8 bb e0 65 0a 3c
       0.001681791 0.013603931 -0.0075885407 0.00844714
000330 1c 76 33 3b 59 c8 c4 bc 11 fa 47 3a 9f 6b f0 bb
       0.002738363 -0.024021314 0.00076285104 -0.007337048
000340 b1 4d 41 3c 44 18 9b 3c ca 68 09 3c 08 03 2b bb
       0.011798308 0.01893247 0.0083868 -0.0026094336
000350 ce b0 5d bb d1 81 02 3c 2b 79 f2 3a 8f 02 3a 3c
       -0.0033827308 0.007965521 0.0018499246 0.011353149
000360 28 32 01 3d 9b d8 59 3c fb 80 5b 3c be 14 f9 bc
       0.031541973 0.013296272 0.013397451 -0.030405398
000370 f8 ca 97 3c c7 01 55 3c 74 1d 2b 3c a1 11 56 3c
       0.0185294 0.013000912 0.010444034 0.0130657265
000380 a9 d8 1e bc 4b f2 23 bd d2 f3 c3 bc e4 a6 ec ba
       -0.0096952105 -0.04002599 -0.023919974 -0.0018055108
000390 71 f9 fd 3c eb bb 40 3c 94 9c be bc ad 6a f0 bb
       0.031002732 0.011763553 -0.023268022 -0.0073369355
0003a0 52 0b 4d ba 57 c5 4a 3a 78 b8 36 3b a9 6d 8b 3c
       -0.0007821816 0.00077350944 0.0027880948 0.017020063
0003b0 b7 64 cf 3c 64 4d 5e bc 1a ee 0e 3c c4 46 b5 3b
       0.02531658 -0.013568256 0.00872376 0.0055321176
0003c0 1f 24 18 3c 3d 5c c7 bb dc f9 c2 3a 40 4c 19 bc
       0.009285956 -0.0060839937 0.0014875489 -0.009356558
0003d0 11 44 1a 3c 95 cb 22 3c 39 03 c9 3b 33 60 0d bd
       0.009415642 0.009936233 0.0061344174 -0.03451557
0003e0 fb c5 98 3c af 8b 89 3b d8 4b 79 bb 38 cc e4 bc
       0.018649092 0.00419756 -0.003803959 -0.02792941
0003f0 ee 96 e1 bb 7e e9 74 3c e5 c9 77 bb 2e a1 a0 3b
       -0.0068844473 0.014948247 -0.0037809548 0.0049020266

network_body._body_endoder.seq_layers.2.weight f4 [256, 256]
000000 19 b4 b8 3d 05 1f 80 bb 48 1c 0e 3c cb c7 38 bd
       0.09018726 -0.003909948 0.008673735 -0.045112412
000010 ef 66 12 bc 71 92 73 3d 36 14 15 bd ee a3 bf 3d
       -0.008935674 0.05946583 -0.036396228 0.09357439
000020 9f 71 f9 3c 21 a1 0f 3c 99 41 2f bc 1a 2e 98 3d
       0.030449687 0.0087664435 -0.010696792 0.07430668
000030 9d be b4 3d 3a 24 02 3e ce 7b 93 3c a4 4c 82 bc
       0.08825419 0.12709132 0.01800337 -0.015905686
000040 68 ff 11 3d 55 4c b8 bd f8 63 42 bb e5 46 8f bc
       0.035643965 -0.08998934 -0.0029661637 -0.01748986
000050 39 cc 2a bd 66 24 93 3d 9d e0 89 bd 59 2e f6 bc
       -0.04169867 0.07184677 -0.06732295 -0.030051397
000060 49 0f fb 3c 39 7a 42 3c 66 18 4a bd ea 0b ce bd
       0.030646937 0.01186996 -0.049339674 -0.10060866
000070 66 8e 9f 3c 23 64 33 bd 2d 25 2b bc 34 ff f2 bd
       0.01947708 -0.04379667 -0.010445875 -0.118650824
000080 48 f4 5d bc dc f7 6e bd 57 3f 40 3d 6c 7e 29 3d
       -0.013547011 -0.058341846 0.046935406 0.04138033
000090 5a 39 09 3d 28 d3 03 3d 0e a1 6b bd 89 2e a9 3d
       0.03350196 0.032183796 -0.05752664 0.08260829
0000a0 66 e6 a8 3b 1d 20 2a 3d 38 a9 4f bd 9f a5 8c bc
       0.0051544188 0.04153453 -0.05069849 -0.017168818
0000b0 52 68 15 bd 6d f6 89 3d 8a c0 00 3d 89 63 dd bd
       -0.03647644 0.06736455 0.03143362 -0.108100004
0000c0 e6 f8 31 bc 11 75 4f bd cb 40 85 3d c3 ee 30 bc
       -0.010862565 -0.050648753 0.06506499 -0.010799113
0000d0 e3 4d 1a 3d f8 93 76 bd 62 ba 9f bd de d1 3f 3b
       0.037671935 -0.060199708 -0.077992216 0.0029269378
0000e0 e6 c2 b0 bd 0f 17 ae 3d 78 a6 12 bd 40 96 22 bd
       -0.08630924 0.08500492 -0.03580329 -0.03969407
0000f0 0e 1c 8b 3d 19 7a 2b 3d 75 01 6d 3c 22 82 c9 3d
       0.067924604 0.04186449 0.014465679 0.09839274
000100 22 4b 0d 3c 90 82 c0 3d 63 97 cc bc bb a4 ac 3c
       0.00862387 0.09399903 -0.02497453 0.021074643
000110 16 9d 87 3c 65 39 9f 3d cd d7 fa bc 9e 23 51 3c
       0.016554397 0.07774619 -0.03062048 0.012764839
000120 0b 77 82 3d c6 92 d6 bc 7e 7c 9b bb 95 f1 35 3d
       0.06370362 -0.026193034 -0.0047450652 0.044419844
000130 5f 42 91 3d 38 db b0 bc 83 a4 6d 3d 0e 69 35 3d
       0.070927374 -0.021588907 0.05801822 0.04428964
000140 de 98 01 3c e3 db 4a 3c 1f f9 60 3d cc c3 ce 3d
       0.0079099815 0.012381527 0.05492508 0.10095939
000150 16 17 2f 3c 3c 29 80 bd ce 6e b4 bc dd b6 88 3d
       0.010686656 -0.06257865 -0.022025492 0.066755034
000160 b0 cf 25 bd 9c 38 af bc 6c 5c 00 be 52 c4 91 bb
       -0.04048127 -0.021389298 -0.12535256 -0.004448452
000170 50 16 9a 3c 31 c9 29 3d fc d2 56 3d 9c fa 9c 3d
       0.018809468 0.041451637 0.052447304 0.076649874
000180 d5 d6 72 3d 8c e7 fe bc 48 1d e4 3d ad 4a 6d bd
       0.05928691 -0.03111627 0.111383975 -0.057932544
000190 91 5b b1 bc da a4 00 bc cc 5c ca bc 75 ba 47 3d
       -0.021650108 -0.007851804 -0.024702452 0.048761804
0001a0 d2 a9 9c bd 7c 6c da 3c ba dc eb 3c fe b0 4d bc
       -0.07649578 0.026663058 0.028791774 -0.012554405
0001b0 c2 86 dd 3d 71 f8 e0 3b dd dd 19 bc 75 a5 c0 3c
       0.10816719 0.006865554 -0.009391275 0.023516396
0001c0 fd 50 27 3e de 8f 67 3c dd 9f 58 3d 06 24 c3 bc
       0.16339488 0.014133422 0.052886833 -0.023820888
0001d0 95 76 d0 bd 2e ed 1a ba 86 37 60 3c 59 56 ce 3c
       -0.10178868 -0.00059099763 0.013685113 0.025187658
0001e0 d4 91 bb bc a0 cc 96 3d 17 94 41 3d 43 2b 1e 3d
       -0.022896685 0.07363248 0.04726037 0.038615476
0001f0 5f 3d 0d be 98 db 19 3d cc 22 99 bb 2e 73 1e bd
       -0.13792942 0.037562937 -0.0046733376 -0.038684063
000200 ed d6 4d bc b1 e3 21 3d bf 14 1c 3e 83 b2 82 3c
       -0.012563449 0.039523784 0.15242289 0.015954262
000210 99 fc a9 bd a7 d0 2a 3e 40 fc 4e 3e fd 37 6b 3d
       -0.08300132 0.16681157 0.20213413 0.05742644
000220 2c 3b 11 3c c6 6a cf bd 6c f0 8a 3d 7a 36 3a 3d
       0.008864205 -0.10127787 0.06784138 0.04546211
000230 9e 97 1a bc 54 91 27 bd 2d b6 9e 3d 19 a5 d3 3d
       -0.009435562 -0.04091008 0.07749591 0.10334224
000240 4e 22 51 3d c6 0d 01 bd af 18 08 3d 2d 13 c5 bd
       0.051058106 -0.031507276 0.033226665 -0.09622798
000250 c1 05 f2 3d 79 8e d2 bc 6b 3b cc 3d b7 b9 52 3d
       0.11817504 -0.025702702 0.099722706 0.051446643
000260 a1 e5 88 3d 74 f9 b3 bd 7f 73 67 3c 30 63 73 3d
       0.06684423 -0.08787814 0.0141266575 0.059420764
000270 25 c7 79 3b d5 d9 d4 39 fd 55 ed bd b1 03 c7 3c
       0.0038113084 0.00040598089 -0.115886666 0.024293752
000280 02 39 f6 bc c7 bd e7 3b bb ae 3b bd 6a 2a 20 3c
       -0.03005648 0.007072184 -0.045820933 0.009775737
000290 ec ce 65 3c ce fa ec ba 6c 15 ce bc 2a 13 6c 3b
       0.014026385 -0.0018080117 -0.0251567 0.0036022165
0002a0 2f 80 ff 3c 0a 44 2d 3e 75 20 06 3d dc be 58 bb
       0.031189052 0.16920486 0.032745797 -0.0033072745
0002b0 ab 88 9f bc a7 b6 9b 3d bc 50 0b 3e 1d 5c 42 3e
       -0.019474348 0.076031975 0.13605016 0.18980451
0002c0 f8 cd 14 3d 49 35 53 3c 04 dc 92 bd 5d cb 53 3d
       0.03632924 0.012891122 -0.07170871 0.051707614
0002d0 28 c7 56 bd 76 4a 86 3d 72 5a 2c 3d fb e7 c0 3d
       -0.052436024 0.06557171 0.042078443 0.09419247
0002e0 b1 fc 5e bb f0 d1 12 3c 5c 69 3e 3d 19 68 ea 3b
       -0.0034025128 0.008961186 0.046487197 0.0071535227
0002f0 80 38 d7 39 18 24 05 3d d1 0e d8 bd 89 a1 ce ba
       0.0004105009 0.032505125 -0.10549701 -0.0015764694
000300 ec 5f ba bc d4 f6 52 3c 41 a4 a6 3c ec e4 6c bd
       -0.022750817 0.012876231 0.020341994 -0.057835504
000310 09 9e 0a 3e 52 91 a9 3c 0a 13 04 3d 8f b9 6f bc
       0.13536848 0.020699177 0.03224472 -0.014631643
000320 94 fb c7 bd 3a 9e b6 39 a0 95 3a 3c 96 a4 cc bd
       -0.097647816 0.00034831633 0.011388212 -0.0999233
000330 34 c0 9f bc 8e 34 19 bc ce 3b 9c bd 2c 2e cf bd
       -0.01950083 -0.009350909 -0.07628594 -0.101162285
000340 fb 69 d6 3c 86 f0 00 3d 1f bd bb bd 4b ee 0c bc
       0.026173582 0.03147938 -0.09166931 -0.008601735
000350 9f 4f 25 bd 25 31 0f be 8c 63 38 3e c5 29 fa 3d
       -0.040359136 -0.13983591 0.18006724 0.12214998
000360 e3 55 31 3d 00 c4 57 bd b0 25 2a 3b f0 ce b8 3c
       0.0432948 -0.052677155 0.0025962405 0.022559613
000370 58 50 98 3a fb 13 e5 ba a8 34 f4 3d cb 97 57 bd
       0.0011620624 -0.0017477268 0.11924106 -0.052634995
000380 17 af 38 3c b1 1e db 3d 74 34 ee bc 90 36 c4 ba
       0.011272213 0.10699213 -0.029077746 -0.0014969874
000390 40 c2 09 bd b7 be 1c bd b9 6c 87 3c 38 83 82 3d
       -0.033632517 -0.038267817 0.016531335 0.06372684
0003a0 ce d8 6f bd b3 cf 0c bd b6 34 34 bd f1 39 d2 3c
       -0.05855637 -0.034377765 -0.04399558 0.025662394
0003b0 92 63 b4 3d ba 2e 80 bd 62 1f 14 ba 85 a8 8d b9
       0.08808054 -0.062589124 -0.00056504284 -0.00027019173
0003c0 f0 6f b4 3d b9 22 04 3d 51 7b a5 3c e7 7f fc bb
       0.08810413 0.032259677 0.020200403 -0.007705677
0003d0 bb f8 e8 bc 08 8a 88 bd c0 a2 9d 3d 70 06 51 3d
       -0.028438916 -0.06666952 0.07697058 0.05103153
0003e0 b5 6b 7d 3d 69 01 0c 3d 0a 02 fe bd 54 58 98 bd
       0.061870296 0.034181032 -0.12402733 -0.07438722
0003f0 c8 7b d1 bc 4e 0f 3b be 7a 10 8f bd 9d de b2 bd
       -0.025571719 -0.18267557 -0.069855645 -0.08733866

network_body._body_endoder.seq_layers.4.bias f4 [256]
000000 23 95 74 bc 15 ab bb b9 ec 4a 8a 3c 37 57 76 3c
       -0.014928135 -0.00035794885 0.016881429 0.015035442
000010 1a 24 5a bc f0 45 63 3c 1b d8 86 bb c2 a2 75 3c
       -0.013314271 0.013871655 -0.0041151172 0.014992418
000020 c1 0f d1 bc 34 14 ff 3b ab 5c 2b bd 52 3a 1b 3a
       -0.025520207 0.007784391 -0.041836422 0.0005921471
000030 d9 ec 9f 3c b3 56 5e 3b a6 fb 98 3c df 98 3f 3c
       0.019522117 0.0033926188 0.018674683 0.011694162
000040 43 52 3f 3b f1 9e d8 bc d1 5c 85 bc e5 5d 91 3b
       0.002919332 -0.026442977 -0.01627961 0.004436242
000050 54 a8 2d 3c c6 bd d2 3b 26 8a 69 bc 6a 68 0f bb
       0.010599215 0.006431314 -0.014254129 -0.0021882304
000060 e8 e4 49 bb 9b b9 a3 3c fb 92 a5 3c 29 52 21 bd
       -0.0030806605 0.019985965 0.020211687 -0.039384995
000070 e9 98 ce ba 3b 8e 10 3c bb 52 b0 3b f9 a1 be 3b
       -0.0015762124 0.008822973 0.005380956 0.0058176485
000080 c4 93 c9 3c cd f3 71 bc 42 fe ff 3b 1f 1f 39 3c
       0.024606593 -0.014767599 0.0078122923 0.011298924
000090 7e b9 71 bc 76 f1 11 bc 5e 7e 2b 3c 1d fc c6 3c
       -0.014753697 -0.008907666 0.01046714 0.024290139
0000a0 03 b0 c3 bc b0 c5 46 3c ee a5 1b bc dd c6 ea bb
       -0.02388764 0.012132093 -0.00950001 -0.0071648196
0000b0 c9 68 05 bb e6 3d e3 bc 92 d9 8e bc aa 5d 01 3b
       -0.0020356646 -0.027739476 -0.01743773 0.0019739666
0000c0 ec 34 08 bc 9f fc 52 bc be 43 cf 3b f5 98 a0 bc
       -0.008313399 -0.012877612 0.006325214 -0.019604186
0000d0 e5 5d 91 bb c6 db 1a bd 36 8a 26 3c 92 17 cb 3c
       -0.004436242 -0.03780725 0.010164788 0.024791513
0000e0 84 da f1 3b 57 96 ba bc 95 cf c6 bc 81 fb 67 3c
       0.0073807854 -0.022776766 -0.024268905 0.014159084
0000f0 5f 11 d0 bc 4e dd ae 3c be d7 54 3c 31 63 df bb
       -0.025398908 0.02134576 0.01299089 -0.0068172445
000100 de d4 0e bc 85 d1 13 3c 19 6e ab 3c 68 11 0a bc
       -0.008717744 0.009022121 0.020926522 -0.008427002
000110 48 ad b2 bc 8f c6 a3 bc d3 24 c7 3c 30 d6 31 3b
       -0.021811143 -0.019992141 0.024309551 0.0027135722
000120 26 f0 66 3c fd 7a c2 3b 38 4c ec 3c 9f 64 f5 3c
       0.014095342 0.0059350715 0.028844938 0.029955206
000130 8e ad 77 3c 8a 11 b7 3c cb 91 ad 3c ec ef 74 bc
       0.015117062 0.02234723 0.021187684 -0.01494978
000140 6a 4e 8c 3b ac 6f 2f bc 4c 8f 5c bb 1d dc 37 3c
       0.0042818086 -0.010707777 -0.0033654748 0.011221913
000150 72 70 bd 3b 14 8e 85 3b e9 3a 8d 3c 0f 77 c5 bb
       0.005781227 0.004075775 0.017240005 -0.006026156
000160 13 77 13 3c 34 0c e8 3c 26 7f 3a 3c 54 92 1e 3c
       0.0090005575 0.028326131 0.011382854 0.009678442
000170 92 76 d1 3a 12 39 34 bc 75 f4 87 3c 26 5f 2e 3b
       0.0015980771 -0.010999935 0.016596058 0.0026607006
000180 95 78 57 bc 9c cd 68 3c 47 17 f0 bc 7b 81 89 bc
       -0.013151308 0.014209177 -0.029307975 -0.016785374
000190 8d e1 ad bc d9 5e c4 bc 8b 73 3a 3a 8f d9 0e bc
       -0.021225715 -0.023971008 0.0007112554 -0.008718862
0001a0 1d f6 ab bc d5 88 ee 3c 4d 18 93 3c d5 d2 b1 3c
       -0.02099138 0.029117981 0.017955923 0.021706978
0001b0 64 e5 b6 3c 93 49 b7 3c 0d 6a ef bc 92 5c 49 3c
       0.022326179 0.02237395 -0.029225374 0.012290137
0001c0 9f ae 87 3c 2c 62 a0 bb 0b 3a af bc 8c fd bf bb
       0.016562758 -0.0048945155 -0.021389982 -0.0058590826
0001d0 03 f1 58 bc 0f a4 ab bc 78 58 15 3c 44 26 73 3c
       -0.013241055 -0.020952253 0.009115331 0.014840666
0001e0 8d 0c 41 3c 35 b9 bc bc 41 1a 06 bc 4c 1f 08 bd
       0.0117827775 -0.023037532 -0.00818497 -0.033232972
0001f0 00 08 2a bd 10 ce 61 3c 35 fd 1a bc 50 62 aa bb
       -0.041511536 0.013782039 -0.009459783 -0.005199708
000200 9f 31 3c 3c 14 d7 7e 38 3b 2a 94 3c 44 04 90 3c
       0.01148644 6.0758626e-05 0.018086543 0.017580159
000210 ca 50 c8 bc d2 fe e1 bc ac 97 79 3c ac 0c d2 bb
       -0.024452586 -0.027587328 0.015233915 -0.006410202
000220 b8 f6 35 3c 98 98 5a 39 b9 e4 75 bc 02 02 6e ba
       0.011106186 0.00020846946 -0.015008145 -0.00090792787
000230 16 de ee bc 94 14 4a 3c 1d ed dd bc 5d ae 46 3b
       -0.029158633 0.012334008 -0.027090603 0.003031633
000240 5e 00 28 3c 46 b0 e0 3c c4 b4 dd 3a f7 37 08 bc
       0.010253994 0.027427804 0.0016914834 -0.008314124
000250 8b 21 04 bd 6d 0e 42 bc d0 f6 92 3c 39 96 84 3c
       -0.03225855 -0.01184426 0.017939955 0.016184913
000260 b8 16 83 3b ee d0 ac ba da e4 d6 bc 83 18 0a bd
       0.004000511 -0.0013184824 -0.026232172 -0.033714782
000270 a2 30 b2 3c 53 6d 7a 3c 05 ea 5d 3c 1f 2d aa bc
       0.021751706 0.015284854 0.013544564 -0.020773469
000280 63 ce 9b b9 c3 d3 ac 3c ba ca 80 3b 8f 6c 5f 3c
       -0.00029717674 0.02109707 0.003930417 0.013636722
000290 55 76 1f bc ae 4f 63 3c fe c3 90 bc be 7c 6f 3c
       -0.009732802 0.013873978 -0.017671581 0.014617143
0002a0 b2 6c 88 3c 00 c5 47 3b 06 f8 0e bc 4c d6 25 bc
       0.016653392 0.0030482411 -0.008726126 -0.010121893
0002b0 e5 65 84 bc ca 84 10 3c 0e 19 03 bc 29 82 a0 3c
       -0.016161868 0.008820722 -0.008001579 0.019593315
0002c0 9f 02 01 bb ca a8 aa bc fc 50 4f bc 18 35 ce bc
       -0.00196854 -0.020832438 -0.0126535855 -0.025171801
0002d0 85 0a c0 bb e6 19 4e 3c 3e 1d 7a bc ee 31 7f 3c
       -0.005860629 0.012579417 -0.015265761 0.015575869
0002e0 2e af 64 bc 56 09 9a bc 5f 7d 14 3b e9 08 0a 3c
       -0.013957782 -0.01880328 0.0022657735 0.008424976
0002f0 b0 d6 51 3c eb b7 c9 bb 30 cf 18 bc 40 c7 47 bc
       0.012807533 -0.006155958 -0.009326741 -0.012193501
000300 4c e7 62 3c c7 af c6 3a 91 24 11 3c f5 3b 9f 3c
       0.013849091 0.0015158587 0.008858816 0.01943777
000310 ca e1 90 3c d6 2e 8d 3c 18 4e 8d 3b ba 83 8b 3c
       0.01768579 0.017234247 0.004312288 0.017030586
000320 1a 30 87 3c de f1 61 bc 52 47 84 bb f6 c2 a9 bc
       0.016502429 -0.013790576 -0.0040368224 -0.020722847
000330 d4 e0 82 bc 93 e2 a9 bc 01 14 96 bc 01 0f 77 bc
       -0.015976347 -0.020737922 -0.018320085 -0.015079261
000340 0f 8a a2 3c b9 44 f3 3b 1b fa 1e bb bc 52 5a 3c
       0.019841222 0.007423964 -0.0024257961 0.0133253895
000350 f4 d8 cc bc 33 1d 8a 3c a6 ca 4c bc ee 61 99 3c
       -0.025005795 0.016859626 -0.012499487 0.018723454
000360 27 5d 94 bc 39 7c c7 3c 95 ea 69 bc 5f e3 98 bb
       -0.018110825 0.024351226 -0.01427712 -0.0046657766
000370 a3 b1 27 bb 05 da a7 3c 7e a7 0f 3c f1 01 bf bb
       -0.0025588057 0.020489702 0.008767961 -0.005829089
000380 2b 11 0f 3c 0d 38 35 bc ef e8 18 bc eb 36 ff bc
       0.0087321205 -0.011060727 -0.009332879 -0.031154117
000390 3d 76 33 3c 79 a6 5a 3c 65 11 eb bb fb fa b4 bc
       0.010953483 0.013345354 -0.0071737044 -0.022092333
0003a0 2e 0d 9b bc f1 10 40 3c 6e 98 b5 3b 4d 07 b4 3c
       -0.018927183 0.011722789 0.0055418527 0.021976138
0003b0 eb cc 01 bc 43 5e 3e 3c 9e fd bf ba 61 af e1 3b
       -0.007922391 0.011619153 -0.0014647727 0.006887362
0003c0 b1 0b 33 3c 70 06 6e 3c 8d 42 32 3c 37 ee 7b 3c
       0.01092808 0.014527902 0.010880125 0.015376619
0003d0 aa 76 9e 3c 4a 3a bf bc 37 00 29 3c 77 75 a2 3c
       0.019343693 -0.023343224 0.010314993 0.019831402
0003e0 fc f4 a5 bc a1 d8 9e 3c 24 64 9f 3b c7 c9 8a bb
       -0.02025842 0.019390406 0.0048642326 -0.0042354795
0003f0 05 93 7e 3c 15 6a af 3c da 6c b8 3c 57 77 9b 3b
       0.015537982 0.021412889 0.022512842 0.004744451
