Cursed Tennis/Assets/Tennis/results/TennisPro3/Tennis/Tennis-27217.onnx (onnx, 884278 bytes, 13 tensors)

60 f4 [84]
000000 ab 38 29 40 62 02 09 40 6a 8a 19 40 14 56 4c 40
       2.6440837 2.1407704 2.3990731 3.1927538
000010 ff 61 82 3f 14 9b d9 40 0f b1 4f 40 12 8b e1 3f
       1.0186156 6.8001804 3.2451818 1.7620566
000020 9a ca 82 40 ff 61 82 3f 96 9e c6 3b ab 38 29 40
       4.0872316 1.0186156 0.0060613854 2.6440837
000030 62 02 09 40 ff 61 82 3f 9a b5 97 3e 46 80 99 3e
       2.1407704 1.0186156 0.29630738 0.29980677
000040 96 9e c6 3b 96 9e c6 3b 14 9b d9 40 0f b1 4f 40
       0.0060613854 0.0060613854 6.8001804 3.2451818
000050 ae db bd 3e 5f 52 13 40 83 78 06 40 49 30 1e 40
       0.37081665 2.3019025 2.1011055 2.471697
000060 b3 26 50 40 7b d8 79 3f bd e5 e0 40 3f 1c 5e 40
       3.252362 0.9759595 7.028044 3.470474
000070 c3 1a e9 3f 46 15 81 40 7b d8 79 3f 96 9e c6 3b
       1.8211292 4.033847 0.9759595 0.0060613854
000080 5f 52 13 40 83 78 06 40 7b d8 79 3f ca 2c 87 3e
       2.3019025 2.1011055 0.9759595 0.2640136
000090 9b 01 8c 3e 96 9e c6 3b 96 9e c6 3b bd e5 e0 40
       0.27344975 0.0060613854 0.0060613854 7.028044
0000a0 3f 1c 5e 40 ef 26 c6 3e 73 96 eb 3f c4 2c 02 40
       3.470474 0.3870158 1.8405288 2.0339823
0000b0 1f c2 22 40 d2 d5 53 40 51 f8 6b 3f 41 1f e8 40
       2.5430982 3.3099256 0.92175776 7.253815
0000c0 55 40 6f 40 6c 07 f1 3f 44 a7 7b 40 51 f8 6b 3f
       3.7383015 1.883039 3.932084 0.92175776
0000d0 96 9e c6 3b 73 96 eb 3f c4 2c 02 40 51 f8 6b 3f
       0.0060613854 1.8405288 2.0339823 0.92175776
0000e0 bf 94 62 3e 20 4a 75 3e 96 9e c6 3b 96 9e c6 3b
       0.22127055 0.23954058 0.0060613854 0.0060613854
0000f0 41 1f e8 40 55 40 6f 40 9d 64 cf 3e 04 aa 8f 3f
       7.253815 3.7383015 0.4050645 1.122376
000100 53 a2 f7 3f fc d8 26 40 0e b3 57 40 51 66 5a 3f
       1.9346412 2.6069937 3.3703036 0.8531237
000110 67 4b ef 40 45 59 81 40 ef d4 f9 3f ce e9 71 40
       7.4779544 4.042147 1.9518107 3.7798953
000120 51 66 5a 3f 96 9e c6 3b 04 aa 8f 3f 53 a2 f7 3f
       0.8531237 0.0060613854 1.122376 1.9346412
000130 51 66 5a 3f f3 7c 23 3e d2 82 46 3e 96 9e c6 3b
       0.8531237 0.15965633 0.19385841 0.0060613854
000140 96 9e c6 3b 67 4b ef 40 45 59 81 40 97 b9 d9 3e
       0.0060613854 7.4779544 4.042147 0.42524406

action_model._continuous_distribution.log_sigma f4 [1, 4]
000000 dd eb 02 bb c4 98 bb bb 85 a0 81 3a 69 78 78 3b
       -0.0019977011 -0.005724998 0.0009889757 0.0037913567

action_model._continuous_distribution.mu.bias f4 [4]
000000 a3 fe 1c 3b 21 8c 88 bb 21 98 82 3b 65 bc 30 ba
       0.0023955486 -0.0041670953 0.0039854203 -0.000674194

action_model._continuous_distribution.mu.weight f4 [4, 256]
000000 f4 72 ab bc 1c 38 5f bc 46 aa 92 3b b9 80 c6 3b
       -0.020928837 -0.013624217 0.0044758646 0.0060578254
000010 2c 62 10 3c ff be 8f 3b 87 ad 84 ba d8 82 df 3b
       0.0088124685 0.004386782 -0.0010122516 0.0068210177
000020 eb 16 2e 3c 2d b9 8f bc 07 9b 00 bc 99 db d4 3b
       0.010625581 -0.017544353 -0.007849461 0.0064959046
000030 09 5d 27 bc 0b 68 51 bb 4b bf 4d ba 16 fc 94 3c
       -0.010215052 -0.0031952884 -0.0007848634 0.01818661
000040 ab db 70 3c e6 04 89 bb 3b d5 49 bc 30 5b f9 bb
       0.01470081 -0.004181492 -0.0123189045 -0.0076097474
000050 31 61 6c 3b e1 4e c0 bb ca 9d cb bb 67 7c 38 bb
       0.0036068673 -0.005868778 -0.0062138783 -0.0028150321
000060 d6 0d 67 3c b9 42 26 3c dc fb 89 3c 2e 62 da 3c
       0.01410242 0.010147744 0.016843729 0.026658144
000070 07 5c ca ba 72 ea 35 ba 88 6a 84 bc d8 38 27 bc
       -0.0015438803 -0.0006939537 -0.01616408 -0.010206424
000080 6d f7 0e 3c df f9 06 3c 23 67 e0 bb 20 dc af 3c
       0.008725983 0.008238285 -0.0068482324 0.021467268
000090 17 66 ac 3c 7a 09 ab 3c 2f df 30 3b ef c1 ff 3c
       0.021044774 0.020878542 0.0026988497 0.031220404
0000a0 e7 04 fd 3b b3 41 d1 39 79 32 e4 bc 23 a9 93 3b
       0.0077215317 0.00039912536 -0.027856098 0.0045062467
0000b0 a3 18 60 ba bb c7 ee 3c 63 c4 dc 3c 2d 8e 8f bb
       -0.0008548593 0.029147973 0.026949113 -0.0043809623
0000c0 9b 2d 5f 3c 85 88 c7 3c 9d b5 90 3c 03 ae bf bb
       0.013621713 0.02435709 0.017664725 -0.0058496012
0000d0 b5 0f 59 3b 9e 49 50 3c 3c db cf 3b 44 42 a5 bc
       0.0033120934 0.012712864 0.0063432734 -0.0201732
0000e0 fa 65 b6 3c 4f 61 7e 39 42 0c 9c bb 33 c0 21 3d
       0.022265423 0.00024259578 -0.0047622034 0.039489936
0000f0 e1 00 be bb 13 45 ae bc 62 f1 5a bc e6 3e f1 3a
       -0.0057984446 -0.021273172 -0.013363214 0.0018405586
000100 2f cc e9 3a 5a 70 1b 3a 50 6d 4b bc 4a 85 62 bc
       0.0017837341 0.00059295224 -0.012416199 -0.013825724
000110 60 45 f4 3c 09 b1 ce 3b 31 cc b0 bc 19 24 26 bc
       0.029818237 0.0063077253 -0.021581741 -0.010140442
000120 06 cb 7a 3c 5d 10 6c 3c 1f a8 74 3c 65 8a 82 3c
       0.015307194 0.014408198 0.014932661 0.015935132
000130 97 53 74 bb 52 30 70 bc 80 58 af bb e9 39 6d 3c
       -0.0037281269 -0.014659958 -0.005351126 0.014479139
000140 67 04 22 3c 0d b8 6e bc 64 0f d8 3b 29 a0 0c 3c
       0.009888745 -0.014570248 0.0065936316 0.008583107
000150 1d 19 0c 3c 11 28 cc 3b c7 21 0a bd 00 10 24 bc
       0.008550909 0.006230362 -0.03372362 -0.01001358
000160 38 7e 4f bc 24 5d c8 bb e1 08 83 bb 42 94 a9 bb
       -0.01266437 -0.006114619 -0.003998861 -0.0051751444
000170 83 ea b8 3b 9f c3 c4 3c 0d 7d fc bb 9e 94 b3 bb
       0.0056431904 0.02401906 -0.007705337 -0.005480363
000180 d1 5d d1 39 c2 90 96 bc 71 5c 98 bb ea 43 f7 ba
       0.00039933485 -0.018379573 -0.0046496917 -0.0018864844
000190 37 c0 a3 bb 73 27 28 3c 34 d3 c2 bb bd b0 f9 3b
       -0.004997279 0.010263312 -0.0059455875 0.007619946
0001a0 06 22 9c 3c 9b 76 12 bc ed 26 c0 bb 87 65 ef 3b
       0.019059192 -0.008939411 -0.0058640153 0.007305804
0001b0 91 e1 2f bc 8f 94 41 ba 36 e9 23 3b 67 0e 5a 3b
       -0.010734932 -0.00073845027 0.002501083 0.0033272745
0001c0 4c 16 a0 3b 88 e9 13 bc 5d 31 bd 3c e6 46 c2 3c
       0.0048854705 -0.009027846 0.023094827 0.023715448
0001d0 c5 fc c5 bb 6b 35 35 3c 18 71 82 3c a3 a6 cf bb
       -0.0060420954 0.011060099 0.015923068 -0.0063370033
0001e0 f4 80 cd bb 2d 15 6c 3c 45 fa 21 ba 3b 10 ee bb
       -0.006271476 0.014409346 -0.00061789557 -0.0072651184
0001f0 46 fc 64 3c da 21 67 bb 8e 3e 5b 3c 93 29 97 3c
       0.013976162 -0.003526798 0.013381613 0.018452441
000200 46 91 20 bc 42 c8 a7 3b c3 1c bf 3b bf 96 1a bb
       -0.009800261 0.005120308 0.005832286 -0.0023588387
000210 aa 69 37 bc e9 8e 5e 3b 6f 4b 9d bc 01 eb 86 bb
       -0.011194626 0.0033959693 -0.019201009 -0.00411737
000220 70 bb 0a 3c d8 43 52 bb 67 88 e1 bb 5f 0f 0e bc
       0.00846754 -0.0032083895 -0.0068827155 -0.008670657
000230 3e 49 56 3b 57 5f 89 3c b4 5b 0e 3c 76 29 07 bc
       0.0032697464 0.016769094 0.008688856 -0.008249631
000240 32 91 9e 3a 5a aa ca 3b 34 56 a9 3c 92 73 f7 3b
       0.0012097715 0.0061848583 0.020670988 0.007551619
000250 c2 33 88 bc 8e 3b 91 bb 2e 0b 0f 3a 1d 99 08 3c
       -0.016626243 -0.0044321483 0.0005456683 0.008337286
000260 90 23 ef 3b 13 88 2c 3c 0d e7 c4 bb 08 d1 61 bc
       0.0072979406 0.0105304895 -0.0060089887 -0.013782747
000270 a4 b8 ef 3b 66 8a c6 3b 2e 65 2b 3c 83 8c 41 3b
       0.007315712 0.006058979 0.010461135 0.0029533214
000280 1a 6d 47 3c 7a eb 76 ba 15 6a da 3a e0 4b 56 3c
       0.012172008 -0.0009419244 0.0016663695 0.013079613
000290 8c f8 a5 3c 4a 57 84 bb 66 f9 90 3c 86 95 c9 ba
       0.020260118 -0.004038726 0.017697047 -0.0015379644
0002a0 ad 73 21 3c 11 02 89 3b a5 e6 8e 3c 66 c4 31 bc
       0.009854239 0.0041811545 0.017443964 -0.010850048
0002b0 19 c6 1d bc 6d 65 2f 3c e5 d4 59 bc 2b 89 09 bc
       -0.00962975 0.010705334 -0.013295387 -0.00839452
0002c0 14 b0 e6 b9 a9 81 cc 3b c6 38 cd bc 1c d8 68 bc
       -0.00044000207 0.0062410426 -0.025051486 -0.014211681
0002d0 17 cf a8 3c 86 7f 94 b9 25 a8 8f 3c 43 70 67 3c
       0.02060656 -0.00028323772 0.017536232 0.014125886
0002e0 e7 12 c8 bb 1f 45 c8 3b a7 16 83 ba 07 08 4b bc
       -0.006105769 0.0061117555 -0.0010001258 -0.012392051
0002f0 0a 99 b2 3b 3e 62 89 bc e1 3e a6 ba 31 93 29 ba
       0.0054503726 -0.016770478 -0.0012683534 -0.00064687716
000300 e6 bd ee 3b 09 83 2b bc 40 bc 3c 3c 88 c9 a4 3c
       0.0072858213 -0.010468253 0.011519492 0.020115629
000310 c4 4d 97 bc f4 18 53 bb 2d 55 94 3c f1 25 2f 3c
       -0.018469699 -0.0032210918 0.018107021 0.010690198
000320 a7 d1 95 bc 47 b4 da bb 21 a8 c4 ba 71 c5 ac 3b
       -0.018288447 -0.0066743228 -0.001500372 0.0052725603
000330 b7 80 2c bb ed 4a c6 3b 8d 38 1f bb 1f 0c b1 39
       -0.0026321837 0.0060514123 -0.0024295182 0.00033769102
000340 2d 26 a5 3c f4 58 ac bc b7 db 8b bc 54 89 3a 3c
       0.020159805 -0.02103851 -0.017072542 0.011385281
000350 95 68 89 bc 24 87 cc 3b 95 24 89 bc a2 8a 3e bc
       -0.016773501 0.006241696 -0.016741076 -0.011629732
000360 0d 72 97 ba 24 5c 30 3c 9e 82 80 ba fc 8b e7 b9
       -0.0011554376 0.010764156 -0.0009804552 -0.0004416405
000370 69 87 30 3c c1 14 41 3b 8e 74 73 bc dd 50 93 3c
       0.010774472 0.0029461833 -0.014859332 0.017982895
000380 5d a4 81 bc e8 ed 95 3c ca 5d 6b bc f7 54 e4 3b
       -0.015825445 0.01830192 -0.014365623 0.0069681364
000390 e5 69 90 3b 9e 46 9a 3c 2b 71 8f 3c c5 15 0e bb
       0.004407155 0.018832501 0.017510017 -0.0021680456
0003a0 e4 51 b2 bb b9 31 aa bc 55 c9 14 3c 7b cf 87 3b
       -0.005441891 -0.020775663 0.009081204 0.0041446066
0003b0 ef c7 14 bc 13 ca b9 3c ac 54 a9 ba d6 ce 49 3c
       -0.009080871 0.022679364 -0.0012918911 0.01231738
0003c0 70 49 80 3b e5 6e 9f 3b f7 4d 32 bc 2b 89 21 3c
       0.0039150044 0.0048655146 -0.010882846 0.009859364
0003d0 a1 a7 8d 3b 7d 7d f4 3c af 8a 37 bc 98 bc 14 3c
       0.0043229614 0.029844994 -0.011202498 0.009078167
0003e0 09 62 01 3c 11 70 88 b8 1f 5f 1b bb df 6f 88 3c
       0.007896909 -6.505859e-05 -0.002370782 0.016654907
0003f0 dd 7d b2 3c ae c5 96 3b f5 06 1f bb 70 63 35 3d
       0.021788532 0.004601202 -0.0024265621 0.044284284

network_body._body_endoder.seq_layers.0.bias f4 [256]
000000 ee 51 00 3b 89 97 4c 3b 74 d0 2a b8 51 23 15 3b
       0.0019580084 0.0031218252 -4.0725296e-05 0.0022756646
000010 71 4f 92 3b 6b 2a 24 ba 31 ca 57 3b 79 cf 8f 3b
       0.0044650366 -0.0006262424 0.0032926912 0.0043887463
000020 80 17 be 3b 60 54 98 3b 73 a8 10 ba 0e 2b 29 bb
       0.0058011413 0.00464873 -0.0005518265 -0.0025813016
000030 80 a0 37 3b 09 2b 8e 3b 53 6f 46 3b 37 f1 3a 3b
       0.002801925 0.0043386263 0.0030278757 0.0028525123
000040 d0 fd 4d 3b 3e 03 2c bb be 61 62 3b fd 2f dc ba
       0.0031431802 -0.002624705 0.0034543122 -0.001679897
000050 be e3 90 3b f3 b5 4b 3b 11 04 73 bb 3f 36 66 3b
       0.0044216802 0.0031083792 -0.0037081281 0.0035127548
000060 9b 25 74 3b 8a 72 86 3b 8e 61 72 3b e9 9b 44 bb
       0.003725386 0.0041030096 0.0036984417 -0.0030000156
000070 01 ab 8b bb fb d8 0b 3b 61 2d 8c 3b ae b6 9e bb
       -0.0042623286 0.0021339047 0.0042778705 -0.0048435545
000080 0d 61 45 3b 91 cb b5 3a dc f1 7c 3b 18 12 ac 3b
       0.0030117661 0.0013869872 0.0038596308 0.0052511804
000090 7d 15 f2 ba ec 60 3a bb 79 ba 03 bb 84 ac a0 3b
       -0.0018469539 -0.0028439118 -0.002010016 0.004903378
0000a0 ba 86 3a 3b 5d 36 9f bb 29 b9 89 3b 46 b6 b5 3b
       0.002846165 -0.0048587755 0.004202981 0.0055454103
0000b0 37 71 8e bb cd ec 53 bb 74 72 4b bb 59 b2 09 b9
       -0.0043469924 -0.003233719 -0.0031043561 -0.00013131778
0000c0 28 7f 0d 3b 61 e0 41 3b 51 9d 38 3b 5d 12 2c 3b
       0.0021590684 0.0029583203 0.002816994 0.0026256063
0000d0 33 bc 85 bb 5a a7 33 3b 38 87 51 bb 16 68 58 3b
       -0.004081273 0.0027412982 -0.0031971466 0.0033021024
0000e0 c9 68 f6 39 0f f1 81 bb 2d d2 bd ba 68 fb 6d 3b
       0.00046998847 -0.003965504 -0.0014482193 0.003631318
0000f0 e6 d0 76 bb fc 34 a1 3b ae d0 75 ba bd dd a3 3b
       -0.0037661134 0.0049196463 -0.0009377104 0.0050007985
000100 52 7b 66 3b 20 57 8d 3b e8 dc 9a 3b a7 24 92 3b
       0.003516872 0.0043133646 0.004726041 0.0044599357
000110 67 0c 5c 3b 39 e1 18 3b d1 ad cf 39 99 31 f1 3a
       0.0033576728 0.0023327603 0.0003961162 0.0018401622
000120 b1 b6 92 3b b9 b7 88 3b 62 74 fc b9 5a 3e e2 3b
       0.004477345 0.004172292 -0.00048151897 0.0069044055
000130 6a 66 5e bb 22 8f 91 3b d6 d2 7c 3b bb 35 43 3b
       -0.0033935555 0.0044421116 0.0038577816 0.0029786665
000140 fd d0 83 3b 17 cc a5 3b 73 44 7d 3b b5 8c f3 3a
       0.004022716 0.00505973 0.0038645535 0.0018581363
000150 b8 4e 81 3b 06 6e 79 3b 5c f6 a1 3b b5 f2 60 3b
       0.0039461516 0.0038059964 0.0049426984 0.0034324352
000160 70 25 9a 3b a6 a2 7a 3b 0b 62 75 3b b7 44 af ba
       0.00470417 0.0038243919 0.0037442471 -0.0013371919
000170 61 9c 2a 3b 49 34 8b 3b 60 f9 4e 3b ae 25 7e ba
       0.002603315 0.0042481762 0.0031581745 -0.0009694946
000180 5f 12 62 3b 22 44 9a ba e9 93 07 3b 43 69 94 3b
       0.0034495813 -0.0011769573 0.0020687527 0.0045291497
000190 a8 99 ac 3b 84 c7 0d ba c8 f9 1a bb ae 68 71 bb
       0.0052673407 -0.0005408453 -0.0023647416 -0.0036836076
0001a0 b1 2d 63 bb 75 6e cf bb b6 e2 60 bb 49 f7 b7 ba
       -0.0034664685 -0.006330306 -0.0034314818 -0.0014035489
0001b0 34 86 1d 3b 22 4e 04 bb eb 36 3d bb d5 47 2b 3b
       0.002403629 -0.0020188172 -0.0028871845 0.0026135345
0001c0 05 6e 3c b8 79 59 b1 bb bf eb 92 3b b8 9f 15 bb
       -4.4925157e-05 -0.0054122773 0.0044836695 -0.0022830795
0001d0 91 bd 57 3b 9b 55 9f 3b d7 e8 3a 3b 7f 35 99 bb
       0.0032919387 0.0048625 0.002852013 -0.0046755667
0001e0 6d c9 5a 3b eb 81 78 bb 24 09 8d 3b a1 ac a5 bb
       0.003338422 -0.0037919234 0.004304068 -0.0050559794
0001f0 85 a1 82 3b d6 f3 6e 3b 5f ef 84 3b d8 58 d1 ba
       0.00398654 0.0036461256 0.0040568556 -0.0015971912
000200 95 6a cf 3a 59 24 a2 3a 83 27 d3 3a de b1 9a bb
       0.0015824611 0.0012370452 0.0016109798 -0.0047209105
000210 ff e3 b8 bb 6e 91 aa 3b 40 5d 22 bb 34 b8 72 3b
       -0.0056424136 0.005205325 -0.002477482 0.0037036063
000220 ad d3 7e bb 11 e2 85 bb ac d0 03 3b d9 9f c8 bb
       -0.0038883493 -0.004085787 0.0020113392 -0.006122571
000230 9a 47 7c bb e7 d8 6f bb 40 99 3d bb 3e 4e a6 3b
       -0.0038494826 -0.003659779 -0.0028930455 0.005075245
000240 cf 56 8d 3b 79 2a 85 3b 31 83 6d bb c8 73 90 3b
       0.004313327 0.004063901 -0.0036241526 0.0044083335
000250 d1 48 3b 3b 45 e0 82 bb 93 7d 8d bb e4 fb 90 bb
       0.0028577338 -0.00399402 -0.004317948 -0.004424559
000260 62 25 ac b9 8f 50 51 3b f1 93 51 3b 79 c6 87 3b
       -0.0003283425 0.0031938886 0.003197905 0.004143533
000270 bf a0 d7 3a c5 20 8f 3b 6d cc 8a 3b c5 41 4f 3b
       0.0016451104 0.00436792 0.0042357952 0.0031624895
000280 d4 ee cc b9 6d b1 bf ba 05 62 91 3b 2c 86 37 3b
       -0.00039087853 -0.001462502 0.0044367337 0.0028003557
000290 89 05 43 3b f9 60 8b bb f9 8c 67 bb cb d5 4a bb
       0.0029757938 -0.0042535034 -0.003533183 -0.0030950184
0002a0 ad a8 2f bb 8a b3 3e bb 05 58 a8 ba 92 59 3f 3b
       -0.002680342 -0.0029098713 -0.0012843615 0.0029197675
0002b0 0f ca 3d 3b d4 8c 86 3b 69 3e 02 3b 87 7e 61 3b
       0.0028959548 0.0041061435 0.0019873625 0.0034407692
0002c0 ba cc 9a ba d6 7f 9c 3b 51 6c 32 37 1e 75 42 3b
       -0.0011810281 0.0047759814 1.0634846e-05 0.0029671858
0002d0 03 25 03 bb a5 84 a6 bb 5e 4e 2b 3b 00 66 80 bb
       -0.0020011074 -0.0050817304 0.002613924 -0.0039184093
0002e0 2c 21 39 bb 96 35 62 3b 61 4e 0f ba 09 fa e3 ba
       -0.0028248532 0.0034516803 -0.00054666965 -0.0017393242
0002f0 28 fa 35 bb f2 7e d2 3b 1b d5 19 bb 2d 67 54 3b
       -0.0027767513 0.0064238245 -0.0023472968 0.003241013
000300 a1 e7 47 bb 5f ff c1 ba 61 35 aa b9 74 3e dc 39
       -0.0030503052 -0.0014800838 -0.00032464697 0.000420082
000310 fc cb 8f bb 16 e1 6d 3b 03 07 8a ba cc fc 8c 3b
       -0.0043883305 0.0036297492 -0.0010530654 0.0043025967
000320 af 71 59 bb 88 6d 8b 3b cb 57 ed bb 83 46 39 3a
       -0.0033179333 0.0042550005 -0.0072431318 0.0007067697
000330 b9 dd a5 3b 0f 3b 46 bb 68 a3 40 3b 03 ad 58 3b
       0.005061832 -0.0030247604 0.0029394273 0.0033062107
000340 97 14 bc 39 ad 65 4c bb e3 d6 79 3b 2c c2 ae b7
       0.00035873495 -0.0031188533 0.0038122467 -2.0832835e-05
000350 0d c8 77 3b f8 ca aa ba e3 77 6a 3b 80 9f af 3a
       0.0037808449 -0.001303046 0.0035777024 0.0013398975
000360 60 1a c2 bb 99 02 1a 3b 18 c5 8d bb 8e e9 e5 bb
       -0.0059235543 0.0023500083 -0.004326474 -0.0070163673
000370 82 df e6 3a a9 05 80 3b 70 4d 77 3b ab cc d4 ba
       0.0017614218 0.0039069247 0.0037735365 -0.0016235312
000380 a5 a1 cb ba 7c 45 24 3b 8d 6b 95 3b 9f 13 2e 3b
       -0.0015535845 0.002506583 0.00455994 0.0026561988
000390 bc ef a2 3b 83 34 a5 39 76 18 7e 3b 13 44 42 3a
       0.004972426 0.00031510377 0.0038771904 0.00074106565
0003a0 98 62 d7 3a 4a ff a1 3b fd 7f 95 bb 2b d6 b5 bb
       0.0016432581 0.004943763 -0.0045623765 -0.0055492125
0003b0 48 8d 84 3b c8 3a 92 3a 3d f1 84 3b d2 76 d8 bb
       0.0040451623 0.0011156434 0.004057078 -0.0066059614
0003c0 97 0a 89 ba d2 d1 ab 3b 82 74 8b bb 5e a6 60 bb
       -0.0010455427 0.0052435184 -0.004255832 -0.003427885
0003d0 dc 98 62 3b 4e 58 6f 3b af e3 f1 ba 79 87 7e b9
       0.0034575975 0.003652114 -0.0018454696 -0.00024273795
0003e0 53 df 76 3b bb b5 ff 3a ea d4 16 3b 44 b1 2e 3b
       0.0037669733 0.0019509116 0.002301509 0.0026655952
0003f0 cb 42 78 3a 91 a8 30 bb f4 bb 9f 3b bd 5b 4c bb
       0.0009470402 -0.0026955942 0.0048747007 -0.003118261

network_body._body_endoder.seq_layers.0.weight f4 [256, 84]
000000 b1 19 82 3c f7 cd e3 bc 47 a1 2f be 5e 75 99 bc
       0.015881391 -0.027808173 -0.17151366 -0.018732723
000010 5c 4f 9f bc f2 15 19 3e 71 51 96 3d 85 63 b4 bd
       -0.019447021 0.14949778 0.073397525 -0.08808044
000020 58 9d 9f bd 37 43 d7 3d 21 06 12 bc 2d a1 cc bd
       -0.07793683 0.10510867 -0.008912594 -0.09991679
000030 4f 93 de bd 6b 1f d4 bd d3 9f 3c bd ec 31 9d 3e
       -0.10867941 -0.10357555 -0.046050858 0.3070215
000040 41 8c eb bb 18 41 d5 bc 83 10 89 3c 54 2e b7 3c
       -0.0071883504 -0.026032016 0.016731506 0.022360958
000050 96 e1 99 3d 4c 7e 35 3d 24 8e 2a be 70 ab 09 bd
       0.0751373 0.0443099 -0.16655785 -0.03361076
000060 aa 75 c8 bd e2 24 65 3d c3 49 7b 3d 83 82 5d 3d
       -0.09788068 0.055943377 0.06134964 0.054079544
000070 ee 10 83 3d 25 92 5d bd 55 3c d2 bd 6c 8f 31 be
       0.063997135 -0.054094452 -0.10265414 -0.17339867
000080 c2 5b c1 3c cc b1 19 3e f4 14 d8 3d 6d 7b ac 3d
       0.023603324 0.1500923 0.105508715 0.08421979
000090 ed 56 ae 3d 40 7f c8 bd 08 54 bc bc 40 36 60 3d
       0.085126735 -0.09789896 -0.022989288 0.054739237
0000a0 25 2e 60 3c 6f 18 8c 3d 49 df 50 bd 96 b9 90 3b
       0.013682877 0.06840598 -0.05099419 0.004416655
0000b0 d8 c8 22 3e 6c bf 4c 3d da 6b 7b 3d ca 64 96 bd
       0.15896928 0.04998724 0.061382152 -0.07343443
0000c0 30 c8 8c 3c a4 34 13 3e e3 dc df 3d 05 e8 e1 bd
       0.0171853 0.1437555 0.10930803 -0.11030582
0000d0 87 a9 21 3e 34 66 a5 3d 14 ab 33 3e 67 a8 77 be
       0.15787326 0.08076134 0.1754573 -0.24185334
0000e0 56 59 d1 3b c5 a2 d1 bd 67 d5 36 bd 07 9b da 3d
       0.0063888235 -0.10236124 -0.04463711 0.106741
0000f0 3a a3 1e bd 10 f1 1e bb 93 d7 8e bd 54 be 13 bd
       -0.038729884 -0.0024252571 -0.06974711 -0.036070183
000100 66 7a 11 be 88 47 d8 3c cd 3d 44 be 48 2c 84 3d
       -0.14206848 0.026401296 -0.191642 0.064537585
000110 5c cb cf 3d f8 17 87 bd 03 c8 d1 bd df 22 bf 3d
       0.101462096 -0.065963686 -0.10243227 0.09332823
000120 be 9c 85 3d ba 50 20 bc 14 7d d8 3d 92 d4 9d bd
       0.06524037 -0.009784872 0.10570732 -0.0770656
000130 87 a5 08 3e 51 5d ca bc af 6c ff bd 4d 6e 29 3d
       0.13344394 -0.0247027 -0.124719016 0.041364957
000140 3b d1 9f bd 0a 5d 90 bd 1e d8 43 bb fd f1 a0 bd
       -0.078035794 -0.07048996 -0.0029883455 -0.078586556
000150 eb 1e c3 3d df 13 81 3d 48 e2 78 be 07 cc 0c be
       0.095273815 0.06302618 -0.2430507 -0.13749705
000160 63 62 a0 bd cf e0 3f bd 6c f0 53 bd 0d 21 85 bc
       -0.07831266 -0.046845254 -0.051742956 -0.016251111
000170 21 28 be 3d e7 4d 28 3e d0 4a 50 bd 46 dc e4 3d
       0.09284998 0.16435967 -0.050852597 0.11174826
000180 e7 b9 74 bd 86 80 87 3b 79 5c a8 3d 3b 52 4b bd
       -0.059747603 0.0041351942 0.08220763 -0.049638968
000190 df ce ae 3d b0 9e 97 bc 01 79 e2 bd 2c fc 42 3c
       0.08535551 -0.018508285 -0.11058236 0.011900943
0001a0 64 cb 0c 3d ac 17 30 be d2 56 2b bc 38 0f d4 3d
       0.034373656 -0.1719653 -0.010457711 0.10354465
0001b0 10 4d f0 3c af 6f 05 be 4b 2a a6 bc ca 72 45 3d
       0.029333621 -0.13030885 -0.020283839 0.048205175
0001c0 03 b5 81 3d 8b 6b 1a 3e 08 1d 15 3e fe c3 48 3e
       0.06333353 0.15080087 0.14561856 0.19606015
0001d0 6f f2 5b 3d d1 ef 19 be a5 b9 64 bd 08 22 7b 3d
       0.053698 -0.15032889 -0.055841107 0.06131175
0001e0 81 df 91 bc 70 33 84 3d cd 6f 3c 3e de 72 4e be
       -0.01780677 0.064551234 0.18402024 -0.20161006
0001f0 ca ba bc 3d 9e c8 06 bd 6e 99 ab bd 18 4b 79 bd
       0.09215315 -0.032906167 -0.08378874 -0.06086263
000200 c0 21 b8 bd ea d3 ce 3d 02 dc ac 3b b6 73 95 bb
       -0.08990812 0.10099013 0.0052752504 -0.004560913
000210 7e c7 98 3d 78 0c 05 be 19 11 21 3d d6 e9 8f 3e
       0.07459925 -0.12993038 0.039322946 0.2810809
000220 f8 37 31 be 29 22 00 3c 73 4c bb bd f3 f0 7b bd
       -0.17306507 0.007820644 -0.09145441 -0.061509084
000230 58 89 10 3e 8f a2 27 3d cc 3c 6e 3e 08 08 aa ba
       0.14114892 0.040926512 0.2326538 -0.0012972364
000240 06 8d 32 be 92 cc a4 3d 8e 44 73 bd ce 17 ee bd
       -0.17436609 0.08046831 -0.05939155 -0.11625634
000250 b5 49 0b be 6e 1a f0 bc 9e 1c a2 3e 58 3a c8 bd
       -0.13602336 -0.029309478 0.31662458 -0.09776753
000260 1b 43 83 3e 58 4c 1a 3b eb d6 7a 3d 97 68 15 be
       0.25637135 0.002354404 0.061240118 -0.14590679
000270 5b b0 02 3e 93 07 22 be a5 d5 68 3e a7 5a db bd
       0.12762587 -0.15823202 0.22737749 -0.1071065
000280 59 5c 46 be ad 34 0c be c1 ac 28 3e 6c 65 a9 3d
       -0.19371165 -0.13691969 0.1647215 0.08271298
000290 f4 86 1b bd 71 c7 1d bd 29 ae 4b 3e 8f b8 2a bd
       -0.0379705 -0.03852028 0.19890656 -0.041679915
0002a0 9e 57 30 3d 91 0e 4d bd d6 8e ef 3c db e5 7d 3e
       0.04305231 -0.05006272 0.029242914 0.24794714
0002b0 39 e3 06 bd 31 02 54 3e e3 2c e1 3d 30 25 7c bd
       -0.03293154 0.20703961 0.109948896 -0.061558902
0002c0 90 cd 2f bd 41 a9 1f be b8 4f 52 bd ba 2f ea 3c
       -0.04292065 -0.15591909 -0.051345557 0.02858721
0002d0 8e 8d 05 3d 14 3a f3 bd 3b d0 84 bb 40 ed 80 bd
       0.0326057 -0.11876312 -0.0040531433 -0.06295252
0002e0 45 ec d6 3d c1 b1 12 3d dc fe f3 bd 77 de 08 be
       0.104942836 0.03581405 -0.11913845 -0.13366114
0002f0 a9 ed ba 3c 69 bd 0d be 9d 48 0c bd 7e 47 4c 3d
       0.022818403 -0.13841785 -0.034248937 0.049872868
000300 65 12 33 bd 9c c0 8c 3d 95 86 63 3d 24 2b b4 bd
       -0.043718714 0.06872675 0.05554827 -0.08797291
000310 98 19 ff bd 8a 06 8b be 5d 3c 21 be 2a 78 1d 3b
       -0.124560535 -0.27153426 -0.15745683 0.0024027922
000320 00 d3 cc bd d6 8e 70 be e3 e6 27 be 9e 70 fe 3c
       -0.100011826 -0.23491988 -0.1639667 0.03105956
000330 df 22 71 3d c4 96 1a be ab 30 87 bd 94 a5 8d bd
       0.058871146 -0.15096575 -0.066010796 -0.06916347
000340 e8 37 92 3d a1 b4 15 3e 3b 11 6b 3c 7c 43 cf bd
       0.071395695 0.14619686 0.01434737 -0.101202935
000350 a3 48 1f 3e fc a8 3c 3d 5c 53 b5 bc a6 c4 ef 3d
       0.15555052 0.046059594 -0.022134475 0.117074296
000360 af ae 54 bd 65 06 eb 3d 81 98 b2 3c 63 69 d1 3d
       -0.051924404 0.11475829 0.021801235 0.10225179
000370 4d 11 05 bd a8 e5 ed 3d ef cc 54 bd d9 66 e7 bd
       -0.032487202 0.11616069 -0.051953252 -0.112989135
000380 57 fe 45 bd f3 c4 71 3e 5b 5c 64 be d0 65 e2 bd
       -0.04833826 0.23610286 -0.22300856 -0.110545754
000390 a5 fa 74 3d 3c ed ba 3b 7f 3a 51 3d 7b 7a 4d 3d
       0.059809346 0.00570455 0.051081177 0.050165635
0003a0 e3 97 dc 3d 4d 57 05 3e cf 9e bd bd a9 6a 06 3c
       0.107711576 0.13021584 -0.09258806 0.008204141
0003b0 96 22 68 be 13 00 15 be 48 2d 8f 3d 0a ff 42 3c
       -0.22669443 -0.1455081 0.069910586 0.011901626
0003c0 e4 c2 38 3e 84 67 18 bc 08 52 cb 3c 30 0c f9 3c
       0.18043095 -0.009302024 0.024819389 0.03040132
0003d0 73 17 d5 bc 22 90 07 3e fd bd 7a 3e d2 97 ca 3d
       -0.026012158 0.13238576 0.24486537 0.09892239
0003e0 4a b2 5b bd 6c 53 c9 bd 04 20 65 be bc e5 dd 3a
       -0.053636827 -0.098303646 -0.22375494 0.0016929428
0003f0 05 87 63 3e 6e 51 f1 bc 4f d2 61 3d 84 c0 16 3e
       0.22219475 -0.029457774 0.055132207 0.14721876

network_body._body_endoder.seq_layers.2.bias f4 [256]
000000 5e c3 ba 39 88 aa 2b 3b eb 1b 66 bb b4 70 22 bb
       0.00035622244 0.0026194174 -0.0035111855 -0.0024786415
000010 36 d7 34 3b 64 22 92 3b 6f b6 b8 3b 84 68 98 3b
       0.0027594096 0.004459666 0.005636982 0.004651131
000020 bd 66 4c 3b 81 3d 8c bb 78 32 b3 3b bb bb 54 bb
       0.0031189166 -0.004279793 0.005468663 -0.003246053
000030 02 f8 36 3b a8 57 0b 3b 19 4b fd 3a b0 55 7a 3b
       0.002791882 0.0021261964 0.0019324749 0.0038198046
000040 cc e7 f5 3a c1 e3 65 3b 71 fe 1d 3b 31 f6 c5 bb
       0.0018761097 0.003507838 0.0024107958 -0.006041311
000050 eb 15 54 bb 1a 2a 38 ba 00 44 ee 3a 8e 56 96 bb
       -0.0032361697 -0.00070253166 0.0018178225 -0.004587955
000060 7d 18 22 b9 50 1c 48 3b 96 d7 4a 3b 72 90 8c 3b
       -0.00015458647 0.0030534454 0.0030951253 0.00428968
000070 94 69 73 3b b5 e8 8a 3b 17 c7 0a bb 4f a3 1a bb
       0.0037141787 0.0042391666 -0.0021175796 -0.0023595875
000080 c1 dc ad 38 c4 7a 2b bb b7 a6 e6 b8 03 13 a7 bb
       8.2904015e-05 -0.0026165703 -0.00010998308 -0.005098702
000090 eb b5 b3 3b c0 0c dd 3a df c3 16 3b 5c cb 80 3b
       0.005484333 0.0016864762 0.0023004932 0.0039304923
0000a0 c9 2e 7e bb c7 a6 50 3b 11 75 7e 3b 31 83 37 3b
       -0.003878521 0.0031837688 0.0038827101 0.002800178
0000b0 9a 98 85 3b 3b 69 aa bb c8 83 60 bb 39 2e 59 ba
       0.0040770294 -0.0052005327 -0.0034258235 -0.0008284781
0000c0 24 2b e2 3a d1 0b 67 3b 88 87 71 3b 67 1d 1e 39
       0.0017255289 0.0035254846 0.0036854465 0.00015079007
0000d0 d6 31 a5 ba 5f 7b 91 bb c5 76 77 bb fc eb c4 ba
       -0.0012603353 -0.004439756 -0.003776 -0.0015023942
0000e0 0c 94 61 bb dd 63 95 3b d9 11 48 bb d7 01 2c 3a
       -0.0034420518 0.004559024 -0.0030528216 0.00065615535
0000f0 03 0d a1 b9 89 36 0d 3b b3 26 15 bb f5 7c 79 bb
       -0.00030718007 0.0021547398 -0.0022758662 -0.0038068865
000100 1c cd 31 3b 79 6c f1 3a ce 72 7c 3b f9 ac 87 3b
       0.0027130311 0.0018419168 0.0038520577 0.004140493
000110 ff 98 97 bb 1f 32 5b bb 1c d2 0e bb 25 16 ed ba
       -0.004626393 -0.0033446623 -0.0021792715 -0.0018088265
000120 ea 88 04 bb b0 e3 fc 3b f9 10 94 3b f2 61 a8 3a
       -0.0020223209 0.007717572 0.004518625 0.0012846573
000130 de 6b 9f bb 1e a3 89 3b c9 1f 06 bb 82 c1 85 3b
       -0.0048651537 0.0042003533 -0.0020465723 0.004081906
000140 76 6f e2 bb f4 28 29 bb ea 4f 94 bb 52 8c 20 bb
       -0.00691026 -0.0025811763 -0.004526128 -0.00244977
000150 08 c5 a7 3b 51 ea 75 bb 9e 74 aa 3b c6 4c c6 ba
       0.0051199235 -0.0037523697 0.00520189 -0.0015129081
000160 9b c9 8e 3b 57 fd 89 3b 13 bc 54 3b 47 f6 34 3a
       0.0043575293 0.0042111087 0.0032460734 0.0006903153
000170 7b fd 69 bb 81 f1 09 3b 96 f4 86 bb 3e 31 0a 3b
       -0.0035704065 0.0021048489 -0.0041185124 0.002108648
000180 e3 dc 3f 3b 02 ae a2 3b 29 74 2d 3a 96 73 77 3b
       0.0029275946 0.004964591 0.00066167355 0.0037758104
000190 7f eb 2f 3b 16 fd 89 3b d6 36 55 3b ab 19 6a bb
       0.0026843247 0.0042110784 0.0032533905 -0.0035720866
0001a0 2a 9f 93 b9 45 7f 7a bb bb 82 52 bb 18 9e 8e 3b
       -0.0002815661 -0.0038222831 -0.0032121378 0.0043523423
0001b0 4b bd 8f bb 0b e0 82 3b 32 cb 8a 3b 0b 99 73 b9
       -0.004386579 0.003993993 0.0042356486 -0.00023231299
0001c0 1b 73 8f bb 5f d2 a1 3a 07 b1 9e bb 9e eb 90 bb
       -0.0043777353 0.0012346021 -0.0048428806 -0.004422619
0001d0 c0 2b a0 3b 19 7d a9 3b 49 22 b5 3b d9 a2 04 3b
       0.004888028 0.0051723835 0.0055277687 0.0020238666
0001e0 a0 eb 6c 3b 36 12 8d 3b cd cb a6 bb 98 c1 1f 3b
       0.0036151186 0.0043051494 -0.005090213 0.0024376865
0001f0 1b a9 25 3b 94 76 79 3b 7d 17 7d 3b 25 57 6c ba
       0.0025277797 0.0038065063 0.0038618736 -0.0009015671
000200 14 93 4d 3b 02 fb dc bb 99 0a 4f 3b 16 1e 69 3b
       0.0031368183 -0.0067437897 0.003159201 0.003557091
000210 53 ae 44 3b ac 1b 77 3b 46 f6 46 bb 07 91 56 bb
       0.0030011132 0.0037705703 -0.0030359193 -0.0032740252
000220 5b 81 3b 3b 4d c3 f7 3a b3 e9 c5 39 6e 0d 3f 3b
       0.0028611037 0.0018902809 0.00037748888 0.0029152292
000230 5f a9 8e 3b f5 1b d0 bb 09 5a 89 3b ac f6 9c 3b
       0.0043536867 -0.006350989 0.004191641 0.0047901478
000240 50 e2 82 bb 8e 90 84 3b 39 e9 26 ba 71 cc 9a 3b
       -0.0039942637 0.0040455526 -0.00063671503 0.0047240783
000250 ca 42 85 3b 90 bf dc ba 66 14 78 3b a3 e9 96 3b
       0.0040668 -0.0016841758 0.0037853955 0.0046054884
000260 f2 55 46 bb 6c 97 82 bb b9 af 69 3b ba 91 29 bb
       -0.003026363 -0.003985336 0.0035657717 -0.0025874213
000270 3c 85 7e 3b 2b 76 42 bb ee a2 98 3b 09 55 90 bb
       0.0038836738 -0.0029672484 0.0046580946 -0.004404668
000280 58 ed 80 3b 9b 55 e3 ba 4e e7 a6 bb 03 e5 63 3b
       0.0039345436 -0.0017344238 -0.0050934916 0.0034773953
000290 c1 87 df 3b fd de af 3a cc 11 85 3b 04 d9 d4 bb
       0.006821603 0.0013417896 0.0040609594 -0.006495597
0002a0 66 73 a1 3a df 2d 69 bb eb c6 c2 39 47 b3 67 3b
       0.0012317717 -0.003558032 0.0003715077 0.003535466
0002b0 6f 86 84 3b 63 ce 1e 3a 90 fe bd bb 54 60 88 3b
       0.004044346 0.00060579757 -0.0057981685 0.004161874
0002c0 b2 0c a0 bb 9c d3 d5 ba 6b 0e 12 3b c1 07 d0 bb
       -0.004884326 -0.0016313675 0.0022286426 -0.0063485806
0002d0 25 1e 14 3b 8c 76 7e 3b 46 53 d7 3b 9d f0 8b 3b
       0.0022600975 0.0038827984 0.0065712063 0.0042706267
0002e0 9b 3d 5b 3b db 89 57 3b 69 05 2d bb 92 b4 83 bb
       0.0033453468 0.0032888565 -0.002640093 -0.0040193284
0002f0 99 f9 fd b9 b1 ad c0 ba b8 8c 55 3b 22 38 1e bb
       -0.00048441885 -0.0014700202 0.0032585096 -0.0024142344
000300 4c b0 85 ba b1 ac 96 bb fc 8a 20 bb 10 29 76 3a
       -0.0010199635 -0.004598223 -0.0024496904 0.0009390274
000310 41 34 cc 39 54 54 5f 3b 1c 56 3a bb 32 ff 82 3b
       0.00038948844 0.0034077363 -0.0028432673 0.003997707
000320 d6 bf 10 3b c4 f7 4c bb df fa 8f bb e1 4a 90 ba
       0.0022087 -0.003127561 -0.00439392 -0.0011008644
000330 c5 26 5a 3b b3 8e 54 bb ee c1 3e ba 85 5d 83 3b
       0.0033287269 -0.0032433688 -0.00072768226 0.004008951
000340 2a 09 85 3b 66 36 90 3b ef dd 69 3b 10 c5 2b 3b
       0.0040599303 0.004401016 0.0035685261 0.0026209988
000350 3e 3e 67 3b f1 3c a7 3a 8f ba 45 3b 74 6d 7d 3b
       0.0035284902 0.0012759251 0.0030171012 0.0038669975
000360 e2 f1 24 bb fd 1d 26 3b f9 07 df 3b c3 5b 52 ba
       -0.0025168587 0.0025347464 0.0068063703 -0.0008024538
000370 d3 9e 89 3b 77 b5 bc bb 5f 50 59 3b d9 9d 1a b9
       0.0041998415 -0.005758937 0.0033159477 -0.00014745387
000380 1e 9b 90 bb 02 4a 78 3b ce 86 0a 3a b1 bd 79 3b
       -0.0044130227 0.003788591 0.00052843697 0.003810745
000390 42 14 53 3b 64 f9 fb 39 0f b6 83 3b b8 b2 3e 3b
       0.003220812 0.0004806026 0.004019506 0.0029098224
0003a0 e9 63 5b 3b 8c 16 72 3b f8 81 11 3b 2a f4 36 3b
       0.00334763 0.0036939709 0.0022202712 0.002791653
0003b0 ad f1 76 3b 5c b6 99 3b cd b5 93 3b cb 43 66 bb
       0.003768067 0.0046909284 0.0045077563 -0.0035135623
0003c0 83 6f 6e 3b 99 16 28 bb f9 46 1a bb ad 8f 85 bb
       0.0036382384 -0.0025648235 -0.0023540838 -0.0040759654
0003d0 26 96 71 bb 5c 15 70 3b d5 8c 84 bb 8a 8c 5e 3b
       -0.0036863177 0.0036633825 -0.004045109 0.003395828
0003e0 32 d2 b9 39 02 6c 75 b9 13 bc 18 b9 0b 28 91 3a
       0.00035442557 -0.00023405257 -0.00014565913 0.0011074556
0003f0 04 d3 10 3b 5d b7 5a 3b 78 36 65 3b 99 cd 7b 3b
       0.0022098431 0.0033373453 0.0034975093 0.0038422106

network_body._body_endoder.seq_layers.2.weight f4 [256, 256]
000000 da f8 19 3d 0e 15 42 3d b6 2d 97 bc 13 3d a5 bc
       0.03759084 0.04738336 -0.018454414 -0.020170724
000010 9d 0f f8 bc 74 cd 9e bc 29 d5 91 bd e9 e0 69 bd
       -0.030280882 -0.019385077 -0.07120735 -0.057099257
000020 b2 93 1f bc 32 19 3a 3d 51 de 55 bd 5e 15 98 3c
       -0.009739803 0.045434184 -0.05221397 0.018564876
000030 52 fb 79 3d a2 8d 4f bd 88 9e 6f bd ff 61 a7 3d
       0.061030693 -0.05067218 -0.058500797 0.08172988
000040 08 82 ed 3d ff bb 0f 3c 2d e6 b0 bb d0 1b 21 3e
       0.11597067 0.008772849 -0.005398533 0.15733266
000050 95 6f 7b bd cc 34 0d bd 30 a2 50 3d 47 ca ba 3d
       -0.06138571 -0.03447418 0.050935924 0.091206126
000060 35 b8 f2 bd e4 7b 58 bd 56 c6 fa bd a2 50 8d bb
       -0.11851541 -0.052852526 -0.12244861 -0.0043125907
000070 1e 2e c7 3d 90 3b d4 bc 72 e0 f9 3c fa 00 6f bc
       0.09725593 -0.025907308 0.030502532 -0.014587635
000080 cd 7b 07 bc f5 50 d9 3c 30 22 b8 3c 08 5f 85 bc
       -0.0082692625 0.026527861 0.02247724 -0.016280666
000090 c2 05 26 bd e9 b5 97 bd 3e c8 28 3c 89 2f b9 3c
       -0.040532835 -0.074077435 0.010301648 0.022605674
0000a0 92 3c 78 bc 0c 96 a7 bd ad 47 ba bc 26 17 30 bb
       -0.01515116 -0.08182916 -0.022739256 -0.0026869266
0000b0 d0 19 d9 3c 6a 73 5d bd ec a8 f4 bd b6 ac 7e bc
       0.026501566 -0.054065146 -0.11946282 -0.015544107
0000c0 b3 f0 6b 3d 9c 9b d0 3c b7 a2 4d 3d 51 ff 3f 3c
       0.057602596 0.025464825 0.050204005 0.011718587
0000d0 38 1e cb 3d e6 dd 99 bd 7e a7 48 bd a9 28 79 3c
       0.09917873 -0.07513027 -0.048987858 0.015207448
0000e0 dd 8d 3c 3d 39 bc 1d 3d 7c 94 de bc 3b 63 38 36
       0.04603373 0.03850958 -0.027170412 2.7475896e-06
0000f0 4d 84 a1 bd b4 ba 18 bd df 4e fd bd c9 0c af 3d
       -0.078865625 -0.03728743 -0.12368559 0.085473605
000100 c5 9d b0 bd d7 98 a0 3d 67 3a b3 bd 25 ff a4 3c
       -0.08623842 0.07841652 -0.08751374 0.020141194
000110 0a 88 92 bd bc 70 ee 3c 9a 63 27 bd d4 4d 14 3e
       -0.07154854 0.02910649 -0.04086647 0.14482814
000120 02 5b 90 bd f3 48 8f bd 6d 72 b4 3c 2d 36 cf bc
       -0.07048608 -0.06996336 0.022027219 -0.025294388
000130 1d 87 91 bd 2e 53 a9 3d 8f 44 8c 39 de 6d 02 3e
       -0.07105849 0.082678184 0.0002675396 0.12737224
000140 a3 a1 a1 bc f9 38 4b bd af 21 e7 3d 65 df c8 bd
       -0.019730395 -0.04961488 0.112857215 -0.09808234
000150 8f e1 08 3d 16 05 0d 3c 52 9e 4d bb f0 1f c9 bb
       0.033418234 0.00860717 -0.0031374884 -0.0061378404
000160 05 aa 4e bd d5 89 27 be 04 18 4a 3d 53 96 8f 3d
       -0.050455112 -0.16361172 0.04933931 0.07011094
000170 6c 55 d6 3c e0 d5 0f 3d d7 e5 fe bc 50 1c e8 bd
       0.02616378 0.035116076 -0.031115456 -0.11333525
000180 1f 14 3b bc 61 7a 37 bb d0 bb 3e 3b da 5b 8d 3d
       -0.011418371 -0.0027996527 0.0029103644 0.06902285
000190 8c 5b 68 bb fb 09 bc 3d e0 34 88 bd 9c 93 75 bd
       -0.0035454957 0.09181591 -0.0665071 -0.059955224
0001a0 3d 69 05 3d 3f 54 aa 3d 41 40 01 bd e4 37 41 bb
       0.032571066 0.0831685 -0.031555418 -0.0029482776
0001b0 69 94 a9 3c 93 be 19 bd cf 73 a3 bd 11 83 45 3b
       0.02070065 -0.03753526 -0.07981073 0.0030137936
0001c0 b3 30 20 bc 7e 17 93 bd 16 f6 d8 3c 26 f1 2b bd
       -0.009777236 -0.07182215 0.02648453 -0.041978024
0001d0 85 db 91 3a e3 05 b7 bb df 05 10 3c 16 30 84 3d
       0.0011128044 -0.0055854185 0.008790462 0.06454484
0001e0 be 2c 7c bb 67 8a 1b 3e 95 74 29 3d 15 76 04 bd
       -0.0038478817 0.15189515 0.041370947 -0.032339174
0001f0 8a 18 49 bd 59 91 ad 3d 19 d4 48 bc 06 62 bc 3c
       -0.049095668 0.084749885 -0.012257599 0.02299596
000200 aa 1e 87 bd 13 1b b2 3d e2 fd 8e 3c 31 bc e4 bd
       -0.065976456 0.0869657 0.017455045 -0.11168707
000210 9d 6b 6d bc c6 6c e6 3d 0a b8 c1 bc 9c 69 0e bd
       -0.014490989 0.11251216 -0.023647327 -0.034768686
000220 64 cb 97 3d 47 ef 18 3d 57 4e bb bc 10 6d 06 3d
       0.074118406 0.037337568 -0.022864504 0.032818854
000230 4f 44 46 3d 77 88 06 3e fc 80 02 3e 9b 21 0a bd
       0.048404988 0.13137995 0.12744516 -0.033723455
000240 b1 25 7c 3d f6 8f 4c bd e3 9a 9b bc 78 4a af bb
       0.061559383 -0.04994198 -0.018994754 -0.0053494535
000250 af b4 a8 3c bf 4e 5a bc cf 9c 71 3a 3c 22 05 be
       0.02059397 -0.013324439 0.0009216787 -0.1300134
000260 6d 00 b5 3d bc 65 c3 bd 8f 56 4e 3d 99 3c c1 bd
       0.08837972 -0.09540889 0.050375517 -0.09435386
000270 a2 bd 38 3d b9 24 89 3d c3 93 2c bd a2 af 02 3d
       0.045102723 0.066964574 -0.042133104 0.031905778
000280 01 22 57 bc 0e 0a 1b bd 0f 84 4a 3c 96 dc 5a 3d
       -0.013130666 -0.037851386 0.012360587 0.053433023
000290 7d cd 35 3d fb 48 9c 3c 15 e4 7b 3d 98 3f 52 3b
       0.044385422 0.019077769 0.061496813 0.0032081362
0002a0 f7 38 93 3d b3 19 9a 3c 70 47 7c 3d 85 41 a5 3d
       0.071885996 0.018811082 0.061591566 0.080691375
0002b0 95 24 6a 3d ad 9c 05 bd 87 20 1e 3d 32 05 8d bd
       0.057163794 -0.03262012 0.03860524 -0.068857566
0002c0 1f 49 8c 3c a7 b3 05 3d b8 8b 89 bd 5b cc fd bd
       0.01712471 0.032642033 -0.06716102 -0.12392493
0002d0 2e d6 d4 3d 7b 98 c0 bd 0b 31 7d bd 04 09 b2 3c
       0.10392414 -0.09404083 -0.06181435 0.021732815
0002e0 34 40 22 3d 38 3b 04 be 82 65 ca 3d 71 d5 9d 3c
       0.03961201 -0.12913215 0.09882642 0.019266816
0002f0 b0 d1 96 3c 08 9b b6 3d 89 b3 8b bd c9 37 a6 3c
       0.018410534 0.089162886 -0.06821353 0.020290272
000300 5f b8 1a 3d 3b 73 84 3d f2 0c f2 bc a6 c2 d0 3c
       0.037773486 0.06467291 -0.029547188 0.02548344
000310 91 52 b4 bc d8 e5 72 bd 82 2c fe 3d ef c6 10 bc
       -0.022012027 -0.059301227 0.12410833 -0.008836492
000320 bc 63 49 be f1 16 dd bb 33 c2 56 3d 14 a4 be 3d
       -0.19666952 -0.0067471196 0.052431297 0.09308639
000330 6f 51 a2 3d 95 22 9f bd fb 4f 3b bd 40 a7 44 bd
       0.079256885 -0.07770268 -0.045730572 -0.048011065
000340 63 e9 de 3b be 9f de 3d be 98 c6 3b 16 1e c5 bc
       0.006802724 0.10870312 0.0060606888 -0.024062198
000350 b0 65 6a 3d dd 52 96 3c 2d a5 28 3d 05 32 d2 3c
       0.057225883 0.01835006 0.04117315 0.025658617
000360 92 3c 57 bd a9 d2 ea 3d 10 49 3e 3c ba 0c 89 3d
       -0.052548 0.114659615 0.011614099 0.066918805
000370 25 83 9a 3c 60 fd 09 bd 8a 96 37 3d e9 4c 49 bc
       0.018861363 -0.033688903 0.0448213 -0.012286403
000380 f2 a7 85 bc e6 35 95 bd eb 40 ec 3d fa ea bf 3c
       -0.016315434 -0.07285671 0.115358196 0.023427475
000390 99 e6 35 bd 13 b4 dc bd 13 ec eb 3d ef df c7 3b
       -0.04440937 -0.10776534 0.11519637 0.006099693
0003a0 bb aa 05 3e f1 2f 3e bd 46 30 09 bd ca 2b c3 3d
       0.1305341 -0.04643244 -0.033493303 0.095298365
0003b0 ac 6b 71 bc 1d b8 02 bd e5 40 9e 3c 6d 62 a0 3c
       -0.014735144 -0.031913865 0.019318053 0.019578183
0003c0 98 c4 29 bd 9a f5 b2 3c 55 68 70 bb ab 90 20 bc
       -0.041447252 0.021845628 -0.003668328 -0.0098001165
0003d0 bf 63 8f bd 6a bd 85 bc 31 c4 28 3d ce ab e1 3d
       -0.07001447 -0.016325671 0.041202728 0.11019097
0003e0 b3 43 c0 bc de fc 37 bd 04 af 5e bd 3c 9e 8a bd
       -0.023469782 -0.044918887 -0.054366127 -0.06768462
0003f0 4c e8 92 bd f4 de b5 3c 42 a4 8c 3d 1f 59 01 bd
       -0.07173213 0.022201039 0.06867267 -0.031579133

network_body._body_endoder.seq_layers.4.bias f4 [256]
000000 ed df 90 bb 51 6a 2a bb e7 df 44 3b 8a 34 6f 3b
       -0.0044212253 -0.002600331 0.0030040683 0.0036499822
000010 11 35 8a 3b be b4 8c 3b 3a 9a a8 3b d7 b6 13 bb
       0.004217752 0.004294007 0.0051453384 -0.00225394
000020 85 d4 cd 3b 2c c0 86 3b 11 4f 1d 3b e7 d7 1f bb
       0.006281438 0.004112264 0.0024003426 -0.0024390162
000030 c5 c7 87 bb a1 ad 5d 3b 27 f5 8b 3b 5b 16 81 3b
       -0.0041436874 0.0033825415 0.004271168 0.0039394326
000040 20 b0 5b bb 49 fb 77 bb 79 f4 c2 3a d2 d0 56 3b
       -0.0033521727 -0.0037838987 0.0014873884 0.0032778275
000050 b9 96 72 bb 2a ef 26 3b f4 a9 7a 3b 65 3a 82 3b
       -0.0037016107 0.0025472143 0.0038248273 0.0039742463
000060 3e ec 67 bb 6f eb 38 bb 8c df 87 3b a9 e4 8b 3b
       -0.0035388614 -0.0028216501 0.004146522 0.004269202
000070 10 00 84 bb c7 4a 97 bb 6c 3c 4d bb 50 d1 bb bb
       -0.0040283278 -0.0046170685 -0.0031316532 -0.005731739
000080 71 97 a5 bb e9 d5 1d 3b 0d 16 59 3b 2c de d6 3b
       -0.0050534536 0.00240838 0.0033124716 0.0065572467
000090 49 d3 f7 ba 3e 84 1e bb fc 8f a8 3a 22 d7 44 bb
       -0.0018907572 -0.002418771 0.0012860294 -0.0030035456
0000a0 43 2b 7c 3b 31 44 39 3b 85 3d 74 3b 9f a0 72 3b
       0.0038477934 0.0028269405 0.0037268114 0.0037022007
0000b0 51 56 53 3b 02 d2 18 bb 9c ab 7d 3b f4 2a 59 bb
       0.0032247494 -0.0023318534 0.0038707023 -0.0033137174
0000c0 8a a0 87 3b 03 28 c8 3b 5a 48 65 3b 07 e4 83 bb
       0.004139011 0.0061082854 0.0034985752 -0.0040249857
0000d0 36 b2 c4 39 15 6e 56 bb 65 91 be bb 4a 4e 40 3b
       0.0003751681 -0.0032719423 -0.005815672 0.002934354
0000e0 4a 06 44 3a e6 18 9e bb 04 6f 7f 3b 14 58 3f 3b
       0.0007477744 -0.0048247455 0.0038976083 0.0029196786
0000f0 61 7f 75 b8 f5 7e c4 b9 0c 1d 7c 3b 99 e1 a1 bb
       -5.8531183e-05 -0.00037478624 0.0038469462 -0.0049402234
000100 6b 5a 31 bb 7b 8d 1c 3b 3f 69 8a 3b 04 e8 75 bb
       -0.002706195 0.002388804 0.004223972 -0.0037522325
000110 98 f9 59 bb fe 1a 97 bb b1 bf 93 3b eb 11 d9 bb
       -0.0033260342 -0.004611372 0.0045089354 -0.0066244504
000120 16 e5 46 3b 8a 0d 1d 3b 24 20 12 3b 0a 92 60 bb
       0.0030348948 0.0023964369 0.002229699 -0.0034266734
000130 5b be 09 3b 91 54 51 3b ff 8d 83 bb 93 86 94 3b
       0.0021018002 0.0031941275 -0.00401473 0.004532644
000140 ae f8 86 bb 6b 67 89 3b a0 4c 16 3a cb 2f 96 bb
       -0.0041190004 0.0041932366 0.0005733464 -0.004583334
000150 78 b5 d7 bb 81 32 31 bb db 91 d2 3a 7e 2f 2d 3b
       -0.006582912 -0.002703816 0.0016065197 0.0026426013
000160 a0 37 ca 38 ef 4d 94 3b 62 51 eb ba 2e 7d c3 bb
       9.6424716e-05 0.004525892 -0.0017953331 -0.0059658503
000170 be 55 21 bb c6 1e 08 3b a8 e1 6c 3b f1 53 c6 bb
       -0.0024617757 0.0020770296 0.0036145244 -0.006052487
000180 b9 6a 3a 3a 4f 20 46 bb db 95 81 3b ca 78 78 bb
       0.000711124 -0.003023166 0.0039546317 -0.0037913793
000190 63 58 3c 3b 07 dc 49 3b b4 95 81 bb 09 9a f5 bb
       0.0028739206 0.0030801313 -0.0039546136 -0.007495169
0001a0 01 74 5c 3b 6e fa 82 bb 0b e9 41 bb d4 24 78 3b
       0.003363848 -0.0039971387 -0.0029588367 0.0037863748
0001b0 bb e3 e0 3b 8d c7 82 3b 47 21 44 3b ab de 6f b7
       0.006863085 0.0039910735 0.0029927061 -1.4297354e-05
0001c0 40 04 5c bb 27 ef 35 3b 72 9a 69 3b 2c f2 77 3b
       -0.003357187 0.0027760954 0.0035645035 0.0037833555
0001d0 3f 42 75 bb fa b0 16 bb 4d 4b 17 bb f9 e5 3f 3b
       -0.003742352 -0.002299367 -0.0023085654 0.0029281361
0001e0 93 ba 8c 3b 06 bb 79 3b b7 bf 59 3b 6f 88 60 3b
       0.0042947023 0.003810586 0.0033225843 0.0034261008
0001f0 3c ee a4 3b c3 3c 88 3b 5e c1 96 bb 3d 7e 9d 3b
       0.0050332826 0.004157634 -0.004600688 0.0048063085
000200 21 5f 5c bb f8 1c 77 3b bb b6 7f 3b bc e7 b9 3b
       -0.0033626037 0.0037706476 0.0039018828 0.005673377
000210 8e 09 56 bb 35 30 b9 bb 25 4d 55 bb 86 2c a3 bb
       -0.0032659504 -0.0056514987 -0.0032547202 -0.004979673
000220 ef 93 40 bb f0 e0 3d bb 57 76 a9 3a 3b 4c 6b 3b
       -0.002938505 -0.0028973185 0.0012928945 0.0035903591
000230 9d f7 4d 3b 50 8b 84 3b b0 6c 24 3b f1 42 53 3b
       0.0031428107 0.0040449277 0.0025089197 0.0032235945
000240 60 55 76 3b 7c 63 f0 b8 ec 6e 6d bb 32 5d 67 3b
       0.0037587509 -0.00011462622 -0.0036229445 0.0035303351
000250 c1 8e 49 bb 7e 23 57 3b 8b b2 8f 3b 33 59 90 3b
       -0.0030755254 0.0032827551 0.0043852977 0.0044051646
000260 ff 95 7b 3b d3 90 58 bb a3 0c 57 bb 5b 3d 18 3b
       0.0038388965 -0.0033045306 -0.0032813929 0.002322993
000270 76 ce 44 3b 4b cb 4f 3b 34 2e 5a 3b 59 3b 72 bb
       0.0030030287 0.0031706865 0.00332917 -0.0036961643
000280 f4 40 5e bb 91 ef 95 bb a6 89 47 3b 32 c5 99 bb
       -0.0033913227 -0.0045756777 0.0030447035 -0.004692697
000290 fa 64 5e 3b a1 be 7b bb bc 63 90 3b d5 14 f8 39
       0.0033934698 -0.0038413184 0.0044064205 0.00047317767
0002a0 f6 07 98 3b 1b 65 05 3b 82 89 4e bb 84 ab 96 bb
       0.004639621 0.0020354453 -0.0031515067 -0.004598083
0002b0 23 21 60 3b 2f 8d 28 bb a0 a7 59 3b 4b 55 c7 bb
       0.0034199439 -0.0025718918 0.0033211485 -0.0060831658
0002c0 38 90 56 3b 3c a9 5b 3b eb 6e 54 ba 59 ac 94 3b
       0.003273977 0.003351762 -0.0008103686 0.004537147
0002d0 c9 05 a6 3b 10 93 7a 3b cd 33 95 ba 8e f1 78 3b
       0.0050666076 0.0038234629 -0.0011383236 0.0037985775
0002e0 0e c3 99 bb 26 ba b0 ba 58 a4 89 bb a4 1f 9b bb
       -0.004692442 -0.0013483211 -0.0042004995 -0.0047339965
0002f0 c8 46 9a 3a 89 d3 a3 ba 8d 21 71 bb 25 fb 44 bb
       0.0011770362 -0.0012498955 -0.003679368 -0.003005692
000300 a0 0f 7b 3b 6e 6c 71 bb bd 97 67 bb 1f ab ae bb
       0.0038308874 -0.003683831 -0.0035338246 -0.005330458
000310 61 a8 80 3b 86 bf 70 3b 41 1f 51 bb 15 6b 47 bb
       0.0039263223 0.003673525 -0.0031909498 -0.0030428816
000320 00 e3 83 bb 3b 54 96 bb ab 02 69 bb 8c 8f 22 3b
       -0.0040248632 -0.004587678 -0.0035554569 0.00248048
000330 cd b2 9c 3b f9 ce 4a 3b f0 c9 0b 3b de a8 a7 bb
       0.004782057 0.003094612 0.002133008 -0.005116566
000340 e1 dc cf 3a ce 94 8c 38 53 d5 37 3b ec f6 fc 39
       0.0015858674 6.703437e-05 0.0028050735 0.00048249157
000350 26 d8 95 3b 57 3e 90 3b 53 0d 67 bb 23 85 94 bb
       0.004572886 0.0044019627 -0.0035255745 -0.0045324727
000360 cb 7c ff bb 40 60 3c bb 7a aa 2d bb ba 5f 3c bb
       -0.007796859 -0.0028743893 -0.0026499317 -0.002874358
000370 12 8e 99 bb 15 fe a8 3b b6 73 84 bb 9d 37 aa bb
       -0.0046861256 0.005157242 -0.004042114 -0.005194618
000380 78 82 2f 3b 9f e3 73 bb 13 fd 7e 3b 84 45 99 bb
       0.0026780646 -0.003721453 0.0038908168 -0.0046774764
000390 e0 b3 85 bb 6e 4c 87 3b a9 a9 73 3b ab c9 1b bb
       -0.0040802807 0.004128984 0.0037179983 -0.0023771327
0003a0 8b 2f 5e 3b e0 68 d2 3a 70 ff 87 3b ca e9 d4 3b
       0.003390285 0.0016052984 0.0041503236 0.0064975964
0003b0 58 03 12 bb 91 bd 84 bb de 4c 2a bb 55 78 48 bb
       -0.0022279825 -0.0040509184 -0.0025985758 -0.0030589302
0003c0 39 7b 8e 3b be 9b 85 bb 2e 9d b5 3b 70 f2 9d 39
       0.0043481854 -0.004077404 0.005542419 0.00030126004
0003d0 4f 25 50 bb 71 de 87 3b 9a a3 44 bb 15 8b a0 bb
       -0.003176052 0.00414639 -0.003000474 -0.0048993924
0003e0 e9 9c 84 3b 01 17 1c bb 90 89 2c 3b fd 3e a0 3a
       0.0040470255 -0.0023817422 0.002632711 0.0012225803
0003f0 a1 be 8d 3b cc b9 a3 bb be 37 81 3b 73 d4 65 bb
       0.0043257033 -0.004996514 0.0039434126 -0.0035069257
