Cursed Tennis/Assets/Tennis/results/TennisPro5/Tennis/Tennis-1049.onnx (onnx, 886342 bytes, 13 tensors)

60 f4 [84]
00000000: 8644 3a40 1a8c ed3f ad23 1140 93ca 4c40
00000010: 52db 793f 4fba 8740 69b4 c13f cbc0 1240
00000020: e589 6540 52db 793f 6f41 a33e 8644 3a40
00000030: 1a8c ed3f 52db 793f a560 053e 59a2 003e
00000040: 6f41 a33e 9f2a a33e 4fba 8740 69b4 c13f
00000050: e7e3 ea3f 91de 2040 3677 f53f 280f 1940
00000060: 992a 5840 3d8f 6d3f 43c8 8340 0d34 db3f
00000070: 8d95 1640 6af0 7540 3d8f 6d3f 7a69 933e
00000080: 91de 2040 3677 f53f 3d8f 6d3f 154f 033e
00000090: 91b6 ff3d 7a69 933e 2d97 953e 43c8 8340
000000a0: 0d34 db3f 0e72 f33f 9a2a f63f cd79 f43f
000000b0: 9a87 1e40 b617 5b40 b305 5b3f d367 7c40
000000c0: dc03 fb3f ed98 1d40 efa6 8140 b305 5b3f
000000d0: 77cb 783e 9a2a f63f cd79 f43f b305 5b3f
000000e0: 2c2c ff3d 3a04 fd3d 77cb 783e c73f 833e
000000f0: d367 7c40 dc03 fb3f cfa8 fd3f 6c0f 4a3f
00000100: cb13 ea3f f973 2440 de46 5e40 8016 413f
00000110: 899e 6d40 9128 1040 452b 2640 20bd 8740
00000120: 8016 413f 5fb8 333e 6c0f 4a3f cb13 ea3f
00000130: 8016 413f 1d61 f33d 4e54 f73d 5fb8 333e
00000140: 4881 533e 899e 6d40 9128 1040 2bd3 0440
2.9104323 1.8558381 2.2678025 3.1998641 0.9760028 4.2414927 1.5133182 2.2930171
3.5865414 0.9760028 0.3188586 2.9104323 1.8558381 0.9760028 0.13025148 0.1256193
0.3188586 0.31868455 4.2414927 1.5133182 1.83508 2.5135844 1.9177005 2.39155
3.3776 0.9279669 4.118196 1.712526 2.3528779 3.8427987 0.9279669 0.2879141
2.5135844 1.9177005 0.9279669 0.12823136 0.12485994 0.2879141 0.292169 4.118196
1.712526 1.9019182 1.9231751 1.9099671 2.4770265 3.4233222 0.8555557 3.943837
1.9610553 2.4624588 4.0516276 0.8555557 0.24296366 1.9231751 1.9099671 0.8555557
0.12459597 0.12354322 0.24296366 0.25634596 3.943837 1.9610553 1.9817141 0.7892978
1.828729 2.5695784 3.4730754 0.7542496 3.7128012 2.252476 2.596391 4.2418365
0.7542496 0.175508 0.7892978 1.828729 0.7542496 0.11883757 0.12076627 0.175508
0.20654786 3.7128012 2.252476 2.0753887

action_model._continuous_distribution.log_sigma f4 [1, 6]
00000000: 0000 0000 0000 0000 0000 0000 0000 0000
00000010: 0000 0000 0000 0000
0.0 0.0 0.0 0.0 0.0 0.0

action_model._continuous_distribution.mu.bias f4 [6]
00000000: 0000 0000 0000 0000 0000 0000 0000 0000
00000010: 0000 0000 0000 0000
0.0 0.0 0.0 0.0 0.0 0.0

action_model._continuous_distribution.mu.weight f4 [6, 256]
00000000: df11 07bb 5312 2abc 2228 b8bc 8220 8a3b
00000010: 4f05 393c 1fcd 813c 7a70 9bbb 28bc 3c3c
00000020: 0a8d ffb9 d240 7a3c 6fc9 7bbc 675f de39
00000030: 6b2e 15b9 1774 03bc d62a 853b 8c5e 0d3a
00000040: 1d6a f6bb 47c1 59bb 47cb 0b3c 553f 363c
00000050: 65c7 e23b c7db 9abc 831a 193c a14d c1bb
00000060: ed3b 35bc 0398 0cba ab4d f2bb cb14 80bc
00000070: 8bf1 19bc af93 ae3c f3f1 c8ba 2bb7 6d3c
00000080: f187 a8bc ba88 4c3b a4db a0bb 2ffe 5a3a
00000090: 9106 23ba ad07 7c3c 8e6b b9bb 1fe6 603a
000000a0: e698 813c c37a edba d2c0 503c 401f b83b
000000b0: 0b56 98bc 85bc 083d 4f5e 0abc 974a e0bc
000000c0: dced 80bc 2fea 2fbb 1797 973c 34c2 b73c
000000d0: e3ee 1c3c 114d b8bb 93cf 53bc 54aa 06bc
000000e0: 93b3 863c 4788 f9ba f761 1aba 8ab0 72bb
000000f0: 35b7 413c 5b58 263c 20bb 133c 2600 903c
00000100: 48b6 b8bb 281c f5ba ad18 09bc 571b c5bc
00000110: 4a5b bdbb 06a5 a6bb 4346 883c 4fa4 89bc
00000120: bfc2 92bb fc4a a93c 8ab9 6f3b 1680 b93b
00000130: f37b ae3c 6e2e 87bb 47f8 5ebb a9bd 0cbc
00000140: e74a b63c 3827 a2ba 6d47 d2bc cf3b 0dbc
00000150: 2dce 6a3a 1d9b 6ebb f184 9a3b a2ae e1bc
00000160: 9a02 e03b 21a3 8ebc 24c3 a4bc 3399 93ba
00000170: 0731 a23b 9042 cc3b 4506 f43b fa82 e63c
00000180: c185 b0bb 2682 96bb e0f8 4f3c 4b17 3e3b
00000190: 651a 41bc 661d 9b3a f343 87ba 7525 57bc
000001a0: d1ae 00bd fb54 a9bc 6758 2d3c 6248 baba
000001b0: 9bdc 4abc d349 093c f514 69bc bb6c 2dbc
000001c0: e3b9 96bb a5de 43bc 4aa2 09bc 2635 473c
000001d0: d5e2 28ba 0523 67bc 33dd b63c 309f f63b
000001e0: f136 16bc 5bbb 1cbb d29e 6abb d7cd f23b
000001f0: d135 88bb 8ba1 92bb 5236 cebb 1a5b adbc
00000200: 77e0 74bc c449 0e3c 25cb 1ebc 517c 9039
00000210: 3541 ffbb af24 4dbb 10f6 7a3a 2228 8ebc
00000220: a423 94bc 88d7 8c3c f79f a8bc e62b 483c
00000230: 7700 85bc 2b6c b7bb b339 aabb 091e 353c
00000240: add1 3a3c fcd9 8fbb 2f3a 0ebc 12a0 a8bb
00000250: 7aa6 afbc be5d 963c ade0 853b 7029 5abc
00000260: 5d65 efbb 8053 323b bb24 bd3c 0fd4 2e3c
00000270: 1ba5 fbba 5f05 943c b789 ab3c f2ff 573b
00000280: e062 f8bb 2f1d 053c ab35 40bc 883a c0ba
00000290: 5db7 38bc 0772 9e3b 9d72 43bc 3231 74bc
000002a0: d2b2 f0bb afda 4ebb e30d bbbb bd55 39bb
000002b0: 9d91 7d3b 3b09 77bc 8b1a 2b3b 59a3 a4b9
000002c0: 5641 24bc 67d8 8f3b 62f7 b3bc 581d 8f3c
000002d0: 553b 96bb 829a 18bc 8f30 7f3b c5ee 663c
000002e0: cbac e23a 23f1 a8bc 431a 723c a3ee df3b
000002f0: 80c9 1fbc abb3 9dbb a4ff ae3b 809c ffbb
00000300: 0bd6 a63c 28b8 55bc 17c4 fdbc 2b77 1abc
00000310: e285 a3bb 2f0d e9bb 5b58 473b a5db 103c
00000320: 935c 823a 760c 0a3b 6e5a 81bc 8256 c63c
00000330: c7c5 213c aa60 7cbc 1b21 f5bc 2bda ee3b
00000340: d589 e0bc 971a 20bb 18cd a03b 0f80 c93b
00000350: 22ee 9fbb fda3 523c be45 1bbc 0ba8 98bb
00000360: 7204 283c abb3 5a3a 9bc3 283b 2b5f 7bbc
00000370: 0ae0 df3b 2339 0c3c 0731 9dba 93a9 60bb
00000380: e9ef 95bc 4446 b73c 4319 8ebc 4bbf 9cbc
00000390: 4a0d aebb 8625 45b8 cfd5 733c cbb7 3dbc
000003a0: 9589 2a3b 0f7d d5ba 5bdd 66bb 2658 b0bb
000003b0: ed85 aa3c 6723 863b 1ec0 83bc 555a f13b
000003c0: 3583 723a 3bbc 0c3c b62e 4c3c 3a4c 43ba
000003d0: 8a55 5f3b 8f22 10bc b8be 5f39 2fd3 eabb
000003e0: 12cd ae3c 29f7 803b 3031 b2ba fb00 a7bc
000003f0: 5aa8 b83b f605 91bb 3ac0 e7ba 8b49 7bbb
-0.0020610017 -0.010380345 -0.022480074 0.004215301 0.01129277 0.01584488 -0.004743633 0.011519469
-0.00048742472 0.015274243 -0.01536785 0.0004241422 -0.0001422704 -0.008023283 0.0040639443 0.0005392812
-0.007519974 -0.0033226775 0.008532352 0.011123498 0.0069207423 -0.018903626 0.0093447 -0.0058991467
-0.011061651 -0.00053632277 -0.0073945126 -0.015634915 -0.009395967 0.021310655 -0.0015330896 0.014509003
-0.020572634 0.0031209425 -0.0049089957 0.00083539163 -0.0006218935 0.015382689 -0.0056585735 0.00085792126
0.015819978 -0.0018118251 0.012741284 0.0056189597 -0.018595716 0.03338291 -0.0084453365 -0.027379317
-0.01573842 -0.0026842465 0.018504662 0.02243147 0.009578439 -0.0056244214 -0.0129279075 -0.00821932
0.01644305 -0.0019037806 -0.00058892317 -0.0037031495 0.011823465 0.0101529015 0.009016782 0.017578196
-0.005636964 -0.0018700408 -0.0083677 -0.024060888 -0.005778705 -0.0050855903 0.016635066 -0.016801981
-0.004478782 0.020665638 0.0036579096 0.005661021 0.021299338 -0.004125408 -0.0034022497 -0.00859014
0.022252513 -0.0012371307 -0.025668824 -0.0086202165 0.0008957114 -0.0036408373 0.004715555 -0.027549092
0.0068362476 -0.01741177 -0.020112582 -0.0011260867 0.004949692 0.006233521 0.0074470364 0.028138626
-0.0053870385 -0.0045931516 0.012693614 0.0029005583 -0.011786078 0.0011834323 -0.0010319933 -0.013131489
-0.031416718 -0.020670405 0.010580159 -0.0014212246 -0.012381698 0.0083794175 -0.014226188 -0.010585005
-0.004599796 -0.011954938 -0.008400509 0.012158668 -0.0006442492 -0.01410747 0.022322273 0.007526301
-0.0091683725 -0.0023915383 -0.003580023 0.007409792 -0.004156806 -0.004474824 -0.0062930966 -0.021161605
-0.014946095 0.008684579 -0.009691988 0.00027558443 -0.0077897557 -0.0031302383 0.00095734093 -0.017353121
-0.018083401 0.017192617 -0.02058409 0.012217497 -0.016235573 -0.0055976114 -0.0051948666 0.011054524
0.01140253 -0.0043899994 -0.008680864 -0.005146035 -0.021441687 0.018355247 0.0040856213 -0.0133155435
-0.0073057846 0.0027210414 0.023088804 0.010670676 -0.0019198986 0.018068967 0.020939691 0.0032958952
-0.007580146 0.008124634 -0.011731545 -0.0014665881 -0.011274186 0.0048353705 -0.011929181 -0.014904307
-0.007345536 -0.003156345 -0.0057084425 -0.0028279864 0.0038691529 -0.015077884 0.002610835 -0.0003140222
-0.010025343 0.004389811 -0.021968547 0.017470047 -0.0045847096 -0.009314181 0.0038938855 0.014095013
0.0017293928 -0.020622795 0.014776769 0.0068338676 -0.009752631 -0.004812678 0.0053405333 -0.0078006387
0.020365736 -0.013044395 -0.030977292 -0.009427826 -0.0049903253 -0.0071121673 0.0030417654 0.00884143
0.0009945802 0.0021064556 -0.01579019 0.024211172 0.009873814 -0.015403906 -0.029923012 0.0072891912
-0.027409473 -0.0024429911 0.0049072616 0.006149299 -0.0048806826 0.012856481 -0.009477077 -0.004658704
0.010254966 0.00083428127 0.0025751356 -0.015342514 0.0068321275 0.008558544 -0.0011992761 -0.0034280762
-0.018302875 0.022372372 -0.01734603 -0.019134184 -0.005311643 -4.7003407e-05 0.014882519 -0.011579464
0.0026021947 -0.0016287881 -0.0035227153 -0.005381602 0.020815814 0.0040935758 -0.01608282 0.0073655047
0.0009251119 0.0085897995 0.012462309 -0.00074500183 0.0034078085 -0.008797302 0.00021337986 -0.0071662883
0.02133802 0.003935714 -0.0013594981 -0.02038621 0.0056353034 -0.0044257594 -0.0017681189 -0.0038343396

network_body._body_endoder.seq_layers.0.bias f4 [256]
00000000: 0000 0000 0000 0000 0000 0000 0000 0000
00000010: 0000 0000 0000 0000 0000 0000 0000 0000
00000020: 0000 0000 0000 0000 0000 0000 0000 0000
00000030: 0000 0000 0000 0000 0000 0000 0000 0000
00000040: 0000 0000 0000 0000 0000 0000 0000 0000
00000050: 0000 0000 0000 0000 0000 0000 0000 0000
00000060: 0000 0000 0000 0000 0000 0000 0000 0000
00000070: 0000 0000 0000 0000 0000 0000 0000 0000
00000080: 0000 0000 0000 0000 0000 0000 0000 0000
00000090: 0000 0000 0000 0000 0000 0000 0000 0000
000000a0: 0000 0000 0000 0000 0000 0000 0000 0000
000000b0: 0000 0000 0000 0000 0000 0000 0000 0000
000000c0: 0000 0000 0000 0000 0000 0000 0000 0000
000000d0: 0000 0000 0000 0000 0000 0000 0000 0000
000000e0: 0000 0000 0000 0000 0000 0000 0000 0000
000000f0: 0000 0000 0000 0000 0000 0000 0000 0000
00000100: 0000 0000 0000 0000 0000 0000 0000 0000
00000110: 0000 0000 0000 0000 0000 0000 0000 0000
00000120: 0000 0000 0000 0000 0000 0000 0000 0000
00000130: 0000 0000 0000 0000 0000 0000 0000 0000
00000140: 0000 0000 0000 0000 0000 0000 0000 0000
00000150: 0000 0000 0000 0000 0000 0000 0000 0000
00000160: 0000 0000 0000 0000 0000 0000 0000 0000
00000170: 0000 0000 0000 0000 0000 0000 0000 0000
00000180: 0000 0000 0000 0000 0000 0000 0000 0000
00000190: 0000 0000 0000 0000 0000 0000 0000 0000
000001a0: 0000 0000 0000 0000 0000 0000 0000 0000
000001b0: 0000 0000 0000 0000 0000 0000 0000 0000
000001c0: 0000 0000 0000 0000 0000 0000 0000 0000
000001d0: 0000 0000 0000 0000 0000 0000 0000 0000
000001e0: 0000 0000 0000 0000 0000 0000 0000 0000
000001f0: 0000 0000 0000 0000 0000 0000 0000 0000
00000200: 0000 0000 0000 0000 0000 0000 0000 0000
00000210: 0000 0000 0000 0000 0000 0000 0000 0000
00000220: 0000 0000 0000 0000 0000 0000 0000 0000
00000230: 0000 0000 0000 0000 0000 0000 0000 0000
00000240: 0000 0000 0000 0000 0000 0000 0000 0000
00000250: 0000 0000 0000 0000 0000 0000 0000 0000
00000260: 0000 0000 0000 0000 0000 0000 0000 0000
00000270: 0000 0000 0000 0000 0000 0000 0000 0000
00000280: 0000 0000 0000 0000 0000 0000 0000 0000
00000290: 0000 0000 0000 0000 0000 0000 0000 0000
000002a0: 0000 0000 0000 0000 0000 0000 0000 0000
000002b0: 0000 0000 0000 0000 0000 0000 0000 0000
000002c0: 0000 0000 0000 0000 0000 0000 0000 0000
000002d0: 0000 0000 0000 0000 0000 0000 0000 0000
000002e0: 0000 0000 0000 0000 0000 0000 0000 0000
000002f0: 0000 0000 0000 0000 0000 0000 0000 0000
00000300: 0000 0000 0000 0000 0000 0000 0000 0000
00000310: 0000 0000 0000 0000 0000 0000 0000 0000
00000320: 0000 0000 0000 0000 0000 0000 0000 0000
00000330: 0000 0000 0000 0000 0000 0000 0000 0000
00000340: 0000 0000 0000 0000 0000 0000 0000 0000
00000350: 0000 0000 0000 0000 0000 0000 0000 0000
00000360: 0000 0000 0000 0000 0000 0000 0000 0000
00000370: 0000 0000 0000 0000 0000 0000 0000 0000
00000380: 0000 0000 0000 0000 0000 0000 0000 0000
00000390: 0000 0000 0000 0000 0000 0000 0000 0000
000003a0: 0000 0000 0000 0000 0000 0000 0000 0000
000003b0: 0000 0000 0000 0000 0000 0000 0000 0000
000003c0: 0000 0000 0000 0000 0000 0000 0000 0000
000003d0: 0000 0000 0000 0000 0000 0000 0000 0000
000003e0: 0000 0000 0000 0000 0000 0000 0000 0000
000003f0: 0000 0000 0000 0000 0000 0000 0000 0000
0.0 0.0 0.0 0.0 0.0 0.0 0.0 0.0
0.0 0.0 0.0 0.0 0.0 0.0 0.0 0.0
0.0 0.0 0.0 0.0 0.0 0.0 0.0 0.0
0.0 0.0 0.0 0.0 0.0 0.0 0.0 0.0
0.0 0.0 0.0 0.0 0.0 0.0 0.0 0.0
0.0 0.0 0.0 0.0 0.0 0.0 0.0 0.0
0.0 0.0 0.0 0.0 0.0 0.0 0.0 0.0
0.0 0.0 0.0 0.0 0.0 0.0 0.0 0.0
0.0 0.0 0.0 0.0 0.0 0.0 0.0 0.0
0.0 0.0 0.0 0.0 0.0 0.0 0.0 0.0
0.0 0.0 0.0 0.0 0.0 0.0 0.0 0.0
0.0 0.0 0.0 0.0 0.0 0.0 0.0 0.0
0.0 0.0 0.0 0.0 0.0 0.0 0.0 0.0
0.0 0.0 0.0 0.0 0.0 0.0 0.0 0.0
0.0 0.0 0.0 0.0 0.0 0.0 0.0 0.0
0.0 0.0 0.0 0.0 0.0 0.0 0.0 0.0
0.0 0.0 0.0 0.0 0.0 0.0 0.0 0.0
0.0 0.0 0.0 0.0 0.0 0.0 0.0 0.0
0.0 0.0 0.0 0.0 0.0 0.0 0.0 0.0
0.0 0.0 0.0 0.0 0.0 0.0 0.0 0.0
0.0 0.0 0.0 0.0 0.0 0.0 0.0 0.0
0.0 0.0 0.0 0.0 0.0 0.0 0.0 0.0
0.0 0.0 0.0 0.0 0.0 0.0 0.0 0.0
0.0 0.0 0.0 0.0 0.0 0.0 0.0 0.0
0.0 0.0 0.0 0.0 0.0 0.0 0.0 0.0
0.0 0.0 0.0 0.0 0.0 0.0 0.0 0.0
0.0 0.0 0.0 0.0 0.0 0.0 0.0 0.0
0.0 0.0 0.0 0.0 0.0 0.0 0.0 0.0
0.0 0.0 0.0 0.0 0.0 0.0 0.0 0.0
0.0 0.0 0.0 0.0 0.0 0.0 0.0 0.0
0.0 0.0 0.0 0.0 0.0 0.0 0.0 0.0
0.0 0.0 0.0 0.0 0.0 0.0 0.0 0.0

network_body._body_endoder.seq_layers.0.weight f4 [256, 84]
00000000: 6cde 733c 9109 ebbd 0dde 9dbc f368 35be
00000010: 1a1f ebbd c5ef 793c 8bdd 26be 9126 fbbd
00000020: 80b4 fc3d 48b6 293d dc4a a93a 7337 e83c
00000030: 8472 323e f200 cd3d 9c87 05be 9304 dcbd
00000040: 9e92 24be 56c0 44be 31f7 9a3d 10b6 3c3c
00000050: bb89 8ebc 4a5b f9bd 3f1e b93d e6b9 31be
00000060: 3347 31be 3b9c 35bd 59c5 1c3e 4021 afbd
00000070: c838 e5bd 8414 a5bc e11c ac3d 3975 fd3c
00000080: 4fa8 13be a5e3 82be 3ebf d8bc 5f72 85bd
00000090: 84a5 8f3c 7c12 8fbd 67c9 52be 1690 18be
000000a0: ab39 abbd abc8 08bd 93eb 8bbc e26e 10be
000000b0: 40b5 d63b cfa6 1d3d c03e e5bc f272 6e3d
000000c0: 2e0a 4abd ddc1 033e 3e87 313d da53 ddbc
000000d0: ed42 92bd 982d 29bc b3b4 28bd a27f b13d
000000e0: 5a4c 2f3c 67bb e0bd d831 2abe 48bb 3f3d
000000f0: 477a afbc 56d1 47be 1e5a 82bc 3cf4 6dbd
00000100: f416 303e 0b8f b9bc a619 623d c4be 3a3e
00000110: 43b5 c0bc 6b18 073c 9948 a43d 024c 3ebd
00000120: c3c1 cd3b a6ae 1cbd cc66 573e 7799 263e
00000130: 69ad a1bd ead3 45bc 46c9 ca3d cc1f 353e
00000140: 14de 17bb 638a 64be abd1 b6bd 0c71 0a3e
00000150: 3ab4 bbbd 6af0 933d 7066 a6bd a762 fb3c
00000160: 99c2 cb3d dbb8 7dbd 48a0 c5bd 6ee4 03bd
00000170: d14f b13d afc4 adbd 59e5 86be 54fd 4ebc
00000180: 3b6f 043d b4bf 05bd d036 0f3e bbb5 343e
00000190: 0f87 26bd 2188 51be 8a95 42bd 20c7 80be
000001a0: d3d7 93bd f65a 0f3b f83e 613d 2c8d babd
000001b0: 6df2 0c3d 291a 32bd a553 f2bd ee79 ac3d
000001c0: 2421 18bd aff9 22bc fe88 563d 7245 d7bd
000001d0: 37cc debd 35f5 cebc 4c1a 173e 04de 123e
000001e0: 2d6e 68bc fbea 52bd b207 973d dddd 3abe
000001f0: 725c 1bbe 54e3 8ebd 155e d63d 7018 06bc
00000200: d2c5 b5bd 6fb4 ed3d 4610 d33d ecd4 523d
00000210: 8472 1dbe 89e8 eebb 9633 463e 6fb4 2cbe
00000220: dc71 753d adf0 dfbd e296 bb3d bb39 01bd
00000230: 7a00 b1bb 5998 c2bd a3b7 e73b 3f12 873d
00000240: e5a3 183e 3df0 6f3d 8612 be3c c89b a83d
00000250: 677a dfbc 44f7 1b3e 5bae c83b 39e1 763d
00000260: e772 bbbd 182f c43b c7a5 19be 1577 23be
00000270: a7b7 c8bd 39b3 f53c 6ae7 b63e 3fdf 3ebd
00000280: cdb5 ddba 9131 1bbd 4d4e 943d beb7 543d
00000290: 4d02 0f3d dade bf3d 4daa 36be 35f0 b33c
000002a0: c419 773d 6af6 72bd 251b 4abe 25aa 28be
000002b0: 0205 f53d 41ce 51bd 60a9 4a3c b16c 39bd
000002c0: 1937 5c3d 49e2 e2bd 9cd1 843c 9565 943e
000002d0: 1d42 693e 4b06 6e3d bc8b 01be 9c65 94bd
000002e0: 45d4 44be 6c8b e73c 3994 c0bd 081c 95bb
000002f0: 14b3 153c a60c 7b3d bf08 a83b 8ef1 c03c
00000300: b3bd 3bbe 3881 023d 12a9 36bd 874a 8dbd
00000310: 82d1 f2bc 0cbf 223d 292c e5bb 3873 ed3d
00000320: c70f 5ebe 7e66 c43c eb4b 9e3d 88e7 6c3d
00000330: 98a1 9cbd 4d4b d8bd 21a8 c23b 68e8 d83d
00000340: 5788 f8bc 2c37 983d 08bd 97bd 5c7e 16be
00000350: 4a20 ffbc 0242 433d 5bac 5c3d 09f6 91be
00000360: ba08 ddbd 17b0 fabc c974 05be dc8e d8bd
00000370: 63a7 91bc 9297 28bd a135 73bc c611 a5bd
00000380: b83a 42bd d5b8 d1bd 4849 49bc 8de3 953d
00000390: 6b3f 213d 1820 15bc de64 62bc ff86 05be
000003a0: 1951 c4bd 65a7 0c3c 360c 263e 9608 6d3c
000003b0: 9207 fa3d 0fa8 f0bd b296 223e 56df 3cbe
000003c0: 8d82 463e 5ad8 9cbd 9cff 383e e39e 70bd
000003d0: efdb 24be 7286 123b a53c b43b 4700 b53d
000003e0: c7fd b0bb 9e52 5bbe 1040 49bd 0962 af3d
000003f0: 9ebd 09bd b371 6fbd e22c cf3d df12 2e3e
0.0148845725 -0.11476434 -0.019270921 -0.17715816 -0.114805415 0.015254919 -0.1629545 -0.12263215
0.12339115 0.041433603 0.0012915987 0.028346753 0.17426497 0.10009946 -0.13040012 -0.1074306
-0.16071555 -0.19213995 0.07566679 0.011518016 -0.01739966 -0.12175615 0.09038972 -0.17356071
-0.17312317 -0.044338446 0.15309657 -0.08551264 -0.11192471 -0.020151384 0.08403946 0.030939685
-0.14419673 -0.25564304 -0.026458379 -0.06515955 0.017534979 -0.069859475 -0.20584641 -0.14898714
-0.08360609 -0.033394497 -0.017080104 -0.14104798 0.0065523684 0.03848916 -0.027984023 0.05821509
-0.049326114 0.12866922 0.043341868 -0.027017523 -0.07141671 -0.010325812 -0.041187953 0.08666922
0.010699356 -0.10973244 -0.16620576 0.046809465 -0.021420611 -0.19513449 -0.015912112 -0.05809425
0.17196256 -0.022651216 0.05520024 0.18236834 -0.023523932 0.008245568 0.080216594 -0.046459205
0.0062792017 -0.038252495 0.21035308 0.1626948 -0.078944035 -0.01207445 0.09901671 0.17687911
-0.002317314 -0.22318415 -0.0892671 0.13519686 -0.09165235 0.0722359 -0.08125007 0.03068669
0.09949226 -0.06194387 -0.09649712 -0.03220027 0.08657802 -0.0848478 -0.26346853 -0.01263364
0.03233264 -0.032653525 0.13985753 0.1764745 -0.040656146 -0.20462085 -0.047505893 -0.2515192
-0.072188996 0.0021874285 0.054991692 -0.09108958 0.034410883 -0.04348198 -0.1183236 0.08421694
-0.03714098 -0.0099472245 0.05237674 -0.105112925 -0.10878795 -0.025263408 0.14756125 0.14342505
-0.014186424 -0.051493626 0.07374515 -0.18248697 -0.15171984 -0.06976953 0.104671635 -0.008184537
-0.08875622 0.116066806 0.10305838 0.05147259 -0.15375715 -0.007290904 0.19355616 -0.16865705
0.059923038 -0.10934577 0.09159638 -0.031549197 -0.005401668 -0.09501714 0.0070714517 0.06595277
0.14906271 0.05857872 0.023202192 0.08232838 -0.027280046 0.15231043 0.0061243004 0.060273383
-0.09152775 0.0059870593 -0.15004645 -0.15963395 -0.09800654 0.029992687 0.3572343 -0.046599623
-0.0016915143 -0.037889067 0.07241497 0.051933043 0.034914304 0.093686774 -0.17838402 0.021965126
0.060327306 -0.05931703 -0.19736917 -0.16471155 0.11963846 -0.05122209 0.012369484 -0.04526967
0.053763483 -0.11078317 0.01621323 0.2898375 0.22779126 0.05811147 -0.1265096 -0.07245943
-0.192216 0.028264724 -0.09403271 -0.0045504607 0.009136934 0.06129136 0.0051279957 0.023552682
-0.18334083 0.031861514 -0.04459483 -0.068989806 -0.029640917 0.039732978 -0.0069937897 0.11594242
-0.21685706 0.023974653 0.07729324 0.057837993 -0.07648009 -0.105612375 0.0059404527 0.10591203
-0.03033845 0.07432398 -0.07409102 -0.1469664 -0.031143326 0.04767037 0.05387531 -0.28508022
-0.1079268 -0.030601544 -0.13032831 -0.10574123 -0.017780012 -0.041160174 -0.014844329 -0.08060031
-0.04741928 -0.10240332 -0.012285538 0.073187925 0.03936712 -0.00910189 -0.013817994 -0.13039778
-0.09585781 0.008584832 0.16215596 0.014467379 0.12208475 -0.11750805 0.15877798 -0.18444571
0.19385739 -0.07658453 0.18066257 -0.058745276 -0.16099523 0.0022357968 0.0055003935 0.088379435
-0.0054013464 -0.21418235 -0.04913336 0.085636206 -0.0336281 -0.05845804 0.101159826 0.16999386

network_body._body_endoder.seq_layers.2.bias f4 [256]
00000000: 0000 0000 0000 0000 0000 0000 0000 0000
00000010: 0000 0000 0000 0000 0000 0000 0000 0000
00000020: 0000 0000 0000 0000 0000 0000 0000 0000
00000030: 0000 0000 0000 0000 0000 0000 0000 0000
00000040: 0000 0000 0000 0000 0000 0000 0000 0000
00000050: 0000 0000 0000 0000 0000 0000 0000 0000
00000060: 0000 0000 0000 0000 0000 0000 0000 0000
00000070: 0000 0000 0000 0000 0000 0000 0000 0000
00000080: 0000 0000 0000 0000 0000 0000 0000 0000
00000090: 0000 0000 0000 0000 0000 0000 0000 0000
000000a0: 0000 0000 0000 0000 0000 0000 0000 0000
000000b0: 0000 0000 0000 0000 0000 0000 0000 0000
000000c0: 0000 0000 0000 0000 0000 0000 0000 0000
000000d0: 0000 0000 0000 0000 0000 0000 0000 0000
000000e0: 0000 0000 0000 0000 0000 0000 0000 0000
000000f0: 0000 0000 0000 0000 0000 0000 0000 0000
00000100: 0000 0000 0000 0000 0000 0000 0000 0000
00000110: 0000 0000 0000 0000 0000 0000 0000 0000
00000120: 0000 0000 0000 0000 0000 0000 0000 0000
00000130: 0000 0000 0000 0000 0000 0000 0000 0000
00000140: 0000 0000 0000 0000 0000 0000 0000 0000
00000150: 0000 0000 0000 0000 0000 0000 0000 0000
00000160: 0000 0000 0000 0000 0000 0000 0000 0000
00000170: 0000 0000 0000 0000 0000 0000 0000 0000
00000180: 0000 0000 0000 0000 0000 0000 0000 0000
00000190: 0000 0000 0000 0000 0000 0000 0000 0000
000001a0: 0000 0000 0000 0000 0000 0000 0000 0000
000001b0: 0000 0000 0000 0000 0000 0000 0000 0000
000001c0: 0000 0000 0000 0000 0000 0000 0000 0000
000001d0: 0000 0000 0000 0000 0000 0000 0000 0000
000001e0: 0000 0000 0000 0000 0000 0000 0000 0000
000001f0: 0000 0000 0000 0000 0000 0000 0000 0000
00000200: 0000 0000 0000 0000 0000 0000 0000 0000
00000210: 0000 0000 0000 0000 0000 0000 0000 0000
00000220: 0000 0000 0000 0000 0000 0000 0000 0000
00000230: 0000 0000 0000 0000 0000 0000 0000 0000
00000240: 0000 0000 0000 0000 0000 0000 0000 0000
00000250: 0000 0000 0000 0000 0000 0000 0000 0000
00000260: 0000 0000 0000 0000 0000 0000 0000 0000
00000270: 0000 0000 0000 0000 0000 0000 0000 0000
00000280: 0000 0000 0000 0000 0000 0000 0000 0000
00000290: 0000 0000 0000 0000 0000 0000 0000 0000
000002a0: 0000 0000 0000 0000 0000 0000 0000 0000
000002b0: 0000 0000 0000 0000 0000 0000 0000 0000
000002c0: 0000 0000 0000 0000 0000 0000 0000 0000
000002d0: 0000 0000 0000 0000 0000 0000 0000 0000
000002e0: 0000 0000 0000 0000 0000 0000 0000 0000
000002f0: 0000 0000 0000 0000 0000 0000 0000 0000
00000300: 0000 0000 0000 0000 0000 0000 0000 0000
00000310: 0000 0000 0000 0000 0000 0000 0000 0000
00000320: 0000 0000 0000 0000 0000 0000 0000 0000
00000330: 0000 0000 0000 0000 0000 0000 0000 0000
00000340: 0000 0000 0000 0000 0000 0000 0000 0000
00000350: 0000 0000 0000 0000 0000 0000 0000 0000
00000360: 0000 0000 0000 0000 0000 0000 0000 0000
00000370: 0000 0000 0000 0000 0000 0000 0000 0000
00000380: 0000 0000 0000 0000 0000 0000 0000 0000
00000390: 0000 0000 0000 0000 0000 0000 0000 0000
000003a0: 0000 0000 0000 0000 0000 0000 0000 0000
000003b0: 0000 0000 0000 0000 0000 0000 0000 0000
000003c0: 0000 0000 0000 0000 0000 0000 0000 0000
000003d0: 0000 0000 0000 0000 0000 0000 0000 0000
000003e0: 0000 0000 0000 0000 0000 0000 0000 0000
000003f0: 0000 0000 0000 0000 0000 0000 0000 0000
0.0 0.0 0.0 0.0 0.0 0.0 0.0 0.0
0.0 0.0 0.0 0.0 0.0 0.0 0.0 0.0
0.0 0.0 0.0 0.0 0.0 0.0 0.0 0.0
0.0 0.0 0.0 0.0 0.0 0.0 0.0 0.0
0.0 0.0 0.0 0.0 0.0 0.0 0.0 0.0
0.0 0.0 0.0 0.0 0.0 0.0 0.0 0.0
0.0 0.0 0.0 0.0 0.0 0.0 0.0 0.0
0.0 0.0 0.0 0.0 0.0 0.0 0.0 0.0
0.0 0.0 0.0 0.0 0.0 0.0 0.0 0.0
0.0 0.0 0.0 0.0 0.0 0.0 0.0 0.0
0.0 0.0 0.0 0.0 0.0 0.0 0.0 0.0
0.0 0.0 0.0 0.0 0.0 0.0 0.0 0.0
0.0 0.0 0.0 0.0 0.0 0.0 0.0 0.0
0.0 0.0 0.0 0.0 0.0 0.0 0.0 0.0
0.0 0.0 0.0 0.0 0.0 0.0 0.0 0.0
0.0 0.0 0.0 0.0 0.0 0.0 0.0 0.0
0.0 0.0 0.0 0.0 0.0 0.0 0.0 0.0
0.0 0.0 0.0 0.0 0.0 0.0 0.0 0.0
0.0 0.0 0.0 0.0 0.0 0.0 0.0 0.0
0.0 0.0 0.0 0.0 0.0 0.0 0.0 0.0
0.0 0.0 0.0 0.0 0.0 0.0 0.0 0.0
0.0 0.0 0.0 0.0 0.0 0.0 0.0 0.0
0.0 0.0 0.0 0.0 0.0 0.0 0.0 0.0
0.0 0.0 0.0 0.0 0.0 0.0 0.0 0.0
0.0 0.0 0.0 0.0 0.0 0.0 0.0 0.0
0.0 0.0 0.0 0.0 0.0 0.0 0.0 0.0
0.0 0.0 0.0 0.0 0.0 0.0 0.0 0.0
0.0 0.0 0.0 0.0 0.0 0.0 0.0 0.0
0.0 0.0 0.0 0.0 0.0 0.0 0.0 0.0
0.0 0.0 0.0 0.0 0.0 0.0 0.0 0.0
0.0 0.0 0.0 0.0 0.0 0.0 0.0 0.0
0.0 0.0 0.0 0.0 0.0 0.0 0.0 0.0

network_body._body_endoder.seq_layers.2.weight f4 [256, 256]
00000000: 7f0e 89bd e024 503c 141c 8abd ee49 f83d
00000010: 233a 823d 5907 8cbb b9dc cdbd 3edd b5bd
00000020: 0638 41bc df3c 8fbd 0c0e 1f3e 685e 9c3d
00000030: 0c3e 863d aee8 bc3c 79fc 263d 7bf1 f7bd
00000040: 2910 80bd 2ed5 8a3d 15b2 7d3b 13ae 8ebd
00000050: ae03 1dbd e3e2 3b3c abb2 853c 3540 01be
00000060: e707 5abd adc9 23bd 6bea b23d c79c 1e3d
00000070: 7115 ce3c 187b 9dbc b7d4 3a3c 7a22 a93c
00000080: 0c5d 14be c159 bc3c a37d 34bd 7dd8 e6bd
00000090: 5bfb 0fbd afbd a2bd 8534 52bd 9610 e5bc
000000a0: 17f9 73bd 688b c03c bf6c 75bd a013 403d
000000b0: 6430 b23d 042a e9bc 73c0 c6bb cc38 8dbd
000000c0: e182 b2bc 4ec0 813c 8fa0 41bd 2cf9 5ebd
000000d0: b409 af3c dd76 3cbc 775c 93bd 1302 b9bd
000000e0: d099 c43d 0eff dfbc ce61 1abd 9434 603d
000000f0: dbd1 6fbd ffeb 0dbc 65a8 ee3d 6357 bd3d
00000100: 1c89 a93c d6bf 27bd 5961 8e3c 601d 85bd
00000110: 3e54 e43c 335c 68bc b6f9 b23d 13c9 c43a
00000120: 4641 02be 4e8e a1bd e4f6 123c 7e46 fe3a
00000130: da5d 4abd b20d 363d 4412 293c 6843 aa3d
00000140: 9d4b 923d 9ba4 38bd 0ae6 6bbd 9dca 813c
00000150: f271 06bc b726 febc d176 d03c 41e3 acbd
00000160: 628f d7bc 6a93 d7bc 2edb 26bd 81fe f6bb
00000170: 7827 9e3d dc47 053e 18f8 11bd 8e90 0a3d
00000180: 8a65 103c 2b9e b23d 5fa6 533c 6d31 99bd
00000190: f13f a13d 31a0 2d3c 5e36 4938 ca24 1ebd
000001a0: 3daa ebbb aab4 a1bd 23e9 3b3d e5d3 493d
000001b0: e612 133d 9097 1abd c14e 873d 1200 363d
000001c0: c8c8 f33c acf4 1e3b b172 bf3d 7e9c b1bd
000001d0: ce5b 14bc c3e9 20bd bb08 b03d e1f7 4cbd
000001e0: 8a89 763c e931 953d 4b41 35bd 04f4 b7bd
000001f0: 30bd de3d 4334 97bd 877d b23c 7cfc 873d
00000200: 0cc4 9f3c f701 d03b 0ffa 12bd b37f 893d
00000210: d12c de3c 42fd babd 51bd 853d 43b1 173c
00000220: 6a54 a2bd 5c95 8e3c 36d6 a3b9 edba 0c3d
00000230: 2db2 843c f740 c93a d484 5c3c aae9 843d
00000240: 8a15 b3bc b2fb f6bc 0c63 1b3b 13e6 95bc
00000250: 9fff df3d bc91 963c 156f a93c b8d4 ccbc
00000260: bff5 533d 9365 033d 9571 943d ef94 77bd
00000270: f881 a83d 54c6 843c 57b5 63bd 7fc1 99bd
00000280: fc05 00bd 5db2 913d 8ee0 333d 717e 0a3d
00000290: bbe1 f8bc 903c 053c c815 f53b 2b48 3e3d
000002a0: b87b 94bc 1a77 86bc edad 703d 1b01 373d
000002b0: 2b45 f13c 6293 19bd b02e 753c 7b12 dd3c
000002c0: 6af8 3cbc 3750 4f3c 5737 c23c f103 14bd
000002d0: d93f aebd 7aaa cbbc 2e4a b33c d801 b8bd
000002e0: d40c 1cbd 9632 07bd 9d29 343d cc04 aa3d
000002f0: 6825 123d f2db 923c e302 603c 36e9 743d
00000300: 979a b83c fbac 7dbb a84b 0a3e 8079 25be
00000310: d029 183c 78e7 4eba 16da 903d 29bc d9bc
00000320: 0725 b93c 61c2 fcbb b1be 55bb 2f97 17bd
00000330: 0865 b93c c260 863d 81f4 b6bc debe 8d3d
00000340: 9a52 443d 7dde a43d fd49 fcbc ad6d 27bb
00000350: e4e1 efbc 7823 adbd 686d 643b f1db bb3c
00000360: 70db 38bc 97a4 77bd 6f37 8a3d d3c2 b03c
00000370: 45d4 a7bd 066d 103e 13f3 fb3c 6d72 b83d
00000380: df7e 8ebd 475c d2bc 54df d6bd 4194 413e
00000390: 6589 9239 1e4e ceba 0e8c 353d 0289 eabc
000003a0: 3181 91bd f244 6c3b 8f51 993d ae57 b83c
000003b0: 351b 5bbd e0a8 b6b9 685f a13d 2527 c7bc
000003c0: 9d09 e53c f52f d43d 08bd 023d e937 aabd
000003d0: b82d c23d b751 2d3e 6698 e93d 116c 61bc
000003e0: 01e8 a13d 7d83 063c b7d2 b2bd b834 983d
000003f0: 9e27 0bbb b079 5d3d 9b1d ec3c 491d 95bb
-0.06692218 0.012704104 -0.06743637 0.12123476 0.06358745 -0.004273337 -0.10051865 -0.08880089
-0.011793142 -0.06994032 0.15532702 0.07635194 0.06554803 0.02306017 0.04076812 -0.121066056
-0.06253082 0.06778942 0.0038710881 -0.06966796 -0.038333587 0.011467668 0.016320547 -0.1262215
-0.053230193 -0.039987255 0.08736118 0.038723733 0.025156708 -0.019223735 0.011403254 0.020646323
-0.1448862 0.022992017 -0.04406513 -0.112717606 -0.03515182 -0.079463355 -0.051319618 -0.02796201
-0.059563722 0.023503974 -0.05991816 0.046893716 0.08700636 -0.028462417 -0.006065422 -0.06895599
-0.021790924 0.015838768 -0.04727226 -0.054436848 0.021366931 -0.011502949 -0.07195371 -0.09033599
0.0959965 -0.0273433 -0.03769093 0.054737642 -0.058549743 -0.008662223 0.116532125 0.09245183
0.020695262 -0.040954433 0.017380403 -0.064997435 0.027872201 -0.014182138 0.08739035 0.0015013538
-0.12720212 -0.078884706 0.008969996 0.001939967 -0.04940591 0.044446655 0.010319296 0.08313638
0.07143328 -0.045078855 -0.05759243 0.015843684 -0.008205878 -0.03102432 0.025447281 -0.08441783
-0.026313487 -0.02631541 -0.04073637 -0.0075376634 0.07722372 0.13015693 -0.03563699 0.033829264
0.008813271 0.087215744 0.012918084 -0.0748013 0.07873524 0.010597275 4.7972768e-05 -0.038609304
-0.007191925 -0.07895787 0.045876633 0.049274344 0.035906695 -0.037742198 0.06606818 0.04443366
0.029758826 0.0024254723 0.093480475 -0.08672427 -0.009055091 -0.039285433 0.08595415 -0.050041083
0.01504744 0.0728491 -0.04425172 -0.08982089 0.108759284 -0.07383015 0.021788372 0.066399544
0.019502662 0.0063478905 -0.035883006 0.0671381 0.02712098 -0.09130336 0.0653025 0.009258571
-0.07926257 0.017405204 -0.00031249382 0.034357954 0.016198242 0.0015354444 0.013459403 0.064898804
-0.021860857 -0.030149315 0.002371016 -0.018298184 0.10937428 0.018380038 0.02068285 -0.025003776
0.051748034 0.03207929 0.072482266 -0.06044477 0.082279146 0.016207851 -0.05559286 -0.075076096
-0.031255707 0.07114098 0.043915324 0.03381199 -0.030381074 0.008132115 0.007479403 0.046455543
-0.0181254 -0.016414214 0.05875962 0.04467879 0.029451927 -0.03749407 0.014964744 0.026986351
-0.011533836 0.012653402 0.023708029 -0.03613657 -0.08508272 -0.024861563 0.021885958 -0.08984727
-0.03809817 -0.033007227 0.043984998 0.08301696 0.035680205 0.017927144 0.013672563 0.05979272
0.022534652 -0.003870784 0.13505423 -0.1615963 0.009287313 -0.0007892768 0.070728466 -0.02657898
0.022600664 -0.0077136015 -0.0032614882 -0.037009414 0.022631183 0.06561424 -0.022333385 0.06921171
0.047930337 0.08050249 -0.030797 -0.002554755 -0.029282518 -0.08454031 0.003485525 0.022932025
-0.011282787 -0.0604597 0.06748854 0.021577274 -0.08194784 0.14104089 0.030755555 0.090062
-0.069577925 -0.025678767 -0.10491815 0.1890421 0.00027949657 -0.0015739833 0.04432302 -0.028629784
-0.071047194 0.0036051837 0.07486259 0.022502746 -0.053492744 -0.00034839567 0.078795254 -0.024310658
0.027958686 0.103607096 0.031918555 -0.08311445 0.094813764 0.16925703 0.11406021 -0.013758675
0.07905579 0.00821006 -0.08731597 0.0743193 -0.002123333 0.05407113 0.02882271 -0.00455061

network_body._body_endoder.seq_layers.4.bias f4 [256]
00000000: 0000 0000 0000 0000 0000 0000 0000 0000
00000010: 0000 0000 0000 0000 0000 0000 0000 0000
00000020: 0000 0000 0000 0000 0000 0000 0000 0000
00000030: 0000 0000 0000 0000 0000 0000 0000 0000
00000040: 0000 0000 0000 0000 0000 0000 0000 0000
00000050: 0000 0000 0000 0000 0000 0000 0000 0000
00000060: 0000 0000 0000 0000 0000 0000 0000 0000
00000070: 0000 0000 0000 0000 0000 0000 0000 0000
00000080: 0000 0000 0000 0000 0000 0000 0000 0000
00000090: 0000 0000 0000 0000 0000 0000 0000 0000
000000a0: 0000 0000 0000 0000 0000 0000 0000 0000
000000b0: 0000 0000 0000 0000 0000 0000 0000 0000
000000c0: 0000 0000 0000 0000 0000 0000 0000 0000
000000d0: 0000 0000 0000 0000 0000 0000 0000 0000
000000e0: 0000 0000 0000 0000 0000 0000 0000 0000
000000f0: 0000 0000 0000 0000 0000 0000 0000 0000
00000100: 0000 0000 0000 0000 0000 0000 0000 0000
00000110: 0000 0000 0000 0000 0000 0000 0000 0000
00000120: 0000 0000 0000 0000 0000 0000 0000 0000
00000130: 0000 0000 0000 0000 0000 0000 0000 0000
00000140: 0000 0000 0000 0000 0000 0000 0000 0000
00000150: 0000 0000 0000 0000 0000 0000 0000 0000
00000160: 0000 0000 0000 0000 0000 0000 0000 0000
00000170: 0000 0000 0000 0000 0000 0000 0000 0000
00000180: 0000 0000 0000 0000 0000 0000 0000 0000
00000190: 0000 0000 0000 0000 0000 0000 0000 0000
000001a0: 0000 0000 0000 0000 0000 0000 0000 0000
000001b0: 0000 0000 0000 0000 0000 0000 0000 0000
000001c0: 0000 0000 0000 0000 0000 0000 0000 0000
000001d0: 0000 0000 0000 0000 0000 0000 0000 0000
000001e0: 0000 0000 0000 0000 0000 0000 0000 0000
000001f0: 0000 0000 0000 0000 0000 0000 0000 0000
00000200: 0000 0000 0000 0000 0000 0000 0000 0000
00000210: 0000 0000 0000 0000 0000 0000 0000 0000
00000220: 0000 0000 0000 0000 0000 0000 0000 0000
00000230: 0000 0000 0000 0000 0000 0000 0000 0000
00000240: 0000 0000 0000 0000 0000 0000 0000 0000
00000250: 0000 0000 0000 0000 0000 0000 0000 0000
00000260: 0000 0000 0000 0000 0000 0000 0000 0000
00000270: 0000 0000 0000 0000 0000 0000 0000 0000
00000280: 0000 0000 0000 0000 0000 0000 0000 0000
00000290: 0000 0000 0000 0000 0000 0000 0000 0000
000002a0: 0000 0000 0000 0000 0000 0000 0000 0000
000002b0: 0000 0000 0000 0000 0000 0000 0000 0000
000002c0: 0000 0000 0000 0000 0000 0000 0000 0000
000002d0: 0000 0000 0000 0000 0000 0000 0000 0000
000002e0: 0000 0000 0000 0000 0000 0000 0000 0000
000002f0: 0000 0000 0000 0000 0000 0000 0000 0000
00000300: 0000 0000 0000 0000 0000 0000 0000 0000
00000310: 0000 0000 0000 0000 0000 0000 0000 0000
00000320: 0000 0000 0000 0000 0000 0000 0000 0000
00000330: 0000 0000 0000 0000 0000 0000 0000 0000
00000340: 0000 0000 0000 0000 0000 0000 0000 0000
00000350: 0000 0000 0000 0000 0000 0000 0000 0000
00000360: 0000 0000 0000 0000 0000 0000 0000 0000
00000370: 0000 0000 0000 0000 0000 0000 0000 0000
00000380: 0000 0000 0000 0000 0000 0000 0000 0000
00000390: 0000 0000 0000 0000 0000 0000 0000 0000
000003a0: 0000 0000 0000 0000 0000 0000 0000 0000
000003b0: 0000 0000 0000 0000 0000 0000 0000 0000
000003c0: 0000 0000 0000 0000 0000 0000 0000 0000
000003d0: 0000 0000 0000 0000 0000 0000 0000 0000
000003e0: 0000 0000 0000 0000 0000 0000 0000 0000
000003f0: 0000 0000 0000 0000 0000 0000 0000 0000
0.0 0.0 0.0 0.0 0.0 0.0 0.0 0.0
0.0 0.0 0.0 0.0 0.0 0.0 0.0 0.0
0.0 0.0 0.0 0.0 0.0 0.0 0.0 0.0
0.0 0.0 0.0 0.0 0.0 0.0 0.0 0.0
0.0 0.0 0.0 0.0 0.0 0.0 0.0 0.0
0.0 0.0 0.0 0.0 0.0 0.0 0.0 0.0
0.0 0.0 0.0 0.0 0.0 0.0 0.0 0.0
0.0 0.0 0.0 0.0 0.0 0.0 0.0 0.0
0.0 0.0 0.0 0.0 0.0 0.0 0.0 0.0
0.0 0.0 0.0 0.0 0.0 0.0 0.0 0.0
0.0 0.0 0.0 0.0 0.0 0.0 0.0 0.0
0.0 0.0 0.0 0.0 0.0 0.0 0.0 0.0
0.0 0.0 0.0 0.0 0.0 0.0 0.0 0.0
0.0 0.0 0.0 0.0 0.0 0.0 0.0 0.0
0.0 0.0 0.0 0.0 0.0 0.0 0.0 0.0
0.0 0.0 0.0 0.0 0.0 0.0 0.0 0.0
0.0 0.0 0.0 0.0 0.0 0.0 0.0 0.0
0.0 0.0 0.0 0.0 0.0 0.0 0.0 0.0
0.0 0.0 0.0 0.0 0.0 0.0 0.0 0.0
0.0 0.0 0.0 0.0 0.0 0.0 0.0 0.0
0.0 0.0 0.0 0.0 0.0 0.0 0.0 0.0
0.0 0.0 0.0 0.0 0.0 0.0 0.0 0.0
0.0 0.0 0.0 0.0 0.0 0.0 0.0 0.0
0.0 0.0 0.0 0.0 0.0 0.0 0.0 0.0
0.0 0.0 0.0 0.0 0.0 0.0 0.0 0.0
0.0 0.0 0.0 0.0 0.0 0.0 0.0 0.0
0.0 0.0 0.0 0.0 0.0 0.0 0.0 0.0
0.0 0.0 0.0 0.0 0.0 0.0 0.0 0.0
0.0 0.0 0.0 0.0 0.0 0.0 0.0 0.0
0.0 0.0 0.0 0.0 0.0 0.0 0.0 0.0
0.0 0.0 0.0 0.0 0.0 0.0 0.0 0.0
0.0 0.0 0.0 0.0 0.0 0.0 0.0 0.0

network_body._body_endoder.seq_layers.4.weight f4 [256, 256]
00000000: 3bf8 1d3c 10ff d6bd 940b 24bc 952a 4f3d
00000010: a16a 36bd 4508 1abb 2374 dc3c aa40 843d
00000020: ac08 22bd 2436 3fbd 46d5 1fbe c623 28bc
00000030: 5b4f 98bc e8dc efbd 44f1 e33c 7a89 b43d
00000040: 1fbe b6bb 54d0 a0bc 6e49 01bd d477 d83d
00000050: 87ee cdbc 3606 983c 3ebf eabd 641a 5a3d
00000060: 3b73 38bb e6c6 0e3d 65ef c6bc 872f 8fbd
00000070: 4689 b0bd dbd5 213c b7d9 db3b 3cfc e939
00000080: be1d 99bd 7c25 fbbc 5918 57bc 85c3 9fbd
00000090: 3333 cdbc 27f6 ea3c 3665 3ebc aab2 153c
000000a0: 0982 253d 3b89 95bd fbb6 993d f0b0 dd3d
000000b0: 1d9d 6f3c 4b36 45bc 46e5 e8bc 517f 633b
000000c0: cd12 773d f151 bfbd 2391 823c ce82 e83c
000000d0: 4e06 23bd 0a84 1abc af00 183c acf0 213d
000000e0: 8652 9cba 2e71 cb3d 0fc9 0bbd e1ca 43be
000000f0: 5373 4a3d e083 80bd c8f2 0ebe ff38 20bd
00000100: 6988 cc3d 0c3d da3d 8981 1ebe b2b5 d23b
00000110: b121 2dbd 33af 82bd 0863 17bd 02ea 233d
00000120: 4a3a 263e f032 763c a5b9 c6bc b2d2 503d
00000130: aebf 143d d8d6 843d 46f7 9a3d 16d7 d03c
00000140: c6cf 7dbc 4668 a53c 0cb5 483c f0fc 31bd
00000150: c169 c2bd 439e 543c 4478 79bd f630 b8bd
00000160: aa67 983d 8e82 61bd 651b a03d 22a7 73bd
00000170: 9160 5cbd cf40 973d 3617 113d c9c7 9cbd
00000180: cb12 4c3d d790 97bd bb95 823d 8ebd 663c
00000190: b82a dbbd 07df bdbd e866 c53c c1b3 8fbd
000001a0: 9724 4b3c 4a45 583d aad4 34bd dec5 73bc
000001b0: 67d5 f03c 4a14 103d 35fb 18bd de96 8f3d
000001c0: 615d a33c edd2 253b 50f1 363c 47da f43d
000001d0: 2907 d5bd 7158 243d 4b4e ab3d 4052 b9bc
000001e0: ab22 64bd 21ea a8bd 3cef 063d c857 16be
000001f0: ee56 1d3d 58ff be3c 36d1 d6bd a190 97bd
00000200: 5cd9 513c f60a 0b3d 888e 94bb 7649 b6bc
00000210: 8996 f6bc e56f 553d 5d7d e03d 0908 c73c
00000220: 3e79 443d 6235 2fbd 1132 b63d aaa8 993c
00000230: 62a8 dcbd e6e4 ecbc 5a41 513d 5ed2 c2bc
00000240: 84b8 113d 08db 593d 8cee 73bd 1012 a4bd
00000250: af5d 903b 9110 1fbd a25b 823c c14b 6ebd
00000260: 76e1 cfbb 37b0 f5bc fb7e 8b3b 5d24 5fbd
00000270: 1bf5 a73d 8a01 0ebd 8a0e b3ba 1369 25bd
00000280: fa22 dfbc 93db 31bd 0c33 20bc fbb2 883d
00000290: 2769 e53c e56d fe3c dece 813c d21b 913d
000002a0: 8a7a 643d 0bfc 34bb 2f59 fe3c 74de 673d
000002b0: caab 8dbd 0666 833d b322 e93c e220 7c3d
000002c0: 71ea 283d 8a59 79bc 70b9 be3b ff0f 2a3d
000002d0: 25b7 6ebd d286 c7bd dfa6 483d 8df8 3d3c
000002e0: 3305 cd3c 849a 42bd 30bc 6a3d af0b f03c
000002f0: 2dfb e1bc e166 82bd 9d0b 3abc a935 583d
00000300: 4089 c03d c0ae bf3d 04d5 3fbc 3fb1 8c3b
00000310: 5534 383d 98cc db3d 523d e33c 722b 853b
00000320: 22bd 2f3d 62a7 e13d f4b8 d73d 0b46 ba3d
00000330: 1af7 cbbd 3098 44bd e2ae 243b fcc3 823d
00000340: bb55 2d3c 4759 2b3d fc19 5ebd e00d 7bbd
00000350: 0101 87bc 0773 f43d 845c 2ebe cd25 0e3d
00000360: f223 7c3d a1a6 2a3c 3235 43bd 7b4d 8c3d
00000370: 4645 dcbc fed1 563d 65f6 293d 44ba 683d
00000380: b4c3 3d3d 309a 8dbd 857b 2b3d ba8c a83c
00000390: cf0a 003e e368 c8bc 5556 2d3d 194b 00be
000003a0: 6c03 48bc 46b3 9e3c 70c4 903d 23fc 943d
000003b0: 4272 febd e4a0 d83d ba59 9b3c 3cd7 e33c
000003c0: 4926 7cbd 70dd 2d3d 4a0a 1bbd 108e a3bd
000003d0: 0897 4ebd d4d9 003d 2cd7 b3bd ff15 e23c
000003e0: 8bd8 b2bc a686 5ebd 21f1 42bd 09cf a13b
000003f0: ee43 4c3d cac1 003d 945c f0bc f268 64bd
0.009641702 -0.10497868 -0.010012526 0.05057772 -0.044535283 -0.0023503464 0.026910847 0.06457646
-0.03955905 -0.046682492 -0.15608701 -0.010262435 -0.018592527 -0.117120564 0.027825005 0.08815284
-0.0055768634 -0.019630589 -0.03156417 0.105697304 -0.025138153 0.01855765 -0.11462258 0.053247824
-0.0028144855 0.034857653 -0.024284074 -0.06991487 -0.08619933 0.009877647 0.0067093032 0.00044629152
-0.07476376 -0.030657522 -0.0131283635 -0.07800964 -0.025048828 0.028681828 -0.01162081 0.009136835
0.040407214 -0.07301565 0.07505604 0.10824764 0.014624861 -0.01203687 -0.028429639 0.0034713338
0.060320664 -0.09341801 0.015938347 0.028382685 -0.039800934 -0.009430895 0.009277507 0.039536163
-0.0011926449 0.09933697 -0.03412729 -0.19120361 0.049426388 -0.06275153 -0.13959801 -0.039116856
0.09986956 0.10656175 -0.15479101 0.006430351 -0.04226846 -0.06381073 -0.036959678 0.04001809
0.16233173 0.015026793 -0.024258444 0.050982185 0.036315612 0.06486291 0.07566695 0.025493186
-0.015491432 0.020191323 0.012250196 -0.04345411 -0.09492827 0.012977186 -0.06090571 -0.089937136
0.07441647 -0.055056147 0.07817725 -0.059485562 -0.05380303 0.07385408 0.035422526 -0.076552935
0.04982261 -0.07400673 0.06376215 0.014083279 -0.10701507 -0.09271055 0.024096921 -0.07016707
0.01239886 0.052800454 -0.044148125 -0.014878718 0.029398633 0.0351756 -0.037348945 0.070111975
0.019941987 0.0025302724 0.011165932 0.119556956 -0.10401756 0.040123407 0.083645426 -0.022622228
-0.055697124 -0.082477815 0.032942995 -0.14681923 0.03841298 0.023315117 -0.104891226 -0.07400633
0.01280817 0.033946 -0.0045335926 -0.022251826 -0.030101078 0.052108664 0.10961411 0.024295824
0.047967188 -0.04277552 0.08896268 0.018757183 -0.10774304 -0.028917741 0.051087715 -0.023781952
0.03557636 0.0531874 -0.059553668 -0.08011258 0.004405699 -0.03883416 0.015912835 -0.058177713
-0.0063440157 -0.029991252 0.0042570806 -0.054478038 0.08201047 -0.034669437 -0.0013660949 -0.04038341
-0.027238358 -0.043422293 -0.0097777955 0.06674763 0.028004242 0.031058261 0.015845712 0.070853844
0.055780925 -0.002761605 0.031048385 0.056608632 -0.06917532 0.06415944 0.028458929 0.061554797
0.041239206 -0.015219102 0.0058204457 0.04151916 -0.05828013 -0.09742512 0.048987266 0.011594904
0.025026893 -0.04751064 0.057308376 0.029302446 -0.02758559 -0.06367279 -0.011355308 0.05278555
0.09401178 0.09359503 -0.011708502 0.0042935903 0.044971783 0.107323825 0.0277392 0.004064017
0.04290498 0.11018254 0.10533324 0.09095391 -0.0995924 -0.0479967 0.0025128652 0.06385037
0.010579522 0.04183319 -0.054224 -0.06129253 -0.01647997 0.11936002 -0.1702748 0.03470402
0.061557718 0.010415704 -0.047658153 0.06850716 -0.0268885 0.052446358 0.041494746 0.05681826
0.046329215 -0.069141746 0.041865844 0.020574916 0.12504123 -0.024464076 0.04231866 -0.12528647
-0.012207847 0.019372594 0.070687175 0.07274654 -0.12424137 0.105775625 0.018963683 0.027812593
-0.06155995 0.042447507 -0.03785161 -0.07986081 -0.050437003 0.031457737 -0.08781275 0.02759838
-0.021831771 -0.05432763 -0.04759324 0.0049380106 0.04986947 0.03143481 -0.02934102 -0.055764146

network_body._body_endoder.seq_layers.6.bias f4 [256]
00000000: 0000 0000 0000 0000 0000 0000 0000 0000
00000010: 0000 0000 0000 0000 0000 0000 0000 0000
00000020: 0000 0000 0000 0000 0000 0000 0000 0000
00000030: 0000 0000 0000 0000 0000 0000 0000 0000
00000040: 0000 0000 0000 0000 0000 0000 0000 0000
00000050: 0000 0000 0000 0000 0000 0000 0000 0000
00000060: 0000 0000 0000 0000 0000 0000 0000 0000
00000070: 0000 0000 0000 0000 0000 0000 0000 0000
00000080: 0000 0000 0000 0000 0000 0000 0000 0000
00000090: 0000 0000 0000 0000 0000 0000 0000 0000
000000a0: 0000 0000 0000 0000 0000 0000 0000 0000
000000b0: 0000 0000 0000 0000 0000 0000 0000 0000
000000c0: 0000 0000 0000 0000 0000 0000 0000 0000
000000d0: 0000 0000 0000 0000 0000 0000 0000 0000
000000e0: 0000 0000 0000 0000 0000 0000 0000 0000
000000f0: 0000 0000 0000 0000 0000 0000 0000 0000
00000100: 0000 0000 0000 0000 0000 0000 0000 0000
00000110: 0000 0000 0000 0000 0000 0000 0000 0000
00000120: 0000 0000 0000 0000 0000 0000 0000 0000
00000130: 0000 0000 0000 0000 0000 0000 0000 0000
00000140: 0000 0000 0000 0000 0000 0000 0000 0000
00000150: 0000 0000 0000 0000 0000 0000 0000 0000
00000160: 0000 0000 0000 0000 0000 0000 0000 0000
00000170: 0000 0000 0000 0000 0000 0000 0000 0000
00000180: 0000 0000 0000 0000 0000 0000 0000 0000
00000190: 0000 0000 0000 0000 0000 0000 0000 0000
000001a0: 0000 0000 0000 0000 0000 0000 0000 0000
000001b0: 0000 0000 0000 0000 0000 0000 0000 0000
000001c0: 0000 0000 0000 0000 0000 0000 0000 0000
000001d0: 0000 0000 0000 0000 0000 0000 0000 0000
000001e0: 0000 0000 0000 0000 0000 0000 0000 0000
000001f0: 0000 0000 0000 0000 0000 0000 0000 0000
00000200: 0000 0000 0000 0000 0000 0000 0000 0000
00000210: 0000 0000 0000 0000 0000 0000 0000 0000
00000220: 0000 0000 0000 0000 0000 0000 0000 0000
00000230: 0000 0000 0000 0000 0000 0000 0000 0000
00000240: 0000 0000 0000 0000 0000 0000 0000 0000
00000250: 0000 0000 0000 0000 0000 0000 0000 0000
00000260: 0000 0000 0000 0000 0000 0000 0000 0000
00000270: 0000 0000 0000 0000 0000 0000 0000 0000
00000280: 0000 0000 0000 0000 0000 0000 0000 0000
00000290: 0000 0000 0000 0000 0000 0000 0000 0000
000002a0: 0000 0000 0000 0000 0000 0000 0000 0000
000002b0: 0000 0000 0000 0000 0000 0000 0000 0000
000002c0: 0000 0000 0000 0000 0000 0000 0000 0000
000002d0: 0000 0000 0000 0000 0000 0000 0000 0000
000002e0: 0000 0000 0000 0000 0000 0000 0000 0000
000002f0: 0000 0000 0000 0000 0000 0000 0000 0000
00000300: 0000 0000 0000 0000 0000 0000 0000 0000
00000310: 0000 0000 0000 0000 0000 0000 0000 0000
00000320: 0000 0000 0000 0000 0000 0000 0000 0000
00000330: 0000 0000 0000 0000 0000 0000 0000 0000
00000340: 0000 0000 0000 0000 0000 0000 0000 0000
00000350: 0000 0000 0000 0000 0000 0000 0000 0000
00000360: 0000 0000 0000 0000 0000 0000 0000 0000
00000370: 0000 0000 0000 0000 0000 0000 0000 0000
00000380: 0000 0000 0000 0000 0000 0000 0000 0000
00000390: 0000 0000 0000 0000 0000 0000 0000 0000
000003a0: 0000 0000 0000 0000 0000 0000 0000 0000
000003b0: 0000 0000 0000 0000 0000 0000 0000 0000
000003c0: 0000 0000 0000 0000 0000 0000 0000 0000
000003d0: 0000 0000 0000 0000 0000 0000 0000 0000
000003e0: 0000 0000 0000 0000 0000 0000 0000 0000
000003f0: 0000 0000 0000 0000 0000 0000 0000 0000
0.0 0.0 0.0 0.0 0.0 0.0 0.0 0.0
0.0 0.0 0.0 0.0 0.0 0.0 0.0 0.0
0.0 0.0 0.0 0.0 0.0 0.0 0.0 0.0
0.0 0.0 0.0 0.0 0.0 0.0 0.0 0.0
0.0 0.0 0.0 0.0 0.0 0.0 0.0 0.0
0.0 0.0 0.0 0.0 0.0 0.0 0.0 0.0
0.0 0.0 0.0 0.0 0.0 0.0 0.0 0.0
0.0 0.0 0.0 0.0 0.0 0.0 0.0 0.0
0.0 0.0 0.0 0.0 0.0 0.0 0.0 0.0
0.0 0.0 0.0 0.0 0.0 0.0 0.0 0.0
0.0 0.0 0.0 0.0 0.0 0.0 0.0 0.0
0.0 0.0 0.0 0.0 0.0 0.0 0.0 0.0
0.0 0.0 0.0 0.0 0.0 0.0 0.0 0.0
0.0 0.0 0.0 0.0 0.0 0.0 0.0 0.0
0.0 0.0 0.0 0.0 0.0 0.0 0.0 0.0
0.0 0.0 0.0 0.0 0.0 0.0 0.0 0.0
0.0 0.0 0.0 0.0 0.0 0.0 0.0 0.0
0.0 0.0 0.0 0.0 0.0 0.0 0.0 0.0
0.0 0.0 0.0 0.0 0.0 0.0 0.0 0.0
0.0 0.0 0.0 0.0 0.0 0.0 0.0 0.0
0.0 0.0 0.0 0.0 0.0 0.0 0.0 0.0
0.0 0.0 0.0 0.0 0.0 0.0 0.0 0.0
0.0 0.0 0.0 0.0 0.0 0.0 0.0 0.0
0.0 0.0 0.0 0.0 0.0 0.0 0.0 0.0
0.0 0.0 0.0 0.0 0.0 0.0 0.0 0.0
0.0 0.0 0.0 0.0 0.0 0.0 0.0 0.0
0.0 0.0 0.0 0.0 0.0 0.0 0.0 0.0
0.0 0.0 0.0 0.0 0.0 0.0 0.0 0.0
0.0 0.0 0.0 0.0 0.0 0.0 0.0 0.0
0.0 0.0 0.0 0.0 0.0 0.0 0.0 0.0
0.0 0.0 0.0 0.0 0.0 0.0 0.0 0.0
0.0 0.0 0.0 0.0 0.0 0.0 0.0 0.0
