Cursed Tennis/Assets/Tennis/results/TennisPro5/Tennis/Tennis-2306.onnx (onnx, 886342 bytes, 13 tensors)

60 f4 [84]
000000 34 34 40 40 8b 30 cd 3f 9e 78 10 40 c5 03 4b 40
       3.0031862 1.6030439 2.257362 3.172105
000010 c1 fe 65 3f d9 ca d0 40 e2 b9 af 3f e0 42 eb 3f
       0.8984185 6.5247617 1.3728602 1.8379784
000020 8f 6f 63 40 c1 fe 65 3f b1 fd fc 3d 34 34 40 40
       3.553684 0.8984185 0.12353075 3.0031862
000030 8b 30 cd 3f c1 fe 65 3f 64 c6 a4 3e 76 e2 9d 3e
       1.6030439 0.8984185 0.3218261 0.30836838
000040 b1 fd fc 3d 1b ab 02 3e d9 ca d0 40 e2 b9 af 3f
       0.12353075 0.12760584 6.5247617 1.3728602
000050 ed e7 d6 3f 27 67 26 40 b9 e9 d6 3f f5 29 16 40
       1.6789528 2.600046 1.6790076 2.3463109
000060 ba 0c 58 40 cf 55 57 3f f0 f5 da 40 7b 52 d0 3f
       3.3757768 0.8411531 6.8425217 1.6275171
000070 f9 0a f7 3f 52 6e 73 40 cf 55 57 3f 8b dc f9 3d
       1.9300224 3.8036084 0.8411531 0.12200268
000080 27 67 26 40 b9 e9 d6 3f cf 55 57 3f 40 ba 97 3e
       2.600046 1.6790076 0.8411531 0.29634285
000090 a5 04 8d 3e 8b dc f9 3d 98 fa 00 3e f0 f5 da 40
       0.27542606 0.12200268 0.12595594 6.8425217
0000a0 7b 52 d0 3f 79 74 df 3f 6c 79 fe 3f 95 9d d9 3f
       1.6275171 1.745742 1.9880805 1.7001215
0000b0 1a 66 1c 40 b0 10 5b 40 6e 77 42 3f 00 da e4 40
       2.4437318 3.4228935 0.75963485 7.1516113
0000c0 36 9f f7 3f e0 23 01 40 d6 9a 80 40 6e 77 42 3f
       1.9345462 2.0178146 4.018901 0.75963485
0000d0 31 dd f3 3d 6c 79 fe 3f 95 9d d9 3f 6e 77 42 3f
       0.11907423 1.9880805 1.7001215 0.75963485
0000e0 e6 c8 84 3e 68 54 68 3e 31 dd f3 3d 05 50 fb 3d
       0.25934523 0.22688448 0.11907423 0.12271122
0000f0 00 da e4 40 36 9f f7 3f c6 2d e9 3f a6 80 45 3f
       7.1516113 1.9345462 1.8217094 0.77149427
000100 74 c3 d4 3f 25 6d 23 40 25 a4 5e 40 fe 95 23 3f
       1.6622148 2.5535367 3.4787686 0.63900745
000110 0a 83 ee 40 32 46 12 40 ec 25 07 40 f8 dc 85 40
       7.453496 2.2855344 2.1116896 4.1832237
000120 fe 95 23 3f b7 5c eb 3d a6 80 45 3f 74 c3 d4 3f
       0.63900745 0.11492293 0.77149427 1.6622148
000130 fe 95 23 3f 03 c9 52 3e 57 71 18 3e b7 5c eb 3d
       0.63900745 0.20584492 0.14886986 0.11492293
000140 1e c2 f1 3d 0a 83 ee 40 32 46 12 40 75 f5 f3 3f
       0.11804603 7.453496 2.2855344 1.9059283

action_model._continuous_distribution.log_sigma f4 [1, 6]
000000 00 00 00 00 00 00 00 00 00 00 00 00 00 00 00 00
       0.0 0.0 0.0 0.0
000010 00 00 00 00 00 00 00 00
       0.0 0.0

action_model._continuous_distribution.mu.bias f4 [6]
000000 00 00 00 00 00 00 00 00 00 00 00 00 00 00 00 00
       0.0 0.0 0.0 0.0
000010 00 00 00 00 00 00 00 00
       0.0 0.0

action_model._continuous_distribution.mu.weight f4 [6, 256]
000000 43 9c f4 3a 9e 6b 2b bc 11 fd 35 bc 85 c9 5f ba
       0.0018662292 -0.01046267 -0.011107699 -0.00085368037
000010 f7 3f 13 bc a5 6d 64 3c d3 e9 83 3b 8d 6b ed 3b
       -0.008987418 0.013942157 0.0040256768 0.007245487
000020 d3 81 32 bb a9 69 3f bc ef 18 39 3b 2a be 24 3c
       -0.0027238026 -0.011682906 0.0028243621 0.010055104
000030 63 fd 5d bc e8 b8 19 3c 22 6a 3f 3c cf 59 87 3c
       -0.013549182 0.009382464 0.011683019 0.016522316
000040 13 2d 9b ba 85 8c e8 3a 0b 40 2c 3c c2 ef 0c 3c
       -0.0011838995 0.0017742073 0.010513316 0.008602085
000050 d0 80 d4 3b 0f 0a 90 3b 4a 6d 54 bc 3f 5e b6 bc
       0.006485082 0.0043957303 -0.01296551 -0.022261737
000060 0f c5 8c bc 33 95 63 3a 58 a2 a4 3c 87 3f 84 3c
       -0.017183809 0.0008681595 0.020096943 0.016143573
000070 4d 9b ea 3b 79 5c 9b 3b 41 dd ba 39 aa 25 03 bb
       0.0071596266 0.004741248 0.00035641532 -0.0020011463
000080 f3 48 9b bb c8 8c 5e bc 35 6d 04 3c ca f2 76 3c
       -0.004738921 -0.01358337 0.008082678 0.015072534
000090 a4 89 01 bc 35 36 9c b9 03 2c 07 bc 97 b5 83 bc
       -0.007906351 -0.00029795026 -0.008250239 -0.0160778
0000a0 b1 d2 33 3c 70 e6 bc 3c 80 36 20 bc 17 1b 95 3c
       0.010975526 0.0230591 -0.009778619 0.018201394
0000b0 2b f6 92 3b 6b 1c 30 3c 92 5a 55 3c 42 fe f6 bb
       0.004484912 0.010748963 0.013022082 -0.007537634
0000c0 ae e5 c2 bc bb af f2 3b 1f cf a6 bc 8d a3 65 3c
       -0.02379116 0.0074062026 -0.020362435 0.014016044
0000d0 53 9b e2 3b 25 19 97 bb 93 ac c9 bb 50 01 1f bc
       0.0069154887 -0.0046111518 -0.0061546057 -0.009704903
0000e0 bc 30 4c 3c e8 44 1b 3c ef 0d 59 bc 53 64 f3 bc
       0.012462791 0.009476878 -0.013247951 -0.029710924
0000f0 8b ee 12 bc 82 b4 05 bc 93 f4 f2 bb d5 27 92 bc
       -0.008968006 -0.008160712 -0.0074144094 -0.017841259
000100 c7 af f7 ba b7 73 5c 3c d0 86 5c bc d8 2d 89 3c
       -0.001889699 0.013455323 -0.013459876 0.016745493
000110 7f 8f 1c bc 82 5e f2 3b 17 70 5c bb 88 52 e2 39
       -0.0095556965 0.00739652 -0.0033636147 0.0004316757
000120 5f 89 90 3c ed b9 f7 38 d0 1b c1 3b 25 bc 02 bc
       0.017643629 0.00011812509 0.005893208 -0.007979427
000130 e3 e6 7b 3b 5d 64 c3 3a 1f 2d ea bb 1b d8 c7 3c
       0.003843718 0.001490723 -0.007146492 0.02439504
000140 56 14 0c 3c c7 63 3e 3a c3 af c1 bc 61 ca 30 3c
       0.00854977 0.0007262793 -0.02364338 0.010790438
000150 e7 17 d1 3b 6b 19 21 bb a6 d0 82 bc 8b 4e 23 bc
       0.006381023 -0.00245818 -0.015968632 -0.009967457
000160 6d dc 73 3c 02 3a 1f 3c e9 26 89 bc 37 29 a3 bc
       0.014884097 0.00971842 -0.016742187 -0.019917114
000170 d6 45 8d bb 5a 45 53 ba 0f 01 6d bc ca 26 12 38
       -0.0043113036 -0.00080593454 -0.014465584 3.4845238e-05
000180 cb 8d 64 3c 37 ff f4 39 ca 51 08 3c f5 26 eb bb
       0.013949822 0.00046729457 0.008320281 -0.007176275
000190 15 23 3e ba e8 e0 85 bb 32 17 1c bc e4 ee 12 3c
       -0.00072531524 -0.004085649 -0.009527015 0.008968089
0001a0 8f 77 0a ba 92 4a d0 3b d7 4f 66 3c 37 dc a9 3b
       -0.0005282098 0.0063565457 0.014057121 0.0051837224
0001b0 a3 c4 fa bb d8 46 05 3c f2 36 da bb 34 99 91 bc
       -0.0076528355 0.008134566 -0.006659382 -0.017773248
0001c0 f1 7d 2e bb 43 c1 5b bc e7 ff 56 bc 33 b5 21 3a
       -0.002662536 -0.013412776 -0.013122535 0.00061686634
0001d0 d3 b5 7f 3c 69 10 1f bc 77 ea bb bc d4 5a 30 3c
       0.015607315 -0.009708502 -0.02293895 0.010763843
0001e0 bb 44 ea bb 1b 5b ce ba 87 04 d6 3b 50 b1 80 bb
       -0.0071493066 -0.0015743704 0.0065313014 -0.0039273873
0001f0 c0 9b 9a 3b 88 ec 59 bc 76 9d 0b 3c f8 d6 59 3c
       0.004718274 -0.013301022 0.008521428 0.013295881
000200 43 d5 e1 bc 9d 31 81 3b 32 a3 c4 3a ca 92 1f bc
       -0.027567511 0.003942682 0.0015002249 -0.009739587
000210 2f 2a 50 bb d8 d1 34 ba 7f b3 ba bc 96 29 9c 3c
       -0.0031763425 -0.0006897724 -0.022790669 0.019062798
000220 85 b9 21 bc cb eb 56 bc 6a 96 ea ba bb cc f4 3a
       -0.009870891 -0.013117741 -0.001789761 0.0018676737
000230 d0 22 21 bc a6 f7 37 bc 68 ab 5e bc 2f f1 0b 3c
       -0.00983496 -0.011228478 -0.013590671 0.008541389
000240 36 cd c3 bc 14 35 b1 bb fd 68 a5 bb 6c 2f 31 bc
       -0.023901563 -0.0054079387 -0.005047916 -0.010814529
000250 d5 76 a5 3b 51 16 c4 3b a7 64 dc 3c 74 67 2b 3c
       0.0050495663 0.0059841056 0.026903464 0.010461677
000260 93 a1 1d bc 2a 58 f6 3a d2 a1 63 3c 63 8f ca bb
       -0.009621042 0.0018794585 0.013893561 -0.006181644
000270 58 12 50 3c 7d 33 e5 3a bb ac 92 bc f8 d5 5f 3c
       0.012699686 0.0017486658 -0.01790463 0.013661854
000280 3f 90 6b bc 7c 34 1e 3c 48 8e e2 bc 04 f8 06 ba
       -0.014377653 0.009656068 -0.027655736 -0.00051486515
000290 9a 21 d2 ba 3b fc b8 bc 81 23 a4 3a d7 01 a1 bb
       -0.0016031743 -0.02258121 0.0012522788 -0.0049135494
0002a0 c5 a6 8e 3c 48 5f 1e 3c 59 37 1e 3b 1b 1c 3d 3c
       0.017413506 0.0096662715 0.0024141876 0.011542345
0002b0 6f 4f 96 bc 00 00 84 bc e3 d9 20 3c 87 91 f6 3a
       -0.018348424 -0.016113281 0.009817573 0.0018811681
0002c0 3b 9b a6 bb f9 bf 16 bc 4b b8 c0 bb a5 78 54 b9
       -0.005084423 -0.009201043 -0.0058813444 -0.00020262839
0002d0 cd 06 bc 3c 18 83 14 3c 95 ab 1d bc 56 96 93 3c
       0.022952462 0.009064458 -0.009623428 0.018016022
0002e0 8b c7 29 3c db 1c d4 bb 72 b6 7f bb 98 a4 09 bc
       0.010362516 -0.0064731664 -0.0039018658 -0.008401059
0002f0 57 94 a9 ba ea 01 dd 3b cb 7f a5 3b 7f 59 53 bb
       -0.0012937885 0.006744613 0.0050506345 -0.0032249389
000300 4a c0 25 bc 63 70 e3 3a 5f 20 b9 bb 0b 51 fe bb
       -0.010116646 0.001735222 -0.005649611 -0.007761126
000310 40 6d 0c 3c ea 7a 60 3c d7 16 3f bc 7b fb a3 bb
       0.008570969 0.01370118 -0.01166316 -0.005004344
000320 27 8e 94 bc b9 df 36 3c c3 a7 5b 3c 3f 82 09 bb
       -0.01813419 0.011161738 0.013406697 -0.0020982174
000330 0f 0f 85 bb ce 5b 87 3c 36 e7 1c 3c ca 93 61 3b
       -0.004060633 0.016523268 0.009576609 0.0034420365
000340 3a fa 16 3c 60 78 78 bb 5f 5f 4c bb 3c fa ca b9
       0.009214932 -0.0037913546 -0.0031184775 -0.00038714882
000350 04 53 22 3b 03 fa 77 3c 72 9f 66 bc 68 2d 0e 3c
       0.002476872 0.015135291 -0.014076101 0.008677818
000360 83 13 9c bc fb 4b dc b9 82 b2 18 bc d9 d6 b4 3c
       -0.019052273 -0.0004201828 -0.009319903 0.022075104
000370 04 68 1c bb 35 3c 4e bc 5b 2b b5 3c af 1a 0d bb
       -0.002386571 -0.012587597 0.0221154 -0.0021530797
000380 57 da ff bc f0 7f 21 3c 25 2f 94 bc 91 4e ab bc
       -0.031232042 0.009857163 -0.018088887 -0.020911487
000390 00 79 78 bc 5f 34 48 3b 28 b5 82 bc 4d 13 37 3c
       -0.015165567 0.0030548794 -0.015955523 0.011174035
0003a0 7b 40 4a 3c 20 2d 6b bb 34 62 24 bc e2 e4 db 3c
       0.012344475 -0.003588505 -0.010033179 0.026842538
0003b0 25 fa af 3b 91 e7 26 3c db 48 dc 3a b7 a3 9f 3c
       0.0053703957 0.010187046 0.0016806381 0.019487245
0003c0 de 12 ab bb eb 0e b5 ba 27 87 53 bb d6 77 a4 bc
       -0.005220755 -0.001381365 -0.0032276602 -0.020076673
0003d0 b9 b0 90 3c 63 31 92 bb 79 a1 34 bc b2 79 bf 3b
       0.017662393 -0.0044614538 -0.011024826 0.0058433646
0003e0 81 3b 33 bc 1b 9c 46 3b cf f0 65 3b 17 1a 8a bb
       -0.01093948 0.0030305448 0.003508616 -0.004214536
0003f0 3a 66 d5 3a bc 02 37 bc 19 95 ab 3b 0d 7d b3 bb
       0.0016281076 -0.0111700855 0.0052362797 -0.0054775537

network_body._body_endoder.seq_layers.0.bias f4 [256]
000000 00 00 00 00 00 00 00 00 00 00 00 00 00 00 00 00
       0.0 0.0 0.0 0.0
000010 00 00 00 00 00 00 00 00 00 00 00 00 00 00 00 00
       0.0 0.0 0.0 0.0
000020 00 00 00 00 00 00 00 00 00 00 00 00 00 00 00 00
       0.0 0.0 0.0 0.0
000030 00 00 00 00 00 00 00 00 00 00 00 00 00 00 00 00
       0.0 0.0 0.0 0.0
000040 00 00 00 00 00 00 00 00 00 00 00 00 00 00 00 00
       0.0 0.0 0.0 0.0
000050 00 00 00 00 00 00 00 00 00 00 00 00 00 00 00 00
       0.0 0.0 0.0 0.0
000060 00 00 00 00 00 00 00 00 00 00 00 00 00 00 00 00
       0.0 0.0 0.0 0.0
000070 00 00 00 00 00 00 00 00 00 00 00 00 00 00 00 00
       0.0 0.0 0.0 0.0
000080 00 00 00 00 00 00 00 00 00 00 00 00 00 00 00 00
       0.0 0.0 0.0 0.0
000090 00 00 00 00 00 00 00 00 00 00 00 00 00 00 00 00
       0.0 0.0 0.0 0.0
0000a0 00 00 00 00 00 00 00 00 00 00 00 00 00 00 00 00
       0.0 0.0 0.0 0.0
0000b0 00 00 00 00 00 00 00 00 00 00 00 00 00 00 00 00
       0.0 0.0 0.0 0.0
0000c0 00 00 00 00 00 00 00 00 00 00 00 00 00 00 00 00
       0.0 0.0 0.0 0.0
0000d0 00 00 00 00 00 00 00 00 00 00 00 00 00 00 00 00
       0.0 0.0 0.0 0.0
0000e0 00 00 00 00 00 00 00 00 00 00 00 00 00 00 00 00
       0.0 0.0 0.0 0.0
0000f0 00 00 00 00 00 00 00 00 00 00 00 00 00 00 00 00
       0.0 0.0 0.0 0.0
000100 00 00 00 00 00 00 00 00 00 00 00 00 00 00 00 00
       0.0 0.0 0.0 0.0
000110 00 00 00 00 00 00 00 00 00 00 00 00 00 00 00 00
       0.0 0.0 0.0 0.0
000120 00 00 00 00 00 00 00 00 00 00 00 00 00 00 00 00
       0.0 0.0 0.0 0.0
000130 00 00 00 00 00 00 00 00 00 00 00 00 00 00 00 00
       0.0 0.0 0.0 0.0
000140 00 00 00 00 00 00 00 00 00 00 00 00 00 00 00 00
       0.0 0.0 0.0 0.0
000150 00 00 00 00 00 00 00 00 00 00 00 00 00 00 00 00
       0.0 0.0 0.0 0.0
000160 00 00 00 00 00 00 00 00 00 00 00 00 00 00 00 00
       0.0 0.0 0.0 0.0
000170 00 00 00 00 00 00 00 00 00 00 00 00 00 00 00 00
       0.0 0.0 0.0 0.0
000180 00 00 00 00 00 00 00 00 00 00 00 00 00 00 00 00
       0.0 0.0 0.0 0.0
000190 00 00 00 00 00 00 00 00 00 00 00 00 00 00 00 00
       0.0 0.0 0.0 0.0
0001a0 00 00 00 00 00 00 00 00 00 00 00 00 00 00 00 00
       0.0 0.0 0.0 0.0
0001b0 00 00 00 00 00 00 00 00 00 00 00 00 00 00 00 00
       0.0 0.0 0.0 0.0
0001c0 00 00 00 00 00 00 00 00 00 00 00 00 00 00 00 00
       0.0 0.0 0.0 0.0
0001d0 00 00 00 00 00 00 00 00 00 00 00 00 00 00 00 00
       0.0 0.0 0.0 0.0
0001e0 00 00 00 00 00 00 00 00 00 00 00 00 00 00 00 00
       0.0 0.0 0.0 0.0
0001f0 00 00 00 00 00 00 00 00 00 00 00 00 00 00 00 00
       0.0 0.0 0.0 0.0
000200 00 00 00 00 00 00 00 00 00 00 00 00 00 00 00 00
       0.0 0.0 0.0 0.0
000210 00 00 00 00 00 00 00 00 00 00 00 00 00 00 00 00
       0.0 0.0 0.0 0.0
000220 00 00 00 00 00 00 00 00 00 00 00 00 00 00 00 00
       0.0 0.0 0.0 0.0
000230 00 00 00 00 00 00 00 00 00 00 00 00 00 00 00 00
       0.0 0.0 0.0 0.0
000240 00 00 00 00 00 00 00 00 00 00 00 00 00 00 00 00
       0.0 0.0 0.0 0.0
000250 00 00 00 00 00 00 00 00 00 00 00 00 00 00 00 00
       0.0 0.0 0.0 0.0
000260 00 00 00 00 00 00 00 00 00 00 00 00 00 00 00 00
       0.0 0.0 0.0 0.0
000270 00 00 00 00 00 00 00 00 00 00 00 00 00 00 00 00
       0.0 0.0 0.0 0.0
000280 00 00 00 00 00 00 00 00 00 00 00 00 00 00 00 00
       0.0 0.0 0.0 0.0
000290 00 00 00 00 00 00 00 00 00 00 00 00 00 00 00 00
       0.0 0.0 0.0 0.0
0002a0 00 00 00 00 00 00 00 00 00 00 00 00 00 00 00 00
       0.0 0.0 0.0 0.0
0002b0 00 00 00 00 00 00 00 00 00 00 00 00 00 00 00 00
       0.0 0.0 0.0 0.0
0002c0 00 00 00 00 00 00 00 00 00 00 00 00 00 00 00 00
       0.0 0.0 0.0 0.0
0002d0 00 00 00 00 00 00 00 00 00 00 00 00 00 00 00 00
       0.0 0.0 0.0 0.0
0002e0 00 00 00 00 00 00 00 00 00 00 00 00 00 00 00 00
       0.0 0.0 0.0 0.0
0002f0 00 00 00 00 00 00 00 00 00 00 00 00 00 00 00 00
       0.0 0.0 0.0 0.0
000300 00 00 00 00 00 00 00 00 00 00 00 00 00 00 00 00
       0.0 0.0 0.0 0.0
000310 00 00 00 00 00 00 00 00 00 00 00 00 00 00 00 00
       0.0 0.0 0.0 0.0
000320 00 00 00 00 00 00 00 00 00 00 00 00 00 00 00 00
       0.0 0.0 0.0 0.0
000330 00 00 00 00 00 00 00 00 00 00 00 00 00 00 00 00
       0.0 0.0 0.0 0.0
000340 00 00 00 00 00 00 00 00 00 00 00 00 00 00 00 00
       0.0 0.0 0.0 0.0
000350 00 00 00 00 00 00 00 00 00 00 00 00 00 00 00 00
       0.0 0.0 0.0 0.0
000360 00 00 00 00 00 00 00 00 00 00 00 00 00 00 00 00
       0.0 0.0 0.0 0.0
000370 00 00 00 00 00 00 00 00 00 00 00 00 00 00 00 00
       0.0 0.0 0.0 0.0
000380 00 00 00 00 00 00 00 00 00 00 00 00 00 00 00 00
       0.0 0.0 0.0 0.0
000390 00 00 00 00 00 00 00 00 00 00 00 00 00 00 00 00
       0.0 0.0 0.0 0.0
0003a0 00 00 00 00 00 00 00 00 00 00 00 00 00 00 00 00
       0.0 0.0 0.0 0.0
0003b0 00 00 00 00 00 00 00 00 00 00 00 00 00 00 00 00
       0.0 0.0 0.0 0.0
0003c0 00 00 00 00 00 00 00 00 00 00 00 00 00 00 00 00
       0.0 0.0 0.0 0.0
0003d0 00 00 00 00 00 00 00 00 00 00 00 00 00 00 00 00
       0.0 0.0 0.0 0.0
0003e0 00 00 00 00 00 00 00 00 00 00 00 00 00 00 00 00
       0.0 0.0 0.0 0.0
0003f0 00 00 00 00 00 00 00 00 00 00 00 00 00 00 00 00
       0.0 0.0 0.0 0.0

network_body._body_endoder.seq_layers.0.weight f4 [256, 84]
000000 81 5d ea 3d 49 90 be bd 57 00 27 bd cd 07 98 be
       0.11443616 -0.09304864 -0.04077181 -0.29693452
000010 0f 7c fe 3d 97 b4 21 3e 27 29 c3 bd bd ed 70 3c
       0.12426006 0.15791546 -0.095293336 0.014705119
000020 48 d0 19 3d bb 8a 2d be 17 69 98 3d fd 87 a6 bd
       0.037552148 -0.16947453 0.07441919 -0.081314065
000030 61 df 9e bd 0b b5 46 bd b4 5e 25 bd ed 52 23 bd
       -0.0775745 -0.0485125 -0.04037352 -0.039874006
000040 fd 4d db bd eb fe 3e 3d 95 91 a9 bd 6e 76 a3 be
       -0.107082345 0.046629827 -0.08279721 -0.31926292
000050 9c 9c fb 3d 14 9f 08 be 7b 4e 8f 3d c5 ce 1d 3e
       0.1228573 -0.13341933 0.06997391 0.15410908
000060 d3 ff 1e be 05 10 78 3d 77 6b 59 3d bb 2b dc bc
       -0.15527277 0.060562152 0.053081002 -0.026876321
000070 d5 a9 2f 3d 37 a9 7c be 21 a8 0f 3e 9f 6f b3 3d
       0.042886574 -0.24673925 0.1402898 0.087615244
000080 2b 28 38 3d 01 56 f0 3c 17 03 4e 3c 58 0c f8 3d
       0.044960182 0.029337885 0.012573979 0.121117294
000090 6d 7a 21 3e 4a 29 0a 3e 1f a3 a0 bd 69 69 b0 bd
       0.15769358 0.13492313 -0.07843613 -0.086138554
0000a0 f0 4c bc bd 4c 53 15 bc 71 59 a0 3d da 6c 8e 3d
       -0.09194362 -0.009114098 0.078295596 0.069543555
0000b0 85 20 20 be 0f f6 46 bd 5e f2 08 3d 2f 36 0b 3e
       -0.15637405 -0.048574504 0.033434264 0.13594888
0000c0 a4 88 ad 3d 1f c2 0c be 49 e5 9f bc 06 96 70 3e
       0.08473328 -0.13745926 -0.019518511 0.2349473
0000d0 85 fe dc bd b8 e3 6b 3e c5 43 e3 3d 5e c0 38 be
       -0.10790733 0.23036087 0.110969104 -0.18042132
0000e0 d9 af 2b 3e 29 54 fb 3d c1 fd a1 3c f9 55 13 3d
       0.167663 0.12271912 0.01977432 0.03597066
0000f0 60 39 59 bd 17 5e f5 3c 2a 91 87 bd 01 3c 1a 3d
       -0.053033233 0.029952092 -0.06619485 0.03765488
000100 4b 7f 3e be 41 1d 01 bd 26 0c 25 be 60 4f 82 3d
       -0.18603246 -0.03152204 -0.16117916 0.06362796
000110 cc 69 83 3e 07 ed 17 be e3 9f 1f be 47 e3 c6 bd
       0.25666654 -0.14836513 -0.15588336 -0.097113185
000120 c0 d9 fa 3b b4 84 f2 bd 93 e4 ab bd 6f 8f be bd
       0.0076553524 -0.11841717 -0.083932064 -0.093047015
000130 9a eb 68 3e 0d 35 2f be 13 62 bf bd f3 ac a2 bd
       0.22746125 -0.17110081 -0.09344878 -0.07943144
000140 99 3f b5 bd ce 47 ce bd c0 ef 82 be f5 4b df 3d
       -0.08850021 -0.100722894 -0.2557354 0.109031595
000150 12 02 ec 3d 8a 57 44 be 7e 82 2d be 46 e0 3b be
       0.115238324 -0.19174019 -0.1694431 -0.18347272
000160 72 c9 af 3d b8 98 f2 3d 79 3e a2 bd ac bf 1f 3d
       0.085833445 0.11845535 -0.07922072 0.039001152
000170 e6 ce 71 bd 8c 4c b3 bd 21 1d 7e bd fb 71 25 3e
       -0.059035204 -0.087548345 -0.0620395 0.16156761
000180 1f ac 3c 3d 04 9c d4 bd e2 26 82 3c e8 66 96 bd
       0.046062585 -0.1038132 0.015887681 -0.073438466
000190 c1 29 ac bd d5 b1 7d bd 63 82 44 3e 68 1a 9d be
       -0.084064014 -0.061937172 0.19190364 -0.3068421
0001a0 6f 17 9d bd ef de ea 3d 22 b2 c8 bd bf 5e 72 be
       -0.07670485 0.114683025 -0.09799601 -0.23668955
0001b0 89 e2 3a 3d 48 9e c5 3d f8 60 f4 bd 1c 7a c7 3d
       0.045626197 0.096493304 -0.11932558 0.097400874
0001c0 53 60 09 3d e9 a2 d2 bd 23 10 01 be ef f1 a3 bd
       0.033539128 -0.10284979 -0.12603812 -0.080051295
0001d0 c8 a6 50 bc 8a d6 d9 3d 27 6c b7 be 24 88 b0 3c
       -0.012735076 0.10636623 -0.358247 0.021549292
0001e0 5c 2e d2 3d 00 c3 2e bd 9c b5 33 3e 20 29 99 3d
       0.102627486 -0.042666435 0.17549747 0.07478547
0001f0 b5 ce 02 3e 11 db 85 3e d8 e1 38 bd 64 de cf 3d
       0.12774165 0.26143697 -0.045137256 0.101498395
000200 74 a8 8c be 3b 9b fa bd e3 1a 24 be 1c 69 f9 bd
       -0.2747227 -0.12236639 -0.16025881 -0.12178251
000210 29 71 bb bd be 5a 44 3e 3b 98 13 3e 2f 42 4c 3e
       -0.09152443 0.1917524 0.1441354 0.19947122
000220 d9 02 97 ba e6 32 4b 3d 2e e9 b4 bd b5 d4 97 3d
       -0.0011521234 0.049609087 -0.08833538 0.074136175
000230 9f 8b f1 3d 7a 2c ad b9 56 84 78 3d 0d 59 9b bd
       0.11794209 -0.0003303027 0.06067308 -0.075853445
000240 ef 17 c3 bd cd ce 35 bd 28 2d 12 be 77 ab 9c 3e
       -0.09526049 -0.044386674 -0.14275038 0.30599567
000250 8d 1d 73 bd 98 af 34 bc 5e 0a 07 be 78 06 32 bd
       -0.059354354 -0.011028193 -0.13187549 -0.0434632
000260 79 73 cc 3d 25 9f 15 3e b1 70 60 be 80 6d 8b 3d
       0.09982962 0.1461149 -0.21917988 0.06807995
000270 88 bb c0 3d 39 8c cd bd 6f 6e da 3d 02 fa 21 3d
       0.09410769 -0.10036511 0.10665595 0.039545067
000280 d7 fb 8a 3d 3f 7f 15 bd 57 ec 86 3d 01 1f 0f 3d
       0.06786316 -0.036498304 0.06588047 0.034941677
000290 c9 0d 91 3d ad 54 20 3e 8e ef 76 bc 6e e0 4a 3d
       0.070827074 0.15657301 -0.015071763 0.04953044
0002a0 d6 18 3e 3c 84 c9 5e bd d5 37 66 bd 37 64 94 3d
       0.011602601 -0.0543914 -0.05620559 0.07245677
0002b0 03 ad 65 bd a0 74 0e be 87 d6 6b bd b2 31 24 3e
       -0.0560732 -0.13911676 -0.057577636 0.16034582
0002c0 a0 07 3d bd bf 1f ed 3d ae ca ac bd 59 e9 af 3c
       -0.04614985 0.11578321 -0.084370956 0.021473574
0002d0 77 2b 12 be b6 9f 23 3d 2c 33 cc 3d 27 fe 31 3d
       -0.14274393 0.039947234 0.09970698 0.04345527
0002e0 95 32 a9 bd 86 36 a1 3c 7e 07 1f 3c 3d 66 e1 3d
       -0.08261601 0.01967932 0.009706376 0.110058285
0002f0 a7 24 dc 3d 2a 86 5a bd b1 64 04 3d 23 64 68 be
       0.107491784 -0.053350605 0.03232259 -0.22694449
000300 88 a3 56 3e 29 e9 4e 3b d5 96 85 3d 10 7a d8 3d
       0.2096082 0.003157208 0.065229096 0.105701566
000310 47 7a 01 3d b2 0f 6e 3e 96 33 1a be 12 e5 27 3e
       0.031610753 0.23248175 -0.15058741 0.16395977
000320 13 63 f3 bb 58 ba 88 bd 60 f5 c8 3d 54 4a 0c 3e
       -0.007427582 -0.06676167 0.098124266 0.13700229
000330 d0 70 12 be 25 e0 e7 bd e1 82 2f 3e 60 57 90 3c
       -0.14300847 -0.11322049 0.1713977 0.017619789
000340 8c 4c a4 bd 73 da 61 be 5b f7 39 3d 4a ce d1 3c
       -0.08022413 -0.22055988 0.045401912 0.025611062
000350 ce a5 93 bb 27 d3 99 bd e9 84 89 be 55 e9 1a be
       -0.0045058494 -0.07510977 -0.26859215 -0.15128072
000360 a8 f6 25 be d9 c7 2f 3e df f0 8b bd 3d 45 26 be
       -0.16207373 0.1716608 -0.06833052 -0.1623735
000370 99 94 8b bd 11 0f 7a bd 9c d3 53 bd 8d 22 8c bc
       -0.06815452 -0.061049525 -0.05171548 -0.017106319
000380 f5 2d af 3d 70 d1 3c bd ac 51 28 bb 1b 3f 18 be
       0.085536875 -0.046098173 -0.0025683446 -0.14867823
000390 9a 16 96 bc 64 f8 03 be e7 cb 9f bd 2a 8f 42 be
       -0.018321324 -0.12887722 -0.07802563 -0.18999925
0003a0 81 38 a6 bd 4d fd 11 be 21 e9 dc bb 7a 88 62 3d
       -0.08116246 -0.14256783 -0.0067416583 0.055305935
0003b0 5b 3b 53 3d da a5 b5 3c 06 62 0b 3e 4e cc 67 3d
       0.051570278 0.02217381 0.13611612 0.056591325
0003c0 62 08 2d be da 8c 31 bd 4e 04 24 3e 8a 78 67 bc
       -0.16897729 -0.043347217 0.16017267 -0.01412786
0003d0 d8 64 13 bd 4d eb c7 bd 87 e4 91 bd 7c f9 b2 3c
       -0.035984844 -0.09761677 -0.07123666 0.021847479
0003e0 06 cb 09 3e 26 4c 3b 3d ce 77 9b bd 35 2e ed 3d
       0.13456354 0.045726918 -0.0759121 0.11581079
0003f0 94 fc d1 3d 37 9c 21 3e 13 02 aa 3c 94 14 90 3d
       0.102532536 0.15782247 0.020752942 0.07035175

network_body._body_endoder.seq_layers.2.bias f4 [256]
000000 00 00 00 00 00 00 00 00 00 00 00 00 00 00 00 00
       0.0 0.0 0.0 0.0
000010 00 00 00 00 00 00 00 00 00 00 00 00 00 00 00 00
       0.0 0.0 0.0 0.0
000020 00 00 00 00 00 00 00 00 00 00 00 00 00 00 00 00
       0.0 0.0 0.0 0.0
000030 00 00 00 00 00 00 00 00 00 00 00 00 00 00 00 00
       0.0 0.0 0.0 0.0
000040 00 00 00 00 00 00 00 00 00 00 00 00 00 00 00 00
       0.0 0.0 0.0 0.0
000050 00 00 00 00 00 00 00 00 00 00 00 00 00 00 00 00
       0.0 0.0 0.0 0.0
000060 00 00 00 00 00 00 00 00 00 00 00 00 00 00 00 00
       0.0 0.0 0.0 0.0
000070 00 00 00 00 00 00 00 00 00 00 00 00 00 00 00 00
       0.0 0.0 0.0 0.0
000080 00 00 00 00 00 00 00 00 00 00 00 00 00 00 00 00
       0.0 0.0 0.0 0.0
000090 00 00 00 00 00 00 00 00 00 00 00 00 00 00 00 00
       0.0 0.0 0.0 0.0
0000a0 00 00 00 00 00 00 00 00 00 00 00 00 00 00 00 00
       0.0 0.0 0.0 0.0
0000b0 00 00 00 00 00 00 00 00 00 00 00 00 00 00 00 00
       0.0 0.0 0.0 0.0
0000c0 00 00 00 00 00 00 00 00 00 00 00 00 00 00 00 00
       0.0 0.0 0.0 0.0
0000d0 00 00 00 00 00 00 00 00 00 00 00 00 00 00 00 00
       0.0 0.0 0.0 0.0
0000e0 00 00 00 00 00 00 00 00 00 00 00 00 00 00 00 00
       0.0 0.0 0.0 0.0
0000f0 00 00 00 00 00 00 00 00 00 00 00 00 00 00 00 00
       0.0 0.0 0.0 0.0
000100 00 00 00 00 00 00 00 00 00 00 00 00 00 00 00 00
       0.0 0.0 0.0 0.0
000110 00 00 00 00 00 00 00 00 00 00 00 00 00 00 00 00
       0.0 0.0 0.0 0.0
000120 00 00 00 00 00 00 00 00 00 00 00 00 00 00 00 00
       0.0 0.0 0.0 0.0
000130 00 00 00 00 00 00 00 00 00 00 00 00 00 00 00 00
       0.0 0.0 0.0 0.0
000140 00 00 00 00 00 00 00 00 00 00 00 00 00 00 00 00
       0.0 0.0 0.0 0.0
000150 00 00 00 00 00 00 00 00 00 00 00 00 00 00 00 00
       0.0 0.0 0.0 0.0
000160 00 00 00 00 00 00 00 00 00 00 00 00 00 00 00 00
       0.0 0.0 0.0 0.0
000170 00 00 00 00 00 00 00 00 00 00 00 00 00 00 00 00
       0.0 0.0 0.0 0.0
000180 00 00 00 00 00 00 00 00 00 00 00 00 00 00 00 00
       0.0 0.0 0.0 0.0
000190 00 00 00 00 00 00 00 00 00 00 00 00 00 00 00 00
       0.0 0.0 0.0 0.0
0001a0 00 00 00 00 00 00 00 00 00 00 00 00 00 00 00 00
       0.0 0.0 0.0 0.0
0001b0 00 00 00 00 00 00 00 00 00 00 00 00 00 00 00 00
       0.0 0.0 0.0 0.0
0001c0 00 00 00 00 00 00 00 00 00 00 00 00 00 00 00 00
       0.0 0.0 0.0 0.0
0001d0 00 00 00 00 00 00 00 00 00 00 00 00 00 00 00 00
       0.0 0.0 0.0 0.0
0001e0 00 00 00 00 00 00 00 00 00 00 00 00 00 00 00 00
       0.0 0.0 0.0 0.0
0001f0 00 00 00 00 00 00 00 00 00 00 00 00 00 00 00 00
       0.0 0.0 0.0 0.0
000200 00 00 00 00 00 00 00 00 00 00 00 00 00 00 00 00
       0.0 0.0 0.0 0.0
000210 00 00 00 00 00 00 00 00 00 00 00 00 00 00 00 00
       0.0 0.0 0.0 0.0
000220 00 00 00 00 00 00 00 00 00 00 00 00 00 00 00 00
       0.0 0.0 0.0 0.0
000230 00 00 00 00 00 00 00 00 00 00 00 00 00 00 00 00
       0.0 0.0 0.0 0.0
000240 00 00 00 00 00 00 00 00 00 00 00 00 00 00 00 00
       0.0 0.0 0.0 0.0
000250 00 00 00 00 00 00 00 00 00 00 00 00 00 00 00 00
       0.0 0.0 0.0 0.0
000260 00 00 00 00 00 00 00 00 00 00 00 00 00 00 00 00
       0.0 0.0 0.0 0.0
000270 00 00 00 00 00 00 00 00 00 00 00 00 00 00 00 00
       0.0 0.0 0.0 0.0
000280 00 00 00 00 00 00 00 00 00 00 00 00 00 00 00 00
       0.0 0.0 0.0 0.0
000290 00 00 00 00 00 00 00 00 00 00 00 00 00 00 00 00
       0.0 0.0 0.0 0.0
0002a0 00 00 00 00 00 00 00 00 00 00 00 00 00 00 00 00
       0.0 0.0 0.0 0.0
0002b0 00 00 00 00 00 00 00 00 00 00 00 00 00 00 00 00
       0.0 0.0 0.0 0.0
0002c0 00 00 00 00 00 00 00 00 00 00 00 00 00 00 00 00
       0.0 0.0 0.0 0.0
0002d0 00 00 00 00 00 00 00 00 00 00 00 00 00 00 00 00
       0.0 0.0 0.0 0.0
0002e0 00 00 00 00 00 00 00 00 00 00 00 00 00 00 00 00
       0.0 0.0 0.0 0.0
0002f0 00 00 00 00 00 00 00 00 00 00 00 00 00 00 00 00
       0.0 0.0 0.0 0.0
000300 00 00 00 00 00 00 00 00 00 00 00 00 00 00 00 00
       0.0 0.0 0.0 0.0
000310 00 00 00 00 00 00 00 00 00 00 00 00 00 00 00 00
       0.0 0.0 0.0 0.0
000320 00 00 00 00 00 00 00 00 00 00 00 00 00 00 00 00
       0.0 0.0 0.0 0.0
000330 00 00 00 00 00 00 00 00 00 00 00 00 00 00 00 00
       0.0 0.0 0.0 0.0
000340 00 00 00 00 00 00 00 00 00 00 00 00 00 00 00 00
       0.0 0.0 0.0 0.0
000350 00 00 00 00 00 00 00 00 00 00 00 00 00 00 00 00
       0.0 0.0 0.0 0.0
000360 00 00 00 00 00 00 00 00 00 00 00 00 00 00 00 00
       0.0 0.0 0.0 0.0
000370 00 00 00 00 00 00 00 00 00 00 00 00 00 00 00 00
       0.0 0.0 0.0 0.0
000380 00 00 00 00 00 00 00 00 00 00 00 00 00 00 00 00
       0.0 0.0 0.0 0.0
000390 00 00 00 00 00 00 00 00 00 00 00 00 00 00 00 00
       0.0 0.0 0.0 0.0
0003a0 00 00 00 00 00 00 00 00 00 00 00 00 00 00 00 00
       0.0 0.0 0.0 0.0
0003b0 00 00 00 00 00 00 00 00 00 00 00 00 00 00 00 00
       0.0 0.0 0.0 0.0
0003c0 00 00 00 00 00 00 00 00 00 00 00 00 00 00 00 00
       0.0 0.0 0.0 0.0
0003d0 00 00 00 00 00 00 00 00 00 00 00 00 00 00 00 00
       0.0 0.0 0.0 0.0
0003e0 00 00 00 00 00 00 00 00 00 00 00 00 00 00 00 00
       0.0 0.0 0.0 0.0
0003f0 00 00 00 00 00 00 00 00 00 00 00 00 00 00 00 00
       0.0 0.0 0.0 0.0

network_body._body_endoder.seq_layers.2.weight f4 [256, 256]
000000 bc ed 76 3c 8f ef e9 3c d1 77 a3 3b 57 b0 23 3e
       0.015071329 0.028556613 0.0049886485 0.15985237
000010 8f 95 18 3d 93 10 40 3c 92 a9 f2 3c 6a 46 dc 3c
       0.037252005 0.011722702 0.029621873 0.026889045
000020 e4 0c 86 3c 5f 78 90 bc 75 b2 7b bd 5e 73 fe 3a
       0.016363569 -0.017635522 -0.061449487 0.0019413044
000030 65 52 83 bd a7 5d ee 3a 74 29 e3 3c 68 18 2e 3c
       -0.064122 0.001818587 0.027729727 0.010625936
000040 1d bd 83 bd 9b 08 74 3d 1c 5b 58 bc fe c2 41 bc
       -0.06432555 0.05957852 -0.013205316 -0.011826275
000050 db 6b 22 3d a6 32 10 bc cd b8 7d bc c4 76 8c 3b
       0.03965364 -0.008801138 -0.0154859545 0.004286619
000060 b3 05 01 3e ca 31 10 3d 40 f1 7b bc c4 a4 50 bd
       0.1259983 0.035203733 -0.015377343 -0.050938383
000070 cb 17 05 bd d0 63 14 3c 19 05 05 bd f2 b0 7c bd
       -0.032493394 0.009057 -0.032475565 -0.061692186
000080 fc 0e 1a bd 60 c1 82 bb d5 4b 2e bc 6b 20 1d 3d
       -0.037611946 -0.0039903373 -0.010638197 0.038360994
000090 fe a4 7b 3d ab 48 15 3b 68 a1 02 be d6 02 a3 3d
       0.061436646 0.002277891 -0.12756884 0.07959525
0000a0 5b bf 76 bc 4d 33 3c bd 33 60 02 3c 2b a8 2a bb
       -0.015060271 -0.04594736 0.007957506 -0.0026040177
0000b0 8c a7 33 bd c2 f1 02 bb 80 2d 81 bd e5 18 7b 3d
       -0.043860957 -0.0019980525 -0.063075066 0.06130304
0000c0 e5 1c a6 bc 20 14 50 3d a0 b3 81 bc fd a8 2a 3d
       -0.02027745 0.050800443 -0.015832722 0.041665066
0000d0 7b 25 df bb 8c 81 a0 3d 8c 18 49 bb 16 75 8e 3d
       -0.006809888 0.07837209 -0.0030684797 0.06955926
0000e0 b7 6f b7 3d 2d 36 20 3c f4 8b 80 3c 91 3e 56 3d
       0.08956855 0.0097785415 0.015691735 0.05230576
0000f0 e4 46 97 bd 9c 1f 69 bd 08 26 98 bd 5d 40 ee 3c
       -0.07386568 -0.05691491 -0.07429129 0.029083425
000100 6e 44 a4 3d bb a9 93 bd 50 54 11 3b df 95 03 3d
       0.080208644 -0.07210108 0.0022175498 0.03212535
000110 ee 18 ae 3c 27 54 58 ba f1 26 7a 3d 35 1d a5 bd
       0.021252122 -0.0008252286 0.061072294 -0.080622114
000120 23 e6 00 bd 37 0d 3f bd 9d 4c fb 3d b4 63 0b 3d
       -0.031469475 -0.046643462 0.12270472 0.03403063
000130 7e 9d 03 3e 6f b6 6c bd ea 84 8c bd 43 03 73 3d
       0.12853047 -0.05779117 -0.06861289 0.059329282
000140 71 58 0f bd 68 9b 31 bd 18 e8 97 bc 1f 32 7c bd
       -0.034996454 -0.043361098 -0.018543288 -0.061571237
000150 a4 22 6a 3d d9 52 9b 3c d9 ee 2b 3d 82 b7 16 3d
       0.057161942 0.018960403 0.04197583 0.0367961
000160 b8 c4 cd 3d 20 90 e0 bc bd 8f 8a 3c 4d 27 23 bd
       0.10047287 -0.027412474 0.016914243 -0.039832402
000170 de 6b 06 bb a1 18 6e 3c 04 e0 7a 3d 1b 86 03 bd
       -0.0020511071 0.014532239 0.061248794 -0.032110315
000180 3a 18 8a 3d bf 7d 5a bd e9 b9 a7 bd 8f 1f bf bc
       0.06742902 -0.053342577 -0.081897564 -0.023330478
000190 b2 c8 65 3d 83 91 24 be f0 60 00 3b 09 7b 17 3d
       0.0560996 -0.16071133 0.001958903 0.03698257
0001a0 cf 63 96 bd 3e 40 0a 3b bf e9 2b bb 1f 53 19 3d
       -0.07343256 0.002109542 -0.0026231853 0.037432786
0001b0 a3 1d 1e bd d4 4a ed 3d dc 1c 3d 3d fb da aa bd
       -0.038602483 0.11586538 0.0461701 -0.083425485
0001c0 92 09 89 3d 3d b7 b9 3d 9b b3 38 3d d9 08 62 bd
       0.066912785 0.09068153 0.04509316 -0.05518422
0001d0 ac a8 02 bd 8a b1 16 bd b5 bb d9 bb c2 b0 46 3d
       -0.03189914 -0.03679041 -0.006644691 0.048508413
0001e0 b0 49 72 bd c7 30 00 bd fc 45 8d bd b4 35 de bb
       -0.059152305 -0.031296518 -0.06898114 -0.0067813043
0001f0 43 92 ac 3d d7 99 42 3c 28 20 04 3e 88 74 d6 bb
       0.08426335 0.011877499 0.12902892 -0.0065446533
000200 f4 4f 11 3e df 70 54 3d 80 63 bb bc cb 19 86 3d
       0.14190656 0.051865455 -0.022874594 0.06547888
000210 9c 5b 65 bd 30 3e 75 3d 77 11 96 bd a1 c7 9b 3d
       -0.05599557 0.05987376 -0.0732755 0.076064356
000220 19 3b bc bd ac 02 82 3d 5f cf 94 bd af 71 9f bc
       -0.091909595 0.06348166 -0.072661154 -0.019463388
000230 10 93 b7 3c 2b 76 27 3b da 53 a9 bc 30 1b bd 3d
       0.022408992 0.0025552611 -0.020669866 0.09233701
000240 fc 58 7a bb 02 b8 9e 3c 53 6f a3 3d b1 dd 7e bd
       -0.0038200011 0.019374851 0.07980218 -0.06222314
000250 22 26 1c bd 2c f5 96 bd 61 e2 af bc cf 35 25 3e
       -0.038122304 -0.073709816 -0.02147025 0.16133808
000260 85 38 6f 3d e2 10 07 bd 99 0f f8 bd a9 d8 e6 3c
       0.05840351 -0.032975085 -0.1211235 0.028179483
000270 b8 37 93 bd cb ac d0 3b be 03 0c 3e 01 81 a8 bd
       -0.07188362 0.006368255 0.13673303 -0.082277305
000280 34 f0 b8 bc ba 1f bd bc 37 3d 39 3d 24 58 0b 3d
       -0.022575475 -0.023086417 0.045224395 0.034019604
000290 d8 d8 e9 bd 10 63 42 3d dc 7e fe bd 47 84 15 bd
       -0.11418313 0.047457755 -0.1242654 -0.036503103
0002a0 e8 09 c4 3c 3f db 10 3d 88 20 8d ba c0 d7 15 3d
       0.023930505 0.03536534 -0.0010767141 0.03658271
0002b0 28 11 1e bd c9 dc 14 3c 1d b6 01 bc 6c a5 61 bd
       -0.03859058 0.009085842 -0.007916954 -0.0550894
0002c0 09 38 b7 3d 7c 6f 45 bc f5 85 fc bd 25 92 0c bc
       0.08946235 -0.012050506 -0.12330238 -0.008579765
0002d0 10 4e 01 be fa 7b 47 3d 8e ea 9f b9 c8 20 b5 3c
       -0.12627435 0.048702218 -0.000305016 0.022110358
0002e0 64 2e 70 3d 29 45 54 bc d6 dd 02 bd a3 3d 5a bd
       0.05863799 -0.012955942 -0.03194984 -0.053281438
0002f0 3e 0c d5 bc 60 54 39 bd 7f 78 6c bb c7 5c 77 3d
       -0.026006814 -0.045246482 -0.0036082563 0.060391214
000300 2d 4e 11 3d f8 5a fb 3d 55 46 d3 3c 9e 53 b5 3d
       0.035474945 0.1227321 0.025790373 0.08853839
000310 03 e9 e0 3b b3 ba 1d 3d 80 20 11 3e 01 be 7e 3d
       0.0068637147 0.03850813 0.14172554 0.06219292
000320 62 28 91 3d ca 85 46 bd 8d b1 4a bd c6 16 bd bc
       0.070877805 -0.048467435 -0.049485732 -0.023082148
000330 e9 33 8f bd 24 75 60 3d 31 f9 69 3d 99 08 b2 bc
       -0.06992323 0.054799214 0.057122413 -0.021732615
000340 fa 26 a6 3c 3a 7c 5f 3b 47 3c 42 bd 09 6a 26 3d
       0.020282257 0.0034101144 -0.047420766 0.040628467
000350 f0 71 06 3d 83 85 e0 3d bf 95 1d 3b ea c4 f1 bc
       0.032823503 0.10962965 0.0024045554 -0.029512841
000360 bc 0e 05 be fa 46 d7 3d f4 8d c1 3c 78 8b 08 bd
       -0.12993902 0.105115846 0.023627259 -0.033336133
000370 96 4f aa bd 8b f9 83 bc 2e 66 15 3d 84 4e 57 3d
       -0.08315961 -0.016110202 0.0364744 0.052565113
000380 16 7a 8a bc fa ad c2 bb d0 44 88 bd 8c 99 0e bb
       -0.016903918 -0.00594115 -0.0665375 -0.0021759002
000390 15 93 22 3d 76 88 b5 bd 8b 87 97 bd b6 d7 cb bd
       0.03969105 -0.088639185 -0.073989 -0.09953253
0003a0 9e 70 ec bc b9 b7 c6 3d 3e 7f 45 3c fd 9e cd 3c
       -0.028862294 0.09703011 0.012054263 0.025100226
0003b0 09 06 90 3d cb 3e ae 3d bc b0 65 bd a3 64 5e 3d
       0.07032401 0.085080706 -0.05607675 0.054295193
0003c0 de 3a ad bd e9 bb 8c bd b9 40 08 3d 10 25 d4 bd
       -0.08458494 -0.068717785 0.03326485 -0.103586316
0003d0 62 1a 1a 3d 59 2e 78 3d c6 58 51 3d 54 fd d7 3c
       0.037622817 0.060591076 0.05111005 0.026365913
0003e0 49 2f 74 bd bc 92 16 bc ef fb 84 bd 85 6f c8 3d
       -0.059615407 -0.009190258 -0.06493365 0.09786896
0003f0 ae 75 b8 bc dd 44 11 3a 0c ad ec bc 08 ab c0 3c
       -0.022517052 0.00055415725 -0.028891109 0.023519054

network_body._body_endoder.seq_layers.4.bias f4 [256]
000000 00 00 00 00 00 00 00 00 00 00 00 00 00 00 00 00
       0.0 0.0 0.0 0.0
000010 00 00 00 00 00 00 00 00 00 00 00 00 00 00 00 00
       0.0 0.0 0.0 0.0
000020 00 00 00 00 00 00 00 00 00 00 00 00 00 00 00 00
       0.0 0.0 0.0 0.0
000030 00 00 00 00 00 00 00 00 00 00 00 00 00 00 00 00
       0.0 0.0 0.0 0.0
000040 00 00 00 00 00 00 00 00 00 00 00 00 00 00 00 00
       0.0 0.0 0.0 0.0
000050 00 00 00 00 00 00 00 00 00 00 00 00 00 00 00 00
       0.0 0.0 0.0 0.0
000060 00 00 00 00 00 00 00 00 00 00 00 00 00 00 00 00
       0.0 0.0 0.0 0.0
000070 00 00 00 00 00 00 00 00 00 00 00 00 00 00 00 00
       0.0 0.0 0.0 0.0
000080 00 00 00 00 00 00 00 00 00 00 00 00 00 00 00 00
       0.0 0.0 0.0 0.0
000090 00 00 00 00 00 00 00 00 00 00 00 00 00 00 00 00
       0.0 0.0 0.0 0.0
0000a0 00 00 00 00 00 00 00 00 00 00 00 00 00 00 00 00
       0.0 0.0 0.0 0.0
0000b0 00 00 00 00 00 00 00 00 00 00 00 00 00 00 00 00
       0.0 0.0 0.0 0.0
0000c0 00 00 00 00 00 00 00 00 00 00 00 00 00 00 00 00
       0.0 0.0 0.0 0.0
0000d0 00 00 00 00 00 00 00 00 00 00 00 00 00 00 00 00
       0.0 0.0 0.0 0.0
0000e0 00 00 00 00 00 00 00 00 00 00 00 00 00 00 00 00
       0.0 0.0 0.0 0.0
0000f0 00 00 00 00 00 00 00 00 00 00 00 00 00 00 00 00
       0.0 0.0 0.0 0.0
000100 00 00 00 00 00 00 00 00 00 00 00 00 00 00 00 00
       0.0 0.0 0.0 0.0
000110 00 00 00 00 00 00 00 00 00 00 00 00 00 00 00 00
       0.0 0.0 0.0 0.0
000120 00 00 00 00 00 00 00 00 00 00 00 00 00 00 00 00
       0.0 0.0 0.0 0.0
000130 00 00 00 00 00 00 00 00 00 00 00 00 00 00 00 00
       0.0 0.0 0.0 0.0
000140 00 00 00 00 00 00 00 00 00 00 00 00 00 00 00 00
       0.0 0.0 0.0 0.0
000150 00 00 00 00 00 00 00 00 00 00 00 00 00 00 00 00
       0.0 0.0 0.0 0.0
000160 00 00 00 00 00 00 00 00 00 00 00 00 00 00 00 00
       0.0 0.0 0.0 0.0
000170 00 00 00 00 00 00 00 00 00 00 00 00 00 00 00 00
       0.0 0.0 0.0 0.0
000180 00 00 00 00 00 00 00 00 00 00 00 00 00 00 00 00
       0.0 0.0 0.0 0.0
000190 00 00 00 00 00 00 00 00 00 00 00 00 00 00 00 00
       0.0 0.0 0.0 0.0
0001a0 00 00 00 00 00 00 00 00 00 00 00 00 00 00 00 00
       0.0 0.0 0.0 0.0
0001b0 00 00 00 00 00 00 00 00 00 00 00 00 00 00 00 00
       0.0 0.0 0.0 0.0
0001c0 00 00 00 00 00 00 00 00 00 00 00 00 00 00 00 00
       0.0 0.0 0.0 0.0
0001d0 00 00 00 00 00 00 00 00 00 00 00 00 00 00 00 00
       0.0 0.0 0.0 0.0
0001e0 00 00 00 00 00 00 00 00 00 00 00 00 00 00 00 00
       0.0 0.0 0.0 0.0
0001f0 00 00 00 00 00 00 00 00 00 00 00 00 00 00 00 00
       0.0 0.0 0.0 0.0
000200 00 00 00 00 00 00 00 00 00 00 00 00 00 00 00 00
       0.0 0.0 0.0 0.0
000210 00 00 00 00 00 00 00 00 00 00 00 00 00 00 00 00
       0.0 0.0 0.0 0.0
000220 00 00 00 00 00 00 00 00 00 00 00 00 00 00 00 00
       0.0 0.0 0.0 0.0
000230 00 00 00 00 00 00 00 00 00 00 00 00 00 00 00 00
       0.0 0.0 0.0 0.0
000240 00 00 00 00 00 00 00 00 00 00 00 00 00 00 00 00
       0.0 0.0 0.0 0.0
000250 00 00 00 00 00 00 00 00 00 00 00 00 00 00 00 00
       0.0 0.0 0.0 0.0
000260 00 00 00 00 00 00 00 00 00 00 00 00 00 00 00 00
       0.0 0.0 0.0 0.0
000270 00 00 00 00 00 00 00 00 00 00 00 00 00 00 00 00
       0.0 0.0 0.0 0.0
000280 00 00 00 00 00 00 00 00 00 00 00 00 00 00 00 00
       0.0 0.0 0.0 0.0
000290 00 00 00 00 00 00 00 00 00 00 00 00 00 00 00 00
       0.0 0.0 0.0 0.0
0002a0 00 00 00 00 00 00 00 00 00 00 00 00 00 00 00 00
       0.0 0.0 0.0 0.0
0002b0 00 00 00 00 00 00 00 00 00 00 00 00 00 00 00 00
       0.0 0.0 0.0 0.0
0002c0 00 00 00 00 00 00 00 00 00 00 00 00 00 00 00 00
       0.0 0.0 0.0 0.0
0002d0 00 00 00 00 00 00 00 00 00 00 00 00 00 00 00 00
       0.0 0.0 0.0 0.0
0002e0 00 00 00 00 00 00 00 00 00 00 00 00 00 00 00 00
       0.0 0.0 0.0 0.0
0002f0 00 00 00 00 00 00 00 00 00 00 00 00 00 00 00 00
       0.0 0.0 0.0 0.0
000300 00 00 00 00 00 00 00 00 00 00 00 00 00 00 00 00
       0.0 0.0 0.0 0.0
000310 00 00 00 00 00 00 00 00 00 00 00 00 00 00 00 00
       0.0 0.0 0.0 0.0
000320 00 00 00 00 00 00 00 00 00 00 00 00 00 00 00 00
       0.0 0.0 0.0 0.0
000330 00 00 00 00 00 00 00 00 00 00 00 00 00 00 00 00
       0.0 0.0 0.0 0.0
000340 00 00 00 00 00 00 00 00 00 00 00 00 00 00 00 00
       0.0 0.0 0.0 0.0
000350 00 00 00 00 00 00 00 00 00 00 00 00 00 00 00 00
       0.0 0.0 0.0 0.0
000360 00 00 00 00 00 00 00 00 00 00 00 00 00 00 00 00
       0.0 0.0 0.0 0.0
000370 00 00 00 00 00 00 00 00 00 00 00 00 00 00 00 00
       0.0 0.0 0.0 0.0
000380 00 00 00 00 00 00 00 00 00 00 00 00 00 00 00 00
       0.0 0.0 0.0 0.0
000390 00 00 00 00 00 00 00 00 00 00 00 00 00 00 00 00
       0.0 0.0 0.0 0.0
0003a0 00 00 00 00 00 00 00 00 00 00 00 00 00 00 00 00
       0.0 0.0 0.0 0.0
0003b0 00 00 00 00 00 00 00 00 00 00 00 00 00 00 00 00
       0.0 0.0 0.0 0.0
0003c0 00 00 00 00 00 00 00 00 00 00 00 00 00 00 00 00
       0.0 0.0 0.0 0.0
0003d0 00 00 00 00 00 00 00 00 00 00 00 00 00 00 00 00
       0.0 0.0 0.0 0.0
0003e0 00 00 00 00 00 00 00 00 00 00 00 00 00 00 00 00
       0.0 0.0 0.0 0.0
0003f0 00 00 00 00 00 00 00 00 00 00 00 00 00 00 00 00
       0.0 0.0 0.0 0.0

network_body._body_endoder.seq_layers.4.weight f4 [256, 256]
000000 01 42 b4 bc b1 a6 df 3d 1d 15 4d 3c 79 cd a0 bd
       -0.02200413 0.10920466 0.012517241 -0.07851691
000010 c4 6d ba bc db 40 15 bc 6b 26 ba bd 8e f7 a8 3d
       -0.022757418 -0.009109701 -0.09089359 0.08250342
000020 93 65 3c bd 2e f8 69 bd 45 37 9c 3d c0 25 ab 3d
       -0.045995306 -0.05712145 0.07627729 0.083568096
000030 bc e5 73 bd 0c 41 21 bd 49 64 62 3a f7 f5 3b bd
       -0.059545264 -0.039368674 0.00086361595 -0.045888867
000040 d2 81 ba bd 33 dc 83 3d f2 a2 0b 3e 57 48 7b 3d
       -0.091067925 0.06438484 0.13636377 0.061348286
000050 bf 93 91 3d cb 2a 2c 3b 87 00 af 3b ea 4f 87 3d
       0.071082585 0.0026270624 0.005340639 0.06607039
000060 02 35 a7 3c 5e 54 fc 3d 51 70 d3 b8 c2 02 00 be
       0.020411018 0.12320779 -0.000100821846 -0.12501052
000070 51 d7 db 3b 94 ee 89 3d ea 48 f8 ba 1f 42 07 3d
       0.0067090173 0.06734958 -0.0018942629 0.033022042
000080 83 ed d4 3d 4a 91 d7 3c 02 59 a5 bb dd 8e d7 bb
       0.10396864 0.026314396 -0.005046011 -0.00657831
000090 91 5b df bc 41 bf 93 ba af 5a 99 bc 5b 47 cb 39
       -0.027265342 -0.0011272208 -0.01872 0.0003877234
0000a0 ae de 68 3c 11 36 a3 bc 7b 4d 8b 3c a5 5e 0b bc
       0.014213247 -0.019923242 0.017004719 -0.008506452
0000b0 7a 8e 2f bd 26 90 5e bc 02 38 d8 bc a1 57 53 bd
       -0.042860486 -0.013584172 -0.026393894 -0.05159724
0000c0 00 3f 12 bd dc 01 c5 bd 94 5a d6 bd 4e 30 60 3d
       -0.035704613 -0.09619495 -0.10466495 0.054733567
0000d0 a8 97 16 bd 25 68 a1 bc 91 39 4e 3c 70 1a fa 3d
       -0.036765724 -0.01970298 0.012586967 0.12212074
0000e0 c7 ee b7 3d b0 83 cc bd 21 0a e0 bc 1b dc 8c 3d
       0.0898109 -0.09986055 -0.02734858 0.06877919
0000f0 e2 3b 25 bd 2f 41 81 3c e6 7c 20 be 3d a8 9e bd
       -0.04034031 0.015778152 -0.15672645 -0.07746933
000100 60 92 24 3d d0 45 51 3c e0 7e bc 3d 85 63 4e bd
       0.040178657 0.012772992 0.09203887 -0.050387878
000110 f9 ba 59 bb d5 f6 21 be db c4 31 3d cd 56 88 bc
       -0.0033223017 -0.15816815 0.043400627 -0.016642952
000120 b2 08 b9 bc 64 24 78 bd 2c fa 06 3d ea cc e6 3c
       -0.022587154 -0.06058158 0.032953426 0.028173883
000130 98 d9 c4 3a 52 cb 81 bc f8 74 29 bd 34 eb 6d 3d
       0.0015018461 -0.015844021 -0.041371316 0.058085635
000140 5c 83 0c 3c f7 0e 9d 3d 78 90 58 bd 37 30 21 bc
       0.00857624 0.0766887 -0.05287215 -0.0098381555
000150 b8 69 09 bc fa 2a d2 bc 78 dc a2 3c cc 06 b2 bb
       -0.008387022 -0.025655258 0.019880518 -0.005432939
000160 fe d1 52 bd c9 16 47 bd d5 8f 5c bd df 84 9e 3c
       -0.051469795 -0.048605714 -0.053848106 0.019350467
000170 fd 94 d8 b9 4a 4b 43 bd 60 c7 8b 3b 11 b7 fa bc
       -0.00041309735 -0.047679223 0.0042657107 -0.030604871
000180 46 ec d2 3c 94 75 20 be 76 18 4e bd 73 79 32 3d
       0.02574743 -0.15669852 -0.050316297 0.043572854
000190 22 df 86 3d d4 f9 13 3d 5c 07 73 3b 05 09 3d 3b
       0.06585528 0.036126927 0.0037083244 0.0028844487
0001a0 2f b9 d1 3d 4e 33 cd bc 28 72 79 3c 30 92 98 3d
       0.10240399 -0.025048878 0.015224971 0.07449758
0001b0 1f b6 e0 3d d1 74 35 3d 49 30 05 bc 4b ed 14 3b
       0.10972237 0.044300858 -0.008129188 0.0022724445
0001c0 c1 83 18 bd b0 23 04 bd d5 3d da bd 31 bd a0 bb
       -0.037235025 -0.032260597 -0.10656325 -0.004905366
0001d0 69 f9 ff bc 4d 90 6a bc 60 ee 49 3d 88 59 8b bb
       -0.031246858 -0.014316631 0.049299598 -0.0042526163
0001e0 45 ac 2c 3d 40 db bc bb ed c2 2c 3d 46 ea 38 3d
       0.042156477 -0.0057634413 0.042178083 0.045145296
0001f0 45 64 2d bb 57 38 68 3d 4b 36 4d 3d aa 7a df 3c
       -0.002645747 0.056694355 0.050100606 0.02728017
000200 52 70 9e bb 47 41 99 3c 3f c1 84 bc ae d9 56 bc
       -0.004835167 0.018707884 -0.016205428 -0.013113422
000210 c8 e4 9d 3d 6b 49 71 3d 77 61 f5 bc e7 14 c1 3c
       0.07709652 0.058907907 -0.029953701 0.023569537
000220 27 9e 35 3d 77 2a 1a bd fc 63 79 bc ee cb 32 bd
       0.04434028 -0.037638154 -0.015221592 -0.043651514
000230 dd 60 1e bd dd 1e 9c 3d 1a 13 32 3c 24 28 0c bd
       -0.038666595 0.07623074 0.010868812 -0.03421797
000240 7e 8c 9e bd 6d 52 a6 bd 36 01 e4 3d b4 a8 f3 3d
       -0.077416405 -0.0812119 0.111330435 0.11897412
000250 2f 6f 86 3d cb 16 d7 3d 5c e3 40 bd 87 a9 ec 3b
       0.06564175 0.10502394 -0.047091827 0.0072223577
000260 c7 b3 9a bd b2 89 6a 3d a3 6c bd 3c 1a 5c e1 bd
       -0.07553821 0.057260223 0.023123091 -0.11003895
000270 5a c0 ee bc d6 b2 d7 bb a8 7a fc 3d 74 59 98 3d
       -0.029144455 -0.006582598 0.12328082 0.07438937
000280 c9 8b de bc 74 36 cc 3c 50 ca 9d bc 21 19 0a 3e
       -0.027166264 0.024928309 -0.01926151 0.13486148
000290 3c 1f 6b 3c 9c 07 17 3d 84 fa 05 bb 0b bc 9e 3c
       0.014350709 0.03687249 -0.0020443508 0.019376775
0002a0 48 38 a9 3d e3 76 f7 3d f4 bb 49 3c 60 68 b8 bd
       0.08262688 0.12083223 0.012312878 -0.09004283
0002b0 2b 36 b1 3c 5b 98 aa 3d 08 cf 24 bc 49 0e a5 bc
       0.021632275 0.08329841 -0.010059126 -0.020148413
0002c0 2b a2 ac bc c5 dd da 3b b3 4b 96 bd 8a ef 93 bc
       -0.021073421 0.006679269 -0.07338657 -0.018058557
0002d0 20 76 92 bc 0b bd 96 bd c3 ce 47 3c 42 f5 6b 3d
       -0.017878592 -0.07360276 0.012195292 0.057606943
0002e0 9e 1a ca bd 44 67 33 bd 10 39 9b 3d 4b 69 bf 3c
       -0.09868358 -0.043799654 0.07579243 0.023365637
0002f0 f9 6a 69 bc 3e 42 76 bc 69 68 b1 3c 40 e1 d9 bd
       -0.014246696 -0.015030442 0.021656232 -0.10638666
000300 10 a0 e0 3c 45 e5 8b bc 10 5f d6 3c 85 ef 7e 3d
       0.027420074 -0.017077098 0.026168376 0.062240142
000310 ae 9a ff 3b 41 1c 6b bd 64 67 37 3d 22 26 9f bc
       0.0078004217 -0.057399992 0.044776335 -0.019427363
000320 b5 96 90 bd 7f 6a 11 3d d9 ca ab bd c7 49 98 3b
       -0.07059995 0.035501953 -0.083882995 0.004647467
000330 cc 7c 9a bd f1 11 6b 3c 9b 40 0e bd 3c 16 07 bd
       -0.07543334 0.014347539 -0.03472958 -0.03298019
000340 7f 09 91 3d e1 7c ee 3c 4c 45 2d bd 2f dc bd bc
       0.07081889 0.029112281 -0.042302415 -0.02317628
000350 29 c8 fd bb f6 6a ac 3d d0 13 cf 3c f6 41 bc bd
       -0.007744808 0.08418839 0.025278002 -0.091922686
000360 d7 a6 63 bd 3c ba 89 bc 30 3d ef bd 62 04 46 bd
       -0.055579033 -0.016812436 -0.116815925 -0.048344024
000370 ba 06 9e 3c 07 fa 35 bd fa 06 c9 3d 15 0c 44 bd
       0.019290317 -0.044427898 0.09815784 -0.047863085
000380 b4 dc 19 3c 01 4d 2b bd 31 c4 72 bd c7 cc 8b 3d
       0.009390999 -0.041821484 -0.059269134 0.068261676
000390 12 78 7d bc 90 88 d9 3c 59 98 de 3c f9 0e ac 3c
       -0.0154705215 0.026554376 0.027172254 0.021003233
0003a0 c0 12 54 bd 35 8b 45 3d 8b 7c 13 bc 91 7d 14 3d
       -0.051775694 0.04822846 -0.009001861 0.036252562
0003b0 ac 4c 33 3e f3 42 22 3c 79 12 11 3d c4 ce a4 bd
       0.17509717 0.009903657 0.035418008 -0.0804725
0003c0 e6 08 43 bd 38 c7 43 3c 5e 20 9f 3c 9b 5b d3 3c
       -0.047615908 0.011949353 0.019424614 0.025800517
0003d0 ce a2 ec bd 80 57 25 bd b0 06 3c bc 84 3b 90 3d
       -0.1155449 -0.04036665 -0.011476204 0.07042602
0003e0 02 86 7b bd 46 bd 6f ba d5 01 33 bd b6 44 39 bd
       -0.061407097 -0.00091453304 -0.04370292 -0.045231543
0003f0 9e aa cb bd 28 64 98 3d 20 76 9e 3d b0 40 8d bd
       -0.09944652 0.07440978 0.07737374 -0.06897104
