Cursed Tennis/Assets/Tennis/results/TennisPro5/Tennis/Tennis-468277.onnx (onnx, 886342 bytes, 13 tensors)

60 f4 [84]
0	0x40f6c346	7.711337
1	0x4007a95b	2.1197116
2	0x4023fefe	2.5624385
3	0x4032da14	2.7945604
4	0x4111c718	9.111107
5	0x4007a95b	2.1197116
6	0x4112328f	9.137343
7	0x3ee0bcbe	0.43894
8	0x3e8cc9b8	0.2749765
9	0x3e94a501	0.29032138
10	0x3ec7e74d	0.39043656
11	0x4112328f	9.137343
12	0x43cd6a7d	410.83194
13	0x4c36720f	4.7827004e+07
14	0x3efe327a	0.49647886
15	0x46945ebc	18991.367
16	0x4382a364	261.2765
17	0x4c36720f	4.7827004e+07
18	0x4068206b	3.6269786
19	0x4112328f	9.137343
20	0x3eeb0124	0.45899308
21	0x40f4cacc	7.6497555
22	0x400327f3	2.0493133
23	0x40266ba5	2.60032
24	0x403a0cfd	2.9070427
25	0x4112c694	9.173481
26	0x400327f3	2.0493133
27	0x41122596	9.134176
28	0x3ee2e46d	0.443149
29	0x3e8b3348	0.27187562
30	0x3e92d498	0.2867782
31	0x3eca1b17	0.39473793
32	0x41122596	9.134176
33	0x43cdba4c	411.45544
34	0x4c3673d3	4.7828812e+07
35	0x3f03a61c	0.5142534
36	0x46945efc	18991.492
37	0x43811455	258.15884
38	0x4c3673d3	4.7828812e+07
39	0x40684ccc	3.6296873
40	0x41122596	9.134176
41	0x3eed98dd	0.46405688
42	0x40f2a9d5	7.5832314
43	0x3ffbf345	1.9683615
44	0x4028ba41	2.636368
45	0x403c181e	2.938972
46	0x4113c406	9.235357
47	0x3ffbf345	1.9683615
48	0x411218a1	9.131013
49	0x3ee4eae4	0.44710457
50	0x3e895dee	0.26829475
51	0x3e90c0ed	0.2827219
52	0x3ecc3fad	0.3989233
53	0x411218a1	9.131013
54	0x43ce0a08	412.07837
55	0x4c36759c	4.783064e+07
56	0x3f087a23	0.53311366
57	0x46945f31	18991.596
58	0x437ef5aa	254.95963
59	0x4c36759c	4.783064e+07
60	0x40687df5	3.6326878
61	0x411218a1	9.131013
62	0x3ef0241e	0.46902555
63	0x40f05fa5	7.5116754
64	0x3fefff96	1.8749874
65	0x402b1153	2.6729324
66	0x403ea2a4	2.9786768
67	0x4114bf8e	9.296766
68	0x3fefff96	1.8749874
69	0x41120b21	9.127717
70	0x3ee6dea5	0.4509174
71	0x3e87549e	0.26431745
72	0x3e8e662d	0.2781233
73	0x3ece5d93	0.40305766
74	0x41120b21	9.127717
75	0x43ce5985	412.69937
76	0x4c367761	4.7832452e+07
77	0x3f0ed5d8	0.5579505
78	0x46945f58	18991.672
79	0x437bacf9	251.67567
80	0x4c367761	4.7832452e+07
81	0x4068b4bc	3.6360312
82	0x41120b21	9.127717
83	0x3ef295a9	0.47379807

action_model._continuous_distribution.log_sigma f4 [1, 6]
0	0x3c8bbeeb	0.01705881
1	0x3bc5ae8e	0.0060327714
2	0x3c13b7d3	0.009015995
3	0xbced18bd	-0.02894246
4	0x3d091738	0.03346941
5	0x3c38558c	0.011250865

action_model._continuous_distribution.mu.bias f4 [6]
0	0x3b6c0d24	0.0036018575
1	0x3c06a217	0.008217356
2	0xbc932911	-0.017963918
3	0xbc25122a	-0.010075131
4	0x3c09213a	0.008369738
5	0xba8ef9e4	-0.0010908213

action_model._continuous_distribution.mu.weight f4 [6, 256]
0	0xbcb15a3f	-0.021649478
1	0x3b4d7fa8	0.0031356607
2	0x3cb30fae	0.021858063
3	0xbc71710e	-0.014736427
4	0xbc247b95	-0.01003923
5	0xba8bc785	-0.001066432
6	0x3c7814e6	0.015141701
7	0xb9ec4bb1	-0.00045069822
8	0x3d0c95f4	0.034322694
9	0xba60181b	-0.0008548514
10	0x3c5c2984	0.0134376325
11	0x3cc07412	0.023492847
12	0x3c26ff4c	0.010192703
13	0xbbc37b10	-0.005965598
14	0xbb06ec48	-0.0020587612
15	0xbc829186	-0.015938532
16	0x3b8c4629	0.0042808247
17	0x3c8fe621	0.017565789
18	0x3aecd0c4	0.0018067588
19	0xbb3d31ad	-0.002886872
20	0x3c7cac9e	0.0154220145
21	0xbcc4c5a3	-0.024020022
22	0x3bb15707	0.005411986
23	0x3c1ff853	0.009763795
24	0x3ba9ca4c	0.0051815864
25	0x3c70cb3b	0.014696891
26	0x3b92bb2e	0.00447788
27	0xbc56cbb8	-0.013110094
28	0x3c599c97	0.013281963
29	0xbce914a9	-0.028452234
30	0xbc435b8f	-0.011923685
31	0xbb6d4217	-0.0036202723
32	0x3c6b34e2	0.01435587
33	0xbc3be568	-0.011468269
34	0xbcfd7fce	-0.030944731
35	0xbd055cf6	-0.032559358
36	0xba56ae10	-0.00081893895
37	0xbc840849	-0.016117232
38	0x3ba6bd7e	0.005088507
39	0x3af719bd	0.0018852275
40	0xbbb59b2e	-0.0055421805
41	0x3bd7314b	0.0065671555
42	0xbca79884	-0.020458467
43	0xbc6bc504	-0.014390234
44	0x3c0a1ee3	0.0084302155
45	0xb9dcbdbd	-0.00042103036
46	0x3cb9cc86	0.022680532
47	0xbc5db805	-0.013532643
48	0x3b977655	0.0046222606
49	0x3bc5d365	0.006037163
50	0x3c9f44ce	0.019441988
51	0xbc0618c0	-0.008184612
52	0xbb9fddd1	-0.0048787375
53	0x3c453e89	0.012038835
54	0xbc37729b	-0.011196758
55	0xbc50f7da	-0.012754405
56	0xbb9dc545	-0.004814776
57	0x3b931470	0.0044885203
58	0xbc90255e	-0.017595943
59	0x3c1a633c	0.009423073
60	0x3c6e933b	0.01456147
61	0xbb7f2472	-0.0038931635
62	0xbb1fd999	-0.0024391173
63	0x3a39b23a	0.0007083748
64	0x3bd44b84	0.0064787287
65	0xbc63899f	-0.013887792
66	0xbc918047	-0.017761363
67	0xbb3b6b6c	-0.0028597964
68	0xbc30e5fa	-0.010797018
69	0xbc985770	-0.018596381
70	0x3b5eb45d	0.0033982017
71	0x3aeac866	0.0017912507
72	0xbb8656ed	-0.004099718
73	0xbcb9c9b1	-0.022679182
74	0x3bca4ca6	0.006173688
75	0xbabb4372	-0.0014287068
76	0xbb5c35c4	-0.0033601383
77	0xbc5a621d	-0.013329056
78	0xbbf19962	-0.007373021
79	0xbc7e1d8f	-0.015509977
80	0x3adfaf36	0.0017065767
81	0x3c2ea122	0.010658534
82	0xbca533f7	-0.02016638
83	0xbb0f59f0	-0.0021873675
84	0xbbf85a9d	-0.0075791613
85	0xbbc536d6	-0.0060185
86	0x3c0d88c4	0.0086385645
87	0x3bed7390	0.007246442
88	0x39b31524	0.00034157292
89	0xbc7a7ff2	-0.015289294
90	0xba55c78f	-0.0008155042
91	0xbbbf7702	-0.0058430443
92	0xbbf09781	-0.0073422794
93	0x3ce0f596	0.027460855
94	0xbc21d306	-0.009876972
95	0x3c105bcc	0.008810949
96	0xbcd7f503	-0.026361948
97	0x3cfeb5ce	0.03109255
98	0x3ca86d23	0.020559853
99	0xbbc570e0	-0.0060254186
100	0xbc7cee4d	-0.015437675
101	0x3c331c4d	0.01093204
102	0x3cb5562e	0.02213582
103	0x3b130ce0	0.0022438094
104	0x3c77864c	0.015107702
105	0xbc96a969	-0.018391328
106	0x3d02d554	0.031941727
107	0xbce9be16	-0.028533023
108	0xbce1ddd5	-0.027571598
109	0x3c9ca135	0.019119838
110	0x39e62538	0.0004389675
111	0x3cc33f39	0.023833858
112	0xbc2de457	-0.0106135225
113	0x3cb970f9	0.022636877
114	0x3bc04b46	0.0058683483
115	0xbab022fb	-0.0013438159
116	0xbbe73133	-0.0070554256
117	0x3c1cbdaa	0.009566704
118	0xb9c7ec9e	-0.0003813253
119	0x3c43a4c7	0.011941141
120	0xbb9b811c	-0.0047456156
121	0xbaa3acad	-0.0012487374
122	0xbaf1898c	-0.0018427833
123	0xbcba8c36	-0.022771936
124	0x3b0adbbd	0.0021188103
125	0xbaf1564a	-0.0018412557
126	0x3ba52f84	0.0050410647
127	0x3a0c8f8d	0.0005361967
128	0xbabf6840	-0.0014603212
129	0xbc921433	-0.017831897
130	0xbb12e7ed	-0.002241607
131	0xbb452c6a	-0.0030086287
132	0xbc475439	-0.012166076
133	0xbc121d3d	-0.008918104
134	0xbc680240	-0.014160693
135	0x3b110d90	0.0022133328
136	0x3bf0761f	0.0073383
137	0xbc988c55	-0.018621603
138	0xb9127a07	-0.00013969104
139	0xbb9756ff	-0.004618525
140	0xbb879840	-0.0041380227
141	0xbcbc6ec3	-0.023002034
142	0x3c1f377d	0.009717819
143	0x3c19a75c	0.0093782805
144	0x3b7adb47	0.0038277672
145	0xbd06439f	-0.032779332
146	0x3b5ff13d	0.0034170889
147	0x3c8896f3	0.01667354
148	0x3b36d41f	0.002789743
149	0xbc0bc18f	-0.008530035
150	0x3bef39ec	0.007300606
151	0xbc2ecd07	-0.0106689995
152	0x3b5094db	0.0031827006
153	0x3b9ee479	0.0048490134
154	0x3c1e8422	0.009675058
155	0xbbb48d41	-0.005510003
156	0xbc6cf53a	-0.014462763
157	0x3c35b918	0.011091493
158	0x3c026eeb	0.007961015
159	0xbc6134ad	-0.013745469
160	0xbc2f7183	-0.010708216
161	0xbc142898	-0.009042881
162	0xbc370cf4	-0.011172522
163	0xba822596	-0.0009929414
164	0xbcd1471f	-0.025546608
165	0x3bb6b86d	0.0055761845
166	0xbcddbcc1	-0.027067544
167	0xbb7465dc	-0.0037292158
168	0x3c1bcaeb	0.009508829
169	0x3ab8f664	0.0014111516
170	0xbbc34b9d	-0.0059599415
171	0x3c969652	0.018382225
172	0xbcc0919d	-0.023506934
173	0x3b12971c	0.00223679
174	0x3c986b27	0.018605782
175	0xbc75eb98	-0.015009783
176	0xbcb2dd4b	-0.021834036
177	0x3cb788b2	0.022404049
178	0xbb6fe64a	-0.003660577
179	0xbc06cccb	-0.008227537
180	0x3bf13d2d	0.007362029
181	0xbbddfcef	-0.006774537
182	0x3c12bb7d	0.0089558335
183	0xbc7f33ee	-0.015576346
184	0xbc9ff305	-0.01952506
185	0xbad7874d	-0.0016443521
186	0x3b3d2fcd	0.0028867603
187	0x3b5b7292	0.0033485037
188	0xbcb7bf5f	-0.02243012
189	0xbcc9fa04	-0.02465535
190	0xbc4b4eff	-0.012408971
191	0x39019372	0.00012357326
192	0x3c80ae46	0.0157081
193	0x3c02452c	0.007951062
194	0xbb2c551e	-0.002629585
195	0x3b6f7149	0.003653603
196	0x3cddf71d	0.027095372
197	0x3cc66f70	0.02422306
198	0x3cfde6bb	0.03099381
199	0xbc204417	-0.009781859
200	0xbcfca2a4	-0.030839272
201	0x3ad07a66	0.0015905618
202	0xbc245ea1	-0.010032327
203	0xbca4c98e	-0.02011564
204	0x3cfb5292	0.030679021
205	0x3bd5c399	0.006523561
206	0xbc50a52e	-0.012734694
207	0x3c13039d	0.008973029
208	0xbd24da1c	-0.040247068
209	0x3cc2eb85	0.023793945
210	0x3c6a6b51	0.014307813
211	0x3c109b90	0.0088261515
212	0xbc24438e	-0.010025872
213	0xb9d49394	-0.00040545745
214	0x3cc67d4e	0.024229672
215	0x3b97e4f8	0.0046354495
216	0xbad94dc0	-0.0016578957
217	0x3c8020f8	0.01564072
218	0xbc666427	-0.014061964
219	0xbc1c8d23	-0.009555134
220	0xbcecdf0e	-0.028914955
221	0xbaddb32a	-0.0016914357
222	0x3c82cedf	0.015967784
223	0x3c566312	0.013085144
224	0x3c640581	0.013917328
225	0xbaf99aa1	-0.0019043275
226	0x3c2e8d72	0.01065384
227	0xbae0d344	-0.0017152806
228	0xbc8edacd	-0.017438317
229	0xbb95913f	-0.004564434
230	0x3baf5bbf	0.005351513
231	0x3ba279ad	0.0049583525
232	0xbbf9a5f2	-0.007618659
233	0x3c8cdbf8	0.017194733
234	0x3ad4b5b6	0.001622847
235	0xbc3e7d97	-0.011626623
236	0x3cf17b3f	0.029477714
237	0x3b83c7ae	0.0040216064
238	0xbb58bbec	-0.0033070995
239	0xba327074	-0.0006806918
240	0xbc832ec3	-0.016013509
241	0xbbefdfb2	-0.0073203677
242	0xbb9b546c	-0.0047402885
243	0xbcbde0e0	-0.023178518
244	0xbb76490b	-0.0037580158
245	0x3c1bb83b	0.009504373
246	0xbcd51bad	-0.026014173
247	0xba2dcf1f	-0.000663029
248	0x3bab6837	0.0052309292
249	0xbc076c32	-0.008265542
250	0xbb8240e9	-0.003975023
251	0xbc0bf986	-0.008543378
252	0x3cccac8a	0.024984617
253	0x3ba8847d	0.005142747
254	0x3c0be90e	0.008539451
255	0xbb9c630b	-0.004772549

network_body._body_endoder.seq_layers.0.bias f4 [256]
0	0x3c3a987d	0.011388895
1	0x3c1a0c85	0.009402399
2	0x3c6939ac	0.014234941
3	0x399b9d9d	0.00029681335
4	0xbc537366	-0.012905931
5	0xbcd29cf6	-0.02570961
6	0x3c04fdc0	0.008117139
7	0xbc0d063b	-0.0086074425
8	0xbca8c71b	-0.020602753
9	0x3ca96838	0.020679578
10	0x3c33e7a5	0.010980521
11	0x3c70b3f3	0.014691341
12	0x39b8b6ff	0.00035231558
13	0x3b754d4c	0.0037430106
14	0x3bd5284d	0.0065050484
15	0xb9492000	-0.00019180775
16	0x3a5ea283	0.0008492844
17	0x3c8ba641	0.01704705
18	0x3cb7932b	0.022409042
19	0x3c1b4727	0.009477413
20	0xbbd60603	-0.0065314784
21	0x3c6c5a9b	0.014425899
22	0x3c1f749d	0.009732393
23	0x397aed32	0.0002393022
24	0x3c14b26c	0.009075742
25	0xbcb983d5	-0.02264587
26	0x3c777b67	0.015105105
27	0x3c38d26a	0.011280635
28	0xbb5c45dd	-0.0033610978
29	0x3caae8ac	0.0208629
30	0xbca8966f	-0.020579545
31	0x3c83a6a0	0.016070664
32	0x3bd14392	0.006386229
33	0x3c94040a	0.018068332
34	0x3c0bdcdb	0.008536543
35	0xbc522a95	-0.012827535
36	0x3c96a6fd	0.018390173
37	0x3c1577f2	0.0091228355
38	0xbade9d82	-0.0016984197
39	0x3ca4d9eb	0.020123443
40	0xbc2af31c	-0.010433938
41	0xbbc7c3a0	-0.0060963184
42	0xbc5c2f13	-0.013438958
43	0x39386dea	0.00017588554
44	0x3c763857	0.015028081
45	0x3c8f799b	0.01751404
46	0x3c89f4f5	0.016840437
47	0x3c8df3f8	0.017328247
48	0x3c3ea783	0.011636618
49	0x3c96e4f6	0.018419724
50	0xbc4ca27a	-0.012489909
51	0x3c1dc181	0.009628654
52	0x3d11c7a9	0.0355908
53	0xbc7e2a7c	-0.015513059
54	0xbb50ad53	-0.003184159
55	0x3c6b187f	0.014349102
56	0x3c908012	0.017639194
57	0xba3de993	-0.0007244583
58	0x3c9fa34f	0.019487051
59	0x3bbb395d	0.0057136253
60	0x398b00b7	0.0002651268
61	0x3c773021	0.015087158
62	0xbacd3e51	-0.001565883
63	0x3c8f5edc	0.017501287
64	0x3a951b9a	0.0011376024
65	0xbc6a9d67	-0.014319754
66	0x3c490a3f	0.012270509
67	0xbbc0134f	-0.0058616768
68	0x3c7452e2	0.014912339
69	0x3c8a12d8	0.016854689
70	0x3c9455e8	0.01810737
71	0x3c4ce116	0.012504837
72	0xbc660940	-0.014040291
73	0x3c83bcd1	0.016081246
74	0x3ba1eda2	0.004941658
75	0xbbf45caa	-0.0074573355
76	0xbc850ee8	-0.01624246
77	0x3b5e8a61	0.0033956992
78	0xbbd78f25	-0.0065783435
79	0xbc6df816	-0.01452448
80	0xbc2fc923	-0.010729107
81	0xbb0f3835	-0.002185357
82	0xbcd6e674	-0.026232935
83	0x3c3b75ab	0.011441628
84	0x3c1b372b	0.009473602
85	0x3bf6f307	0.0075362953
86	0x3b357e1a	0.002769357
87	0x3b122e00	0.002230525
88	0x3bfb9e36	0.0076787723
89	0x3c9de0fd	0.019272322
90	0x3c086b7b	0.008326407
91	0x3c51b05e	0.012798397
92	0x3bf5f8e6	0.0075064776
93	0xbb59a4af	-0.0033209731
94	0x3c9f9c31	0.019483658
95	0x3cc5fa26	0.024167132
96	0x3c20a8b3	0.009805846
97	0x3c3dc5d9	0.011582815
98	0x3c4523f6	0.0120325
99	0x3c03cab6	0.0080439355
100	0xbcad879b	-0.021182826
101	0x3c865069	0.016395764
102	0xbc504ce5	-0.012713646
103	0xbb7c7206	-0.0038520112
104	0xbb2ee5e7	-0.0026687325
105	0x3bf0ddaf	0.0073506455
106	0x3c8a01cb	0.016846558
107	0x3bf6c118	0.007530343
108	0x3c827abe	0.015927669
109	0x3c837d55	0.016050974
110	0x3c298b88	0.010348208
111	0xbbb6dae4	-0.005580293
112	0x3ca35bae	0.019941177
113	0x3c6ac479	0.014329069
114	0x3c609dc7	0.013709492
115	0x3ba59950	0.0050536767
116	0x3bbe6cb3	0.005811298
117	0x3b7b711a	0.0038366974
118	0xbca927af	-0.020648805
119	0xbc57856a	-0.013154367
120	0xbbf0e48d	-0.007351464
121	0xbc38b794	-0.011274237
122	0xbb7b80f9	-0.0038376434
123	0x3bf023ad	0.0073284716
124	0x3c836599	0.016039656
125	0xbbbdb2e2	-0.0057891468
126	0x3c78f2a6	0.015194571
127	0x3c2b8222	0.010468038
128	0x3bee1fa2	0.0072669545
129	0x3c7f1575	0.015569081
130	0xbb29000b	-0.002578738
131	0xba47dee2	-0.00076244597
132	0x3bf0262f	0.0073287706
133	0x3cdf4b81	0.027257683
134	0x3c8ee313	0.017442262
135	0x3c7a7d16	0.015288612
136	0x3c823829	0.01589592
137	0x3ca17db1	0.019713255
138	0xba8a51e3	-0.0010552969
139	0x3c4922cb	0.012276362
140	0x3871ff8d	5.7696878e-05
141	0x3c08fa1c	0.008360412
142	0xbc83eaa5	-0.016103098
143	0x3cbd0e2c	0.023078047
144	0x3b3805b0	0.0028079562
145	0x3caad6b7	0.020854337
146	0x3c123b8e	0.008925332
147	0x3b2bcdf4	0.0026215287
148	0x3b572243	0.0032826818
149	0x3b607fa5	0.003425577
150	0xbc851341	-0.016244533
151	0x3ad50e58	0.0016254885
152	0x3b4890b0	0.0030603819
153	0xbca4c794	-0.020114698
154	0x3c93f6fb	0.018062105
155	0x3c90eb28	0.017690256
156	0xbbf7e9cd	-0.007565713
157	0x3c8505ca	0.016238112
158	0xbabad260	-0.001425337
159	0x3be32f91	0.0069331606
160	0xbc7f9f47	-0.0156019395
161	0x3c9be26e	0.019028869
162	0xbc80b901	-0.015713217
163	0x3bab33f9	0.0052247015
164	0xbae0c2de	-0.0017147919
165	0x3c229922	0.009924205
166	0x3c713c47	0.014723844
167	0x3b26e41f	0.002546556
168	0x3be215c6	0.0068995683
169	0x3bc43f38	0.0059889816
170	0x3cc11209	0.02356817
171	0x3bcbcd4f	0.006219543
172	0x3c180910	0.009279504
173	0x3c8d5117	0.01725058
174	0x3c7060f9	0.014671558
175	0x3c61d80a	0.013784418
176	0x3cdf2ea0	0.027243912
177	0x3c13e837	0.009027532
178	0x3c788b45	0.015169923
179	0xbc21d5c1	-0.009877623
180	0x3c5fd07d	0.013660547
181	0x3c6f9763	0.014623496
182	0x3cd0372a	0.02541693
183	0x3cb1283e	0.021625634
184	0x3ca31051	0.019905241
185	0xbc53f78f	-0.012937441
186	0x3b0bd1d7	0.002133479
187	0x3b0a5e0e	0.002111319
188	0x3c6d19e9	0.0144715095
189	0x3c12f4f1	0.008969531
190	0x3c894d90	0.016760617
191	0x3c38a847	0.011270589
192	0x3cb792eb	0.022408923
193	0x3c87fa88	0.016598955
194	0xbc19ba24	-0.009382758
195	0xbc923381	-0.017846825
196	0xbcc3c205	-0.023896227
197	0x3ccd36e6	0.025050592
198	0x3c6a54b6	0.014302423
199	0x3c15d770	0.009145603
200	0x3b29374c	0.0025820313
201	0x3c4fbce8	0.012679316
202	0x3c18ab3e	0.009318171
203	0x3c2546bc	0.010087665
204	0x3ca58da6	0.020209145
205	0x3c55ec72	0.013056861
206	0x39e1d49f	0.0004307376
207	0xbc0ff0dd	-0.008785454
208	0x3bd31aed	0.006442419
209	0xbc9f8878	-0.019474253
210	0x3ca66691	0.02031258
211	0x3d0162d3	0.031588387
212	0x3cc4c9b8	0.024021968
213	0x3ba4ef48	0.0050334074
214	0x3b0f0bda	0.0021827132
215	0x3c4ab36e	0.012371881
216	0x3acad989	0.0015476207
217	0x3c9fefb6	0.019523483
218	0xbab9141d	-0.0014120374
219	0xbc7eaf52	-0.015544729
220	0xbc9d7661	-0.019221487
221	0x3c1323bf	0.0089806905
222	0x3c1434f0	0.009045824
223	0xbbf2d736	-0.007410909
224	0x3c1a39a7	0.009413159
225	0x3c9acad3	0.018895542
226	0x3cbd39cc	0.023098849
227	0xbc96b16b	-0.018395146
228	0x3c9a3871	0.018825741
229	0x3bcc0514	0.0062261913
230	0xbbe3311e	-0.0069333455
231	0xbc3c33de	-0.0114869755
232	0xbc29f640	-0.010373652
233	0xbc5a175e	-0.013311235
234	0xbcadb3c8	-0.02120389
235	0xbc02312a	-0.007946292
236	0x3bf913fb	0.007601259
237	0xbc5bc53b	-0.013413723
238	0xbc94436b	-0.018098554
239	0x3b408160	0.0029373989
240	0xbc926dbb	-0.01787459
241	0xbbc76f10	-0.0060862377
242	0xbcc19c84	-0.023634203
243	0x3c13a3ca	0.009011218
244	0x3c3273b1	0.010891841
245	0x3aa9415a	0.0012913153
246	0x3ca045b3	0.019564485
247	0xbab73239	-0.001397676
248	0xbb1c2472	-0.0023825434
249	0x3b9e238c	0.004826015
250	0xbbb3292d	-0.005467555
251	0x3c6302b6	0.013855627
252	0x3c6f0a5d	0.014589873
253	0x3c8dc514	0.017305888
254	0x3ab808cf	0.0014040711
255	0xbc466dce	-0.01211114

network_body._body_endoder.seq_layers.0.weight f4 [256, 84]
0	0x3c4ced70	0.012507781
1	0x3bed1900	0.0072356462
2	0x3d29a606	0.041418098
3	0x3dffefef	0.124969356
4	0x3e4aad41	0.19792654
5	0xbe35d945	-0.17758663
6	0x3db8eca8	0.090295136
7	0xbc922c18	-0.017843291
8	0xbb08832c	-0.0020830138
9	0x3d80ca31	0.06288565
10	0xbcae68d7	-0.021290226
11	0xbd4dd217	-0.050249185
12	0xbe074147	-0.13208495
13	0xbd537fb5	-0.051635463
14	0x3e495a6c	0.196634
15	0x3d83e237	0.064396314
16	0x3e4fb0ed	0.20282336
17	0xbe0ae6fa	-0.13564673
18	0xbd0588e6	-0.03260126
19	0xbdaf25fb	-0.08552166
20	0x3d2b7ad8	0.0418652
21	0xbd126328	-0.035739094
22	0xbe32247f	-0.17396735
23	0x3da19e59	0.078915305
24	0xbdae3f07	-0.08508115
25	0xbd2be41c	-0.04196559
26	0xbd96f8c3	-0.07371666
27	0x3d953e51	0.072872765
28	0x3dc21a85	0.094777144
29	0x3ca23931	0.019802662
30	0xbe80bdab	-0.25144705
31	0xbd62847d	-0.055302132
32	0x3e3e3a57	0.18576942
33	0xbd50bd8b	-0.050962012
34	0xbd8e6b4b	-0.06954058
35	0xbde9cd56	-0.11416118
36	0x3d0b1a33	0.033960532
37	0x3da4d872	0.08049096
38	0xbddfd4eb	-0.10929283
39	0xbe3383d5	-0.17530759
40	0xbe555545	-0.20833309
41	0x3a064967	0.0005122632
42	0x3db37677	0.0876283
43	0xbce0ef1c	-0.027457766
44	0xbd922651	-0.071362145
45	0xbdd131be	-0.10214566
46	0xbca5b0be	-0.020225879
47	0x3d27e57c	0.040990338
48	0x3d723938	0.0591366
49	0x3c8d14b1	0.01722178
50	0xbe1351a9	-0.1438662
51	0xbdeb2a03	-0.114826225
52	0xbc5dcee7	-0.013538099
53	0x3bf753d2	0.007547834
54	0xbd77c221	-0.06048787
55	0x3d69ab41	0.057048086
56	0x3e314f63	0.1731544
57	0x3e32bcfc	0.17454904
58	0x3c4d244c	0.012520861
59	0x3d32f622	0.04369176
60	0xbd1d89c5	-0.038461465
61	0xbda555ca	-0.080730036
62	0x3cb33c90	0.021879464
63	0x3e0eeb87	0.13957034
64	0x3d1b755e	0.037953727
65	0xbda52a00	-0.080646515
66	0x3d977720	0.07395768
67	0x3d6ca6b2	0.05777616
68	0x3c0baec2	0.008525552
69	0x3d3a9aab	0.04555766
70	0xbe0cc22d	-0.13745947
71	0xbad0e467	-0.001593721
72	0xbe183f8c	-0.14867991
73	0xbdc25203	-0.09488299
74	0xbe019004	-0.12652594
75	0x3e518861	0.2046218
76	0xbdf6141e	-0.12015556
77	0xbd97350c	-0.07383165
78	0x3e071980	0.13193321
79	0x3d3af376	0.04564234
80	0x3c076300	0.0082633495
81	0xbd943c95	-0.072381176
82	0xbdb392ce	-0.08768235
83	0x3d26b529	0.04070011
84	0x3d25020e	0.040285163
85	0xbd2d0989	-0.04224542
86	0x3ccaf544	0.024775155
87	0x3e902020	0.2814951
88	0x3d7926e4	0.060828105
89	0xbceeea07	-0.029164327
90	0x3ce07cd2	0.027403269
91	0x3da84044	0.08215383
92	0x3e3619f2	0.17783335
93	0xbb00b305	-0.0019637954
94	0x3dd59a66	0.1042984
95	0xbd299d61	-0.041409854
96	0x3e00b213	0.1256793
97	0x3d975e7f	0.073910706
98	0xbe0f1fcd	-0.13976975
99	0x3d29898d	0.041390944
100	0xbddc98f3	-0.1077136
101	0x3cec814f	0.028870253
102	0xbb8e45bb	-0.0043418086
103	0x3cc51cd4	0.024061598
104	0x3c8bcf01	0.01706648
105	0x3d6a104a	0.05714444
106	0xbd9b641d	-0.075874545
107	0xbd42b358	-0.047534317
108	0xbda676e0	-0.08128142
109	0xbe35b6cb	-0.17745511
110	0x3e2bb063	0.16766505
111	0xbd2830de	-0.04106223
112	0x3de96293	0.11395755
113	0x3e6ddd48	0.23228943
114	0xbce63d8c	-0.02810552
115	0xbb9e5926	-0.0048324047
116	0xbdb45f09	-0.08807189
117	0xbd7ff42e	-0.062488727
118	0xbe1ad567	-0.15120469
119	0xbd2b1eb8	-0.041777343
120	0xbcd5ad70	-0.026083678
121	0x3b88b4b9	0.0041719344
122	0xbdaeb1d9	-0.085300155
123	0x3c048259	0.008087718
124	0xbe0248de	-0.12723109
125	0x3d525e73	0.051359605
126	0xbd838625	-0.064220704
127	0x3e012718	0.1261257
128	0xbd026f69	-0.03184453
129	0x3e021c8c	0.12706202
130	0x3dd410fd	0.10354803
131	0xbe711aec	-0.23545426
132	0xbcbd4344	-0.023103364
133	0xbc745852	-0.014913635
134	0x3e1cb43e	0.15303132
135	0x3e02e648	0.12783158
136	0x3d5eb4b7	0.05437156
137	0xbdb35265	-0.0875595
138	0x3ce63b8d	0.028104568
139	0xbc9b04d0	-0.018923193
140	0xbe848f6a	-0.25890666
141	0x3ce42e98	0.027854249
142	0xbd993978	-0.074816644
143	0xbbfd5e93	-0.0077322214
144	0x3dad3c68	0.08458787
145	0xbb47c35e	-0.0030481438
146	0x3e4169b7	0.18887983
147	0xbd6648e4	-0.056221858
148	0xbe66a9e9	-0.22525753
149	0x3ba1a798	0.004933309
150	0xbdaa1695	-0.083050884
151	0x3ae46355	0.0017424623
152	0x3db6dc8c	0.08928785
153	0xbe37af37	-0.17937933
154	0xbce811e6	-0.028328847
155	0x3c39654a	0.011315653
156	0xbdac4136	-0.084108755
157	0xbe404416	-0.18775973
158	0xbd81905e	-0.06326364
159	0xbcaffa25	-0.021481583
160	0x3dc623dc	0.096748084
161	0x3dc02fd6	0.09384124
162	0xbbf5c47a	-0.0075002285
163	0x3e6f2ec6	0.23357686
164	0xbe0e5602	-0.13899997
165	0x3dde3264	0.10849455
166	0xbd86f476	-0.06589596
167	0x3e24341a	0.160355
168	0xbe0a74b2	-0.13521078
169	0xbd09353f	-0.033498045
170	0xbd726fe7	-0.05918875
171	0xbd6a8dbd	-0.05726408
172	0xbd0d2092	-0.03445489
173	0xbd8673f3	-0.06565084
174	0xbcb1a61c	-0.021685652
175	0x3d7feddd	0.062482703
176	0xbde1417e	-0.1099882
177	0x3c1da82c	0.009622615
178	0xbdf479d3	-0.119372986
179	0xbddc749c	-0.10764429
180	0x3e39284e	0.18081781
181	0x3b8d0c86	0.0043044714
182	0xbd841dfd	-0.06451032
183	0xbde5d2f2	-0.11221875
184	0x3b8df3b2	0.0043320293
185	0x3a36f8b6	0.000697981
186	0x3d47e0ef	0.048798498
187	0xba53884d	-0.00080693216
188	0xbe09e130	-0.13464808
189	0xbd97f627	-0.07419997
190	0xbe0adbe5	-0.13560446
191	0x3daa66fc	0.08320424
192	0x3e0d36ff	0.1379051
193	0xbcceeb1a	-0.02525859
194	0xbe133cc3	-0.14378648
195	0xbd947b9e	-0.072501406
196	0xbb8509e9	-0.0040600193
197	0xbc5d9afd	-0.013525722
198	0xbb276879	-0.0025544448
199	0x3d53d1ad	0.051713634
200	0xbcb2d45f	-0.021829782
201	0x3c860fe3	0.016364997
202	0x3d91bd07	0.07116132
203	0xbda65dc3	-0.081233524
204	0x3e597850	0.21237302
205	0x3d942f56	0.07235591
206	0xbd63d96b	-0.055627268
207	0x3e41851f	0.18898438
208	0x3dc00fec	0.09378037
209	0x3dd6198b	0.10454091
210	0xbca0bef8	-0.019622311
211	0xbdc085d1	-0.094005235
212	0x3da81994	0.08208004
213	0x3d6c8d72	0.05775208
214	0xbe811652	-0.25212342
215	0x3caa828a	0.020814199
216	0x3d3eaf71	0.046554033
217	0xbc8ed01f	-0.017433224
218	0xbca315ce	-0.019907858
219	0x3d640953	0.055672955
220	0xbe30172e	-0.17196342
221	0x3d9714d3	0.07377019
222	0xbd8dd4e5	-0.06925372
223	0xbd709091	-0.05873162
224	0xbd9c94da	-0.07645579
225	0xbdd6c1ad	-0.104861595
226	0x3e835fa1	0.25658897
227	0xbd047d90	-0.03234631
228	0x3d3e5276	0.04646536
229	0xbe3b1594	-0.1826995
230	0x3e53ee0c	0.20696276
231	0xbd365e34	-0.044523433
232	0xbd3d8a05	-0.046274204
233	0xbd13dc9d	-0.036099065
234	0x3d252845	0.040321607
235	0x3df8cd7d	0.12148569
236	0xbd449fa3	-0.048003804
237	0xbd97833f	-0.0739808
238	0x3bde950d	0.0067926706
239	0xbd3ed3aa	-0.046588577
240	0xbde1906c	-0.110138744
241	0x3daa0d8a	0.083033636
242	0x3cd566b8	0.026049957
243	0xbd63e618	-0.055639356
244	0xbdbc1ee1	-0.09185577
245	0xbe01a555	-0.12660725
246	0xbe249d94	-0.16075736
247	0x3e0f6893	0.14004736
248	0x3dbce483	0.09223273
249	0x3dcf9208	0.10135275
250	0xbcb1d705	-0.021708975
251	0xbe03e1b0	-0.12879062
252	0xbe84e514	-0.25956023
253	0xbcacd22b	-0.02109631
254	0x3e491258	0.19635904
255	0xbe3a6f22	-0.18206456

network_body._body_endoder.seq_layers.2.bias f4 [256]
0	0xbc295cad	-0.010337037
1	0x3bc801cc	0.00610373
2	0x3cc15dd2	0.023604307
3	0x3c845aec	0.016156636
4	0xbcb81076	-0.022468787
5	0x3cb36161	0.02189702
6	0x3bde2c19	0.006780159
7	0x3ae90acc	0.0017779707
8	0x3c9e9ef0	0.019362897
9	0x3cbd7100	0.023125172
10	0xbc1eaf3e	-0.009685336
11	0xbcb661e0	-0.022263467
12	0x3bea175f	0.0071438993
13	0x3c60ba65	0.013716315
14	0x3c944184	0.018097647
15	0x3bfdbd7f	0.007743537
16	0xbc22e2f8	-0.009941809
17	0x3c9006d9	0.01758139
18	0xbcd37ff1	-0.025817843
19	0x3c02a443	0.007973733
20	0x3bc7b7a5	0.00609489
21	0x3c5d69b1	0.013513968
22	0xbc09395e	-0.008375494
23	0xbb9c2829	-0.0047655297
24	0x3cb29027	0.021797253
25	0x3c8568cd	0.016285324
26	0x3c6028cf	0.0136816045
27	0xbbb7a684	-0.005604567
28	0xbb7db1dc	-0.0038710749
29	0x3c879673	0.016551232
30	0x3c022d84	0.007945422
31	0x39e4d7bf	0.00043648292
32	0xbc5c94ae	-0.013463182
33	0x3c659f02	0.014014961
34	0x3abd7125	0.0014453275
35	0x3c79ea4b	0.015253614
36	0x3cbac311	0.022798093
37	0x3c986614	0.018603362
38	0x3c06ea18	0.008234523
39	0x3ca3caee	0.019994225
40	0x3c850c39	0.01624118
41	0xbc67b315	-0.014141818
42	0x3c0b007d	0.008484003
43	0x3c3d3a12	0.01154949
44	0x3c6f3359	0.014599645
45	0x3c766261	0.015038104
46	0x3bd2fafc	0.006438611
47	0x3b888864	0.0041666497
48	0xbcc6a3bb	-0.024247995
49	0xbc89dd2b	-0.016829094
50	0x3cc1ac13	0.023641622
51	0x3c91aeb7	0.017783506
52	0x3bdb8741	0.006699473
53	0x3c979db0	0.018507808
54	0xbbe61c32	-0.007022404
55	0x3c905ae4	0.017621465
56	0xbc414150	-0.011795357
57	0x3b8aa1df	0.0042307223
58	0x3c97faea	0.018552262
59	0xbc32c279	-0.010910624
60	0x3c60d906	0.013723617
61	0xbae720e5	-0.0017633705
62	0x3cac1d0d	0.021009946
63	0x3c86860c	0.01642134
64	0xbc12e6ee	-0.008966191
65	0xbc4acd08	-0.012377985
66	0x3c9c8d2b	0.019110283
67	0x3c6c8be3	0.0144376485
68	0x3ccefb0d	0.025266195
69	0x3c813a20	0.015774786
70	0xbce6575b	-0.028117826
71	0x3c54065a	0.012940967
72	0xbc8fd29a	-0.017556477
73	0xbcd036c9	-0.025416749
74	0x3c89fb6d	0.016843522
75	0x3bb69776	0.005572255
76	0x3c6a0555	0.014283498
77	0xbcb06333	-0.021531677
78	0x3af7b310	0.0018897969
79	0xbbd2260d	-0.0064132274
80	0x3c1b3f4e	0.009475542
81	0xbc6a36d6	-0.0142953005
82	0x3c3c581b	0.011495615
83	0x3bec2366	0.0072063683
84	0xbcc2cfd6	-0.023780745
85	0xbcf0a364	-0.029374786
86	0xbbb30319	-0.0054630158
87	0x3c14570a	0.009053955
88	0x3a7bb944	0.0009602497
89	0x3ca6362d	0.020289505
90	0x3c816d78	0.01579927
91	0xbad12bfa	-0.0015958541
92	0xbb48fad8	-0.0030667093
93	0xbc7677b0	-0.015043184
94	0xbcbddae1	-0.023175659
95	0x3c3f4408	0.011673935
96	0x3baeafb9	0.0053310064
97	0xbc950d4b	-0.018194815
98	0xbc953312	-0.018212829
99	0x3bccf775	0.006255085
100	0xbc81228c	-0.015763544
101	0x3c2ad10d	0.010425818
102	0x3a873a57	0.0010317069
103	0xbc66b301	-0.014080764
104	0xbca697f8	-0.020336136
105	0x3c14eb7a	0.009089345
106	0xbc4dc790	-0.012559786
107	0x3c80413b	0.015656104
108	0x3cb209af	0.021733133
109	0xbc4b0694	-0.012391705
110	0x3c7115f1	0.014714704
111	0xbc4ff122	-0.012691768
112	0xba3f9353	-0.0007308025
113	0x3c65c1d4	0.014023263
114	0xbc0d7461	-0.008633704
115	0xbcbd5991	-0.023113998
116	0xbc07b07c	-0.008281823
117	0x3c38a710	0.0112703
118	0xbc714e96	-0.014728209
119	0x3c91ab4f	0.017781882
120	0x3aaebf37	0.0013332133
121	0x3cc6b67c	0.024256937
122	0xbc2002d2	-0.009766297
123	0x3c8dfbc0	0.017331958
124	0x3ba6c2e9	0.005089153
125	0x3c5b6899	0.013391637
126	0xbbe9e8b4	-0.007138336
127	0x3af42bff	0.0018628835
128	0x3bb578ff	0.0055381055
129	0x3c981217	0.018563313
130	0x3c1f1b4a	0.009711096
131	0x3a7131ef	0.0009200861
132	0xbcb67483	-0.022272354
133	0xbc88faee	-0.016721215
134	0xbbc86834	-0.0061159376
135	0xbb1af8b2	-0.002364677
136	0xbb0e8df7	-0.0021752098
137	0xbaed0637	-0.0018083517
138	0xbc993597	-0.018702311
139	0xbb6e1e7c	-0.0036334088
140	0x3ca8dc07	0.02061273
141	0x3caf2112	0.021378074
142	0xbbfec884	-0.007775368
143	0xbc667a5b	-0.014067258
144	0x3aaec2f9	0.0013333253
145	0xbc99b25b	-0.018761804
146	0x3c2b4860	0.010454267
147	0x3caf3eb5	0.021392206
148	0x3cd5638b	0.026048442
149	0xbc9c7f74	-0.019103743
150	0x3c7647ae	0.015031738
151	0x3c5d5ff2	0.013511645
152	0xbc3050ac	-0.010761421
153	0x3c85c796	0.016330522
154	0xbc4a4d47	-0.012347526
155	0x3c84c3f0	0.016206712
156	0x3c8d848c	0.017275117
157	0x3b983abf	0.004645675
158	0x3ca64bb6	0.020299774
159	0x3c341643	0.010991636
160	0xbc1eb9dd	-0.009687868
161	0xba70f6ad	-0.0009192031
162	0x3c40d410	0.01176931
163	0xbc98e682	-0.018664602
164	0x3cae1583	0.021250492
165	0x3c20f392	0.009823697
166	0x3c1c90cb	0.009556006
167	0x3cae67bc	0.021289699
168	0x3c66ae22	0.014079602
169	0x3ca14f9a	0.019691277
170	0xbc16fe13	-0.009215849
171	0xbc89a76f	-0.016803471
172	0x3c4d97ce	0.0125484
173	0xba941ef7	-0.0011300732
174	0x3c90ddb5	0.017683843
175	0x3c9fe87d	0.019520039
176	0x3cb4a226	0.022049975
177	0xbb5ec1c6	-0.003399001
178	0x3c8d7dce	0.017271902
179	0xbc41f8d0	-0.011839107
180	0x3c963350	0.018335015
181	0xbc14d604	-0.009084228
182	0xbc1c9c04	-0.009558681
183	0x3c807a8c	0.015683435
184	0x3ccb1dbe	0.024794456
185	0xbcb22637	-0.021746738
186	0x3cb9355f	0.022608457
187	0xbc9d97bf	-0.019237397
188	0x3c596606	0.013268953
189	0xbbcbd31b	-0.006220234
190	0x3c721854	0.014776308
191	0x3c522bdd	0.012827841
192	0x3ca4f2db	0.020135334
193	0xb7d0e10c	-2.4900328e-05
194	0xbcaf5e47	-0.02140726
195	0xbc465793	-0.01210584
196	0xbc0a7369	-0.0084503675
197	0x3c3e2831	0.011606262
198	0x3c2aeedb	0.010432924
199	0x3c9848a2	0.018589322
200	0x3c2dae80	0.010600686
201	0x3c0fd726	0.008779323
202	0xbccb834a	-0.024842877
203	0x3acd5082	0.0015664252
204	0x3c2d39c1	0.010572852
205	0x3cc421aa	0.023941834
206	0x3b2c95b9	0.002633436
207	0x3c964215	0.018342057
208	0x3c9f8c96	0.019476216
209	0x3c52c7ac	0.012864988
210	0x3c2a5250	0.010395601
211	0xbc18b8c2	-0.009321393
212	0xbc04f391	-0.008114711
213	0x3c4d59ab	0.012533586
214	0x3c1812c4	0.009281818
215	0x3cb04804	0.021518715
216	0xbc82120b	-0.015877744
217	0x3b8bbf7f	0.0042647715
218	0x3c958bc3	0.01825512
219	0x3c3102db	0.010803903
220	0xbba117bb	-0.004916159
221	0x3bbfe569	0.0058562052
222	0xbc684f5d	-0.014179078
223	0xbce35962	-0.027752582
224	0xbca2a3f0	-0.019853562
225	0xbb071e86	-0.0020617559
226	0x3c62b762	0.013837667
227	0x3c5318ca	0.012884328
228	0x3c782ea5	0.01514784
229	0xbcc55744	-0.024089463
230	0xbc97beb0	-0.018523544
231	0x3c9a5e1a	0.0188437
232	0x3bd9b332	0.006643676
233	0x3c8402bf	0.01611459
234	0x3c5e73ee	0.0135774445
235	0x3c2f8225	0.010712181
236	0x3c059db9	0.00815528
237	0x3bff8fff	0.007799148
238	0xbbde9abe	-0.006793349
239	0x3b342664	0.0027488703
240	0x3c94bfc0	0.01815784
241	0xbce1790a	-0.027523536
242	0xbc03e318	-0.008049749
243	0xbc7b2423	-0.01532844
244	0x3c34f700	0.0110452175
245	0xbcc63098	-0.024193093
246	0x3adac196	0.0016689773
247	0xbc79fc3a	-0.015257889
248	0x3c4661de	0.012108294
249	0xbcb8dd78	-0.022566542
250	0xbc2e47ce	-0.010637237
251	0xbc30c919	-0.010790133
252	0xbc881e75	-0.016616086
253	0xbb4bba53	-0.00310864
254	0xbc887567	-0.016657544
255	0x3c2ac6f6	0.010423413

network_body._body_endoder.seq_layers.2.weight f4 [256, 256]
0	0xbc06ac0d	-0.008219731
1	0xbd3dda5e	-0.04635083
2	0xbcb019f6	-0.021496754
3	0xbda3ab01	-0.07991601
4	0xbd895915	-0.06706444
5	0x3da8a57f	0.08234691
6	0xbd773405	-0.060352344
7	0x3d36ab16	0.044596754
8	0x3d28170e	0.04103761
9	0xbd1e5f67	-0.0386652
10	0x3cb44b08	0.022008434
11	0x3dab87c2	0.08375503
12	0xbc34e08a	-0.011039862
13	0x3e07d934	0.1326645
14	0xbe0cb823	-0.13742118
15	0xbd844a04	-0.0645943
16	0x3d884dda	0.06655474
17	0xbda824e3	-0.082101606
18	0xbaaaa9c4	-0.0013020565
19	0xbdd644b7	-0.10462325
20	0x3e4943f0	0.19654822
21	0xbd29e78e	-0.041480593
22	0xbc4a721c	-0.012356307
23	0x3ca4449b	0.020052245
24	0x3d2c4411	0.0420571
25	0x3d41d545	0.04732253
26	0xbdace535	-0.08442155
27	0x3c418355	0.011811097
28	0x3dc90d39	0.09816975
29	0x3d489bf5	0.048976857
30	0xbdd8872d	-0.10572658
31	0xbc4fbd31	-0.012679384
32	0x3ca9d7fa	0.020732868
33	0x3c52f0d9	0.012874805
34	0xbd94a52c	-0.072580665
35	0xbd776d2c	-0.06040685
36	0xbc692e33	-0.014232206
37	0x3cede67c	0.029040568
38	0x3bfb82af	0.007675491
39	0xbdff467e	-0.12464617
40	0x3d32eb95	0.0436817
41	0xbd26b1ad	-0.04069679
42	0x3daca377	0.08429616
43	0x3d70dada	0.058802463
44	0x3d13c1b5	0.036073405
45	0xbe4f8356	-0.20264944
46	0xbd88fa9e	-0.066884264
47	0x3cc05e77	0.023482544
48	0xbdba05be	-0.090831265
49	0xbd385758	-0.045005172
50	0x3c216779	0.00985133
51	0x3baf79db	0.0053551025
52	0xbe25d1f6	-0.16193375
53	0x3d19db24	0.037562504
54	0x3c8beba8	0.017080143
55	0xbd8a6af3	-0.0675868
56	0x3e2ebe7c	0.17064852
57	0x3dd26f52	0.10275139
58	0xbe4aac46	-0.1979228
59	0xbcc470c7	-0.023979558
60	0x3d53ea68	0.05173722
61	0xbd000a9f	-0.03126013
62	0x3cfc81d8	0.030823633
63	0xbd1baf0c	-0.038008735
64	0x3b7bef12	0.0038442058
65	0x3cdcf81a	0.026973773
66	0xbce2b365	-0.027673433
67	0xbd26feef	-0.040770467
68	0xbdbe2f91	-0.09286416
69	0xbd20a883	-0.039223205
70	0xbcd1d55f	-0.025614439
71	0x3c33e464	0.010979746
72	0xbc084841	-0.008318008
73	0x3cb9094e	0.022587445
74	0x3a72c56c	0.00092609855
75	0xbced39f9	-0.028958308
76	0xbd63d30e	-0.0556212
77	0x3c9924ba	0.01869427
78	0xbd05ae98	-0.03263721
79	0xbdd4e9e4	-0.103961736
80	0xbcf640f4	-0.030060269
81	0x3d1ea086	0.038727306
82	0x3cc26d11	0.023733648
83	0x3d544b43	0.051829588
84	0x3da8b15f	0.08236956
85	0xbcef4474	-0.029207446
86	0x3b8a15d2	0.004214027
87	0xbdab4588	-0.083628714
88	0x3d6c1f63	0.05764712
89	0xbd51457d	-0.05109166
90	0xbcc53214	-0.02407173
91	0xbd2a7abe	-0.041620962
92	0x3ba40f70	0.005006723
93	0xbd234d19	-0.039868448
94	0xbd80f12d	-0.06296001
95	0x3ca25e84	0.01982046
96	0xbd9b5ac6	-0.07585673
97	0x3c05e393	0.008171934
98	0x3d8ea7e4	0.06965616
99	0x3c2b9644	0.010472838
100	0xbd969c51	-0.07354034
101	0x3d3e628c	0.0464807
102	0xbce190b5	-0.027534822
103	0x3dc5b496	0.09653585
104	0xbd8ece89	-0.06972987
105	0xbdb21755	-0.086958565
106	0x3d646638	0.055761546
107	0xbd78653d	-0.060643423
108	0xbd944a40	-0.072407246
109	0x3d579708	0.05263427
110	0x3d91a262	0.0711105
111	0xbbb437a5	-0.0054997974
112	0xbd64daea	-0.055872835
113	0x3d5e6abb	0.054301005
114	0x3d0c202c	0.03421037
115	0x3d8b5653	0.068035744
116	0x3cb1dc23	0.021711415
117	0xbc9e16aa	-0.019297916
118	0xbd84e300	-0.06488609
119	0x3df09841	0.1174779
120	0xbd49a4ed	-0.04922955
121	0x3a4a863f	0.00077256927
122	0x3d946496	0.07245748
123	0x3ca84109	0.020538824
124	0xbd8e0757	-0.06934994
125	0xbca7cbee	-0.020482983
126	0xbcdb1fc9	-0.026748555
127	0x3d7203e7	0.059085753
128	0x3d40cde2	0.047071345
129	0xbd3d3d5e	-0.046201102
130	0xbc24a84a	-0.010049889
131	0x3df4aa73	0.11946573
132	0x3d8b1912	0.06791891
133	0x3c5f5aa9	0.013632455
134	0xbd821222	-0.06351115
135	0xbd71b589	-0.059011016
136	0x3c8ecd88	0.01743199
137	0xbdbf59bd	-0.09343288
138	0xbda4f11d	-0.08053801
139	0x3d4c99d7	0.0499514
140	0xbda26f20	-0.07931352
141	0xbb7b3c2a	-0.003833542
142	0xbddbf8f2	-0.10740842
143	0x3c88cea5	0.016700098
144	0xbd42559a	-0.047444917
145	0x3d58b816	0.052909933
146	0xbd79c97d	-0.06098317
147	0xbd576600	-0.05258751
148	0xbde022ac	-0.10944113
149	0xbd3506a8	-0.0441958
150	0xbc319252	-0.010838108
151	0x3cbd8533	0.023134803
152	0xbde44f8b	-0.11147984
153	0x3d4cee2f	0.050031837
154	0xbc3f4beb	-0.011675815
155	0x3e02909d	0.12750478
156	0xbd93b6de	-0.072126135
157	0x3e0a56b6	0.1350964
158	0xbdd00862	-0.10157849
159	0xbdc1b86a	-0.09459002
160	0xbd686a58	-0.056742042
161	0x3e022d55	0.12712605
162	0x3d6ff61c	0.058584318
163	0x3c8aa323	0.016923493
164	0x3d9bf4d2	0.07615055
165	0xbd3acb47	-0.045604017
166	0xbca89529	-0.020578938
167	0x3c948f92	0.018134866
168	0x3dbbfa1c	0.09178564
169	0xbd34df3e	-0.044158213
170	0xbda4f2fa	-0.080541566
171	0x3d8cb17a	0.068697885
172	0x3dac1ea4	0.08404282
173	0xbd9689b7	-0.07350486
174	0xbc58e1da	-0.013237441
175	0xbb95a131	-0.0045663347
176	0x3d2b683e	0.04184746
177	0xbdd168aa	-0.10225041
178	0x3daed85c	0.08537361
179	0x3d27beb4	0.040953353
180	0x3db38c6f	0.0876702
181	0xbe292f69	-0.16521992
182	0xbb8335d4	-0.0040042195
183	0x3d0b5d32	0.034024425
184	0x3d4af29c	0.049547777
185	0xbd4e83f5	-0.050418813
186	0xbd5622c4	-0.05227925
187	0x3d9e2cdb	0.07723399
188	0x3de26d15	0.11055962
189	0xbc11ae0a	-0.008891592
190	0xbe237370	-0.15962005
191	0x3cc9b5a5	0.024622748
192	0xbd10e737	-0.035376754
193	0x3c3240b8	0.010879688
194	0xbc40ddfd	-0.011771676
195	0x3e17a17a	0.14807692
196	0x3d9363a1	0.07196737
197	0x3d359f0a	0.044341125
198	0x3dcfd56b	0.10148128
199	0x3cab3aba	0.020902026
200	0xbda3c1ac	-0.07995924
201	0xbc8d8abf	-0.017278073
202	0x3d2818cc	0.041039273
203	0x3d85d001	0.06533814
204	0xbdddd169	-0.108309574
205	0xbbec49d3	-0.007210949
206	0x3c68723a	0.01418739
207	0x3ddfa1e6	0.109195516
208	0xbdf283c7	-0.11841541
209	0x3d857cd5	0.065179504
210	0x3b326667	0.002722168
211	0xbd2aaf18	-0.04167089
212	0xbd885b7c	-0.06658074
213	0x3b96134c	0.004579937
214	0x3d745f59	0.059661243
215	0x3c622479	0.013802641
216	0x3db62f57	0.08895748
217	0x3d80e33c	0.062933415
218	0xbdc1ed30	-0.09469068
219	0x3dbcf452	0.09226288
220	0x3d7e19ec	0.06203644
221	0xbca3bc61	-0.019987287
222	0xbc937a39	-0.018002616
223	0xbdc1514c	-0.09439334
224	0x3c5ef72c	0.013608735
225	0x3c51d9c7	0.01280827
226	0x3c1e842c	0.009675067
227	0x3d9ef2f4	0.077611834
228	0xbcad1bb1	-0.021131368
229	0xbd19feae	-0.037596397
230	0x3d34b565	0.044118304
231	0xbd15373f	-0.03642964
232	0x3bd93a19	0.0066292402
233	0x3c9b7ed3	0.018981373
234	0xbd78c00d	-0.06073003
235	0x3bcba8c2	0.006215186
236	0xb9afb5fb	-0.00033514187
237	0x3b962e84	0.004583182
238	0x3b4ea9d3	0.0031534329
239	0x3e3117d8	0.17294252
240	0xbd034307	-0.032046344
241	0x3e12fe30	0.14354777
242	0xbd942b57	-0.07234829
243	0xbdd96277	-0.10614484
244	0x3c3c8008	0.011505134
245	0xbcb18b7a	-0.021672953
246	0xbdd39e43	-0.103329204
247	0x3cdc1851	0.026867064
248	0xbd1dbeaf	-0.03851193
249	0xbda10ab0	-0.078633666
250	0x3d526121	0.05136216
251	0xbd2dfed4	-0.04247935
252	0x3aa5ff23	0.0012664538
253	0xbce3ecb8	-0.027822837
254	0x3c104d07	0.008807427
255	0x3d8d7f27	0.06909018

network_body._body_endoder.seq_layers.4.bias f4 [256]
0	0x3c6b5597	0.014363668
1	0xbcc731b6	-0.024315696
2	0x3c53d5f7	0.012929431
3	0xbc481c9c	-0.012213852
4	0xbc96ae23	-0.018393582
5	0xbc41338a	-0.011792073
6	0x3c7f6559	0.015588128
7	0xbcaededb	-0.0213465
8	0xbca8f087	-0.020622505
9	0xbc4db2a2	-0.012554796
10	0xbc824968	-0.015904143
11	0xbca04959	-0.019566225
12	0x3c901918	0.01759009
13	0x3c06418a	0.008194337
14	0xbcd65d11	-0.026167424
15	0xbc6643b8	-0.014054231
16	0x386cae89	5.6429333e-05
17	0x3c117b5c	0.008879509
18	0x3c99ad1b	0.018759301
19	0xbc89a320	-0.016801417
20	0xbcb8c4f7	-0.022554858
21	0x3b28306c	0.0025663627
22	0xbc9637f5	-0.01833723
23	0xbc9e7253	-0.019341623
24	0x3ca86c4c	0.020559452
25	0xbca3b669	-0.01998444
26	0xbc16e9b1	-0.00921099
27	0x3bbf5399	0.005838823
28	0x3b38c750	0.0028194971
29	0xbb951fb6	-0.0045508994
30	0xbb3da234	-0.0028935792
31	0x3c1eabd9	0.009684526
32	0x3aa46865	0.0012543319
33	0x3c8e426a	0.017365653
34	0x3c2e469e	0.010636954
35	0xbcbc4371	-0.022981377
36	0xbab4ed54	-0.001380364
37	0x3c18c304	0.009323839
38	0x3c826a17	0.015919728
39	0x3c1307c0	0.008974016
40	0xbc800dc9	-0.015631573
41	0x3c07af0d	0.008281481
42	0xb98c199c	-0.0002672196
43	0xbc949eb6	-0.018142086
44	0x3c1b5c16	0.009482404
45	0x3b55c24a	0.0032617026
46	0xbb48bd8f	-0.0030630564
47	0xbcc374e5	-0.02385945
48	0x3ca5629c	0.020188622
49	0xbcafa920	-0.02144295
50	0xbcae09de	-0.02124494
51	0xbc66eeb4	-0.014094997
52	0xbc9b5f74	-0.018966414
53	0x3aa5980b	0.0012633813
54	0x3c33f65a	0.010984028
55	0xbceae505	-0.028673658
56	0x3c840ce8	0.016119435
57	0x3bd10a4d	0.006379402
58	0x3c9a3df2	0.018828366
59	0xbc8ca2ae	-0.017167415
60	0xbc3c27a8	-0.011484064
61	0xbc340e03	-0.010989669
62	0x3a7d17a4	0.0009654707
63	0xbc27d638	-0.010243945
64	0x3a6c796a	0.00090207777
65	0x3c6e0c68	0.014529325
66	0xbccf6485	-0.025316486
67	0xbb069523	-0.002053567
68	0xbbc678ca	-0.0060568796
69	0xbb90b7ff	-0.0044164653
70	0x3c8b327b	0.016991844
71	0x3c3838a5	0.011243974
72	0x3bfd273f	0.0077256258
73	0x3c83f147	0.016106261
74	0x3b0c8fd2	0.0021448028
75	0xbcf07b47	-0.029355658
76	0x3c8fcede	0.017554697
77	0xbc9ed154	-0.019386925
78	0xbc93615e	-0.017990764
79	0xbc34767e	-0.011014579
80	0xbc8e65cf	-0.01738253
81	0xbafc9348	-0.0019269967
82	0x3cc61a0d	0.024182344
83	0xbcc7d607	-0.024394048
84	0x3c8f4c97	0.017492576
85	0x3c8331f6	0.016015034
86	0xbc7d42ff	-0.015457868
87	0xbcb9dfd6	-0.022689741
88	0xbcd31c37	-0.02577029
89	0x3c38c897	0.011278293
90	0xbcc352ec	-0.023843251
91	0xbc2a04db	-0.010377134
92	0x3c5c77b8	0.013456278
93	0x39ea54ad	0.00044695046
94	0x3c2449cb	0.010027359
95	0xbc4db958	-0.012556396
96	0xbba45a19	-0.0050156233
97	0xbb7cd572	-0.0038579372
98	0x39ba8e8a	0.00035582884
99	0xbb88add6	-0.0041711135
100	0x3c0ef9c5	0.008726542
101	0xbc9ec74c	-0.019382142
102	0x3c871c97	0.016493125
103	0x3c8ae38c	0.016954206
104	0x3baef496	0.0053392155
105	0xbb464f56	-0.003025969
106	0x3c0fa297	0.008766792
107	0xbc71b34b	-0.014752219
108	0xbc8d479c	-0.01724606
109	0xbcd4d469	-0.025980191
110	0x3c80c382	0.015718225
111	0xbc4f98c7	-0.012670702
112	0xbcd95e09	-0.026534097
113	0x3b550b36	0.0032507903
114	0x3c8425be	0.016131278
115	0x3a0dcc2a	0.0005409146
116	0x3be4c5db	0.006981594
117	0x3c9e0d9d	0.0192936
118	0xbc5b1550	-0.0133717805
119	0x3ba62bf1	0.005071156
120	0x3c2e4057	0.010635457
121	0x3c0af66d	0.008481604
122	0x3ca42128	0.020035341
123	0xbb8b041b	-0.004242433
124	0x3c932d19	0.01796584
125	0x3c25c543	0.010117832
126	0x3ca025cf	0.019549279
127	0x3c693565	0.014233922
128	0x3b898630	0.0041969046
129	0xbcba6860	-0.022754848
130	0x3c62245b	0.013802613
131	0x3c177d2d	0.009246153
132	0xbc4b2cc1	-0.012400807
133	0x3b4c387c	0.0031161597
134	0xbb93dccb	-0.0045124046
135	0xbcdc36dd	-0.02688163
136	0x3b90b866	0.0044165133
137	0x3c197991	0.009367363
138	0x3c92bf73	0.017913556
139	0xbba995a2	-0.0051753083
140	0x3b925bd3	0.0044665127
141	0x3c6e8b1f	0.014559536
142	0xbcc93591	-0.024561675
143	0xbc09f66e	-0.00842057
144	0x3c1d2470	0.009591207
145	0x3bfabd35	0.0076519498
146	0xbca210ac	-0.01978334
147	0x3b6fb6d9	0.0036577492
148	0x3ac6486d	0.0015127786
149	0x3c228ab3	0.009920764
150	0xbcd03164	-0.025414176
151	0x3ad56ec9	0.0016283627
152	0x3bd9ef35	0.00665083
153	0xbb95295d	-0.00455205
154	0x3bd4c21e	0.006492867
155	0xbb2dd6c8	-0.0026525725
156	0x3c3b8f01	0.011447669
157	0x3c3b247d	0.011422274
158	0xbbb782b5	-0.0056002983
159	0xbcd066bc	-0.025439613
160	0x3bef831b	0.00730933
161	0x3c974991	0.018467696
162	0x3b72596a	0.0036979564
163	0x3ab85420	0.0014063157
164	0xbc9583ae	-0.018251266
165	0x3b3452f6	0.002751527
166	0xbcd8f474	-0.026483752
167	0x3bcc9b91	0.006244131
168	0x3ba87cff	0.005141854
169	0x3c824e24	0.015906401
170	0xbbd0f6d5	-0.006377081
171	0x3c8d24a7	0.017229391
172	0x3b9f7274	0.004865939
173	0x3c5e1969	0.013555863
174	0x3c899767	0.016795827
175	0x3c8a24da	0.016863275
176	0xb99dee50	-0.0003012293
177	0xbd03d205	-0.032182712
178	0xbb0ed676	-0.002179531
179	0x3c848593	0.016176974
180	0x3c6d232d	0.014473719
181	0x3bef002d	0.007293722
182	0x3c82aa40	0.015950322
183	0x3bca473d	0.006173043
184	0x3c411ed6	0.011787137
185	0xbb910a1a	-0.004426253
186	0x3c77c902	0.015123608
187	0x3c9a2485	0.018816242
188	0xbc62fab2	-0.013853716
189	0xbc73cb51	-0.014880017
190	0xbc6af939	-0.014341646
191	0x3c514382	0.012772443
192	0x3c84c25f	0.016205965
193	0xbc523fb5	-0.012832572
194	0x3af8dda0	0.0018986948
195	0xbc68bec2	-0.014205636
196	0x3c8f6a30	0.017506689
197	0x3c36938c	0.011143576
198	0xbaf06421	-0.0018340388
199	0x3c7b523e	0.015339432
200	0xbcda916b	-0.026680669
201	0xbc875d6b	-0.016524037
202	0x3b6af909	0.0035854003
203	0xbc080cac	-0.008303802
204	0x3c2ba0f7	0.010475389
205	0x3ae85630	0.0017725881
206	0xbc43dab6	-0.011954
207	0x3a1541fa	0.000569373
208	0x3c8e3f0d	0.01736405
209	0xbcb05574	-0.021525122
210	0x3c1300f0	0.0089723915
211	0x3c796a60	0.015223116
212	0x3ca828ae	0.02052721
213	0x3b1e68f7	0.002417145
214	0xbcb90cea	-0.022589166
215	0x3c41315e	0.011791555
216	0xbcc74137	-0.024323089
217	0xbcc252b3	-0.023721075
218	0xbb4fb306	-0.00316924
219	0x3aa9df47	0.0012960219
220	0x3c4452e1	0.0119826505
221	0x3c17b830	0.009260222
222	0x3c8c165d	0.017100507
223	0xbcaaab00	-0.020833492
224	0x3ba9cb3c	0.005181698
225	0x3c820e9c	0.015876107
226	0xbb8f9047	-0.004381213
227	0x3bbd9a8b	0.005786245
228	0xbcb08734	-0.021548845
229	0x3c934cbb	0.017980924
230	0xbc828d42	-0.015936498
231	0x3b0819e6	0.002076739
232	0x3c73eb37	0.014887623
233	0xbc9e9aa7	-0.019360853
234	0x3c3e6473	0.011620629
235	0x3bd364bf	0.006451219
236	0xbb22bb7e	-0.0024830992
237	0xbccc1479	-0.024912106
238	0xbc2df145	-0.010616605
239	0xbcce3910	-0.025173694
240	0x3c9127fe	0.017719265
241	0xbc2fab34	-0.01072197
242	0xbcc4ad4c	-0.024008416
243	0x3bc685cc	0.0060584303
244	0xbcc9baef	-0.02462527
245	0x3c28cb31	0.010302351
246	0xb9f067bc	-0.00045853655
247	0xba4d7599	-0.0007837653
248	0x3b82406d	0.0039749653
249	0xbc81ab37	-0.015828712
250	0xbc1c7d0b	-0.009551297
251	0x3c469017	0.012119315
252	0x3c97bab4	0.018521644
253	0xbbc5a6ba	-0.0060318382
254	0xbcfacce9	-0.030615287
255	0x3b835684	0.004008116
