Cursed Tennis/Assets/Tennis/results/TennisPro5/Tennis/Tennis-1864355.onnx (onnx, 886342 bytes, 13 tensors)

60 f4 [84]
00000000: f09b 4540 14b8 0040 47d7 1e40 dd20 4f40
00000010: 7bc9 9840 d88c 1c44 2d85 f649 d5f3 2740
00000020: 0fd8 eb44 7bc9 9840 9567 d63e f5fd bf40
00000030: 41ec f53f 4122 9840 9fbe ec3e bd3a 9a3e
00000040: 3607 a63e 5eea d63e c555 1c44 2d85 f649
00000050: 2187 3b40 028c 3740 ff38 fd3f fc36 2340
00000060: b461 5240 8657 9940 718f 1c44 e38a f649
00000070: 3131 2f40 c8d9 eb44 8657 9940 2937 da3e
00000080: c4ed c440 cd38 f43f 40a8 9840 c794 f13e
00000090: c0a9 993e 6b07 a53e 5362 db3e 8d58 1c44
000000a0: e38a f649 9128 4040 e5fa 2540 d7a3 f63f
000000b0: 0269 2740 4508 5640 dae3 9940 ed91 1c44
000000c0: 9990 f649 2bca 3640 6fdb eb44 dae3 9940
000000d0: a1c7 dd3e 9eb4 c940 af93 f03f 5e2c 9940
000000e0: a047 f63e b9a7 983e b37e a33e 85b7 df3e
000000f0: 2e5a 1c44 9990 f649 9354 4540 28ae 0f40
00000100: 537f ed3f f082 2b40 8c03 5a40 f16e 9a40
00000110: 3a94 1c44 4596 f649 69c4 3f40 0ddd eb44
00000120: f16e 9a40 5d16 e13e 0656 ce40 80ec ea3f
00000130: 54af 9940 2ecc fa3e 0e40 973e f858 a13e
00000140: 10ee e33e af5c 1c44 4596 f649 5714 4b40
3.0876427 2.0112352 2.4818895 3.2363808 4.774595 626.2007 2.0194936e+06 2.6242573
1886.7518 4.774595 0.41875902 5.9997506 1.9212724 4.7541814 0.46239182 0.3012294
0.32427377 0.41975683 625.34015 2.0194936e+06 2.9301226 2.8679204 1.9783019 2.550231
3.2872133 4.791934 626.2413 2.0196764e+06 2.7373774 1886.8057 4.791934 0.4262021
6.154024 1.9079834 4.7705383 0.4718382 0.3001232 0.32232222 0.42848453 625.3836
2.0196764e+06 3.002476 2.5934384 1.926875 2.6157842 3.3442547 4.809064 626.2801
2.0198591e+06 2.8560894 1886.8573 4.809064 0.43316367 6.303298 1.879507 4.786666
0.4810152 0.29815462 0.319326 0.43694702 625.40906 2.0198591e+06 3.083287 2.2450047
1.8554481 2.6798668 3.4064665 4.8260427 626.31604 2.0200406e+06 2.996363 1886.9078
4.8260427 0.43962374 6.448001 1.8353424 4.8026524 0.48983902 0.29541057 0.3151319
0.44517565 625.4482 2.0200406e+06 3.1731164

action_model._continuous_distribution.log_sigma f4 [1, 6]
00000000: ba30 bebd 56b0 8f3c 09d1 833b 8424 84bd
00000010: c122 0dbd d6f1 643b
-0.092866376 0.017540138 0.0040227217 -0.06452277 -0.034456972 0.0034934185

action_model._continuous_distribution.mu.bias f4 [6]
00000000: 6f8c 5a3b e32c e73c 6bc3 c7bb d58a babb
00000010: e330 ebbc 7619 e0bc
0.0033347865 0.028219646 -0.0060962937 -0.0056928196 -0.028709834 -0.02735589

action_model._continuous_distribution.mu.weight f4 [6, 256]
00000000: 717f 743c ce10 6339 8b5c 6dbc c2e3 45bc
00000010: ec58 1b3c 6fcf f139 4bc1 49bc ee0f 70bc
00000020: 2bb1 52bc 850d a13c 7530 f6bb c27e bc3c
00000030: 31c1 01bc 368d 10b9 cced 75bb e172 b83b
00000040: 32f1 f9bc 9fa0 a3bc a0ac 9938 68c2 debc
00000050: 8529 d23c f206 3dbd 03bd babc f19d c1bc
00000060: 5617 d4bc c077 8f3a d5cc 933b 618b 6f3c
00000070: 3cdd ce3c de12 c8bc 7a6a 69bc 3e6e 99bc
00000080: c84f 3ebc 6066 2f3c 75ee ffbc 9f4e fa3c
00000090: 13e6 6d3c eeea bcbc b9ad 303d 83b0 c13c
000000a0: 155f f53c 62b4 043c 5a37 b8bc 8fb5 72bc
000000b0: 5336 cabb 3975 c23b 554a aabb 17f6 10bc
000000c0: 7122 afbb d14a 54bd 7413 133b 05fc d03c
000000d0: 1bf0 883c 7208 e5bc 151e a9b9 6fed af3c
000000e0: 35ec a5bb 99a1 87bd 0b8d 5fba b8d0 89bd
000000f0: 0b32 8dba 746e 8abc c56c c7bc dcf7 303d
00000100: 81f2 eb3b 9279 793c 5669 c7bb ead4 3d3c
00000110: 6f10 1b3d fe50 053c 113e a3bc 7616 0b3c
00000120: 8907 cebc 8bac 11bc 37e6 303c 685d 4ebd
00000130: ee13 183c 7f1e 8bbd 6636 123b 6a60 d53c
00000140: 6ef2 3dbd 4b4a 34ba 1c5b 28bb 832e 963b
00000150: 9889 673c 45d1 c7bc 5e6e b53c 9b0f c93c
00000160: 6cb5 b8ba f2a1 fe3c accb 57bc 730d 8b3b
00000170: 5674 bf3c b73d a43c 8505 d6bc 694f 80bb
00000180: 928f 013d 6a44 25bd fd35 853c 066d 6cbc
00000190: d9ca 743a c9f6 f23b bbe2 9b3a 7d46 8f3b
000001a0: 1550 18bc 2318 1f3c 93f5 1bbd 34d6 5fbc
000001b0: 0751 123d 57f0 ef3c d1bc f93c 2671 94bc
000001c0: 461c 05ba 3d2c 0e3c 325e 5bbc 8970 30bc
000001d0: 2a28 b23c 4e81 a53b 6cf8 c0bb 34f2 43bd
000001e0: c24d 71bb b671 033d ee7e 58bc 3f6b 0cbd
000001f0: 7389 21bd 1e6a 99bc 1442 803c 7313 ddbb
00000200: 0cd7 44bd 498f f1bc e6f3 41bc 90dd cbbb
00000210: 19c9 333c bddf 48bc 463d e23b 3bd0 ea3b
00000220: 0c4c 643b 3e84 aa3c 9477 863c 3472 083a
00000230: af45 cabc 94a1 033d df58 89bc 0c96 a9bc
00000240: 1560 143d ecd5 1e3d 221f 3f3d b130 d9bc
00000250: bf64 e5bc aaf1 df3c 8444 9ebc 2734 9a3c
00000260: f970 f93b 36c7 adbc fa5e af3c b3cb 763a
00000270: 3178 6d3c f2ef 263b 5eb1 c63b 9e52 353d
00000280: 10a1 d5bc 69a9 ea3c e42c 983b 45cb 933c
00000290: ed41 b5bc baf9 e53c f4fc 62bd 82ec 00bc
000002a0: ce2f 16ba f659 c7bb 4259 0a3c d7ce fd3b
000002b0: 29c9 0fbd 54d4 33bc 889c 6f3a 01fb c7bb
000002c0: 1078 d7ba c079 763d a7ba 0a3b 8733 be3c
000002d0: 1f56 9e3b 6252 e4ba 04a4 103d c3ef d43c
000002e0: 717d c53b 5590 e9bc cbb0 953c 6274 e9bc
000002f0: 194b 863c 44a6 2a3d 7b54 9a3c 6e81 c13c
00000300: 5f25 3e3c b329 3cbd 5141 7c3c 43f2 ebbc
00000310: 2bd0 213c 606b db3c 8556 f3bc 505b 1cbc
00000320: 2112 d13c 0d19 5d3c b232 9e3c 39da 8dbb
00000330: b95c a1bc 7a5a 9a3c 3b1a 50bc 3df7 1abc
00000340: 14f6 5f3c c50e 5b3c f527 a13c 64fd 0ebd
00000350: f33a 513c f5e5 063c c7b9 c93b 2105 8cbc
00000360: dccc d73b ecc2 43bc bdd4 303b 162c c43c
00000370: a53d 123d a71b 94bc 2f91 c63b 5947 bfbb
00000380: cd72 893c 6c07 103b 2b83 d93c 102a 12bc
00000390: 6f83 ffbb 4e54 8fbc fc0d 1c3a f35f 833c
000003a0: 91a8 d23b e9f9 63bb 6f49 f6bb 8592 173d
000003b0: 497c f2ba 4654 d13c c67f 75bc ed87 7bbc
000003c0: 0bef ecbb a0a4 943c 4108 9c3b 2c14 abbc
000003d0: 2f3e 0cbd 0add 5abd de89 debc ed14 8c3c
000003e0: b83c a73c e650 773c 8034 03bb e5b1 1a3b
000003f0: fa9d deba 083a 1cbd 016c d73a 7b75 17bc
0.0149229625 0.00021654667 -0.014487396 -0.0120782275 0.00948165 0.00046121652 -0.012314151 -0.014652235
-0.012859623 0.019659767 -0.0075131007 0.023009662 -0.007919596 -0.00013785515 -0.0037525771 0.005628929
-0.030510519 -0.019974051 7.3277624e-05 -0.02719231 0.025654564 -0.0461492 -0.022795206 -0.023634883
-0.025890034 0.0010945722 0.004510502 0.014620633 0.025251977 -0.02442306 -0.014246577 -0.018729325
-0.011615701 0.01070556 -0.031241635 0.030555068 0.014520186 -0.023061242 0.043134425 0.023643738
0.029952565 0.008099647 -0.022487331 -0.014813795 -0.0061710267 0.005934384 -0.0051968493 -0.008847735
-0.005344682 -0.051829163 0.0022442015 0.025510797 0.016716054 -0.027958129 -0.00032256605 0.021475522
-0.0050635585 -0.06622619 -0.0008527792 -0.06729263 -0.001077236 -0.016898371 -0.024343858 0.043205127
0.0072005396 0.0152267385 -0.006085555 0.011586407 0.03785747 0.008136986 -0.019927057 0.008489242
-0.025150077 -0.008891235 0.010797075 -0.050382048 0.009282095 -0.06792926 0.0022310256 0.02604695
-0.046373777 -0.00068775256 -0.002568907 0.0045831813 0.014131926 -0.02439178 0.022147354 0.024543574
-0.0014092154 0.03108308 -0.013171118 0.0042435466 0.023370903 0.02004896 -0.026125679 -0.0039157164
0.03163106 -0.040348448 0.016261095 -0.01443029 0.0009338088 0.007414673 0.0011893132 0.0043724165
-0.009296437 0.0097103445 -0.038075995 -0.01366191 0.035721805 0.029289408 0.030485542 -0.01812036
-0.00050777604 0.008677539 -0.013389157 -0.010769018 0.021747667 0.0050508147 -0.005888989 -0.047838405
-0.003682003 0.032090865 -0.013213856 -0.034281965 -0.039437722 -0.018727358 0.015656509 -0.0067467033
-0.048056647 -0.029487269 -0.011837935 -0.0062214807 0.010973238 -0.012260375 0.006904277 0.0071659363
0.0034835367 0.020815011 0.016414441 0.0005205006 -0.02469143 0.032136515 -0.01676601 -0.02070143
0.036224443 0.03877823 0.04666055 -0.026512476 -0.028002141 0.027336914 -0.01931978 0.018823696
0.0076123443 -0.021213155 0.021407593 0.0009414509 0.014493988 0.0025472608 0.0060636243 0.044268243
-0.026077777 0.028645234 0.0046440233 0.018041262 -0.022126162 0.02807318 -0.055417016 -0.007868888
-0.00057291694 -0.006083722 0.008444132 0.0077456045 -0.03510395 -0.010975916 0.00091404514 -0.00610292
-0.001643898 0.060174704 0.0021168382 0.02321793 0.004832044 -0.0017419572 0.035312667 0.025993234
0.0060269167 -0.028511206 0.018272778 -0.028497878 0.016393231 0.04166247 0.018839112 0.023621287
0.01160559 -0.045938205 0.015396432 -0.028802043 0.009876291 0.026784599 -0.029704342 -0.009543255
0.02552134 0.013494742 0.019311283 -0.0043289927 -0.019697534 0.01884197 -0.012701566 -0.00945836
0.013669509 0.013370221 0.019672373 -0.03490962 0.012770402 0.008233537 0.0061561796 -0.01709229
0.0065857004 -0.011948328 0.002698227 0.023946803 0.03570332 -0.018079592 0.0060597877 -0.0058373627
0.016778374 0.002197708 0.026551804 -0.008921161 -0.0077976505 -0.017496254 0.00059530116 0.016036963
0.006428786 -0.003478641 -0.007516078 0.037004966 -0.0018500175 0.02555288 -0.014984077 -0.015352231
-0.0072306446 0.018144906 0.004761726 -0.020883642 -0.03423899 -0.053433456 -0.02716535 0.017099822
0.020414695 0.015094971 -0.0020020306 0.0023604569 -0.0016984337 -0.03814128 0.0016435386 -0.009244318

network_body._body_endoder.seq_layers.0.bias f4 [256]
00000000: f93c 363b 76b2 883b 3bb7 8f3b 687f 84bc
00000010: 2afc faba 787a 613b f7a2 9abb 28ea 3a3b
00000020: a021 59bb 9c3c f8b8 bd4e cdbb ef68 7a3b
00000030: 04fd a93b 5579 943c 8c61 f73c 2deb 243c
00000040: 99af 333c df8e 2ebc a56d 2e3c aae4 a4b9
00000050: 6a58 50bc ae2e a8bb 6a4d 3a3c e4c1 ad3c
00000060: a4c4 8fbb 5e94 b5bb bc89 ca3b 1271 6cbb
00000070: 8500 d0bb 8642 873c 9403 dcba dcf0 823b
00000080: f88c 25bb bfac f8bb 41fa b8bc 7bc7 1b3b
00000090: fe37 a13b 87d3 373b 885f 973c 5b20 cfbb
000000a0: 6e63 d93c 7664 923b 951f 7cba aa81 763b
000000b0: e8e7 1d3c 1ca8 5aba f11a c43c 6d18 303c
000000c0: 7711 42bc 1ff4 07bd 0ee8 913b eadc 2ebd
000000d0: d9ee 023b 5b8e f73b 31ae c93c c42e d6bc
000000e0: 5b06 833b d7a5 223c 39cb 26bc 5f9f 333c
000000f0: 93e8 6b3c 707e 7cbc ab0c 743c c0cc afbb
00000100: 4b72 513c 196c 053b 71d1 43bc ece2 333c
00000110: effd f83b 8126 2d3c c548 5db9 87aa 3cbc
00000120: f280 16ba b9ec fcbc 2fa2 7eba fe96 403b
00000130: 603e b2bb 6f26 b7ba 7596 57bc 2e60 0fbc
00000140: 3be1 ca3a 84d1 7e3c 69df 003b b863 66bc
00000150: a685 40bc 0ef5 9cba 9b6d 73bb a638 863c
00000160: 30a4 c2bb 9fa7 9dbc 7878 8b3c b31f 0dbc
00000170: 1115 d23a 730b 4d3b 9085 563c 9194 83bc
00000180: 604e 2b3c 6f90 d53b 872f 40bc 5a6a 063b
00000190: 8a3a 523c 2aef 83bb f03d 3d3c 7ca7 363c
000001a0: 7232 c73a 3623 053c 2aea 803c a5db 1fbc
000001b0: a770 0b3a ebac 0b3c 77e0 fe3b b649 393b
000001c0: fb0e 79b8 7dd3 9c3c 316f a5bc 5a54 ab3c
000001d0: c1b7 9dbb 08f5 1b3d bffa 4fbb 284c d0bc
000001e0: 22f9 91bb d2d7 c5bb 8a51 c83a 9218 f23a
000001f0: 46d0 adbc 5940 c63c 7b2c 87bb 4b96 a23c
00000200: 4208 8b3c 360c 3bbc 358d aebb 118f 333a
00000210: 2088 623c b4f0 9f3c 6aae b43c 393b eb3a
00000220: 7ec9 e63b 4412 163c e195 2cbc 90cd 7a3b
00000230: 9967 303c 6774 163c b34e 043b d107 543b
00000240: 1384 10bd 3209 e3bb ca2f 05bc 0858 b1bb
00000250: b839 453c 0a5c ae39 0417 1cbd 5612 853c
00000260: b02f 813c 690b 34bb fa16 c73c b180 593b
00000270: bd48 cab9 f2c3 263a e9fc 963c 2e76 c33c
00000280: e3f0 41bc 4fee 0e3b 29a5 a73b 1650 a23c
00000290: a4d8 ea3c c6e1 a53c c861 bc3c 3643 9b3c
000002a0: d0af d8bb a153 0b3b 91b9 053c a5cb 4cbc
000002b0: 4795 5abb da79 703c 21f4 bebb 2051 833c
000002c0: a4f8 c93a 865a f2bb 3d85 013c 009d ff3b
000002d0: 7776 ce3c c66c dbbc 904e e8bb 0b75 cc3c
000002e0: 8ff4 eb3b 31f9 963c 51a3 e6bc f7a2 d83b
000002f0: 87fd e7bb 8833 9b3b 8eb2 0fbc e854 07bc
00000300: 5ad2 0cbc 16d9 463c b61a 3a39 ea6e 0f3c
00000310: 2bd8 90bb 8a62 dfbb 376c 303c 8153 973b
00000320: a0ef 693c e31a acbc c73b cd3c 3daa 1e3c
00000330: 6d60 a33c b0f6 0f3b 62ec 9bbb e282 deba
00000340: e158 763c 4909 c8bb 9ba9 afbb 7c21 5f3a
00000350: 9ded a73b 5a38 8f3c 58d8 e9ba b331 aebc
00000360: aa2a b3bc dfb8 50bb d843 b43b 64ea 35ba
00000370: 60bf e8bb e76e 313c 873f 893c 92f7 9e39
00000380: 7715 e03c bbbe c03c e9af 8fbb 6c2f 583c
00000390: d578 14ba f57c 4f3c fc8e f93b 318c bcbc
000003a0: 48d1 d0bb 275c 2abc 7555 243b 67f9 95ba
000003b0: bd7c 473c 3d03 5abc cfe4 cbbc 2a9a 90bc
000003c0: 305c 11bc 5bd7 01ba 12c4 3b3c 230e 473c
000003d0: 2c35 8d3c 11c5 c23b 60bd 253c 4fca 5e3c
000003e0: 37ce 003c 8838 0abc 89de 153c 58aa 473c
000003f0: e7b3 663c 7b01 1f3c 2bd4 22bb dda3 b2bc
0.0027807339 0.004171665 0.0043858564 -0.016174033 -0.0019148637 0.0034405272 -0.004719134 0.0028520916
-0.0033131614 -0.00011836851 -0.00626549 0.0038209518 0.0051876325 0.018124262 0.030197881 0.010065836
0.010967159 -0.01065418 0.0106462585 -0.00031450886 -0.012716392 -0.005132518 0.011370996 0.021210618
-0.004387455 -0.0055413684 0.00618097 -0.0036078137 -0.006347718 0.016511213 -0.0016785734 0.003995998
-0.0025261026 -0.0075889523 -0.022580268 0.0023770023 0.004920005 0.0028049664 0.01847817 -0.0063209957
0.02653667 0.0044675423 -0.0009617743 0.0037613907 0.00963781 -0.000834109 0.023938628 0.010748011
-0.011844984 -0.033191796 0.004452712 -0.04269115 0.001997879 0.007554812 0.024619194 -0.026145346
0.0039985604 0.009927235 -0.010180288 0.01096329 0.014398712 -0.015411004 0.014895598 -0.0053649843
0.012783597 0.002035862 -0.01195179 0.010979395 0.0075986306 0.010568262 -0.00021103311 -0.011515266
-0.000574126 -0.030874597 -0.00097134983 0.0029386873 -0.0054395646 -0.0013973246 -0.01315843 -0.008750958
0.0015478501 0.015552882 0.0019664413 -0.014061861 -0.011750614 -0.0011974887 -0.0037144187 0.016384434
-0.005939983 -0.019244967 0.017025217 -0.008613515 0.0016028007 0.0031287342 0.013093367 -0.016062053
0.010455698 0.006517462 -0.011730081 0.0020510168 0.01283134 -0.0040263133 0.011550412 0.01114833
0.0015197529 0.008126071 0.015736658 -0.009756957 0.00053192157 0.008525114 0.007778223 0.0028272695
-5.9380178e-05 0.019143814 -0.020194622 0.020914245 -0.004813165 0.038075477 -0.003173515 -0.02542694
-0.004454748 -0.0060376907 0.001528309 0.0018470457 -0.021217477 0.024200605 -0.0041251755 0.019847056
0.016971711 -0.0114164855 -0.005326892 0.00068496267 0.0138264 0.019523956 0.022055823 0.0017946727
0.0070430627 0.009159628 -0.010533781 0.0038269497 0.010766887 0.009183026 0.002018851 0.0032353292
-0.035282206 -0.0069285864 -0.00812907 -0.0054121055 0.012037687 0.0003325644 -0.038107887 0.016244095
0.01576981 -0.0027472621 0.024302948 0.0033188278 -0.00038582637 0.00063615956 0.018431144 0.023860063
-0.011837217 0.0021809523 0.005116124 0.019813579 0.028667755 0.020249259 0.022995844 0.018952947
-0.0066127554 0.0021259564 0.008161918 -0.0124997245 -0.0033353136 0.014677489 -0.0058274423 0.016029894
0.0015409184 -0.007396045 0.007905302 0.0078006983 0.025202973 -0.026785266 -0.0070894435 0.024958154
0.0072007845 0.01842937 -0.028154047 0.006611224 -0.0070797834 0.0047363676 -0.008770598 -0.008259989
-0.008595074 0.012136718 0.00017748293 0.008754471 -0.0044203005 -0.0068171667 0.010767988 0.0046181087
0.014278322 -0.021008914 0.025052918 0.009684143 0.01994344 0.0021967106 -0.0047584036 -0.0016976262
0.015035839 -0.0061046225 -0.0053607947 0.00085117645 0.0051247613 0.017482925 -0.0017840965 -0.021263933
-0.02187093 -0.0031848473 0.0055012517 -0.0006939529 -0.007102892 0.010829664 0.016753925 0.00030320563
0.027353985 0.023528447 -0.004384984 0.0131949 -0.00056637573 0.012664069 0.007615922 -0.023016067
-0.0063726045 -0.010397947 0.002507535 -0.0011442126 0.012175736 -0.013306436 -0.024889378 -0.017651636
-0.008872077 -0.000495305 0.011460321 0.012149367 0.017237268 0.0059439023 0.010115951 0.013598039
0.007861665 -0.00843633 0.009147295 0.012186609 0.014080978 0.009704943 -0.00248457 -0.021806652

network_body._body_endoder.seq_layers.0.weight f4 [256, 84]
00000000: 4e03 febc 84ee bdbc f561 cc3d 4949 953d
00000010: 7fb7 e7bd efda c0bb 3dd4 223e 18b6 77bc
00000020: 7582 983c c3c1 e3bd 350a 3d3d ab65 f43d
00000030: ca31 31bd f6ae 90bd a2e3 7abd c279 f73c
00000040: d2c5 c63c e9ea 233c e254 7b3e 16bc f0bd
00000050: 1f06 2ebb b7b5 2abd 6f15 233b ad6e fd3c
00000060: d2d6 7cbd 9329 a73e de71 babc 28c3 4ebd
00000070: 11c2 42bd 6bad c4bc 19cb 593e eeb6 29bd
00000080: 4598 0cbe 5d72 a13d ae7d 2f3c 5180 ad3c
00000090: 279f 1ebe 9d60 c83d 363d 13be 7748 263e
000000a0: 92f3 933d d136 09bc 583f b2bd db26 0d3e
000000b0: ea6a 51bd 4e0d 62bd 5785 263e 7769 babd
000000c0: 1016 0b3e f293 61be 4657 3d3d db70 473d
000000d0: 0afc b139 f310 b9bd 21e5 babd b8ae af3d
000000e0: 3a3d adbc 2f3e 95bd 8a93 af3d 5bed 85bd
000000f0: f262 5bbd 649e f5bb 6662 3cbd 9ede 2ebe
00000100: e029 0cbe 2e38 713c 2159 eebd 672b b63d
00000110: 4a19 03be 23c7 a33c 4bd9 38be 8587 ebbc
00000120: 5e7c aebd 9379 f4ba 5b9a a23c 3a30 f1bd
00000130: ff2d 47bd 2190 40bc 6a6e 21bd c050 923b
00000140: ee74 cebd 6c62 afbd f65a 113d 09c0 1abd
00000150: bbb9 b8bd 5cd8 223e 20c0 693a 586b cfbd
00000160: 5b17 17bb 9e38 d33d 8876 b73d bdc6 3c3d
00000170: 38d6 253e a1cd 1dbe 5d11 813e c2dd cfbd
00000180: 1e0e ccbc de32 5a3c 95b2 953b 0f25 463e
00000190: c289 053e c7c1 d4bc 3549 1f3e 1abc c2bd
000001a0: 2a80 fabd a3be 5fbe e189 03bd 75bd 333d
000001b0: acff 8bbd fe49 bdbe c59a 74bd c5ef 443e
000001c0: 9454 3f3d f601 87bd 08e3 f53d 5cc6 abbc
000001d0: 742c efbd a7b7 26be 8135 a83b 9a3e e83d
000001e0: 381d 84be 4573 7ebd 381d 5dbd dac9 82bd
000001f0: 365b 323c 56eb 21bd 4a95 c43d 645e 31be
00000200: 6fcb 6f3c bbf0 e73d c8ed fb3d 7e8b 84bd
00000210: fec8 8ebd c3c8 6ebd 1e95 0f3e 3e73 663d
00000220: d784 e43b c224 0dbe 9bbc a5bc 94ab 19bd
00000230: 4b64 b33d 4089 66bd eae8 893e 59d1 a03d
00000240: ca07 103d 5e93 613d 47ae f43d ccd3 3cbd
00000250: 9125 f4bd 56bc 43bd 57a3 0f3e b071 e13d
00000260: fe26 d83c 5e34 46bd 88f9 2c3d 9cd7 58be
00000270: d341 16bc 6dd5 413e 58f5 d43d ffae 753e
00000280: 4cc4 8ebd 09a5 38bd 6985 523e 2d01 373d
00000290: eca5 b5bc f9bf 29be 55ff e6bb b5c3 8abd
000002a0: 646a f0bd ba0e a6bd dae7 9abd 7eef c83d
000002b0: 9e5d 6f3b 189f 983d 8e72 3d3d fe91 6cbd
000002c0: ab61 823c 5337 1d3e 869d 0dbe cbe2 4e3c
000002d0: 160e a53d 5497 743e 0962 c93c d45d a8bd
000002e0: 963c 13be 63e4 46be bf5b 27be 4c34 45bb
000002f0: 7636 0bbe 9d16 c2bc f508 0a3d 0b78 023e
00000300: a5a5 9f3d 90a5 013d c095 2abe cf7c b1bc
00000310: d844 11bb 7afe ca3d 4fc0 303c 3c9a 0bbe
00000320: 76eb b8bc 7bbb bfbc 353e 943d f25b 31bd
00000330: 874d 2b3d 1eb8 783e 0b26 b03a d50d 6e3d
00000340: 3598 1c3c c087 123e b371 89bd ba4c 0e3d
00000350: b79a e6bc 1baf 573e 88c6 873d f924 e438
00000360: 61f5 8ebd e24d fa3d e625 c7bd cddc d43d
00000370: c163 39bc 4234 1bbc c5fa 93bd cf10 bdbd
00000380: c2be bebd 36ca 853d 68c0 f63d babd 4c3e
00000390: 418a 21bd dff1 d53c 27bb d7bc a0ca 0bbe
000003a0: 98f2 7cbe 4cd9 47bd 9797 7a3d 230f babd
000003b0: ea87 00be abe2 89ba b4c1 9ebd 1583 743c
000003c0: 9ada f1bd aff9 e4bd 7ca5 14be bcb5 ed3d
000003d0: cd72 1d3b 74b1 803d 5bbb cebc e706 233d
000003e0: 01b3 22be 40b1 bc3d 75e9 d6bd 0064 b13d
000003f0: 1903 cf3d 6a08 4bbc e61d 2a3e 72c9 f3bd
-0.031007435 -0.023185022 0.09979621 0.07289369 -0.11314296 -0.005885474 0.15901275 -0.015119098
0.018616894 -0.111209415 0.046152312 0.11933454 -0.043260373 -0.07064621 -0.061252244 0.030209426
0.02426425 0.010004737 0.24544099 -0.117546245 -0.0026553941 -0.041677203 0.0024884602 0.030936563
-0.061728306 0.32648906 -0.022759374 -0.050479084 -0.047548357 -0.024008473 0.21268882 -0.04143422
-0.13729961 0.07883141 0.010711117 0.02117935 -0.154904 0.097840525 -0.14378819 0.1623858
0.07224192 -0.008374886 -0.08703488 0.13784353 -0.05112735 -0.05518847 0.16261803 -0.09102147
0.13582635 -0.22029093 0.04622581 0.04869161 0.00033947855 -0.09036436 -0.09125734 0.08578247
-0.02114736 -0.07287251 0.08573063 -0.065394126 -0.05356116 -0.0074956883 -0.045992278 -0.17077109
-0.13687849 0.014722867 -0.11638094 0.08894997 -0.12802616 0.019992417 -0.1805164 -0.028751144
-0.08519815 -0.0018651955 0.019848993 -0.117767766 -0.04862785 -0.011753113 -0.03941194 0.0044651926
-0.10080896 -0.08563694 0.035487138 -0.037780795 -0.090198 0.15902847 0.00089168735 -0.10127896
-0.0023054692 0.10313533 0.08958155 0.04608797 0.16194999 -0.15410472 0.2520856 -0.10149719
-0.024909075 0.013317792 0.004568408 0.19350074 0.13040832 -0.025971306 0.1555527 -0.09508534
-0.122314766 -0.21850066 -0.032113913 0.043881852 -0.06835875 -0.36970514 -0.059717912 0.1923209
0.04671152 -0.06592171 0.120061934 -0.020968609 -0.11678401 -0.16280995 0.0051333313 0.11340065
-0.25803542 -0.06212165 -0.053982943 -0.063861564 0.010886004 -0.039531074 0.09598787 -0.17321163
0.014635905 0.113252126 0.123012125 -0.064719185 -0.0697193 -0.05829693 0.14021727 0.056262247
0.0069738436 -0.13783553 -0.020231536 -0.037517145 0.08759364 -0.056283236 0.26935512 0.0785243
0.03516368 0.05507218 0.11947303 -0.046100423 -0.11921228 -0.047787033 0.14027153 0.11008012
0.02638578 -0.048389785 0.04223016 -0.21175998 -0.009170967 0.18929072 0.10398358 0.23992537
-0.069710344 -0.045079265 0.20558704 0.044678856 -0.022173844 -0.16577138 -0.007049481 -0.067756094
-0.117390424 -0.081082776 -0.075637534 0.098113045 0.0036524306 0.0745222 0.046251826 -0.057756416
0.015915712 0.15353136 -0.13829622 0.012627314 0.08059327 0.23885852 0.02458288 -0.08221021
-0.1437858 -0.1942306 -0.16343592 -0.0030090986 -0.13594994 -0.023692423 0.03369995 0.12741105
0.07795266 0.031652033 -0.16658688 -0.021665959 -0.0022166278 0.09911819 0.010788037 -0.13633054
-0.022573214 -0.023404827 0.072384275 -0.043300577 0.041821983 0.24288985 0.0013439072 0.05811866
0.009557773 0.14309597 -0.067111395 0.03474114 -0.028149946 0.21062891 0.06629664 0.00010878774
-0.06980396 0.12221886 -0.097240254 0.10393677 -0.011315287 -0.009472908 -0.07225565 -0.092317216
-0.09313728 0.06532709 0.12048417 0.1999425 -0.03943849 0.02611631 -0.026334358 -0.13651514
-0.24701917 -0.048791215 0.061179724 -0.09084918 -0.12551847 -0.0010519823 -0.0775179 0.0149238305
-0.11809273 -0.11180436 -0.14516252 0.11606929 0.0024024725 0.062838465 -0.025235822 0.039801504
-0.15888597 0.09213495 -0.10493747 0.086616516 0.10108013 -0.012392143 0.16612968 -0.11903657

network_body._body_endoder.seq_layers.2.bias f4 [256]
00000000: e8f2 cabb 8e48 333c 2134 aabc a3f3 abbc
00000010: 08ed 0eba 54e7 a2ba 9e82 6a3c cdbb 24bb
00000020: 0bb3 f6bb 42b4 813c e7c5 913b 6a44 153c
00000030: 6e9f ffbb d538 823c afe7 a23b 523c 3dbb
00000040: e4f0 073d ad51 23bc 04a4 acbb a2e6 aabb
00000050: 12aa 4c3c f906 9a3c 9d6c dcbb c351 363c
00000060: c291 a0bc f632 dcb9 4124 ac3c 9adf a6ba
00000070: fb51 f5bb 6b0d 1e3c 6630 43bc ad4c 0fbc
00000080: 8047 843a 5568 0b3b 0cec 8e3c 9327 98bc
00000090: 8883 143d fd5f 893b 715e 7f3b f3dc adbc
000000a0: 8251 8a3b 191f b13c c6c5 893c 550b df3b
000000b0: c036 18bc 818f 86b9 cee1 a73c f420 b93a
000000c0: 4b78 b83c ccad ecbb 0fcc 973a ff87 fa3c
000000d0: 299d b93b e226 83bb 7601 c6bc e0e2 893b
000000e0: b129 cb3c 95aa 3ebc 5bdd 693b 6f1a b2bc
000000f0: f4ac bfbb 8169 603b 9026 a0bc aea7 fb39
00000100: 1353 d0bb 1890 cdbb 61c0 e7bb bbee 263c
00000110: 2ae8 8f3b 9202 303a 80c9 913c 5034 523c
00000120: e5d1 973c 2ca8 d4bb 08be 16bc 2a12 0ebc
00000130: ad39 58bc 1070 5bbc 9eed af3c 902b 09bb
00000140: 3181 01bb 1d50 2cbc 317d 08bc a56d d93c
00000150: 1e7d 093c bea5 96bb c46c 173c 5635 103c
00000160: 31c6 e6bc da7b 73bb 1c14 8b3c 48de e13a
00000170: c8c8 873c ed0a 8b3c 5cb8 afbb 224b 4e3b
00000180: e630 cabc 840a 22bc 6792 c6ba fbe5 c3bc
00000190: 4ae2 8ebc 8888 b13b dc20 abb8 f36e 1d3c
000001a0: 2e2c d83b c11e 99bb c827 983c a8ce a3bb
000001b0: 89c6 09bb 2ac7 1bbc c7fb 5b3c 3014 1fbc
000001c0: 577b 3b3c 2e6d 41bc 9a9b ee3b c985 b7bc
000001d0: 4ba7 383b f7d2 2d3c c411 f1bb 19a9 353b
000001e0: cc65 26bb e565 373c 5678 24bc 8dab 003c
000001f0: 9c67 b43c da22 743c db09 843b a9ec 523b
00000200: 6230 72bb 8703 ac3c ad24 d4bb e657 a8b9
00000210: 3155 383b 4d60 853c 73dd 653b cda5 f43b
00000220: 713a 483c fd88 4e3b 8c82 8ebb bff2 e53c
00000230: 38cd d2bb 376b db3c c43f 7d3c 1661 773c
00000240: 9575 7d3c 9a36 a83c 6e7b 9abc 3fb9 443b
00000250: afeb 05bc c63e da3b 9213 69bc 6494 45bc
00000260: f240 8fbc 0d84 123b d580 9cbb d4d6 97bc
00000270: cace 053c 4bb6 873c d7d0 9f3c 67da 28bc
00000280: 18a0 93bc 6c4a d03b 761e 463c cdb1 113d
00000290: 9c5e 543c 4e59 103b 96cd d0bb 4474 a23b
000002a0: ca59 253b 72ab 913c 43ae 8c3b 4858 f93b
000002b0: 1eac 883b a0ce bd3c fe3f 4abc fd63 06bc
000002c0: 5338 e9bc 8c11 d93b b45f 393c 5e09 06bd
000002d0: 4208 ac3b d4a1 0439 9f5d 5d3c ae3b 873a
000002e0: 2e7d d8bb 0674 893c b9cb 57bc 6eaa ce3b
000002f0: 118d 943c 147f de3c e269 c938 afdf 72bc
00000300: 42b9 813c 204b 95bc 744b be3b 9414 dabb
00000310: 4e9b 79bc cc27 0dbc 46c2 76bc 4f67 e9bb
00000320: 8fc4 163c 10d1 dabb 98b8 fbbb 3b30 c7bc
00000330: 53c1 243a 5e9c a33a 7d39 263c ac93 9c3c
00000340: b2c2 ebba f62b e53a cac8 c5b9 6932 f7bc
00000350: 34f8 f53b 6fde 3bbc 8d9e 1d3c 521e 66bc
00000360: bb15 ce3b 3ccf ac3a e0a2 d1bb e4c1 503b
00000370: 1483 29bc ea4e c13c 413b 8abc 46e1 423c
00000380: fd7a fb3b 5d0b e23b 93fb 183c dd7a f8bc
00000390: bd89 753a dc0e 03bc 4e95 083c a2c0 83bc
000003a0: 75c0 2dbb 64bc 2bbc a96c bbbb 7f8d cb3b
000003b0: bd8e efbb fd60 9dbc b849 6c3a 03e2 0dbc
000003c0: dda1 2ebc b36f 073c b477 b33c 0e3a 03ba
000003d0: 8222 2cbc 8a4c d13a 03f9 3eba 15f0 88b9
000003e0: 030e 113b c0b3 783c 52f2 8f3c d2a4 49bb
000003f0: d541 623c b11b bcbc f4f2 d43a 4841 fb3b
-0.0061935075 0.010942591 -0.02077681 -0.020990198 -0.00054521905 -0.001242856 0.014313368 -0.0025136352
-0.007528668 0.015833024 0.0044486406 0.009110549 -0.007800988 0.01589624 0.0049714665 -0.0028875065
0.033188716 -0.0099682035 -0.0052685756 -0.005215482 0.01249172 0.018802153 -0.006726815 0.011127892
-0.019600753 -0.0004199964 0.021013381 -0.0012731433 -0.0074865795 0.009646754 -0.011913395 -0.008746308
0.001009211 0.0021271904 0.01744654 -0.018573558 0.03625825 0.004192351 0.0038966204 -0.02122352
0.0042211423 0.021621274 0.016817939 0.006806771 -0.009290397 -0.0002566539 0.020493414 0.0014124201
0.022518298 -0.0072228666 0.00115812 0.030582426 0.005664487 -0.004002438 -0.024170619 0.004207954
0.024800153 -0.01163735 0.0035684917 -0.02174112 -0.005849475 0.0034242573 -0.019549638 0.00047999382
-0.0063575595 -0.006273281 -0.007072494 0.010188754 0.00439169 0.000671425 0.017796278 0.012829855
0.018532703 -0.006489774 -0.00920058 -0.008671323 -0.013197345 -0.013393417 0.02147561 -0.0020930506
-0.0019760842 -0.010517147 -0.008330629 0.02654154 0.008391647 -0.0045973947 0.00924224 0.008801779
-0.028170677 -0.0037152679 0.016977362 0.0017232383 0.016575232 0.016972983 -0.0053625535 0.0031477888
-0.02468152 -0.009890202 -0.0015149832 -0.023913374 -0.017441887 0.005417887 -8.160036e-05 0.009608972
0.0065970635 -0.0046728556 0.018573657 -0.0049990006 -0.0021022877 -0.009507934 0.013426728 -0.009709403
0.011442981 -0.011805816 0.0072817327 -0.02240266 0.0028175886 0.01060938 -0.007356854 0.0027719198
-0.0025390266 0.011193727 -0.010038456 0.007853401 0.022022061 0.014900887 0.004029495 0.0032184517
-0.0036955108 0.020997776 -0.0064740987 -0.00032108946 0.002812695 0.016281271 0.003507462 0.007466054
0.012220965 0.0031514757 -0.0043490585 0.028069852 -0.0064331554 0.026784522 0.015457097 0.015098831
0.015469928 0.020533849 -0.018857684 0.0030017642 -0.008173867 0.006660315 -0.014225857 -0.012059305
-0.017487023 0.002235654 -0.0047761 -0.018535055 0.008166978 0.016566416 0.019508762 -0.010305977
-0.018020675 0.006356528 0.012092223 0.035569955 0.01296201 0.0022025886 -0.006372164 0.0049577076
0.002523052 0.017781947 0.0042932346 0.007609401 0.0041709086 0.023169816 -0.0123443585 -0.00820255
-0.02846924 0.006624406 0.011314321 -0.032723777 0.005250008 0.00012648787 0.013511091 0.0010317469
-0.0066067195 0.016778957 -0.01317113 0.006306938 0.018133672 0.027160205 9.604149e-05 -0.014823838
0.015835408 -0.018224299 0.0058073346 -0.006655285 -0.015234781 -0.008615445 -0.015060967 -0.007122911
0.009202137 -0.006677754 -0.0076819174 -0.02431499 0.0006284911 0.0012482514 0.010145542 0.019113384
-0.0017987101 0.0017484415 -0.00037724368 -0.030175405 0.0075063948 -0.0114666065 0.009620321 -0.014045315
0.0062892116 0.0013184319 -0.00639759 0.003185385 -0.010346193 0.0235972 -0.016873958 0.01189453
0.0076745735 0.0068983273 0.009337324 -0.030332023 0.0009366533 -0.007999148 0.008336378 -0.016083065
-0.0026512418 -0.010481928 -0.0057197404 0.006211936 -0.007310717 -0.019211287 0.00090136705 -0.008659842
-0.010658708 0.008266377 0.021907665 -0.0005005904 -0.010506274 0.0015968245 -0.00072850304 -0.00026118816
0.0022133596 0.0151795745 0.017571602 -0.0030768407 0.013809641 -0.022962423 0.0016246722 0.0076676942

network_body._body_endoder.seq_layers.2.weight f4 [256, 256]
00000000: b49a f63c 4361 d2bd 41c3 853c 5c7f d6bd
00000010: aa12 22bd 125c 06bc 3b92 8e3b 99db 98bd
00000020: e95f 81b9 0888 043d 4e4c 193d ef63 c93c
00000030: 3d3b 41bc 9981 51bd 9d89 51bc ea1d c0bd
00000040: d35c 673d 0c52 e83d 34c3 4ebd 6994 8cbc
00000050: 70ed a2bd ea20 56bd 2b66 a03d e55c 1ebc
00000060: 498e 13bc 0a8a adbc f7e0 a4bd a470 52bd
00000070: 1f9b f13c 7622 bc3d f74c e1bd ef9a d2bd
00000080: ccad c3bd 753d 793d 8ddd a93d 2ebd 66bc
00000090: 0dc3 573b d762 b53c 5312 6cbb cd55 09bc
000000a0: 46a7 e1bc 5435 dabc 7d90 3ebd a3b9 1fbc
000000b0: 89bb e9bc 6a1f 80bd 582c 45bc ad95 e4bd
000000c0: 2882 a83d da80 993c 79f2 df3d 478c 25bd
000000d0: 56e8 2b3d f201 3a3c 308f 153d bd4a df3c
000000e0: 04b3 543c 41ac 9abd 58d2 af3b dca2 3d3d
000000f0: a363 c2bd 9c47 b43c bdee 0ebb 76e0 b6bc
00000100: 43e3 76bd 9695 8e3d ae2a 4dbd 4d72 f3bd
00000110: a3b1 293d 8d47 783d da81 25bd ccd8 b4ba
00000120: e024 08be b2d1 8fbd 149f 9bbb 6d5f 7dbd
00000130: e09a 8ebc 3783 e9bd aa4b 923d aecd a4bd
00000140: f5ca d938 c6d1 87bb ae6d 863d 7410 afbd
00000150: 0d7a 553d 13aa c63d 8e02 5cbd e442 283d
00000160: 4288 22bc 9b92 d83c 1a89 9a3d e10a 05bb
00000170: e12b a8ba 2765 363d 2a03 113c 3680 25bb
00000180: d86a f63d 4855 15bd a015 543c 879f b0bb
00000190: f8b3 393d f9df 183e 4f33 b33c ce05 663d
000001a0: dc88 0f3e 618e 33bd 2654 6fbd 9045 6c3b
000001b0: f3af 24bd 1ab9 773d e8b3 92bd 6002 c03d
000001c0: a13a 1f3d 1a37 453b fc98 8fbd 6972 94bd
000001d0: 8711 fabc 1b4c e33c b4e7 debc 0b4a 1bbd
000001e0: 8e4a 393d 6a8b 293d dc43 b8bc 92f3 193d
000001f0: e65a 8c3d a941 acbd b614 4fbc a2df f43b
00000200: 9de2 3b3d 8c58 d13b 5a59 92bd db16 f43d
00000210: 098b 67bd 530d 17bd 4b38 1c3b 63da 66bc
00000220: 4cc2 a33d 58d1 aebc d58a 873d 3b6e 50bd
00000230: 1461 9abc 5780 79bc adb2 0cbd 7569 093e
00000240: 107a b93c 7cc0 d83c 9286 023e 09ff 7c3b
00000250: 8a4e 13be 9fdc 173d 2b17 a73c af6d b0bd
00000260: 1ecd 00bd b3db a33d f8e2 5fbd 38ef 9cbb
00000270: 9c48 09bd 017b 48bd 781e 373d fcbd ccbc
00000280: 4acb 0ebd 9099 973d 036b 3ebd 6a07 a63c
00000290: db9c 3fbd d269 4b3d 6dd3 80bd e010 653c
000002a0: ec94 1f3d 814e c4bd 3f1c ed3c 25fa 233d
000002b0: 1e9f 77bd 49f3 a9bd eaf6 29bd 4df2 bcbc
000002c0: 6d04 133d 4c79 e53c e4e7 54bc b9cf 80bd
000002d0: 6394 083e a965 82bc 2863 943d ba8c 1c3b
000002e0: 5cd3 f83c f796 cfbd 32af 73bd 09db ce3c
000002f0: b62b d13d 2836 eb3c 8653 723d 679f 9cbb
00000300: 8586 733d 8e1b 723d 44cc 633d 50a4 073d
00000310: f8c3 403d 18aa 84bd 416f adbc 9293 d23d
00000320: 8eeb b1bd 880d d53c bade fcbd e643 06bd
00000330: f2ff 5b3d 2d4c c9bd d176 b73c 7acb 91ba
00000340: c2c7 c93d 8ccd 8ebd c196 183d 4113 b2bd
00000350: 6d72 a53d a451 95bd e4c2 023e d069 f03d
00000360: 1ed9 3ebc d321 9fbd 0705 7ebd f23e 4b3d
00000370: 1faa b8ba 8d4a 103d 2d6d 72bd 4e35 a2bd
00000380: 0bb2 14bd 63ca e4bd 400c 0cbe 2c12 0abc
00000390: f4f8 463d a3e8 c8bc d55c 53bc c342 903d
000003a0: a64a 9b3d fe39 64bd 81a4 2a3e 0753 2c3d
000003b0: 650b 143d e642 93bb b7f8 8dbd 8b69 a33d
000003c0: e653 76bd c279 103d b54c c13c 0e01 94bd
000003d0: f1cf 11bd 3b52 06bd 7c77 0a3d 49b2 03be
000003e0: aee6 10be d379 4dbb 148e 983d 002b 2ebb
000003f0: a2bb bfbd b4ee e9bd 048c 9c3c ce21 073e
0.030103065 -0.102724575 0.016328456 -0.104735106 -0.03956858 -0.008200662 0.004350928 -0.0746376
-0.00024676256 0.032356292 0.037426285 0.024583785 -0.011793909 -0.051148985 -0.012789157 -0.09380706
0.05648501 0.11343774 -0.05047913 -0.017160611 -0.07955444 -0.052277483 0.07831987 -0.0096657025
-0.009006091 -0.021183986 -0.08050721 -0.051376954 0.029492913 0.091862604 -0.11001008 -0.102834575
-0.095546335 0.060849626 0.082942106 -0.01408319 0.0032922656 0.022141857 -0.0036021664 -0.008382273
-0.027545583 -0.026636757 -0.046524514 -0.009748849 -0.028531807 -0.06255992 -0.012034498 -0.11161361
0.0822795 0.018738199 0.1093492 -0.040416982 0.04196962 0.011353003 0.036513507 0.027257318
0.012982134 -0.07552386 0.005365651 0.046297893 -0.094916604 0.022006802 -0.002180978 -0.022323828
-0.060275327 0.06962125 -0.05008953 -0.118870355 0.041429173 0.06061511 -0.04040704 -0.0013797521
-0.13295317 -0.07022418 -0.004749188 -0.061858583 -0.017407835 -0.1140198 0.07143338 -0.08047043
0.0001038517 -0.00414488 0.065638885 -0.0854806 0.05211835 0.09700408 -0.053713374 0.041079417
-0.009920182 0.026437094 0.07545681 -0.0020300674 -0.001283046 0.04453006 0.008850852 -0.0025253422
0.120320976 -0.036458284 0.012944609 -0.005390111 0.045337647 0.14929189 0.021875052 0.05615788
0.14017051 -0.043836955 -0.05842986 0.0036052205 -0.04020686 0.06047926 -0.07163221 0.09375453
0.038874272 0.0030092658 -0.07011601 -0.072483845 -0.030525936 0.02774625 -0.027210094 -0.03791241
0.045237117 0.04139272 -0.022493295 0.037585802 0.06853275 -0.08410961 -0.012639215 0.007472948
0.045870412 0.0063887294 -0.07145949 0.11918422 -0.05652908 -0.03687794 0.0023837264 -0.014090153
0.079960436 -0.021340057 0.06618277 -0.050886374 -0.018845119 -0.0152283525 -0.034350086 0.13419135
0.022641212 0.026458971 0.12746647 0.0038604161 -0.14385429 0.037075635 0.02039679 -0.086146705
-0.031445615 0.08000889 -0.054659814 -0.0047892593 -0.03351651 -0.04894543 0.04470679 -0.024992935
-0.03486184 0.074023366 -0.046488773 0.020267207 -0.04678045 0.049661465 -0.06290326 0.013981074
0.038960382 -0.09585286 0.028944133 0.04003348 -0.06045448 -0.08298356 -0.04149524 -0.023064757
0.035892893 0.02801194 -0.01299474 -0.0628962 0.13337855 -0.015917616 0.07245475 0.002388759
0.030374222 -0.10136216 -0.05949325 0.025250928 0.10213415 0.028712347 0.059161685 -0.0047797444
0.05945446 0.05910831 0.055614725 0.033115685 0.04706189 -0.06477755 -0.021171214 0.10282053
-0.086875066 0.026007429 -0.12347169 -0.032779597 0.053710885 -0.098289825 0.022395523 -0.0011123263
0.09852554 -0.06972799 0.037253145 -0.08695079 0.080784656 -0.07290962 0.12769657 0.11738932
-0.011648444 -0.07770123 -0.062016513 0.049620576 -0.0014088786 0.035227347 -0.05918615 -0.07920323
-0.036302608 -0.11171415 -0.13676548 -0.008427184 0.048577264 -0.024524992 -0.012900551 0.07043984
0.075825974 -0.05571937 0.16664316 0.04207137 0.03614368 -0.004494059 -0.06932204 0.07979115
-0.060138606 0.035272367 0.023596147 -0.07226764 -0.0355987 -0.032793265 0.033805355 -0.12860979
-0.14150497 -0.003135313 0.07448974 -0.0026575923 -0.0936196 -0.11422482 0.019109733 0.13196489

network_body._body_endoder.seq_layers.4.bias f4 [256]
00000000: 623f 70bc 7e9e 403c 4eed 56bb f60c eabb
00000010: 4f59 153c 5ab8 793c 1d6f 67ba 56d0 a73c
00000020: 974f d5bb 6e18 ebbb 0e04 9ebc 6b64 e33a
00000030: 5c73 75bc 5339 89ba be97 e9bc 4b37 6c3c
00000040: c409 803c b601 bcbb 74af 893b c1da 573c
00000050: abde bfbb 2263 4ebc 4cb4 99bc 15f9 1b3b
00000060: 6a70 d139 16c1 d93b 6f76 89ba 2ec8 e93b
00000070: 6e7c 373b f68a 84bc f3b5 f5b8 4e95 6b3b
00000080: 07f9 b5bc 4209 f539 35e4 a03c 91df 0abb
00000090: 5f8f 053c 261a fc3c 30f4 b93b 8976 043c
000000a0: 3517 8b3c 8202 d13b 6acb 6d3c d141 463b
000000b0: 20b2 8dbc ca4e 5c3b e704 393c 89b5 c83b
000000c0: 6080 823c 485c c73c 0f7c 323c c04a 7d3c
000000d0: c05a a83b 97c6 323a 7bd9 473c 41d4 58bb
000000e0: e5a0 8a3c a641 5f3c 18ae 263c 7d75 6c3c
000000f0: 9f9d 19bc 4580 b03b aae4 3d3c 6496 7f3c
00000100: 88d9 11bc 1034 143c 07d6 b9bc 937e 3bba
00000110: faf8 c03b 09c5 eab9 2592 2cbc 749f 483c
00000120: 3912 2cbc 0adc 2bbc bde7 1e3c 4183 b63b
00000130: 60b8 e2bb 4b15 7cbc e5f9 f43b f25d a23a
00000140: f568 643c 14df c8bc db8b 6f3c 4b0f f53c
00000150: 445f 8a3c 6c41 d03c ab52 a7bb d897 c3bc
00000160: 45ff 6f3c d33d 2b3b 65f6 1a3b 8132 c63b
00000170: f9ff 953c 1853 793c 5250 efbb 56f8 9d3a
00000180: a46f d1ba 56de aabc 355c c43c cbd0 a03c
00000190: 5ae3 223c 0f3e 67b9 5b6f db3c 6d7d 9f3c
000001a0: c33f 4ebc 04e6 5cbc 1656 2b3c 0bfd 3bbd
000001b0: 800f 0b3c b2d0 10bc cd31 503c 3841 f53b
000001c0: 53c7 103d ed9e 963c 429a 5ebc a199 713b
000001d0: 743f 3bbb 3ba9 f83b 7bcb d23c 1ee8 403a
000001e0: 1c2f 40bc e9ec c6ba 5a03 5f3c 2f13 3ebc
000001f0: 96b5 df3c 7ae8 91bb 0e78 4f3c a441 253c
00000200: 874c 91bb adf4 04ba 2bbc a6bc 0ae2 c93b
00000210: 420f 493b 760e 923c 9290 39bc b601 c73c
00000220: 93e2 ea3c 14f4 d23c d718 91bc 1876 8ebb
00000230: a005 e53b d3f6 3ebc 3305 ccbc 5a90 833c
00000240: e5df 98bc 1075 78bc 2131 9f3b 7f30 813c
00000250: cbd0 883b ac03 28bb 89f2 483b 8d01 d6bb
00000260: 6e60 6f3c 23e2 31bb af57 cdbb 9714 ac3b
00000270: 7e32 593b f910 dd3c 3c57 223c 45a5 7cbc
00000280: 6b94 9f3b 0e76 553c d7db d7bc 4841 653c
00000290: 0d19 873c 79cc bebc cbf9 a1bc 27fa 233c
000002a0: 7edd 6239 5606 1abc 8339 743c 1bef 343c
000002b0: 64d7 8cbc 178c 57bc 16cd c53c 9554 913c
000002c0: 8468 6f3c bde2 fdbb 4140 ecbc eaf4 65bc
000002d0: 755d 9639 b751 043d 931e be3b 0ea3 b539
000002e0: e590 9d3c 63c7 443c c9cf 8cbc 71a9 e03a
000002f0: 7e1d 9dba 5e25 7ebc 1adf ac3b 6d6c ad3c
00000300: c4dc 56ba 47de 46bc a5c1 803c 0b3e 23bb
00000310: 0a2a da3c bf81 113c bdcd 283c 44e1 2bbb
00000320: d6bb e23b 8d0f aebc 2407 c33c f929 3cbc
00000330: af27 82bb 73be e7bc 9a64 3eb8 4d16 1fbc
00000340: 61a6 3f3c a81a b03c 9ab4 a43c 3c37 913c
00000350: 4d1b 7a3b 145b 223a 81f8 39bc 8a59 fb3c
00000360: 46b8 623b d680 9d3c 6f19 5a3c a96c 8d3c
00000370: 6d51 b83a 338a c33b d827 a73c 3397 91bc
00000380: dd3a a93a 8e59 8dbc 73c0 03bd 0d7e 39bc
00000390: 3094 1abc b5c9 7dbc fae8 00bc f8b7 0c3b
000003a0: 0b45 b6bc 20b6 803c 8965 f23a d47f bf3c
000003b0: b58b efbb 03c8 833c fdf6 06bc e0d2 113c
000003c0: b6a1 cb3b 121f 9a3c ffb6 b2bc a75d eabb
000003d0: db68 91bc 1dd2 613a d355 ee3b efda 583c
000003e0: b4da 7e3c 8860 893c 8112 c6bb 3e38 263c
000003f0: 5f60 253c 174d 09b7 38d7 503c 64dc 85bb
-0.014663549 0.0117565375 -0.0032795253 -0.0071426583 0.009115531 0.015241707 -0.0008828508 0.020485085
-0.006509732 -0.007174543 -0.019289043 0.0017348652 -0.014981117 -0.0010469354 -0.02851474 0.01441748
0.015629657 -0.0057375086 0.004201824 0.013174714 -0.0058554015 -0.012596877 -0.01876273 0.0023799588
0.0003994734 0.006645332 -0.0010487566 0.007134459 0.002799775 -0.016179543 -0.00011716401 0.0035947147
-0.022213472 0.0004673694 0.019640068 -0.0021190385 0.008151858 0.030774187 0.0056748614 0.008084902
0.01697884 0.006378473 0.01451383 0.0030251632 -0.01729685 0.0033616298 0.011292673 0.0061251563
0.015930355 0.024335995 0.010893836 0.015459716 0.0051377714 0.00068197533 0.0121978475 -0.0033085498
0.016922424 0.013626492 0.010173343 0.014432308 -0.009375959 0.0053863847 0.011590162 0.015599821
-0.008901961 0.009045616 -0.022685064 -0.0007152345 0.0058890553 -0.0004477876 -0.01053289 0.012245048
-0.0105023915 -0.010489473 0.009698805 0.005569846 -0.006918952 -0.015385936 0.007476079 0.0012387617
0.013941039 -0.024520434 0.0146207465 0.029914519 0.01689113 0.02542182 -0.0051062903 -0.023876116
0.014648263 0.002612938 0.0023645398 0.006048501 0.018310534 0.015217565 -0.007303276 0.0012052159
-0.0015978706 -0.020857971 0.023969749 0.01963081 0.0099419 -0.00022052995 0.026786497 0.019468987
-0.012588444 -0.013482574 0.010457536 -0.045895617 0.008487582 -0.008838819 0.012707186 0.0074845813
0.03534634 0.018386329 -0.013586583 0.0036865252 -0.0028571757 0.007588533 0.025731793 0.0007358807
-0.011729982 -0.0015176806 0.013611639 -0.011601253 0.027308267 -0.004452762 0.012662901 0.010086451
-0.0044341716 -0.000507186 -0.020353397 0.006160979 0.003067926 0.017829161 -0.011325972 0.024292808
0.028672492 0.025751151 -0.01771204 -0.004347574 0.006989196 -0.011655527 -0.024904823 0.016060043
-0.018661449 -0.015164629 0.0048581515 0.015770195 0.0041752807 -0.0025636954 0.003066214 -0.0065309466
0.014610393 -0.0027142845 -0.006266556 0.005251478 0.0033141668 0.026985632 0.009908494 -0.015420263
0.0048699877 0.013028635 -0.026349945 0.013992615 0.016491437 -0.02329086 -0.01977243 0.010008371
0.00021635552 -0.009400925 0.01490629 0.011043335 -0.01719255 -0.013155959 0.024145644 0.017740527
0.014612321 -0.0077479766 -0.028839232 -0.014035443 0.0002867986 0.03230449 0.0058019846 0.00034644495
0.01923413 0.012010428 -0.017188923 0.0017140341 -0.0011986939 -0.015511839 0.005275619 0.021169866
-0.0008196349 -0.012137956 0.015717337 -0.0024908807 0.026631374 0.008881032 0.010302958 -0.0026226798
0.0069193644 -0.02124765 0.023807116 -0.011484616 -0.003972016 -0.028289055 -4.5393223e-05 -0.009709907
0.011697383 0.021497086 0.020105649 0.017726533 0.0038163245 0.0006193381 -0.011350752 0.030682344
0.0034594699 0.019226473 0.013311728 0.017263727 0.0014062353 0.0059674024 0.020404741 -0.017772293
0.0012911219 -0.017254617 -0.032165956 -0.011321557 -0.009434745 -0.015489985 -0.007868046 0.0021471959
-0.02224972 0.015711844 0.0018493395 0.023376383 -0.0073103555 0.016086584 -0.0082375975 0.008900374
0.006214346 0.018813644 -0.021815775 -0.0071522775 -0.017750194 0.0008614378 0.0072734146 0.013235792
0.015555073 0.016769662 -0.0060446863 0.010145245 0.010093777 -8.183785e-06 0.012746625 -0.0040851105

network_body._body_endoder.seq_layers.4.weight f4 [256, 256]
00000000: 62ab 173d c603 063d 5911 c6bd f7de 6f3d
00000010: c22d afbc 9b72 1d3d 81a0 823b ecb0 23bd
00000020: 4145 acbc 07bd 21bd 5462 503d 8655 c3bd
00000030: 6592 093d 0e24 ce3d abc9 bcbc 512a 9bbd
00000040: 873e 83bb d616 423e d390 223d 8c01 b43d
00000050: 9515 bf3c 7eb0 cb3d 2134 ab3c b500 8fbc
00000060: 5eba 5e3d d9a3 0abb 218b 463c 7588 bbbc
00000070: 7993 5cbd dd67 553d 108a 823c 83dc 933d
00000080: 4c3f 8fbd 840b 90bd 9a17 65bd 5fcb 103c
00000090: a547 7e3c bbd9 19bd ec4c a83d 3c5a 2a3e
000000a0: 2ebc 9f3a c318 303b 2741 893d 6937 04bc
000000b0: 0305 873d 0b52 1f3d 193a 2ebc c1fe 0c3d
000000c0: c593 71bd dfdc 4b3d c4ae 593d 17a7 42bc
000000d0: 0849 083d 3102 31bc 7509 533b c73a 79bd
000000e0: b15d 0e3d dabb 49bc c29d 9cbd 6ef9 8b3c
000000f0: 7ca1 533d 20fb 453d 5045 633c eaf3 85bd
00000100: 65ac f3bc 6323 f33c cce4 b73d 6fac fcbc
00000110: 0210 88bc 2314 2fbd 4646 84bd e39e 053d
00000120: a80b bcbd 2ee9 e43d a68f 4bbd be05 073e
00000130: 7325 0b3e 494d aabc 390e 8c3d 85ae 973c
00000140: 50e4 eebd c42c 763d 11c8 2d3c d1bf b0bd
00000150: 9bd9 8abc 36cf edbb 08f5 69bd 30a6 82bd
00000160: f708 593c c540 95bc 1c7e 7a3d 2327 4bbb
00000170: ce4e ee3c 88f6 d33c e424 6f3d 3c14 61bd
00000180: 4558 aabd 3041 6f3c 049d cdbd 2fd6 433c
00000190: 249f 0cbd bc08 0c3d 8426 9f3d 96f2 dabb
000001a0: d6d8 75bd aa58 1bbd 1370 703d de48 003d
000001b0: 69b8 47bd a353 f63d a3ca e5bd abf0 5bbc
000001c0: ee07 463d 4723 c73c efc1 b3bb 45b7 f23d
000001d0: 60b1 1a3d 7106 f4bd 3b37 9abc 95f3 2c3d
000001e0: 0a8f d43c 0fd1 36bc a0b4 283d ab23 013e
000001f0: 5d1f 0b3e 8b12 8bbc 6eb7 07be 1e6d acbd
00000200: 307f 093d 5e74 cbbc 2eb3 e5bc 2fde 223d
00000210: 2967 63bd fa59 4d3e 99ef 633a 8dc1 a43d
00000220: 9482 5cbd 2bbd a63d 079a e03d 53a3 30be
00000230: f106 8abc 111b 65bd ff5b 633d ba76 d6bd
00000240: f56a 593c 4fd6 463d cb94 1a3d d854 6dbc
00000250: da99 413d 97d6 5cba 11a6 0c3e 238b 1f3c
00000260: 0b5b 0f3d 47d0 ee3d af39 303c ec9c 7b3d
00000270: ae0c 043d 4633 09bd 2a26 8dbd 5c49 963c
00000280: 64a8 14bd f5c1 2dbd 50c2 04be 8240 91bd
00000290: 0ad1 443e 41c9 503d e600 a0bd a4b4 913d
000002a0: 0b4b 0c3c fc7c 03be 3dcf fd3c 9dd6 c23c
000002b0: f0fc 303d dc0a 42be c88b 873c d4b6 a8bc
000002c0: f8cc 02bd f25f 85bd e740 ddbc df7d ef3d
000002d0: 3c91 4b3c 0848 dfbc 28a2 c0ba c962 ba3c
000002e0: de3a b2bc 4a49 17bd f837 09bd 3f4c 92bc
000002f0: 40ea c43d 8fcd ed3c d5b0 88bb 83f9 313d
00000300: c25e 0fbd a928 17bd 98f8 a2bc 6f10 a63d
00000310: 1190 9f3d f875 803d 4e2a 08bc 5cf0 703d
00000320: e416 b33d 93ed 1fbd 306f 2fbb bad3 62bd
00000330: d586 fdbc 5bee 213d f4af eb3c e674 ab3c
00000340: 6140 fd3d 8cd0 86bc 0aa1 8bbd ffca aab9
00000350: e93e 33bc c556 773d 40b4 d8bc 87be efbc
00000360: 2dc3 c9bd 494c 5fbd 5e5f c73d a993 05be
00000370: 8855 b33d 856d e4bc 4adf 11be deff a2bd
00000380: b72b adbb d72f f6bb 1816 dbbc f5aa 883d
00000390: 96ab 2b3d 3a84 733d 4108 a8bd c190 023e
000003a0: 6962 203d 91de 943d 8115 803d f7ad 4ebd
000003b0: 14ce 4cbd 8d23 52bb ea28 cd3c b3a6 613d
000003c0: e732 8a3d 8bd0 2d3d adef b83c 5f81 263e
000003d0: 46b4 c2bd debc 02bd fcbe e13c 67ca 9e3b
000003e0: bbdb 913d a448 8cbd ed32 df3d 79fb afbd
000003f0: 9b6c fdbd affb ee3d e009 b73d ec07 f9bd
0.037028678 0.032718442 -0.096712776 0.058562245 -0.021384124 0.038439374 0.0039864187 -0.039963648
-0.021029117 -0.03948691 0.050875023 -0.09537797 0.03358688 0.10065471 -0.023045382 -0.075764306
-0.0040052566 0.18954024 0.039688896 0.087893575 0.02332572 0.099457726 0.02089888 -0.017456392
0.054376952 -0.002115479 0.012118132 -0.022892216 -0.05385158 0.052101005 0.015934974 0.07219794
-0.06994495 -0.070334464 -0.05593071 0.00883755 0.015520011 -0.03756116 0.08217797 0.16635984
0.0012186819 0.0026870228 0.0670188 -0.008069851 0.06592753 0.0388966 -0.010633969 0.03442264
-0.058978815 0.049771186 0.053145185 -0.011880658 0.033272773 -0.010803745 0.0032201682 -0.06084707
0.03475732 -0.012312854 -0.076472774 0.01708671 0.051667675 0.048335195 0.013871506 -0.065406635
-0.02974529 0.02967996 0.089791864 -0.030843941 -0.016609196 -0.042743813 -0.06458716 0.03262223
-0.09181911 0.11177288 -0.04969754 0.13185784 0.13588504 -0.020788806 0.0683865 0.018515835
-0.11664641 0.060101286 0.010606782 -0.08630336 -0.016949465 -0.0072573675 -0.057118446 -0.06379354
0.013246766 -0.018219361 0.061155424 -0.003099867 0.029090311 0.025874391 0.05838479 -0.054950938
-0.08317617 0.014602944 -0.10039714 0.011952921 -0.034331456 0.034188017 0.07771018 -0.0066817505
-0.060021244 -0.037926354 0.058700632 0.03131949 -0.04875985 0.12027671 -0.112202905 -0.013424079
0.048347406 0.024308814 -0.005485765 0.11851362 0.037766814 -0.11915291 -0.018825164 0.042224485
0.025947113 -0.011158242 0.041187882 0.12611263 0.13586183 -0.016976615 -0.13253567 -0.0841925
0.03356856 -0.024835762 -0.028039541 0.039762672 -0.055518303 0.20053855 0.00086950656 0.080447294
-0.053835467 0.0814155 0.109668784 -0.17249803 -0.016849013 -0.055934016 0.055507656 -0.10471864
0.013270129 0.048544224 0.037739556 -0.01448556 0.047265865 -0.00084243104 0.13735224 0.009737763
0.034998935 0.116608195 0.01075594 0.06142895 0.032238655 -0.033496164 -0.06892045 0.018345527
-0.036293402 -0.0424213 -0.1296475 -0.07092382 0.19220367 0.05097318 -0.07812671 0.071145326
0.0085628135 -0.12840647 0.030982608 0.023783976 0.04320997 -0.18949455 0.016546145 -0.020594992
-0.031933755 -0.06512441 -0.027008487 0.1169393 0.012424763 -0.027256027 -0.0014696764 0.022752183
-0.021756586 -0.03693513 -0.03350064 -0.017858623 0.09614992 0.029028682 -0.0041714706 0.043450844
-0.035002477 -0.03690401 -0.01989393 0.08108603 0.0779115 0.06272501 -0.0083108675 0.058822975
0.087446004 -0.039044928 -0.0026769154 -0.0553777 -0.030948082 0.039533954 0.028770424 0.020929765
0.12365795 -0.016456865 -0.06817825 -0.0003257617 -0.010940292 0.060385484 -0.026453137 -0.029265655
-0.0985168 -0.05451611 0.09734987 -0.13044609 0.08756548 -0.027884254 -0.14245334 -0.07958959
-0.005284752 -0.007513027 -0.026743934 0.066732325 0.041911684 0.059452273 -0.08204699 0.12750532
0.03915635 0.07269014 0.062541015 -0.050458875 -0.05000122 -0.0032064647 0.025043923 0.055090617
0.0674799 0.04243521 0.022575224 0.16260289 -0.09507041 -0.0319184 0.027556889 0.0048459056
0.071219884 -0.068497926 0.10898385 -0.085928865 -0.123742305 0.116690986 0.089374304 -0.12159714
