Cursed Tennis/Assets/Tennis/results/TennisPro5/Tennis/Tennis-227545.onnx (onnx, 886342 bytes, 13 tensors)

60 f4 [84]
3.1588166 2.4779608 2.422345 2.8257751 5.9331255 14.658547 4.0795284e+07 1.2891754
15991.921 5.9331255 0.42947382 4.778736 2.4779608 5.9331255 0.39517272 0.2815799
0.30416292 0.39065963 12.697571 4.0795284e+07 5.854774 3.0741298 2.389512 2.509416
2.8812037 6.060413 14.962353 4.1681864e+07 1.3630829 16328.776 6.060413 0.44047445
5.0071282 2.389512 6.060413 0.40904245 0.27944997 0.2953349 0.39960733 12.913278
4.1681864e+07 5.930869 2.9391015 2.2525148 2.595333 2.945159 6.1856647 15.257941
4.2531776e+07 1.4431739 16648.648 6.1856647 0.4512531 5.2319074 2.2525148 6.1856647
0.42208245 0.27450988 0.28353336 0.40785518 13.121258 4.2531776e+07 6.0043755 2.743306
2.0529597 2.6804872 3.0173573 6.309145 15.546035 4.334716e+07 1.5482893 16952.51
6.309145 0.4615635 5.4536147 2.0529597 6.309145 0.43432462 0.2664076 0.2679691
0.4157125 13.322425 4.334716e+07 6.0756984
00000000: 0d2a 4a40 e996 1e40 b307 1b40 80d9 3440
00000010: 2adc bd40 6989 6a41 259f 1b4c b303 a53f
00000020: afdf 7946 2adc bd40 fee3 db3e 68eb 9840
00000030: e996 1e40 2adc bd40 1454 ca3e 3e2b 903e
00000040: 3ebb 9b3e 8a04 c83e 4029 4b41 259f 1b4c
00000050: 4f5a bb40 8bbe 4440 c4ed 1840 469a 2040
00000060: a465 3840 e7ee c140 cc65 6f41 f200 1f4c
00000070: 8079 ae3f 1b23 7f46 e7ee c140 de85 e13e
00000080: 653a a040 c4ed 1840 e7ee c140 036e d13e
00000090: 1114 8f3e 2336 973e 5599 cc3e c99c 4e41
000000a0: f200 1f4c aec9 bd40 3d1a 3c40 3429 1040
000000b0: f019 2640 7c7d 3c40 f7f0 c540 8720 7441
000000c0: f03e 224c ecb9 b83f 4c11 8246 f7f0 c540
000000d0: a50a e73e c96b a740 3429 1040 f7f0 c540
000000e0: 311b d83e 8f8c 8c3e 492b 913e 65d2 d03e
000000f0: acf0 5141 f03e 224c d823 c040 5392 2f40
00000100: b163 0340 1a8d 2b40 621c 4140 84e4 c940
00000110: 8fbc 7841 365b 254c 582e c63f 0571 8446
00000120: 84e4 c940 0d52 ec3e 0384 ae40 b163 0340
00000130: 84e4 c940 cc5f de3e 9466 883e 3f33 893e
00000140: 45d8 d43e a728 5541 365b 254c 1f6c c240

action_model._continuous_distribution.log_sigma f4 [1, 6]
7.860438e-05 0.025752082 -0.0018025626 0.023180177 0.004569374 0.0010068372
00000000: 68d8 a438 08f6 d23c f743 ecba 5be4 bd3c
00000010: b0ba 953b daf7 833a

action_model._continuous_distribution.mu.bias f4 [6]
0.015620105 -0.015920505 -0.012303947 0.014940721 0.00038276863 0.0073184446
00000000: 78eb 7f3c b86b 82bc 7e96 49bc edc9 743c
00000010: 56ae c839 90cf ef3b

action_model._continuous_distribution.mu.weight f4 [6, 256]
0.02003591 0.0046650516 0.0044085225 -0.012991424 -0.04935511 -0.0024084423 -0.014108317 -0.018099051
-0.00092850416 -0.001702114 4.367172e-05 -0.017064266 -0.0054527507 -0.003893608 -0.022497099 0.0047911676
0.032101393 -0.020226052 -0.032647215 0.0030919004 -0.01175125 0.0051461365 0.0036416491 -0.018182922
0.0046384763 -0.03978926 0.008955114 0.0019893798 0.0008618322 -0.00091824896 -0.0058865347 0.004115202
0.005141784 -0.04137373 -0.026664257 0.009942402 0.007333536 0.0008917203 -0.01902262 -0.022066597
0.0075549823 -0.0035463597 0.008036728 -0.011169058 0.012086467 -0.003934417 -0.018679613 0.021068258
-0.014905111 0.003675908 0.023501592 -0.029897768 -0.0001829003 -0.012973537 0.007757096 -0.0031773292
-0.0007020647 0.003591051 0.019276688 -0.028987868 -0.0030058352 0.024868574 -0.0059129545 -0.016982174
-0.011045707 0.008863271 -0.0005048811 -0.021203155 0.0037670748 -0.0039762976 0.0064487765 0.018280866
0.01337049 0.0019724518 0.00994404 0.0234828 0.032764185 -0.004891036 -0.012925334 0.00029508563
-0.017348448 -0.008389569 -0.0014080304 -0.016451772 -0.031147992 -0.021328773 -0.010232176 0.010120482
-0.001987558 -0.0029825168 -0.018554794 -0.023964519 -0.02875045 -0.008667961 0.0011918801 -0.04248837
-0.0070764497 -0.002799408 0.017973114 0.0014933712 0.006171797 -0.012581775 0.01451756 0.032005828
-0.04394447 -0.007437681 -0.026569223 -0.017781084 -0.03453627 -0.031317882 -0.00070079754 -0.020946054
-0.0005316125 0.0040275725 -0.011387804 0.0021794976 -0.0069287317 -0.021439416 0.0077712825 -0.013792601
-0.011800565 -0.0074967784 0.0061244764 -0.002444141 -0.003591041 0.015977217 0.027952826 0.003518229
-0.009073768 0.015690327 -0.014707317 -0.007918842 -0.0030217029 -0.0073109698 -0.00631961 -0.0009040963
0.022283698 -0.008566718 -0.010851586 -0.0049395813 0.002981649 0.019770488 0.018339729 0.017905897
-0.0011075276 0.025220336 0.0071248966 -0.0050115287 -0.040150948 -0.021311477 -0.010382378 0.007888735
0.005015308 0.0041014673 -0.0033352452 -0.02595052 0.008863465 -0.006530696 -0.004681892 0.006187098
0.007564962 0.0071494346 0.032948658 0.017897679 0.03738459 -0.03453545 0.004114125 -0.0024696046
-0.008020042 -0.0018662225 0.024495028 -0.005563321 -0.018854281 0.0036328163 -0.003873751 -0.0258076
-0.0042339265 0.005703601 0.0027590299 -0.021096617 -0.016836438 -0.01493944 0.004769554 -0.023292571
-0.0054122084 0.020835511 0.0028903105 -0.020657651 -0.00015062305 0.011464292 -0.0029400175 0.013201129
-0.001261451 0.0043573026 -0.024686145 -0.0011829943 0.011268582 -0.01226334 0.021255609 0.0033992897
0.02277169 0.015804999 -0.007902573 0.004025031 -0.02565993 0.013202841 0.029223004 0.002472343
0.001440034 -0.01178773 0.017029053 -0.04136758 0.0038171029 0.013039729 -0.0013389797 0.018649537
-0.014372707 0.0037636296 0.0033281513 -0.016960256 0.014623051 0.015731458 -0.00023749383 0.000591267
0.024919406 -0.0055280486 -0.00078094116 0.014189389 -0.02378749 0.014822698 0.0134013705 0.018183185
-0.02368969 -0.02126043 0.015200334 -0.031145511 -0.018871283 -0.01881998 -0.0062692594 -0.0062800106
-0.007044668 0.004061727 0.019266762 0.03338292 -0.0122271655 -0.02484505 -0.034712724 0.005398874
0.010273952 -0.021594822 0.024528753 0.0137055935 0.015003928 -0.014869714 -0.0043000234 -0.017763969
00000000: 5922 a43c 4add 983b 5e75 903b fbd9 54bc
00000010: 9528 4abd f5d6 1dbb 9226 67bc 7644 94bc
00000020: dc66 73ba 7819 dfba 272c 3738 5cca 8bbc
00000030: fdac b2bb e72b 7fbb d64b b8bc 3aff 9c3b
00000040: c07c 033d 1bb1 a5bc 16b9 05bd 7ba1 4a3b
00000050: 5188 40bc eca0 a83b bca8 6e3b 5af4 94bc
00000060: 5cfe 973b 10fa 22bd 78b8 123c 4160 023b
00000070: 94ec 613a a5b6 70ba d5e3 c0bb d1d8 863b
00000080: 697c a83b 8077 29bd 006f dabc 75e5 223c
00000090: 294e f03b 56c2 693a 53d5 9bbc 02c5 b4bc
000000a0: c98f f73b 0b6a 68bb 7bac 033c 6dfe 36bc
000000b0: 5106 463c 48ec 80bb fd05 99bc 5797 ac3c
000000c0: 9134 74bc 81e7 703b 6986 c03c 2aec f4bc
000000d0: edc8 3fb9 f58e 54bc 3d2f fe3b bd3a 50bb
000000e0: c40a 38ba d757 6b3b 25ea 9d3c f777 edbc
000000f0: 8cfd 44bb 2eb9 cb3c 75c1 c1bb 331e 8bbc
00000100: 0ef9 34bc 4137 113c ff59 04ba 3db2 adbc
00000110: 07e1 763b 9a4b 82bb 4250 d33b c1c1 953c
00000120: e60f 5b3c 4044 013b 54ec 223c 005f c03c
00000130: bd33 063d fc44 a0bb c8c4 53bc b9b5 9a39
00000140: 551e 8ebc 6774 09bc a98d b8ba dec5 86bc
00000150: 132a ffbc aeb9 aebc dba4 27bc 61d0 253c
00000160: b141 02bb 5476 43bb 3900 98bc 3d51 c4bc
00000170: 1086 ebbc 1004 0ebc dc38 9c3a 4908 2ebd
00000180: 90e1 e7bb 4676 37bb 5a3c 933c 39bd c33a
00000190: c93c ca3b ca23 4ebc 0fdb 6d3c 8b18 033d
000001a0: 1eff 33bd cab7 f3bb b3a7 d9bc a3a9 91bc
000001b0: e775 0dbd 2e47 00bd bab5 37ba 0f97 abbc
000001c0: e95b 0bba baf9 833b e993 3abc e7d5 0e3b
000001d0: 6a0a e3bb b7a1 afbc 3ea6 fe3b 5dfa 61bc
000001e0: 2857 41bc 89a7 f5bb d5af c83b e22d 20bb
000001f0: ac57 6bbb a7e2 823c 53fd e43c 1692 663b
00000200: 24aa 14bc 0089 803c f5f6 70bc 08be 01bc
00000210: c307 46bb dc90 efbb bb14 cfbb e000 6dba
00000220: 4d8c b63c 6b5b 0cbc daca 31bc 36dc a1bb
00000230: c567 433b b8f5 a13c 333d 963c 63af 923c
00000240: 762a 91ba e19a ce3c f777 e93b c037 a4bb
00000250: 5275 24bd 6895 aebc d91a 2abc c13f 013c
00000260: 7457 a43b 9a65 863b 2194 5abb 2f96 d4bc
00000270: 1138 113c 73ff d5bb 8f6a 99bb 24bd ca3b
00000280: 80e3 f73b ce45 ea3b 2cf5 063d 279e 923c
00000290: 9520 193d 0b75 0dbd c8cf 863b 17d9 21bb
000002a0: 7f66 03bc 099c f4ba cca9 c83c 854c b6bb
000002b0: 4b74 9abc 8b14 6e3b c2de 7dbb 766a d3bc
000002c0: c0bc 8abb 46e5 ba3b d7d0 343b d0d2 acbc
000002d0: 92ec 89bc 8ec4 74bc eb49 9c3b 10d0 bebc
000002e0: e558 b1bb 3caf aa3c 5d6b 3d3b 3c3a a9bc
000002f0: 91f0 1db9 bad4 3b3c 4fad 40bb 8c49 583c
00000300: 4657 a5ba b4c7 8e3b 993a cabc b40e 9bba
00000310: dc9f 383c 2dec 48bc 3e20 ae3c 9ec6 5e3b
00000320: b28b ba3c 7c79 813c cb79 01bc 68e4 833b
00000330: c634 d2bc bb50 583c 1565 ef3c 0807 223b
00000340: 86bf bc3a 5321 41bc 8380 8b3c 0d71 29bd
00000350: 5c28 7a3b 96a4 553c b480 afba eac6 983c
00000360: 817b 6bbc 3aa7 763b 1d1d 5a3b 3cf0 8abc
00000370: 8595 6f3c 42df 803c c407 79b9 42ff 1a3a
00000380: c823 cc3c a224 b5bb 13b8 4cba 9c7a 683c
00000390: fbdd c2bc e7da 723c 6c91 5b3c e7f4 943c
000003a0: e110 c2bc 5a2a aebc d20a 793c df24 ffbc
000003b0: f397 9abc 5c2c 9abc 5c6e cdbb 8cc8 cdbb
000003c0: f5d6 e6bb 3c18 853b 54d5 9d3c 87bc 083d
000003d0: 7354 48bc d987 cbbc ee2e 0ebd 0ae9 b03b
000003e0: 1454 283c a0e7 b0bc 86f0 c83c 6d8d 603c
000003f0: 09d3 753c 1aa0 73bc 36e7 8cbb be85 91bc

network_body._body_endoder.seq_layers.0.bias f4 [256]
-0.020537337 0.006982401 -0.011872653 0.0042058146 0.011499337 0.008437486 0.0115465475 -0.0065647895
0.015400217 -0.0034223304 0.013912485 -0.012715045 0.012928808 0.0027023484 0.0029831755 0.008066582
0.012559954 0.004574737 -0.013773072 0.0010245336 -0.0015348011 -0.006799416 0.00054889644 0.013778196
0.009653743 0.004130248 0.011798204 0.00012816512 0.0021525961 0.00415745 -0.006908251 0.006342217
0.015336674 0.014984776 0.007354762 0.004226731 0.002894698 0.011441966 0.006505532 -0.0062820227
0.0062346994 -0.007239204 0.008358741 0.012201709 -0.0001156874 0.004244979 0.014235327 0.009057948
0.0037155694 0.015046261 0.0050966917 0.00028290215 0.0019154075 0.0046460056 -0.020834709 0.011421341
-0.0068612723 -0.0041687232 -0.0027076725 -0.002458466 0.0017451099 0.010900368 0.009427391 0.00979443
0.008073755 -0.0113493465 -0.011214433 -0.00034280028 0.013541743 0.002032575 -0.0022496171 0.023961442
0.011853587 0.0057054153 -0.019831907 0.00913102 0.0038680623 0.01305873 -0.0012881336 0.0041670883
0.0015865399 0.009638032 0.0021447993 0.0050999164 0.01273435 0.011504766 0.014050178 0.012852595
-0.0026370257 0.011542547 0.00484012 0.0014911294 0.0027545183 0.0073746894 0.011080958 -0.0031760072
-0.014962174 -0.013656305 0.001293599 0.0029047027 0.01727901 0.01652242 -0.0020813071 0.009540146
0.012351831 -0.00062075007 0.009952151 -0.0069144703 0.006003307 -0.007585838 0.004353617 -0.010481993
0.016251614 0.009188094 0.004991778 0.0049657365 0.014111157 -0.0047116703 0.0045731296 0.01406313
-0.0043723527 0.01923461 0.0057608564 -0.0007803112 -0.008257968 0.012921755 -0.006299476 0.009391281
0.015223338 0.0021247035 0.01584501 0.0006204965 0.015414928 -0.008910233 -0.011305038 -0.00662387
0.004038296 0.007295041 0.00328974 0.0079742875 -0.006085525 -0.012099687 0.0142606 0.008711094
0.005155063 0.018333822 0.011172841 0.009255402 0.0074159964 0.0028769094 -0.012061983 0.010170258
0.009146568 -0.004953375 0.011247421 -4.261308e-05 0.004574507 0.012028017 0.0061388314 0.0011186876
-0.013157388 -0.00013347837 -0.008528574 0.009669545 0.009358505 -0.0052428334 0.002748398 0.007184276
0.0084201945 -0.0015339614 0.013984062 -0.0021582623 -0.0049596555 0.013084628 0.0043409015 0.003160064
0.00086077326 -0.0045814365 -0.014743431 -0.0007612561 0.009798897 0.0005840692 -0.0027721454 -0.0037382026
0.0027920443 0.0066016396 -0.015061491 -0.003506301 -0.0008426826 0.014296862 0.0034990306 -0.004447182
0.0009852253 -0.0046923105 0.006930692 0.0092987195 0.009684947 -0.007391014 -0.00011189041 -0.0026025008
0.0044598742 -0.010022612 -0.0007229663 0.0025381532 0.008849018 -0.00707345 0.0058191326 -0.004768668
0.0041663353 0.010086166 0.0042312243 -0.006313087 0.020031268 0.015194331 -0.0028493537 0.009987682
-0.0006716242 0.0066522937 0.007952545 0.010847827 -0.012858021 -0.013992384 -0.01359868 -0.0068561994
0.0069827666 0.008209329 0.011089239 0.007973026 0.006936656 0.0083736535 -0.014298391 0.0059321574
-0.0063841417 -0.01337178 -0.006410769 0.0009836581 0.011192444 0.0045090923 0.01083211 0.0040680007
0.0066415966 0.00090689876 -0.0017789988 -0.008993783 -0.00011257037 0.0119396085 0.0060396725 -0.014805364
0.011646333 0.00438258 -0.008793182 0.014419169 0.00834733 -0.007248098 -0.0034049074 -0.0031767697
00000000: eb3d a8bc a0cc e43b 8485 42bc eed0 893b
00000010: b767 3c3c 623d 0a3c bb2d 3d3c 721d d7bb
00000020: 3151 7c3c 2d49 60bb 31f1 633c c452 50bc
00000030: 5ad3 533c e219 313b 6181 433b b229 043c
00000040: 44c8 4d3c ade7 953b 73a8 61bc a549 863a
00000050: 612b c9ba a3cd debb d1e3 0f3a f1bd 613c
00000060: bc2a 1e3c 0857 873b 414d 413c 1064 0639
00000070: 9212 0d3b 383b 883b 9c5e e2bb 5fd2 cf3b
00000080: ac46 7b3c b582 753c 3700 f13b 6480 8a3b
00000090: f9b4 3d3b 1577 3b3c 5c2c d53b 6dd9 cdbb
000000a0: 734c cc3b d836 edbb 1af3 083c ade9 473c
000000b0: 339d f2b8 7719 8b3b 4a3b 693c ca67 143c
000000c0: e980 733b 9884 763c 2602 a73b 7c52 9439
000000d0: 690e fb3a 853d 983b 8dad aabc 9420 3b3c
000000e0: 86d4 e0bb c999 88bb 3573 31bb 371e 21bb
000000f0: 2cbc e43a 7597 323c 5875 1a3c d178 203c
00000100: c847 043c 9cf2 39bc bebc 37bc e0b9 b3b9
00000110: 30de 5d3c f334 053b 506e 13bb c94a c43c
00000120: 8c35 423c 7ef4 ba3b 8676 a2bc 469a 153c
00000130: 517f 7d3b 49f4 553c 97d6 a8ba 128c 883b
00000140: 72f3 cf3a d6e8 1d3c c38f 0c3b 331d a73b
00000150: bca3 503c 7c7e 3c3c b832 663c b193 523c
00000160: f3d1 2cbb f31c 3d3c df99 9e3b 0072 c33a
00000170: 2685 343b 61a7 f13b e88c 353c 8f24 50bb
00000180: e823 75bc b2be 5fbc fb8d a93a d35c 3e3b
00000190: b68c 8d3c 075a 873c 8a66 08bb 464e 1c3c
000001a0: 565f 4a3c d5b9 22ba 590e 233c c892 e2bb
000001b0: 64b7 c43b 9f92 f8bb c9a8 8e3b aabc 2bbc
000001c0: 1b22 853c a989 163c 1292 a33b 9eb7 a23b
000001d0: 7b32 673c 5b64 9abb 31da 953b 0b69 663c
000001e0: f445 8fbb e791 9d3c 91c5 bc3b cc8d 4cba
000001f0: 6e4c 07bc c5b5 533c d66b cebb e3dd 193c
00000200: 4f6b 793c 9c3e 0b3b 65cd 813c d1a8 223a
00000210: e58e 7c3c 3afc 11bc c438 39bc 0d0d d9bb
00000220: af53 843b 3d0b ef3b ae98 573b 96a6 023c
00000230: 1569 c7bb c43d 46bc 4ba5 693c fab8 0e3c
00000240: cdeb a83b d030 963c 4b0e 373c f8a3 173c
00000250: e301 f33b 888a 3c3b a09f 45bc 27a1 263c
00000260: 7ddb 153c ec4f a2bb 1a47 383c 72bb 32b8
00000270: bfe5 953b 2911 453c 4028 c93b eda0 923a
00000280: 1692 57bc 54f6 0bb9 6fbb 0bbc 036d 1e3c
00000290: 6a54 193c 13cc abbb 781e 343b 136a eb3b
000002a0: dbf4 093c 340f c9ba 681d 653c a271 0dbb
000002b0: 9b84 a2bb e860 563c 1f3e 8e3b 1419 4f3b
000002c0: 84a5 613a e01f 96bb 6e8e 71bc 088f 47ba
000002d0: 8e8b 203c 381c 193a e2ac 35bb a2fc 74bb
000002e0: bbfa 363b 9152 d83b 79c4 76bc f8c9 65bb
000002f0: 79e7 5cba 633d 6a3c fe4f 653b abb9 91bb
00000300: ad22 813a f4c1 99bb dc1a e33b a859 183c
00000310: 9dad 1e3c 5230 f2bb b5a6 eab8 b88e 2abb
00000320: 2324 923b e235 24bc 7285 3dba 2557 263b
00000330: 79fb 103c 66c8 e7bb 6cae be3b 7d42 9cbb
00000340: c185 883b 7240 253c 15a6 8a3b 03de cebb
00000350: 9d18 a43c a5f1 783c 39bc 3abb 60a3 233c
00000360: f00f 30ba 7cfb d93b 644b 023c 16bb 313c
00000370: 73aa 52bc 5040 65bc ffcc 5ebc f8a9 e0bb
00000380: b1cf e43b 6c80 063c a4af 353c 4ba1 023c
00000390: e34c e33b a631 093c cc43 6abc 8b62 c23b
000003a0: 1032 d1bb 4f15 5bbc 6e11 d2bb 17ee 803a
000003b0: 8360 373c 02c1 933b 2a79 313c dd4c 853b
000003c0: c0a1 d93b f2bc 6d3a 4b2d e9ba a95a 13bc
000003d0: c213 ecb8 599e 433c 72e8 c53b 3392 72bc
000003e0: 43d0 3e3c bf9b 8f3b 4711 10bc 613e 6c3c
000003f0: 3dc3 083c 7481 edbb de24 5fbb 5a31 50bb

network_body._body_endoder.seq_layers.0.weight f4 [256, 84]
-0.0275456 0.0037493894 -0.017569097 0.26839092 -0.07433688 -0.04147927 -0.09141234 -0.22296079
0.056001518 0.04894635 -0.08318513 0.18059106 0.121335275 -0.08744007 -0.018479533 0.12318184
-0.08617107 -0.13167949 0.19331059 -0.0803803 -0.112189814 0.06309234 -0.032998677 0.052020654
0.06721273 0.09710044 0.0151211545 -0.066992156 0.1552326 -0.018984465 0.017668499 0.069450624
0.01420061 0.05854608 0.0070295455 0.057081327 -0.018266099 0.071366794 -0.103379756 -0.004270435
0.013465357 0.18736309 0.1177495 0.019317845 0.08216363 -0.030324098 0.004913112 -0.06516818
0.17022827 -0.0038303433 -0.15351921 0.12657072 0.0015580778 -0.03899056 0.13899975 0.11521244
-0.1359581 0.057538632 -0.018141227 -0.046116974 0.11414725 0.14683922 0.16183636 0.10606905
0.07769884 -0.021488462 -0.03468632 0.008067044 -0.13968554 -0.10671317 0.033086713 -0.028580979
0.027230589 0.24405916 -0.056271784 0.16914275 -0.005615506 0.047170058 -0.033206683 -0.12283589
0.087304525 0.03044625 0.18088596 0.023054121 0.036915075 0.0125733875 0.0353675 -0.024197303
0.07071329 0.16056715 0.07421143 -0.12517416 0.044847067 -0.20826313 0.06564925 -0.12256919
-0.009987504 0.008628487 0.016575629 0.17075582 0.03491577 -0.060909018 -0.075897954 0.07023684
0.0679954 -0.12225777 -0.15869689 0.0689398 -0.0877808 -0.014890207 0.015015666 0.09952985
0.011479731 0.13598807 -0.2667166 -0.051107634 0.109050445 -0.02906133 0.03415306 -0.120535366
0.024004918 0.13937567 -0.2631889 -0.03859712 0.006711955 -0.06078863 0.11081118 -0.018233871
0.0019587893 0.16911572 -0.110516824 0.15722431 0.09582517 -0.057355087 -0.22224759 -0.024788857
0.053258996 0.14576918 0.14584461 -0.071490936 0.09224513 -0.1605916 0.040159307 0.086769864
0.05950395 -0.07073441 0.14824542 0.003803003 -0.081993505 -0.019021709 -0.10191762 -0.019704731
-0.06972338 -0.10539198 0.007495153 -0.019770877 -0.07859797 0.055374105 -0.0681044 0.022076115
-0.09990516 -0.17790796 0.03986084 -0.063100494 0.14535546 -0.05315999 -0.121347144 0.13520215
-0.07138837 -0.0909779 0.119285405 -0.036524784 -0.0935537 0.054194257 -0.002734955 0.017056342
-0.015883366 0.041126423 -0.037020814 0.07515211 -0.102070294 -0.088425845 -0.053367686 0.11324065
0.037049465 -0.046120815 0.09391976 -0.08217961 -0.23670919 -0.22960131 0.2850755 -0.019802954
-0.04320126 0.08841003 -0.067688644 0.04030498 -0.05127766 0.021331972 -0.10553723 0.06090449
0.15792044 0.078584254 -0.17336677 -0.010189842 -0.23280963 -0.033742838 -0.13081348 0.11155718
0.02542602 -0.09823809 0.053721197 -0.041963607 -0.13829057 -0.043402277 0.025825335 -0.063306764
-0.0565071 -0.068386 -0.1179913 0.08105893 -0.036719974 0.14853604 -0.011382515 0.048482195
-0.08524588 0.1354737 0.1148583 -0.08498964 -0.054334525 0.033441536 -0.19628303 0.1705672
0.03572749 0.10272475 -0.04214039 -0.014078527 0.16663237 0.11138558 -0.014682644 0.10488409
0.00029661332 -0.006132466 -0.031277783 -0.03375113 -0.100394405 -0.015131493 -0.03785936 0.056843348
0.13142298 -0.09833011 -0.051004786 0.00474914 0.020491954 -0.19026263 0.058376342 0.11613257
00000000: 4fa7 e1bc 51b8 753b 11ed 8fbc 896a 893e
00000010: ef3d 98bd 2be6 29bd 6536 bbbd d54f 64be
00000020: d961 653d f87b 483d f75c aabd ddec 383e
00000030: a17e f83d c813 b3bd 6462 97bc c346 fc3d
00000040: 757a b0bd fdd6 06be 36f3 453e 6d9e a4bd
00000050: c6c3 e5bd 8f36 813d 9f29 07bd 9c13 553d
00000060: d4a6 893d 98dc c63d b8be 773c 2f33 89bd
00000070: 4bf5 1e3e 4f85 9bbc 87bd 903c 213c 8e3d
00000080: ada9 683c 04ce 6f3d 1a58 e63b 1cce 693d
00000090: c9a2 95bc c128 923d c4b8 d3bd 01ef 8bbb
000000a0: cd9d 5c3c 1cdc 3f3e a626 f13d 7540 9e3c
000000b0: 6845 a83d 3e6a f8bc 2cfe a03b e576 85bd
000000c0: 5250 2e3e 7f06 7bbb 2434 1dbe c19b 013e
000000d0: 6a38 cc3a 91b4 1fbd f355 0e3e 80f4 eb3d
000000e0: 9a38 0bbe a1ad 6b3d e99c 94bc 27e5 3cbd
000000f0: 09c6 e93d 055d 163e 6eb8 253e bb3a d93d
00000100: 9220 9f3d 9208 b0bc 3e13 0ebd a32b 043c
00000110: ba09 0fbe 6f8c dabd ef85 073d a822 eabc
00000120: af12 df3c a5ea 793e 3e7d 66bd c233 2d3e
00000130: 4702 b8bb 6435 413d bb03 08bd 6291 fbbd
00000140: b7cc b23d 6a6a f93c 2b3a 393e ffdb bc3c
00000150: 4334 173d 9c00 4e3c 83dd 103d 6c39 c6bc
00000160: 21d2 903d b76b 243e 2afc 973d a82d 00be
00000170: 8fb1 373d ee42 55be 1d73 863d 8e05 fbbd
00000180: a1a2 23bc 7f5e 0d3c 9dc9 873c 9dda 2e3e
00000190: d703 0f3d bc7b 79bd 6370 9bbd 55d8 8f3d
000001a0: 2c41 8b3d 4862 fabd 7081 22be 4f30 8d3d
000001b0: 6cc6 b3bd 0ef6 73bc 4504 763c 4ed6 cb3d
000001c0: 7b15 3c3c 7540 0b3e 148f 88be 3d56 51bd
000001d0: d755 df3d 0712 eebc 14e4 0b3d 3fdb f6bd
000001e0: f6a5 c43c 7fb8 0e3e b2c0 86be 0418 1ebd
000001f0: f6ef db3b 80fd 78bd f9f0 e23d 335f 95bc
00000200: 085f 003b ac2c 2d3e a556 e2bd 69ff 203e
00000210: fd3f c43d 2bed 6abd df94 63be 0012 cbbc
00000220: 1b26 5a3d 8444 153e 4a58 153e d769 92bd
00000230: 04eb bc3d 2072 24be 167e 243d 66b4 b13d
00000240: 6aba 733d 34dd 90bd a6cd 173e ce3b 793b
00000250: 36ec a7bd 6ad3 9bbc 2fba d0bd d16b a1bc
00000260: 22cb 8ebd c0d7 d7bd e799 f53b 89f6 a1bc
00000270: f9f7 a0bd f5cf 623d 527a 8bbd f8d8 b43c
00000280: 149b ccbd 812d 36be 1f45 233d d53a 81bd
00000290: 10d8 143e 4abe 59bd da84 f8bd 6f72 0a3e
000002a0: 1134 92bd 9f52 babd e84b f43d 039b 15bd
000002b0: 1599 bfbd ccfa 5d3d ee3c 33bb beb9 8b3c
000002c0: d51d 82bc 2e74 283d 23a3 17bd 59e9 993d
000002d0: 3b0a d1bd 9c18 b5bd 1398 5abd b7ea e73d
000002e0: 2ec1 173d 2ee9 3cbd 0159 c03d c94d a8bd
000002f0: e563 72be 9b1c 6bbe 6af5 913e ce39 a2bc
00000300: cef3 30bd 5110 b53d 58a0 8abd d616 253d
00000310: 8608 52bd 63c0 ae3c e723 d8bd fd76 793d
00000320: e5b5 213e c8f0 a03d 0f87 31be 4cf3 26bc
00000330: a665 6ebe ee35 0abd f8f3 05be 1778 e43d
00000340: 3b4a d03c 0d31 c9bd c20a 5c3d 08e2 2bbd
00000350: 0b9c 0dbe 96c6 31bd a78f d33c faa6 81bd
00000360: fd73 67bd f60d 8cbd 6ca5 f1bd 3902 a63d
00000370: af67 16bd d519 183e ba7d 3abc 4495 463d
00000380: 6495 aebd 9eb9 0a3e d43a eb3d 0c0f aebd
00000390: e18d 5ebd fef9 083d 6bfe 48be 2ba9 2e3e
000003a0: fd56 123d 5b61 d23d 679b 2cbd 9fa9 66bc
000003b0: ada1 2a3e 1f1e e43d 798f 70bc 78cd d63d
000003c0: c482 9b39 daf2 c8bb 221d 00bd a03e 0abd
000003d0: 959b cdbd 15ea 77bc 6b12 1bbd 92d4 683d
000003e0: bf93 063e 4c61 c9bd 65ea 50bd ac9e 9b3b
000003f0: bede a73c 35d4 42be 081c 6f3d ead6 ed3d

network_body._body_endoder.seq_layers.2.bias f4 [256]
0.0042571924 -0.008775049 -0.011034041 -0.00865656 0.01307927 -0.0039534965 0.007661049 0.00017352619
0.011749843 0.0012577854 0.0065822946 0.004385042 0.013251688 0.002698082 -0.009572187 0.013809942
0.0070972457 -0.0052336217 0.015435458 -0.004594142 -0.005356281 -0.0055386615 -0.00023042806 0.0028241533
0.010356431 0.003052038 -0.009050949 0.0066739726 0.008543238 0.014513678 0.000693837 0.0069724834
0.007178848 -0.0037030857 0.012343128 0.00868604 0.006007212 0.0033112974 0.006693862 0.014864382
0.0165812 -0.0119487485 -0.005448197 0.006012174 -0.00189113 -0.008013379 0.0061665527 0.0082709305
0.00095715845 -0.001569851 -0.0050437166 -0.010028737 0.005155215 -0.0028883838 0.011547999 -0.0036966011
-0.010989737 0.0037470588 0.00029161977 0.016530877 0.013766762 -0.017999407 -0.014360465 -0.009755147
0.008497658 0.009020581 0.008843521 0.0042918827 0.01454667 0.002153862 -0.00032356623 0.005720541
-0.0083295135 -0.0014405564 0.001077926 0.010696787 0.012176108 -0.009103952 -0.0009105356 0.008550183
-0.00019908778 -0.0066325683 0.00019452308 0.011745158 -0.0048510632 0.0077250265 0.0041018995 0.015850388
0.009361039 -0.008626266 0.015358999 -0.007708567 0.005075602 0.0020528457 -0.0061878916 0.00669438
-0.002233323 0.012215974 0.0061258557 -0.021562975 -0.009197628 0.013525242 0.0065147 0.0037090331
0.0006802515 0.003394135 -0.010333951 -0.015520731 -0.0076531353 0.008917018 -6.9235364e-05 -0.0111036
0.0009371357 -0.006328252 -0.0023631582 -0.015702737 0.011594932 -0.010746008 -0.010805762 0.006081286
0.016113926 0.0029258702 0.012617807 0.009943537 0.01152134 0.0101551395 0.01545144 0.010877604
-0.00991997 -0.011616723 0.0014022031 0.0006645505 0.009743609 -0.006090425 -0.0049505434 -0.0058115907
0.012760367 -0.012925388 -0.0106964875 0.006860643 -0.010342543 0.018036742 -0.004461173 -0.0053630434
0.0011780667 -0.016920866 -0.0070271785 -0.010640319 0.007479759 0.008517988 -0.013058814 -0.0068898755
0.011035897 -0.012147436 0.0063100983 0.007388222 0.011085209 0.007926095 0.009230856 -0.016210658
-0.009742451 0.011387347 0.0013688022 -0.0023172996 0.013659534 0.021897426 0.010880112 -0.0034863604
0.0051260972 0.005423567 0.005755666 0.010046469 0.011665175 0.009589583 0.006792982 0.007848897
0.003988434 0.009161505 0.012336781 -0.009359192 0.003689796 0.004424027 0.0003963507 0.006350075
0.012339777 0.0101245 0.0060439026 0.013517703 -0.0013260989 0.01369972 0.0012063986 0.00056926237
-0.0071093612 0.014420613 -0.019214755 0.009227713 -0.008627158 0.0069549847 -0.0034524319 0.014020631
0.008598324 -0.016468482 0.009573489 0.007304442 0.0003539363 0.012630212 0.012260447 -0.0014778536
-0.00447881 0.007587296 0.010846042 0.009989227 0.015702069 -0.018601688 0.004145725 0.0071235998
0.0055892435 0.009722678 -0.005330571 -0.014114644 0.0007600136 -0.010701757 0.0066395686 -0.015608207
-0.011847457 -0.0032017233 0.006233591 0.009412238 0.008778033 0.0107881455 0.0074942866 0.01160637
0.0023519325 -0.0077001536 -0.012349448 -0.0060737953 -0.0045253523 0.008 0.0075387433 -0.014116902
-0.0014911655 -0.005800763 0.010160328 -0.004419159 0.009521661 0.00876632 -0.0017474167 0.008579911
0.009559511 -0.023642313 -0.0044576763 0.01015764 0.0062358864 -0.009654237 -0.007371288 0.00030351916
00000000: eb7f 8b3b 39c5 0fbc 1fc8 34bc 3fd4 0dbc
00000010: 6f4a 563c 558c 81bb 8909 fb3b 95f4 3539
00000020: 6a82 403c 46dc a43a 4ab0 d73b 66b0 8f3b
00000030: 9c1d 593c 4ed2 303b aad4 1cbc 1843 623c
00000040: 0390 e83b cd7e abbb 01e5 7c3c 758a 96bb
00000050: be83 afbb a97d b5bb 109f 71b9 6e15 393b
00000060: 05ae 293c b304 483b 6e4a 14bc 57b1 da3b
00000070: f0f8 0b3c c7ca 6d3c 9de2 353a 6e79 e43b
00000080: 8b3c eb3b 78af 72bb d53a 4a3c e44f 0e3c
00000090: 26d8 c43b 5a02 593b 2f58 db3b bd89 733c
000000a0: 4cd5 873c afc4 43bc ca86 b2bb c501 c53b
000000b0: cbdf f7ba 8c4a 03bc cb10 ca3b cc82 073c
000000c0: d1e9 7a3a 75c3 cdba c345 a5bb 924f 24bc
000000d0: 14ed a83b 0a4b 3dbb d233 3d3c ad42 72bb
000000e0: 4c0e 34bc 3791 753b 8be4 9839 c36b 873c
000000f0: fc8d 613c 7e73 93bc 2848 6bbc 0dd4 1fbc
00000100: c339 0b3c 0fcb 133c 6ae4 103c eca2 8c3b
00000110: 2855 6e3c cf27 0d3b 53a4 a9b9 6073 bb3b
00000120: 8378 08bc 0dd1 bcba 3249 8d3a 9441 2f3c
00000130: 4c7e 473c be28 15bc 02b1 6eba 1116 0c3c
00000140: 38c2 50b9 0456 d9bb e4f8 4b39 c36e 403c
00000150: abf5 9ebb 3822 fd3b 3a69 863b acd8 813c
00000160: 0b5f 193c 2f55 0dbc 50a4 7b3c 2698 fcbb
00000170: 3c51 a63b 0989 063b ccc3 cabb 885c db3b
00000180: f15c 12bb 8225 483c 67bb c83b d6a4 b0bc
00000190: a6b1 16bc fa98 5d3c 4479 d53b 4013 733b
000001a0: e852 323a 2370 5e3b bb4f 29bc aa4a 7ebc
000001b0: 27c7 fabb af18 123c 7432 91b8 e0eb 35bc
000001c0: 1daa 753a 3a5d cfbb 37df 1abb 07a3 80bc
000001d0: abf8 3d3c 0610 30bc a70a 31bc 8645 c73b
000001e0: 5a01 843c f5bf 3f3b ebba 4e3c 38ea 223c
000001f0: 01c4 3c3c be61 263c 0928 7d3c fa37 323c
00000200: 5f87 22bc 1154 3ebc 21ca b73a 3b35 2e3a
00000210: a9a3 1f3c 3092 c7bb 2b38 a2bb 286f bebb
00000220: dc10 513c 02c5 53bc 5240 2fbc 3fcf e03b
00000230: c573 29bc cac1 933c 082f 92bb 78bc afbb
00000240: 5c69 9a3a a19d 8abc 3f44 e6bb bc54 2ebc
00000250: c418 f53b 088f 0b3c a3f4 55bc 77c4 e1bb
00000260: e8cf 343c 0a06 47bc f1c4 ce3b e618 f23b
00000270: bd9e 353c 74dc 013c 043d 173c 37cc 84bc
00000280: cd9e 1fbc ff91 3a3c 6169 b33a d6dd 17bb
00000290: 3dcc 5f3c 3b62 b33c 7f42 323c 6c7b 64bb
000002a0: d2f8 a73b 2db8 b13b 079a bc3b f299 243c
000002b0: 4a1f 3f3c a01d 1d3c aa97 de3b a998 003c
000002c0: 69b1 823b 231a 163c 3620 4a3c 4c57 19bc
000002d0: 81d0 713b 6ef7 903b 4acd cf39 4a14 d03b
000002e0: c72c 4a3c 3be1 253c ee0b c63b 5b79 5d3c
000002f0: 7fd0 adba ca74 603c 0520 9e3a 8d3a 153a
00000300: a5f5 e8bb 6f44 6c3c 4368 9dbc d52f 173c
00000310: ec58 0dbc a4e6 e33b 3242 62bb cab6 653c
00000320: fcdf 0c3c e9e8 86bc 20da 1c3c 1a5a ef3b
00000330: 8790 b939 f3ee 4e3c 0be0 483c 8ab4 c1ba
00000340: fbc2 92bb da9e f83b 99b3 313c dba9 233c
00000350: a0a1 803c 9162 98bc ddd8 873b 166d e93b
00000360: f925 b73b de4b 1f3c 12ac aebb 1c41 67bc
00000370: a63b 473a 6c56 2fbc bd90 d93b 91b9 7fbc
00000380: d61b 42bc 01d4 51bb 2743 cc3b ca35 1a3c
00000390: bdd1 0f3c c3c0 303c a292 f53b a528 3e3c
000003a0: e122 1a3b 9251 fcbb 5755 4abc b006 c7bb
000003b0: 6849 94bb 6f12 033c 9007 f73b 944a 67bc
000003c0: 3673 c3ba 5414 bebb 8177 263c 98ce 90bb
000003d0: be00 1c3c 9ca0 0f3c 9309 e5ba c192 0c3c
000003e0: 7f9f 1c3c 86ad c1bc b311 92bb 3b6c 263c
000003f0: 6856 cc3b ce2c 1ebc d88a f1bb a721 9f39

network_body._body_endoder.seq_layers.2.weight f4 [256, 256]
0.017949812 -0.2062632 0.05320842 0.007590859 -0.050362047 -0.0072590583 -0.054256383 0.07684065
-0.02065232 0.030092653 -0.102383755 0.06692573 0.008613256 0.023643646 -0.0671695 0.025851116
0.019991605 0.011620688 -0.001600201 0.022722464 -0.011869058 -0.0011992229 -0.0019847243 -0.044644497
-0.029752316 -0.0069876807 -0.038870353 -0.024666378 0.012353457 0.028967457 -0.03193134 -0.037698016
-0.060063213 0.03953758 0.04682426 -0.029058298 -0.016305532 0.022416882 0.005389559 0.039875075
-0.03347832 -0.044612605 -0.07550649 0.026808256 0.073344216 0.019584455 0.065291494 0.017449286
0.031204963 -0.030080853 0.08788805 0.05965495 0.009676037 0.07304194 0.04073135 0.039179385
0.016002135 0.03541174 0.038771495 -0.07042868 -0.008053458 0.0745342 0.030273166 -0.089151226
0.078188844 -0.030615903 -0.024076514 0.033880983 -0.053251598 -0.0019320212 -0.0013396607 0.084933996
-0.110969685 -0.00860927 -0.028447751 0.03685123 0.027096488 0.07909955 0.12455339 0.00818264
0.018061087 -0.019946545 -0.0025457176 0.045222994 -0.011147448 -0.03080205 0.14786446 0.015169864
0.032595385 -0.061157886 0.019846836 -0.12613152 -0.09274012 -0.009867468 -0.16145042 -0.012248035
0.0083114505 0.019312825 0.014595248 -0.029261224 -0.07111997 -0.054135796 -0.14046316 -0.050691236
-0.05961559 -0.06398289 0.03717719 0.047493394 -0.052285563 -0.08817835 -0.005126616 -0.044220235
-0.037541103 -0.0068889502 0.030787991 0.04008975 0.012945944 0.05481889 0.008168034 0.11853433
-0.073887415 0.03191555 -0.026848849 -0.0662246 -0.09235371 0.004837983 -0.0036092936 0.014396383
-0.019432642 -0.13544904 0.040956214 0.11474661 -0.11108491 -0.012778351 -0.009797536 -0.013163549
-0.11397517 -0.033138495 -0.012662435 -0.07903623 -0.084384 0.15795588 0.060846522 0.076804265
0.05763385 0.091618076 0.108991474 -0.03465611 0.014311077 0.003579815 -0.06594345 -0.025253909
0.016730025 -0.05007149 -0.032080267 0.07184809 -0.014296608 0.020314533 -0.05678721 0.034303326
-0.007476887 -0.025943747 0.037647318 -0.05816403 -0.012019141 0.005589716 0.06231199 -0.021968773
0.001447019 -0.021728233 -0.14079803 0.08747864 -0.02352041 0.09006449 -0.08380881 -0.14339285
0.041129462 0.0042692795 0.0249526 -0.019050818 0.03997689 0.018738203 -0.099081315 0.07077514
0.0059863282 0.07498083 0.03190105 -0.075421974 0.07033685 -0.016588053 -0.05578071 0.009102461
0.0023204314 -0.049773827 0.021482289 -0.05947104 0.019615978 0.037036736 -0.068074524 0.0148818595
-0.14391102 -0.021079566 -0.033877905 0.08535712 0.018555662 -0.08449821 -0.04769065 0.050442956
-0.06826419 0.0145601565 0.1074699 -0.009075071 -0.039588194 0.064320974 0.07522487 0.05384524
-0.0252135 0.07877127 -0.050031994 -0.07559911 -0.03374003 0.012681238 -0.002565622 0.031417552
0.0503671 0.059737686 -0.06329652 0.07437159 -0.07153249 -0.013951955 -0.047912706 -0.007872382
0.013878304 -0.08871347 0.055214483 0.100223534 0.0457898 -0.05839909 0.14361481 0.02719855
0.09078237 -0.05732179 -0.032195725 0.025010346 0.19159487 0.07064305 -0.06347704 0.0720284
-0.03334907 0.05547222 0.031342946 -0.05237725 0.11698455 -0.052338056 0.028176812 0.025877273
00000000: 7c0b 933c a936 53be 12f1 593d bebc f83b
00000010: 6f48 4ebd 65dd edbb f13b 5ebd a15e 9d3d
00000020: 0e2f a9bc de84 f63c 93ae d1bd 5b10 893d
00000030: 9d1e 0d3c 52b0 c13c 2a90 89bd b8c5 d33c
00000040: 6fc5 a33c b364 3e3c d6bd d1ba 7624 ba3c
00000050: 7076 42bc 3e2f 9dba 2612 02bb 26dd 36bd
00000060: 21bb f3bc eaf8 e4bb 8536 1fbd 2511 cabc
00000070: 2766 4a3c 294d ed3c 70ca 02bd 3c69 1abd
00000080: d804 76bd 28f2 213d ccca 3f3d ab0b eebc
00000090: 2e93 85bc 9ca3 b73c e69a b03b 0c54 233d
000000a0: 9020 09bd b5bb 36bd 26a3 9abd fd9c db3c
000000b0: 7e35 963d 946f a03c 8cb7 853d cef1 8e3c
000000c0: 8da1 ff3c 1f6c f6bc a6fe b33d c058 743d
000000d0: 3e88 1e3c 0397 953d ebd5 263d 907a 203d
000000e0: e916 833c e70b 113d dcce 1e3d e93c 90bd
000000f0: a7f2 03bc 63a5 983d 6eff f73c eb94 b6bd
00000100: 7921 a03d 34ce fabc 1c3c c5bc c9c6 0a3d
00000110: 591e 5abd e03b fdba 8e97 afba e0f1 ad3d
00000120: 1344 e3bd e50d 0dbc 420b e9bc 51f1 163d
00000130: 74f9 dd3c f2fe a13d d915 ff3d 7b10 063c
00000140: d8f4 933c f066 a3bc 0ed6 26bb bf3b 393d
00000150: c9a3 36bc 9554 fcbc c869 173e 058b 783c
00000160: bd82 053d b180 7abd d595 a23c 9f28 01be
00000170: 88ee bdbd 29ab 21bc 4253 25be fbab 48bc
00000180: c02c 083c ee35 9e3c e820 6f3c 3cb5 efbc
00000190: 59a7 91bd 7fbd 5dbd 93d5 0fbe 9da1 4fbd
000001a0: 7a2f 74bd 7609 83bd 1c47 183d 6f88 423d
000001b0: 6329 56bd da96 b4bd 2cfd a7bb 4720 35bd
000001c0: b3c4 19bd b4bc e1bb 1937 fc3c 2635 243d
000001d0: 3a1b 543c c689 603d 38d3 053c 20c2 f23d
000001e0: 4952 97bd e1b9 023d 1ef2 dbbc c3a0 87bd
000001f0: f123 bdbd f187 9e3b e689 6cbb cfde 6b3c
00000200: 3431 9fbc 27b3 0abe b4c1 273d 4500 eb3d
00000210: 7c80 e3bd 4a5c 51bc d885 20bc edab 57bc
00000220: d06b e9bd 3bbc 07bd 1a76 4fbc bfdd a1bd
00000230: 85d1 acbd 30bf 213e 343a 793d 8e4b 9d3d
00000240: 7911 6c3d 42a2 bb3d ec36 df3d 91f3 0dbd
00000250: 0279 6a3c 549b 6a3b 5c0d 87bd 49e1 cebc
00000260: 680d 893c c317 4dbd 9966 03bd 1725 933d
00000270: 523c 6abc aa6a a63c b599 68bd a581 0c3d
00000280: ad00 f5bb fb87 d4bc 1334 1a3d 683d 6ebd
00000290: eeeb 44bc f029 b73b db3a 7f3d dbf7 b3bc
000002a0: e7a9 bd3a 68ff b1bc 5c2d 10be 0028 b33d
000002b0: e0ad c0bc bb73 b83d f4a3 abbd 93d5 12be
000002c0: 5e77 283d 50e5 8b3b 6569 cc3c 7610 9cbc
000002d0: cfbe 233d dc80 993c 25eb cabd 8ef2 903d
000002e0: f628 c43b 8d8f 993d adaa 023d d676 9abd
000002f0: c40c 903d abe3 87bc 507a 64bd 7d22 153c
00000300: 6112 183b a4df 4bbd a0fb af3c e897 73bd
00000310: b0b1 a03c d5b3 173d a86a 8bbd 0bd3 733c
00000320: 695d 13be 0eaf acbc 8fc3 0abd b7cf ae3d
00000330: 0b02 983c 660d adbd 4557 43bd 469d 4e3d
00000340: 18ce 8bbd b98d 6e3c 2e19 dc3d 9baf 14bc
00000350: 3b27 22bd b7ba 833d 7f0f 9a3d d48c 5c3d
00000360: 8b8c cebc d552 a13d 59ee 4cbd b5d3 9abd
00000370: fc32 0abd f8c4 4f3c ff23 28bb b1af 003d
00000380: bb4d 4e3d 81af 743d 9ba1 81bd 2250 983d
00000390: a07f 92bd be96 64bc 1d40 44bd 2afb 00bc
000003a0: d361 633c 68af b5bd 9528 623d ff41 cd3d
000003b0: 168e 3b3d e233 6fbd c30f 133e 7ecf de3c
000003c0: 1bec b93d 41ca 6abd aadf 03bd 7fe2 cc3c
000003d0: 7231 443e 4ead 903d 4000 82bd a083 933d
000003e0: 0999 08bd d736 633d 7661 003d 8789 56bd
000003f0: 9995 ef3d 6e60 56bd 0fd3 e63c 93fc d33c

network_body._body_endoder.seq_layers.4.bias f4 [256]
0.010219943 -0.008663139 0.0015592192 0.015531679 0.016242096 0.008823304 -0.014703306 -0.013698674
0.013411872 0.0061045415 -0.0055277753 -0.0083127925 0.005990923 -0.014989899 0.010256937 0.014064483
0.001148338 0.011326684 0.0019581092 0.015581229 0.018483466 0.015284324 0.014621137 0.013878518
-0.020550435 -0.004869485 -0.0040048393 -0.009244552 0.0048735063 -0.013610949 -0.002205815 0.0132719865
-0.009154838 -0.016039005 0.012557091 -0.0017654409 -0.005028647 -0.01044475 -0.0015300334 -0.0007094891
0.0062919334 -0.005264581 0.0014640858 0.012811311 -0.014582429 0.012386355 -0.0054584253 -0.005435263
0.016625635 -0.009561267 0.0059072603 -0.0046710675 -0.007970225 0.01284257 0.00092790584 0.00045410643
0.011829515 -0.004615665 -0.019455751 -0.009189441 0.011113684 0.008415908 0.013741047 0.0036765032
-0.0057926234 -0.0012793966 -0.007548278 0.01377929 0.011777932 -0.0023094397 -0.011155356 0.002980553
0.0019518619 0.0039647487 -0.013832535 0.0038177334 0.0037882186 -0.007889149 0.016726425 0.011597276
0.014094895 0.012868453 0.012195155 0.005824657 -0.003077451 0.004956488 -0.007970612 0.00952163
0.013446533 -0.0007246621 -0.0061474782 -0.007511186 -0.0062579885 -0.012776027 0.01717791 -0.013763729
-0.019460393 -0.009399784 -0.012993058 0.0040769447 -0.0020082118 -0.008356956 0.01613071 -0.0013904059
0.00071104657 0.015095988 0.008664248 -0.00027280478 0.010591206 0.014780635 -0.007377335 -0.0053220624
-0.0028948586 -0.0074594207 -0.00933849 0.00038162633 0.0038331184 0.011700426 0.0020936045 0.004156716
0.013250434 -0.017796408 0.015845416 -0.01879076 0.0095446 0.0076544113 -0.0060537634 -0.012967018
0.01080798 -0.016030392 0.0053522335 -0.015908815 0.016568832 -1.4408408e-05 -0.017457476 0.0024182815
-0.0031910976 0.00024246474 -0.0029535468 0.012890622 0.00070225913 -0.0058493293 0.0063727777 -0.0132793
-0.006127477 -0.0039864155 0.009677873 0.013205353 0.011960619 -0.006453826 0.0083606085 -0.0011988288
0.014465691 0.0069163316 -0.013482152 0.014922608 0.0076946113 -0.0046449066 0.0075188833 -0.0023049426
-0.015361281 0.007891416 -0.013378767 0.0046690195 0.00993568 -0.010677716 0.00554787 -0.008861324
-0.004163972 -0.012853837 0.0001385001 -0.01657407 0.010481926 -0.0022900146 0.015142023 0.0019105704
-0.02049601 0.011601677 -0.016016593 0.005414544 0.019384548 -0.01829749 -0.010338057 -0.015611427
-0.00836744 -0.018406099 0.012284912 0.01313686 0.008551344 -0.013599573 -0.0056633293 0.0112078935
0.0040772315 -0.012969592 0.007223737 0.014788168 -0.0019918454 0.001375089 -0.010811249 -0.005921066
-0.0078124525 -0.01821728 -0.007864525 -0.012009296 0.0059498083 0.008875042 0.005841244 0.0101485895
-0.0122345025 0.0050038495 -0.0068306457 0.011419237 0.008700768 0.016600026 0.018245142 -0.016148074
-0.0069313673 0.003865272 0.01409455 -0.008101489 0.008909747 0.0063189846 -0.021830441 -0.008395498
0.018576903 0.0033587671 -0.00042973808 0.00808162 0.016143592 -0.012591815 -0.005813407 0.017810663
0.011159036 0.0052440753 -0.013330067 0.014182984 -0.0002505365 0.00053713983 0.013982369 -0.0068992656
0.009789254 -0.010333057 0.010713959 -0.014205782 0.012960708 0.005751222 -0.012850108 0.004898214
-0.00410968 0.0064358674 0.014014254 0.0059879725 0.012798911 0.014601783 -0.020893753 0.00056310574
00000000: 8c71 273c d7ef 0dbc b75e cc3a 9578 7e3c
00000010: 250e 853c 9f8f 103c 23e6 70bc 6770 60bc
00000020: 78bd 5b3c 9b08 c83b 5722 b5bb 6132 08bc
00000030: 814f c43b 3198 75bc b60c 283c b86e 663c
00000040: d483 963a 8e93 393c 9f53 003b 6948 7f3c
00000050: a36a 973c 1a6b 7a3c 7e8d 6f3c b962 633c
00000060: 6359 a8bc 3390 9fbb 073b 83bb 7676 17bc
00000070: efb1 9f3b 7500 5fbc 6f8f 10bb bf72 593c
00000080: 2cfe 15bc 3b64 83bc 42bc 4d3c 5e66 e7ba
00000090: 59c7 a4bb 7520 2bbc 678b c8ba 02fd 39ba
000000a0: 902c ce3b 8282 acbb 91e6 bf3a 88e6 513c
000000b0: 24eb 6ebc 23f0 4a3c 97dc b2bb 4a1a b2bb
000000c0: 7c32 883c dca6 1cbc b191 c13b c10f 99bb
000000d0: 8c95 02bc a569 523c b53e 733a 2215 ee39
000000e0: 95d0 413c 013f 97bb ab61 9fbc 4f8f 16bc
000000f0: 2b16 363c e0e2 093c 2122 613c 7df1 703b
00000100: 0cd0 bdbb 6db1 a7ba 8c57 f7bb 88c2 613c
00000110: 3af8 403c f859 17bb f4c4 36bc 6255 433b
00000120: 9ed5 ff3a b9ea 813b dba1 62bc f032 7a3b
00000130: c343 783b 7d41 01bc db05 893c 8002 3e3c
00000140: 46ee 663c 34d6 523c 30ce 473c c4dc be3b
00000150: 0faf 49bb 096a a23b 2b97 02bc 9c00 1c3c
00000160: d94e 5c3c 40f7 3dba c970 c9bb 6520 f6bb
00000170: d00f cdbb 8b52 51bc b0b8 8c3c 4381 61bc
00000180: 676b 9fbc 8d01 1abc d6e0 54bc e497 853b
00000190: 349c 03bb 9deb 08bc 8d24 843c 483e b6ba
000001a0: 8765 3a3a 2a55 773c 7df4 0d3c 3d07 8fb9
000001b0: bd86 2d3c 7a2a 723c 92bd f1bb b264 aebb
000001c0: abb7 3dbb 286e f4bb 7700 19bc 0515 c839
000001d0: 0e35 7b3b 25b3 3f3c db34 093b 1035 883b
000001e0: 5918 593c c6c9 91bc 3fce 813c 14ef 99bc
000001f0: f460 1c3c dbd1 fa3b a65e c6bb 9e73 54bc
00000200: f413 313c 2b52 83bc ca61 af3b 3453 82bc
00000210: 5cbb 873c a4bb 71b7 fb02 8fbc 087c 1e3b
00000220: bc21 51bb 223e 7e39 4b90 41bb 3033 533c
00000230: d017 383a bbab bfbb bcd2 d03b 6c91 59bc
00000240: 01c9 c8bb 7aa0 82bb f18f 1e3c 445b 583c
00000250: 79f6 433c 9e7a d3bb effa 083c 0522 9dba
00000260: 8101 6d3c 65a2 e23b 3ee4 5cbc f47d 743c
00000270: 1423 fc3b 4d34 98bb f760 f63b 850e 17bb
00000280: e2ad 7bbc ff4a 013c 9e32 5bbc 93fe 983b
00000290: 43c9 223c 96f1 2ebc e8ca b53b 162f 11bc
000002a0: ee71 88bb e698 52bc 563a 1139 58c6 87bc
000002b0: 62bc 2b3c 1214 16bb 3f16 783c 1b6c fa3a
000002c0: 40e7 a7bc f614 3e3c 3b35 83bc 7d6c b13b
000002d0: 58cc 9e3c 9ee4 95bc f460 29bc 12c7 7fbc
000002e0: 9617 09bc 63c8 96bc a846 493c fc3b 573c
000002f0: f01a 0c3c bed0 5ebc 7393 b9bb 50a1 373c
00000300: 4c9a 853b 697e 54bc 19b5 ec3b 124a 723c
00000310: 9f89 02bb 553c b43a aa21 31bc 8005 c2bb
00000320: 9aff ffbb 683c 95bc 35da 00bc a3c2 44bc
00000330: 9cf6 c23b a068 113c e867 bf3b 4546 263c
00000340: 3973 48bc 55f7 a33b 9cd3 dfbb c017 3b3c
00000350: ab8d 0e3c c7fc 873c d676 953c f748 84bc
00000360: 8620 e3bb 8150 7d3b d4ec 663c 1cbc 04bc
00000370: 30fa 113c 7c0f cf3b c1d5 b2bc 458d 09bc
00000380: 972e 983c c31e 5c3b 784e e1b9 c568 043c
00000390: 913f 843c e64d 4ebc 647e bebb abe7 913c
000003a0: 64d4 363c 7ed6 ab3b 5a66 5abc bf5f 683c
000003b0: 715a 83b9 d8ce 0c3a 4e16 653c 3c13 e2bb
000003c0: 1b63 203c fb4b 29bc 9a89 2f3c 5ebf 68bc
000003d0: 2659 543c bf74 bc3b 4289 52bc 3281 a03b
000003e0: 7faa 86bb f8e3 d23b 0b9c 653c c136 c43b
000003f0: 86b2 513c 513c 6f3c 6029 abbc 639d 133a

network_body._body_endoder.seq_layers.4.weight f4 [256, 256]
-0.05751491 0.04732917 -0.034847982 0.047456607 -0.06425822 0.082398325 -0.05816224 -0.00732611
0.027410688 -0.03138499 -0.13830823 0.03205949 0.074672505 0.0030916447 -0.014982674 -0.028383544
-0.100783154 -0.079669245 0.04664836 0.021379214 -0.041562267 -0.0114611145 -0.0037469885 -0.04958992
-0.029080886 0.051053572 -0.105296046 -0.07189046 0.0326747 0.016233744 0.08015174 0.036226984
-0.044602178 0.024140676 -0.0027867113 -0.00974533 0.027264781 -0.00065491203 -0.009822271 -0.07857318
0.09572261 0.041061703 -0.005549506 0.026175985 -0.08116212 0.015746739 0.068127155 -0.006074933
0.043385293 0.0383022 0.014899414 -0.04220765 -0.06367313 0.041446958 -0.031752378 0.06335248
-0.027803458 -0.07195233 -0.029225502 0.099551 -0.05246459 -0.030940408 0.02328461 -0.08240716
-0.023746774 -0.05664919 0.11510605 0.15734017 0.09063845 0.10470601 0.04088258 -0.01371376
0.022671971 0.061682682 0.107165255 -0.056221448 0.04768012 -0.1279245 -0.059304573 -0.0037008577
-0.041910283 -0.040488757 -0.0015255654 -0.0905734 -0.080188945 -0.11466774 0.032117657 -0.06296405
0.046722047 -0.107642375 0.08282822 -0.0028563074 -0.014764767 0.06974673 -0.022567589 -0.070205316
-0.049174305 0.049546096 -0.069051184 0.023653306 -0.010316095 0.15480012 -0.01935093 0.049575597
0.007291972 -0.14663227 -0.104357354 -0.060621705 0.003552062 -0.039246753 0.15455976 0.045750175
0.0156241385 -0.047205824 0.013987908 -0.05982655 0.07096239 0.08348127 0.08291659 -0.010298245
-0.09111001 -0.088485256 -0.041000254 -0.07504715 0.07976763 -0.09362342 0.1571312 0.043706812
0.061327655 0.13544555 0.032151505 -0.055988334 0.052336175 0.0048462553 0.07536994 0.051982563
-0.08310252 -0.07086868 -0.089815855 0.032615136 -0.0792522 -0.062457368 0.0311298 -0.09072711
0.027392933 -0.035206825 -0.070834786 0.10453569 0.047309875 -0.12897764 -0.10232004 -0.042758476
0.039209027 0.016564475 -0.034511685 0.012829384 -0.017066928 0.049795475 0.034139972 0.020241117
-0.040558495 0.012356955 0.12624991 -0.03445271 -0.11837104 -0.044216555 0.03474449 0.06991876
-0.00025686744 0.054149758 0.017685197 0.023920638 -0.030311707 2.9673614e-05 0.041906096 -0.028829461
-0.02229681 0.0341971 -0.0040439772 -0.04723247 -0.07384254 0.035483114 0.07622176 0.014190345
-0.024197135 0.0037738131 0.052896474 0.030086985 -0.05298103 0.060446125 -0.0076123606 0.07133773
0.033515718 0.120471336 0.013295494 0.030358687 0.1633762 -0.0012720322 -0.048232336 0.005322922
0.060763422 -0.049647905 0.03769546 -0.017683364 -0.02885543 0.01054614 0.13186464 0.06424355
0.07450825 0.007316553 0.05726844 -0.07565734 0.020400314 0.038337793 -0.03966561 0.008491975
0.08368061 -0.04557341 -0.060613718 0.07123958 0.017445207 -0.071539514 0.10579975 -0.0011427493
-0.028004011 0.01890961 0.048986305 0.052764136 -0.037238907 0.062176272 0.11154479 0.00068062614
-0.037986714 0.11988339 0.009381028 0.012696666 -0.01372684 -0.020053072 -0.03802126 0.0040404936
0.02799048 0.055791706 0.065755546 -0.10630845 0.020817507 -0.10248009 -0.12068901 0.11003324
0.081368424 -0.027761968 -0.005834874 -0.078402214 0.023111036 0.058115344 -0.069014855 0.041234247
00000000: c194 6bbd 3bdc 413d c2bc 0ebd dc61 423d
00000010: d099 83bd 74c0 a83d 873b 6ebd dd0f f0bb
00000020: 618c e03c 8c8d 00bd aca0 0dbe d050 033d
00000030: e6ed 983d 319d 4a3b e479 75bc 9b84 e8bc
00000040: 6667 cebd a129 a3bd 5a12 3f3d 7623 af3c
00000050: 323d 2abd 66c7 3bbc 0990 75bb cd1e 4bbd
00000060: 0a3b eebc 8d1d 513d 74a5 d7bd 4e3b 93bd
00000070: e8d5 053d a1fc 843c 9826 a43d bf62 143d
00000080: c6b0 36bd abc2 c53c 42a1 36bb e0aa 1fbc
00000090: 645a df3c 67ae 2bba 97ed 20bc faea a0bd
000000a0: 370a c43d 5130 283d a1d8 b5bb 056f d63c
000000b0: 5338 a6bd 4eff 803c 4086 8b3d 3b10 c7bb
000000c0: c7b4 313d c5e2 1c3d ac1c 743c eee1 2cbd
000000d0: 0f67 82bd 49c4 293d c80e 02bd f2be 813d
000000e0: 14c4 e3bc be5b 93bd 526a efbc 65e1 cb3d
000000f0: 1ce5 56bd bd76 fdbc 5ebf be3c 16c5 a8bd
00000100: 9888 c2bc fb08 68bd b9bc eb3d c81d 213e
00000110: a7a0 b93d 1b70 d63d 7e74 273d aeaf 60bc
00000120: 92ba b93c fba6 7c3d 7579 db3d 7648 66bd
00000130: 3b4c 433d a4fe 02be 5ae9 72bd 178a 72bb
00000140: 1eaa 2bbd 8ad7 25bd 7bf5 c7ba 8c7e b9bd
00000150: 1a3a a4bd ecd6 eabd ce8d 033d 4cf3 80bd
00000160: 9e5f 3f3d 9b73 dcbd d8a1 a93d e330 3bbb
00000170: ece7 71bc 60d7 8e3d aadf b8bc cec7 8fbd
00000180: ff6a 49bd d9f0 4a3d b56a 8dbd 94c4 c13c
00000190: d704 29bc ec83 1e3e d785 9ebc c80f 4b3d
000001a0: 7ff1 ee3b c526 16be 4fb9 d5bd 774e 78bd
000001b0: b6c9 683b 34c1 20bd ea44 1e3e 8964 3b3d
000001c0: 63fc 7f3c e55a 41bd 8a2d 653c af0c 75bd
000001d0: bb54 913d 3af8 aa3d 2cd0 a93d f8b9 28bc
000001e0: e397 babd c237 b5bd e2ef 27bd 52b2 99bd
000001f0: 365d a33d a3bd bfbd 00e7 203e ea05 333d
00000200: b532 7b3d 3db2 0a3e 4cb1 033d 0654 65bd
00000210: 755e 563d 56cd 9e3b 8e5b 9a3d abeb 543d
00000220: a731 aabd 9923 91bd 60f1 b7bd 7397 053d
00000230: fa4e a2bd 4cd3 7fbd ec03 ff3c 23cf b9bd
00000240: 2567 e03c 0835 10bd d411 91bd cf16 d63d
00000250: 00c8 413d b712 04be 2b8d d1bd 8323 2fbd
00000260: a599 203d 39b2 873c 205c 0dbd 5632 523c
00000270: f1cf 8bbc 57f6 4b3d 5bd6 0b3d b3d0 a53c
00000280: aa20 26bd d374 4a3c a847 013e 491e 0dbd
00000290: 846c f2bd 6b1c 35bd 3d50 0e3d 9131 8f3d
000002a0: 2aac 86b9 23cc 5d3d 8ce0 903c 37f5 c33c
000002b0: 4250 f8bc 9aeb f837 baa5 2b3d c32b ecbc
000002c0: cda7 b6bc 4212 0c3d 5783 84bb d676 41bd
000002d0: c23a 97bd be56 113d 271a 9c3d 9f7e 683c
000002e0: 1239 c6bc 1452 773b f9a9 583d fb78 f63c
000002f0: a302 59bd 5b96 773d 1c71 f9bb 8419 923d
00000300: c747 093d adb9 f63d 58d5 593c c8b2 f83c
00000310: 174c 273e 51ba a6ba 458f 45bd e86b ae3b
00000320: 11e3 783d 9a5b 4bbd 8e66 1a3d b4dc 90bc
00000330: 3962 ecbc b8c9 2c3c 8607 073e 1f92 833d
00000340: c897 983d b2bf ef3b 5092 6a3d 3cf2 9abd
00000350: 8f1e a73c 1708 1d3d 6878 22bd ed21 0b3c
00000360: bd60 ab3d 2fab 3abd 1746 78bd 0fe6 913d
00000370: 40e9 8e3c 4f83 92bd 8aad d83d 4ec8 95ba
00000380: ab68 e5bc 54e8 9a3c dda5 483d 351f 583d
00000390: d387 18bd 8cac 7e3d 9871 e43d 0c6c 323a
000003a0: f597 1bbd 6c85 f53d e2b2 193c ad05 503c
000003b0: 8ae6 60bc 5746 a4bc 2ebc 1bbd 1e66 843b
000003c0: 4b4c e53c d885 643d d8aa 863d 3fb8 d9bd
000003d0: 7a89 aa3c 15e1 d1bd cd2b f7bd 1b59 e13d
000003e0: 7da4 a63d 116d e3bc 7932 bfbb 5791 a0bd
000003f0: 5b53 bd3c 5b0a 6e3d a957 8dbd 3ee5 283d
