Cursed Tennis/Assets/Tennis/results/TennisPro5/Tennis/Tennis-31796.onnx (onnx, 886342 bytes, 13 tensors)

60 f4 [84]
00000000: 5fc3 1341 a34c 0f40 20a9 0b40 3278 3840
00000010: 6d70 8b40 44f2 bb40 b041 a641 134f c13f
00000020: 8c2c 2d41 6d70 8b40 6d0c a03e 5fc3 1341
00000030: a34c 0f40 6d70 8b40 ea46 063e 3039 f83d
00000040: 6d0c a03e 7bed aa3e 44f2 bb40 b041 a641
00000050: 79ce b03f 689c 0e41 78c1 0b40 607b 1340
00000060: d421 4640 2f9b 8940 837a c740 22c0 a741
00000070: c291 ce3f 8c0f 3141 2f9b 8940 9085 923e
00000080: 689c 0e41 78c1 0b40 2f9b 8940 fac7 043e
00000090: 5a95 f63d 9085 923e 0f04 9c3e 837a c740
000000a0: 22c0 a741 f122 bf3f a4be 0741 e5cf 0440
000000b0: 101c 1b40 fa71 4c40 0c09 8740 5648 d340
000000c0: 7686 a941 e3f5 dc3f d815 3541 0c09 8740
000000d0: a1ca 793e a4be 0741 e5cf 0440 0c09 8740
000000e0: c60a 013e 6f45 f03d a1ca 793e 456f 843e
000000f0: 5648 d340 7686 a941 3952 ce3f de59 fd40
00000100: e83f f23f 36f4 2240 d227 5340 2393 8340
00000110: 8b49 df40 47a5 ab41 94c6 ec3f df1e 3941
00000120: 2393 8340 954e 303e de59 fd40 e83f f23f
00000130: 2393 8340 6fef f63d 89a3 e53d 954e 303e
00000140: 403c 393e 8b49 df40 47a5 ab41 8bbd dd3f
9.235198 2.2390525 2.1821976 2.8823361 4.357474 5.8733234 20.782074 1.5102257
10.823376 4.357474 0.3125948 9.235198 2.2390525 4.357474 0.13112989 0.12120283
0.3125948 0.33384308 5.8733234 20.782074 1.381301 8.913185 2.1836834 2.3044052
3.0958147 4.3001933 6.233705 20.968815 1.6138232 11.066296 4.3001933 0.28617525
8.913185 2.1836834 4.3001933 0.1296691 0.12040205 0.28617525 0.30471846 6.233705
20.968815 1.4932538 8.484043 2.0751889 2.4235878 3.1944566 4.2198544 6.60258
21.190655 1.7262539 11.317833 4.2198544 0.24393703 8.484043 2.0751889 4.2198544
0.12601766 0.117319934 0.24393703 0.25866142 6.60258 21.190655 1.6118842 7.91722
1.8925753 2.5461555 3.2993054 4.111711 6.9777274 21.455702 1.8498101 11.570037
4.111711 0.17217477 7.91722 1.8925753 4.111711 0.12057387 0.112128325 0.17217477
0.1808939 6.9777274 21.455702 1.7323469

action_model._continuous_distribution.log_sigma f4 [1, 6]
00000000: a977 903b abec d5bb bb50 373b ad9d 4fbb
00000010: 6fc6 32ba c016 78bb
0.004408796 -0.006528457 0.0027971703 -0.0031679675 -0.000681973 -0.0037855357

action_model._continuous_distribution.mu.bias f4 [6]
00000000: f649 55bb 1e69 893b d4c3 d0b7 6f9b 833b
00000010: 9342 a73b f6e1 733b
-0.0032545305 0.004193439 -2.4886722e-05 0.004016332 0.005104372 0.003721354

action_model._continuous_distribution.mu.weight f4 [6, 256]
00000000: d73a 71bc ba02 f73b b2fb a6ba 49d6 5a3c
00000010: f440 c03c 3cc3 32bc 3ef9 353c 8b1f abbc
00000020: 33df 5bbb e30f d33a 8eba 19bc c8ac 0c3b
00000030: 3e0f 2bbc 16e6 5539 adbf b73b 8c15 7fbc
00000040: b4de 9a3c 732f f83b 1b4f dfbb 4ff3 b33c
00000050: 7892 9c3b 0ce5 e0bc 9a2e 9c3a cc91 ad3c
00000060: 99e6 0cbb d571 b6bc fe2b 59bc 324e 793b
00000070: 0eee 3e3c fc81 3e39 0f4b 14bc 24eb 2abb
00000080: 1774 f438 2d1a 26bc 0454 33bb 15e9 2dbc
00000090: 3ee5 88bb f9af bd39 6f7a 86bb 14c1 1e3c
000000a0: 0d05 25bc 974f 17bc ec01 553b e2e2 3fbb
000000b0: b497 5e3a 23f3 e23b 3930 35bc 81b9 04bc
000000c0: 229c aebc beaa 0b3b 8e05 6f3c 7d64 fcba
000000d0: 7878 9e3c 0b19 123a f165 523c ed8d cdbc
000000e0: ae91 543b 882e b9bb 8cf9 4f3c 9b2f e5ba
000000f0: 79a1 63bb 1303 7b3c aba1 13bc c081 da3b
00000100: 7f2b 4fbc 49cd b639 e280 02bc 947d f5bc
00000110: 5e07 99bc 2f13 583c 8a1b 853c 9651 0f3c
00000120: b7ab 51bc decb 133c 3ca1 bfbc adc1 80bc
00000130: 5f87 aaba 8a2e 5a3c 3581 9bbc ca25 153c
00000140: 4628 34bc d074 91bc f014 05bb 936d a3bc
00000150: ce00 c5bc 3342 24bc 00ee 523c 3793 1ebc
00000160: 63dc 0339 41c0 30ba cc79 88bc 1fb0 8abc
00000170: 60ea b6bc fc1e b43c 0409 143c ca53 77bc
00000180: a98c 263c 08ae 153b c460 443b 5854 65bc
00000190: 3b55 573c aa40 09bb 69fd 853c 379c a73c
000001a0: b455 30bc ae67 0c3c 4745 81bc 938c cb3b
000001b0: 5cd1 06bd 0105 15bc 7163 93bb 91db 8dbc
000001c0: 9fa6 8fba e293 5b3c 283c 86bc a032 80bc
000001d0: fbfd 9cbc 2a28 1abb db53 c8bb d910 54bc
000001e0: df41 6dbc 1003 24bc 6a7c 843c 32c1 efbb
000001f0: 3937 4ab9 f9b0 c73c 92c5 62bb 13d6 30bc
00000200: 8534 ebbc 6f5a 853b f732 34bc 3076 91bc
00000210: 3bdf bcbc c453 893c ecf3 9dbb 9c43 e4ba
00000220: 8cb3 9c3a 0c53 2ebc d175 babb 2740 9dbb
00000230: af6d a53a b88b f2ba a09f 8dbb b6b5 14b9
00000240: feaa 0f3b 0866 3b3b 3094 ff3a 3bad c43b
00000250: 2a86 f838 ab08 893a 962e 03bc a2d9 92bc
00000260: f783 88ba 740e 8dba 5fd9 acbb 3f61 093c
00000270: 80d5 a83b c688 f1b9 8ca6 97bc edc2 00bc
00000280: f5e2 9abc 7fd9 30bb e3ed 773b 2b48 a4bb
00000290: c1c5 32bb e991 223b 6439 43ba a230 fdbb
000002a0: 0d08 25bd f82d c9ba ad64 083b 7284 343c
000002b0: 3ce6 7fb8 8c8d 033c 9de3 29bc 50ee b23c
000002c0: 4339 0fbc 73ca 2e3c a333 b9bb e4dd 763c
000002d0: d0b0 b03c 3af7 eebc fa15 8f3b 7766 2d3b
000002e0: 08ce ab3a 267f 893b 5d4f 233b e5ca 7a3c
000002f0: 336b 2f3b 9596 96b7 d8b5 9bbc 4b85 3ebc
00000300: 6081 8fbb 010f a03b 10a2 3ebb c533 603c
00000310: a5f5 a6bc 7722 38bc b20e 85bc 2fd7 753c
00000320: 65a9 dbbc 22dd a3b8 fb21 b7bc e7cc 4abb
00000330: d0e9 5ebc 5830 9c3c 7b93 e0bc 2d49 acbc
00000340: 509e ea3b 40bf 0dbb ee2f 673b d4a0 783b
00000350: dc9d 4dbb afe7 c5bc ba68 8bba 5b2d 62bb
00000360: bd52 a2bb be89 1f3c f6e2 82bc 6060 983c
00000370: d000 703b 20b1 ed3b 0c1e d93b 7283 203c
00000380: fd04 32bc 1946 2dbc 5017 feba bf6e 8fbb
00000390: 8f69 b13c 535c fe3b 1115 863b f0ca 3c3c
000003a0: 15ad 36bb 3546 14bc 7553 c3bc 63e4 203a
000003b0: e0ff c93c e05c 8abc 78c2 b83c b55b f83b
000003c0: 6436 903b 4077 1abc 40cf c13b 0442 0f3b
000003d0: 0ac6 51bb 0e79 ac3c b730 89bc a03f d43c
000003e0: e44f f4bb 240f e8bb 8a1c 52bc 48b6 9d3b
000003f0: 76b2 2bbc 9a59 20bb 4b38 5b3c aa1f b8bc
-0.014723501 0.007538167 -0.0012739806 0.013356754 0.023468472 -0.010910805 0.011106787 -0.020889064
-0.0033549785 0.0016102757 -0.009382857 0.002146529 -0.010440646 0.00020398977 0.0056075663 -0.015569102
0.018905021 0.0075740158 -0.00681485 0.021966605 0.0047782026 -0.027452968 0.0011915744 0.021187685
-0.0021499752 -0.022271076 -0.013255117 0.0038040993 0.011653436 0.00018168235 -0.0090510985 -0.0026080096
0.0001165645 -0.010138077 -0.002736331 -0.010614653 -0.0041777184 0.0003618 -0.0041039507 0.009689588
-0.010072005 -0.009235284 0.0032502366 -0.002927952 0.00084912335 0.006925957 -0.01105886 -0.008100868
-0.021314684 0.0021311487 0.014588727 -0.0019256022 0.019344553 0.00055731897 0.012841688 -0.02509209
0.0032435465 -0.005651299 0.012693774 -0.0017485501 -0.0034733696 0.015320557 -0.009010713 0.0066682994
-0.012644648 0.00034866694 -0.007965298 -0.029967107 -0.01868027 0.0131881675 0.016248483 0.008747479
-0.012797288 0.009020774 -0.023392312 -0.015717352 -0.0013010314 0.01331676 -0.01898251 0.009103248
-0.01099593 -0.017755896 -0.002030667 -0.01994971 -0.024048235 -0.010025549 0.012874126 -0.009678653
0.00012575234 -0.0006742515 -0.01665964 -0.016929684 -0.022328556 0.02198743 0.009035353 -0.01509566
0.010165372 0.0022839326 0.0029964903 -0.01399716 0.013142879 -0.0020943084 0.016356187 0.020460231
-0.010762621 0.008569641 -0.015780104 0.006211826 -0.032914504 -0.009095431 -0.0044979383 -0.017316611
-0.0010959691 0.013401957 -0.016386107 -0.01564914 -0.019164076 -0.0023522475 -0.006113512 -0.01294347
-0.014481037 -0.010010496 0.016172606 -0.007316732 -0.00019284793 0.02437638 -0.0034602624 -0.010793227
-0.028711567 0.0040696184 -0.010998479 -0.017756552 -0.023055663 0.016763575 -0.0048203375 -0.0017415169
0.0011955365 -0.010639917 -0.0056903143 -0.0047989073 0.0012621189 -0.0018504774 -0.0043220073 -0.00014182072
0.0021921988 0.002859475 0.0019499119 0.006002096 0.000118505515 0.0010454854 -0.008006712 -0.017926041
-0.0010415305 -0.0010761754 -0.005274936 0.008385002 0.0051524043 -0.00046069006 -0.018512033 -0.007858974
-0.01890705 -0.0026985107 0.0037831 -0.005013486 -0.0027278515 0.0024806208 -0.00074472115 -0.0077267447
-0.04029088 -0.0015348783 0.002081196 0.011017906 -6.101116e-05 0.008029353 -0.010369209 0.021842152
-0.00874168 0.010668385 -0.0056519075 0.015067551 0.021568686 -0.029170621 0.0043666335 0.002645878
0.0013107667 0.0041960655 0.002491913 0.015307163 0.0026766777 -1.7951514e-05 -0.019007608 -0.011628459
-0.0043794364 0.004884601 -0.0029088296 0.013684218 -0.020380804 -0.011238686 -0.016242359 0.015004917
-0.026814172 -7.813635e-05 -0.02235507 -0.0030944885 -0.01360555 0.01906602 -0.027414074 -0.021030987
0.0071599856 -0.0021628886 0.003527637 0.0037937658 -0.003137461 -0.024158327 -0.0010636069 -0.0034511897
-0.004953711 0.00973743 -0.015977364 0.018600643 0.0036621578 0.007253781 0.0066258963 0.009796964
-0.010865447 -0.010575795 -0.001938561 -0.0043772156 0.02165678 0.0077624707 0.004091867 0.011522993
-0.002787416 -0.009049942 -0.023843506 0.0006137548 0.024658144 -0.01688999 0.022553667 0.0075792917
0.004401015 -0.0094278455 0.0059145987 0.0021859417 -0.003200891 0.021053817 -0.016746862 0.025909245
-0.0074558128 -0.007081883 -0.012824187 0.0048129894 -0.01047956 -0.002446747 0.0133801205 -0.022476036

network_body._body_endoder.seq_layers.0.bias f4 [256]
00000000: ed1c 973b 05ea db3a e69e a43b 1a41 ba3a
00000010: 85a8 923b e51e 3e3a 6a70 483b 67a7 6e3b
00000020: ae64 93b9 d47a 2cbb 8d30 18bb 23f9 9538
00000030: ecea 8c3b e26c 5d3b e913 8d3a f74e ad3b
00000040: 0c65 b6ba 7f64 073b 7afe 2c3b baba c63b
00000050: 8e51 a43b 778a 9c3b d24a 09bb 0393 eaba
00000060: c62b eaba 623b 8b3b 97f5 05ba 1f5d 32bb
00000070: f432 9bbb 0ab9 d339 8fe7 59bb b195 963b
00000080: 241a 06ba fbbd 0d3b ea8c 743b 213f b53b
00000090: fb31 ad3b c0b1 18bb 2fcc 3ebb ad77 8a3b
000000a0: 2769 a7bb 0837 a5bb 3e30 3cbb 3419 95bb
000000b0: 28c2 033b c691 853b f772 4cbb 6ef2 423b
000000c0: d44d 813b 99e1 f83a 618e 633a f526 803b
000000d0: 6820 513b aaac 813b 343b d6ba 1808 2ebb
000000e0: c89e b8ba a800 8f3b 6cdb 953b 52fc 873b
000000f0: b639 973b 97c1 acb9 2815 c73b 35c3 113b
00000100: 853c 8d3b 71f2 aa3b b573 913a 3e9c a13b
00000110: c0e3 bb3a 90c0 b5bb 87d9 963b c290 cd3b
00000120: ee43 63bb 79ac 803b 47cb a53b fc25 4f3b
00000130: 2aa9 683b 8b3d 6ebb 678f 3338 e45b e43a
00000140: ea6a 6d3b 8b15 89bb 332f 79bb 38b6 22bb
00000150: 6210 253b 1c61 43bb 66e3 ac3b a6e1 87bb
00000160: 2624 273a 7a57 783b 229e 353b be78 933b
00000170: 2790 0dba dd93 bd3b c453 253b cdd8 5d3a
00000180: fdc9 c23b c89f 923b a4fa 833b eb2e 953b
00000190: 45d1 d33a 267d a93b 2ec2 583b c65a 78bb
000001a0: b820 ad3b dc83 d93a 7883 bab9 6866 99ba
000001b0: 4b1f 163b b72a 793b 0598 a2bb 5c2e a43b
000001c0: 716f 893b 40a4 27bb 24e1 c43b f244 4e3b
000001d0: 8339 aa3b a846 323b c296 b9b9 6398 cd3b
000001e0: a3cd 8d3b eed7 edba 3c57 85ba 5aa9 b63b
000001f0: 68b1 6a3a c6ba 133b d36b ce3a aa8d 9a3b
00000200: 12be 693a 9582 4e3b 8456 b33a 835e 943b
00000210: 81ec 913b 4ad6 283b 85da 2ebb 641e 223b
00000220: a466 473a 045d 503b f2c3 7a3b 7190 613b
00000230: e5f3 3c39 7c50 3cba 8d73 25bb db08 8a3b
00000240: 48cf 6f3b eabb 7a3b 4d43 c1ba 0e6a ca3b
00000250: a2f5 ebb8 a968 a5bb 3245 e93a 0f73 61bb
00000260: b788 b03b 0f05 aa3b 204a db3a d5e7 a23b
00000270: 17aa c43b f3da 9cbb 60c1 5bbb 799c 9e3b
00000280: e1a2 243b 76a0 8c3b b4df 3d3a fd4f 963b
00000290: 07f2 9c3b ee96 b439 ee75 993b 97f7 493b
000002a0: 25b1 79bb 4509 6f3b 15ef 3a3a 0b87 1e3b
000002b0: a1ff 673b 3d8c 69bb f1ef b23a 4310 ddba
000002c0: 7bfa 363b fbac 9d3b 875d dd3b 7c08 f4ba
000002d0: 664f 983b 7617 2ab9 f907 233b 134c aabb
000002e0: 26cc 9fbb 7d5e 643b bc9d a43b 340d a23b
000002f0: 3f45 5d3b ef6b 993b b9df 193b fb08 69bb
00000300: a140 3fbb 014d 8cbb 17ed 973b 5837 773b
00000310: bede 9039 745c a539 5acb bd3b de91 013b
00000320: a2d1 fa39 8533 95bb 1425 953b 84cc 68bb
00000330: 0dcd a03b afd1 a93b 17e2 883b f4f5 2bbb
00000340: 69e3 833b a3f2 a83b 0e76 5f3b fbdb 2dbb
00000350: 563f d5bb 1f7e b23b b36b a8bb 89d4 603b
00000360: 9a82 57bb 98de 4dbb 7d96 9aba 1e6f e7ba
00000370: 1523 15bb 8703 9ebb 4955 9238 f68e 19bb
00000380: 0f37 9e3b be78 a73b 9d78 4ebb 8eff cb3a
00000390: 3048 553b 808b 13bb 7dd6 c83b eb97 0dbb
000003a0: 4cd8 183b ece1 a7ba 9a17 c9b8 9631 3139
000003b0: 0e3a b83a bcfa 90bb f367 a03b ec78 a23b
000003c0: 1e14 d8ba 4a2c c33b 096e 873b 9417 7c3b
000003d0: de01 763b ae8a a23b f59f b93a 7cf4 4a39
000003e0: e3dc a3bb ae0f b6ba 4276 873b d9c8 0bbb
000003f0: ffa5 673b 3e19 70bb f5af b3ba 7edc fdba
0.0046116025 0.0016778117 0.005023825 0.0014210076 0.0044756555 0.00072525284 0.0030584582 0.0036415698
-0.00028113037 -0.0026318328 -0.0023222298 7.151279e-05 0.004300466 0.0033786823 0.001076338 0.0052889544
-0.0013915612 0.0020659266 0.0026396797 0.00606474 0.005014605 0.0047772485 -0.0020949137 -0.0017896596
-0.0017865829 0.0042490223 -0.0005110143 -0.002721615 -0.0047362987 0.0004038292 -0.0033249592 0.0045954813
-0.00051155896 0.002162813 0.0037315437 0.005531207 0.005285499 -0.0023299307 -0.0029113402 0.0042256922
-0.0051089707 -0.0050419606 -0.0028715278 -0.0045501236 0.002010474 0.0040762154 -0.0031196454 0.002974655
0.0039460454 0.0018988132 0.0008680579 0.003910894 0.0031910185 0.0039573507 -0.0016344548 -0.0026555117
-0.0014085406 0.004364092 0.0045732763 0.004149952 0.004615034 -0.00032950632 0.00607552 0.0022241597
0.004310193 0.0052168895 0.0011097105 0.0049319556 0.0014334843 -0.005546637 0.004603568 0.00627336
-0.003467794 0.0039268103 0.005059633 0.0031608334 0.003550122 -0.00363526 4.281048e-05 0.0017422405
0.0036227056 -0.0041834763 -0.0038022518 -0.002482785 0.0025186767 -0.002981252 0.0052761314 -0.0041467724
0.0006375931 0.0037893937 0.0027712663 0.0045004776 -0.00054002035 0.005785449 0.002522693 0.0008462787
0.005944489 0.004474614 0.0040276814 0.004552712 0.001616039 0.0051723896 0.0033074724 -0.0037895902
0.0052834414 0.0016595083 -0.00035574636 -0.0011703493 0.0022906836 0.0038019845 -0.00496197 0.0050104093
0.004194193 -0.0025580078 0.006008284 0.00314742 0.005194844 0.002720276 -0.00035398273 0.0062742694
0.0043274923 -0.0018146017 -0.0010173093 0.0055743875 0.0008952827 0.0022541746 0.0015748687 0.0047165947
0.00089165673 0.0031510938 0.00136824 0.0045278682 0.0044532423 0.0025762492 -0.002668054 0.0024737353
0.0007606542 0.0031793723 0.0038263765 0.003441837 0.00018019935 -0.0007183624 -0.0025245876 0.0042124814
0.0036592055 0.0038258978 -0.0014744789 0.0061771935 -0.00011251426 -0.005047877 0.0017797111 -0.0034400856
0.0053873914 0.0051885913 0.0016730465 0.004971484 0.0060017216 -0.004786843 -0.0033532009 0.0048404303
0.0025121497 0.0042915894 0.0007243112 0.004587172 0.004789594 0.00034444727 0.004683248 0.003081774
-0.003809997 0.003647403 0.0007130963 0.0024189379 0.003540017 -0.0035636567 0.001365183 -0.0016865808
0.0027920294 0.0048118806 0.006755534 -0.0018618251 0.004648137 -0.00016221203 0.0024876578 -0.005197057
-0.0048766313 0.0034846358 0.005023686 0.0049454216 0.0033763198 0.004682056 0.0023479296 -0.0035558331
-0.002918281 -0.0042816405 0.0046364176 0.0037722196 0.00027631776 0.00031540135 0.0057920637 0.0019770782
0.00047839904 -0.0045532607 0.004551539 -0.0035522291 0.0049072565 0.005182467 0.0041773426 -0.0026239129
0.004024912 0.0051558777 0.0034097466 -0.0026528824 -0.0065077944 0.0054471637 -0.005139792 0.0034306368
-0.003288424 -0.0031413194 -0.0011794117 -0.0017657017 -0.0022756506 -0.004822198 6.977708e-05 -0.0023431159
0.004828341 0.005110829 -0.0031504997 0.0015563832 0.0032544248 -0.0022513568 0.0061290846 -0.0021605443
0.0023322282 -0.0012808419 -9.588823e-05 0.00016898508 0.0014055388 -0.004424421 0.004895204 0.0049582627
-0.0016485488 0.0059562074 0.0041329903 0.0038466202 0.0037537734 0.0049603796 0.0014162051 0.00019355299
-0.005000697 -0.0013890171 0.0041339705 -0.0021329431 0.0035346744 -0.003663614 -0.0013709055 -0.001936808

network_body._body_endoder.seq_layers.0.weight f4 [256, 84]
00000000: 23b8 b33d 479c 26bd e87f cfbd 7923 2b3e
00000010: d8b3 883c 3dc6 0f3d 31e9 f8bc 9458 f23d
00000020: 3af9 9e3d 64e4 253d 9648 43be 214d 3c3d
00000030: bc58 38bd 8816 f1bd 66b1 bfbd 8bcf 553d
00000040: df06 103b a6bc 1b3d e59b 1cbd 60e0 053e
00000050: 28d3 9c3d 20a1 0dbb cc74 67bd 978a 203e
00000060: e22f 8fbc 6903 eb3d 9362 1c3d a174 6d3e
00000070: 2394 463d bee5 08be c715 a43c 9a24 093e
00000080: 6477 5c3e 8253 2abe eb99 94bd 77d4 343d
00000090: 23d2 a0be 5349 2bbc cd85 3b3d d52b 0e3c
000000a0: 492f f83c a076 98bd 7f36 9f3d 38a6 c2bd
000000b0: cec9 9dbd 2ef6 443d 10ab f13d af1b 913d
000000c0: bfd8 e0bd 46ff 183e 3d37 b6bd bacd ae3d
000000d0: 6e3c 22bd df6a d93b 7935 b93d 9fc3 343e
000000e0: 5647 febd 9264 f1bd 1c3b 23be 2c93 b5bd
000000f0: 4f62 ffbd 7234 b8bc d87d 96bc 7040 b63b
00000100: c488 abbc 3f5d bebd b011 f63b 9875 563e
00000110: a656 353e bb74 f33d 6b5f fb3c f23d 9bbc
00000120: 0348 bd3c 5851 45bd 128f bc3d bc1a 003e
00000130: 3d7e 3e3e 1c3a 3ebe 1af9 1ebe 7699 463d
00000140: 7278 87bc ac7f 7bbc 9d2c c43d 10e3 4d3e
00000150: e612 633e b82d 183e f485 82bc ad4a 013d
00000160: fa90 4ebe b490 22bd 38c4 193e 3df4 663d
00000170: bba3 2c3c 218b 523d f433 11bd 8e48 7a3d
00000180: b107 04bd 46a0 483e 87bb 233d 709e 45bd
00000190: e507 babd 52eb 023e 5330 13bd 06a8 e63d
000001a0: f556 24be bcb4 0dbe 1f03 9bbd c57b 8ebd
000001b0: 96cb eb3c 174b b8bc 4fa9 bbbc d502 6dbd
000001c0: 7f93 91bd f321 0e3e 2b29 2abe ed8f d13d
000001d0: af46 193d db82 5e3d b777 81bd 5835 143e
000001e0: 2847 e9bd a14a babd deff 633a 3afd 0bbd
000001f0: 8d86 b4bd 0286 15be f93d 09be 731a 10be
00000200: e694 5bbd 7482 3d3e 8230 0fbd 9a32 e4bd
00000210: ebc7 9e3d dc23 053e c4ab 1bbd 9c32 cabd
00000220: a1ac 8cbd 4006 f1bd a59a 1dbd 9db5 bf3b
00000230: d7d8 9a3c 38c0 083d 1c5d 92bc 99f4 6c3d
00000240: a2a7 c63d 002e 053e ca37 a43c 4c4b bbbd
00000250: d9e7 01be 3cc9 253e c1af 8bbd b4a7 48be
00000260: 6874 ff3d 8944 73be 2753 333e bbb0 9cbc
00000270: d601 4abd 8826 233e 175e 8abd e11a 6abc
00000280: d0e5 b0bd 14c2 65bd 03e3 fe3d 3dd2 f1bb
00000290: 3a97 7cbe 2943 123e d149 15be 7fdd 07bd
000002a0: 3ee6 15bd 62f8 62bc d8e2 01be df7e e5bd
000002b0: 5655 233e edad febd 8e0b 80bd e590 2ebd
000002c0: e7c7 15bd f2ec 963c caaf a63d 2e7a a8bd
000002d0: 7a22 e5bc 78d2 afbb b1b8 c0bc 24c3 9bbc
000002e0: b550 b5bd 8c4b 13bd 76fa afbd 5ec2 323e
000002f0: f2df 273e 4c75 983b 251c 0d3d 3e0c ca3d
00000300: 4ebc 25bb cf65 203d 9bfa 513d 5280 5f3c
00000310: 0102 7c3b 608c 49be c2c0 0dbc 2cc7 a0bd
00000320: 6f56 0d3e a76d 003d 1fa3 693d d8a8 8f3d
00000330: 7cd5 84bd 1908 bd3b 6f34 50bd 06bb 463e
00000340: 16da 3dbd 7271 a9bd 142c 8ebd 301c 2cbe
00000350: fa0e e03d 9f04 85be 35ec 503d 1d53 443d
00000360: 1131 5a3d 9963 75be c24f 0bbe 869b 473e
00000370: 49f9 3dbe 8db6 adbc c98f 3e3e 29df af3d
00000380: 5644 763e cb4a 6abe bd66 ba3c 2442 df3d
00000390: 4d11 f139 3d73 0a3e a016 32bd b87f 083d
000003a0: 0aba a13c 7987 113e 6404 c83c 7e2c 113d
000003b0: 57f7 adbd 7d22 00be 688c a5bb 8400 043d
000003c0: 1a77 f4bc c3aa f1bc cb27 393d bcdb 143e
000003d0: 0a8f 4a3e 77f7 f03d 4d71 993d c58e 5f3b
000003e0: 1ee8 343c d8d5 8dbc 4898 6e3e f4ac c8bc
000003f0: a8ae ee3c 446d 22be 0419 793c 1093 ec3c
0.08775356 -0.04067638 -0.10131818 0.1671275 0.016687319 0.035101164 -0.030384632 0.11833301
0.0776238 0.040501013 -0.19070658 0.045971993 -0.0450065 -0.117718756 -0.09360008 0.05219988
0.0021976752 0.038021706 -0.03823461 0.13073874 0.07657462 -0.002161093 -0.05650787 0.15677868
-0.017478887 0.1147526 0.038179945 0.23189022 0.048481118 -0.1336889 0.020029915 0.13392869
0.21529919 -0.16633418 -0.0725592 0.044147935 -0.31410322 -0.010454494 0.0457819 0.008677443
0.030295985 -0.07444501 0.07774066 -0.0950436 -0.07704507 0.048086338 0.11800206 0.07085358
-0.10978841 0.14941129 -0.088972546 0.08535333 -0.03960841 0.0066350545 0.09043402 0.17652749
-0.1241595 -0.117867604 -0.15940517 -0.088659614 -0.12469923 -0.022485945 -0.018370554 0.005561881
-0.020939238 -0.09295129 0.0075094327 0.20943296 0.17708835 0.11887499 0.030685147 -0.018950436
0.023105627 -0.04817328 0.09206976 0.12510198 0.18602844 -0.18576854 -0.15524712 0.048486196
-0.016536925 -0.015350264 0.09578822 0.20106149 0.22175178 0.1486119 -0.015933014 0.031565357
-0.20172492 -0.03968878 0.15016258 0.056385268 0.010537083 0.051402215 -0.035449937 0.06110435
-0.032233898 0.1959239 0.039973762 -0.0482468 -0.09083537 0.1278508 -0.035934757 0.11262517
-0.16048796 -0.13838476 -0.07568955 -0.06957201 0.0287836 -0.022496743 -0.022907881 -0.05786403
-0.07108211 0.13880138 -0.16617267 0.1023253 0.037420925 0.054324012 -0.06321662 0.14473474
-0.11390525 -0.090962656 0.000869749 -0.034177043 -0.08814726 -0.14601901 -0.13402547 -0.1407259
-0.053608797 0.18506795 -0.03495837 -0.11142464 0.07752975 0.1300196 -0.038005605 -0.09872934
-0.06868864 -0.1176877 -0.03847756 0.0058505074 0.018902225 0.03338644 -0.017866664 0.057850454
0.09699942 0.13005829 0.020046134 -0.09145221 -0.12686099 0.16190046 -0.06820632 -0.19595224
0.124733746 -0.23756613 0.17512189 -0.01912724 -0.049318157 0.15932667 -0.067562275 -0.014288635
-0.08637583 -0.05609329 0.12445643 -0.0073797987 -0.24667063 0.14283432 -0.1457894 -0.03317022
-0.03659653 -0.013853164 -0.1268419 -0.11205839 0.15950522 -0.124355175 -0.06252204 -0.04261865
-0.036567595 0.018423531 0.08138998 -0.08226429 -0.027970541 -0.005365666 -0.023525568 -0.019013949
-0.08853284 -0.03596072 -0.085926935 0.17456958 0.16394022 0.0046526548 0.03445067 0.09865616
-0.002528924 0.039159592 0.051264387 0.013641434 0.0038453343 -0.19682455 -0.008651914 -0.07850489
0.13802503 0.031354573 0.05704033 0.07014626 -0.064860314 0.0057687876 -0.050831255 0.19407281
-0.04635056 -0.08273591 -0.06942001 -0.16807628 0.109403566 -0.25980088 0.051006515 0.047930826
0.05326945 -0.23963775 -0.13604644 0.19492921 -0.18552126 -0.021205211 0.18609537 0.08587486
0.24049506 -0.22880094 0.022754068 0.10901287 0.00045979992 0.13520522 -0.043478608 0.033324927
0.01974203 0.14211835 0.024416156 0.03544282 -0.08494442 -0.12513156 -0.005052138 0.032227054
-0.029841948 -0.02950037 0.045203965 0.14536947 0.19781128 0.1176595 0.074923135 0.0034112197
0.011041669 -0.017313883 0.23300278 -0.024496533 0.029136017 -0.15861994 0.015203718 0.028878719

network_body._body_endoder.seq_layers.2.bias f4 [256]
00000000: 8eb4 583b 1161 de39 945b 0f3a d82a cbba
00000010: 0bd5 94bb c214 893a b73a 9f3b b38c 85bb
00000020: feee 9a3b 3476 80bb 9c0e 813b e040 4fb8
00000030: 0cc5 bf39 cf70 d2ba 7be3 e0ba 3795 a7bb
00000040: d663 9b3b cfff b53b 79a7 dab9 a4c0 623b
00000050: 8b78 8a3b 726a 7e3b 3d37 a0bb b937 a03a
00000060: 40b3 7f3b 3044 613b 724b 883b 27e4 063a
00000070: 990b 5e3b 1b42 90bb c277 14bb 9a55 d83a
00000080: e5a3 913b 5471 8c3b b25f b3bb d1d7 1bbb
00000090: 8618 8eba 46c0 abbb a25e 09bb b800 c0b7
000000a0: c1f4 923b 0b01 aaba d16d ad3b 2e01 523a
000000b0: 0960 edba 4e72 a0bb 87a0 333b ecf4 8b3b
000000c0: d098 67bb fea4 f33a ffae 553b 969f 65ba
000000d0: 3d74 e13a bf9b 9dbb 44ff ad3b 4a5e 89bb
000000e0: 14fd 78bb 7cfa 0fba 9e0f a3bb 6f74 08bb
000000f0: 671d 4fbb 4c08 1c3b 2697 93bb 8ce6 663b
00000100: 9c80 84bb 170d ba3b 0794 313b 042b 943b
00000110: a01d 60bb 1aa8 9dba 2e9c 573b 5e26 79bb
00000120: 7e5f b3bb 7aa5 a83b 3e98 923b a198 c33b
00000130: edc6 413a 79a8 afbb 35e7 7f3b a1da bbba
00000140: 4f70 d03a b784 66bb 6996 b8bb 5f5a ae3b
00000150: b68a 6bba 6ad6 bd3a 4851 b0bb a622 53bb
00000160: f9ee 27bb c106 2f3b 324a bd39 5985 953b
00000170: 790f aeba ad46 8c3b 69d6 18bb ea03 883b
00000180: 9bce 983b 66f0 0fbb fc39 e83a 4b3c bf3b
00000190: 55d5 f33a 33fa a3ba 2563 38bb 3cc5 a73b
000001a0: f595 993b a8dd a83b 830e 00bb ef6c 063b
000001b0: 3d8c d63a f935 06bb 3874 8abb ef46 4ebb
000001c0: fdbd a5bb 6495 28bb 4c5c 243b 0c03 bb3a
000001d0: 08b6 8d3b 4cde a43b f3a2 b63b 0f3c a73b
000001e0: e1fb 943b 59dc 9f3a fee1 63ba dac9 a13a
000001f0: b2ca 1abb d1f4 583b 1e2d 793b 9af5 9cbb
00000200: a8a4 e6ba 90ca a43b 8a49 953b bdd3 873b
00000210: b74e 58bb d581 3d3b b5b2 a53b ee19 9c3b
00000220: e28a 903b e7ff 263b 450f 7c3b 50bf 593b
00000230: e7e8 89bb cb3f 6d3b 6066 b93a 6d9b efba
00000240: 0c2f d23b 8075 9e3b 7081 943b 3db2 1c3b
00000250: e78f 573a e649 933b 24f6 a03b 06eb 893a
00000260: 8a5b 98ba a612 1d3b a5bc 263a 166e 2fbb
00000270: 8216 dc3a 0c0e e0ba ba29 813b 14ea 943b
00000280: 85a2 aabb ad21 793b afd2 89bb 60b5 8e3a
00000290: d968 5bbb e261 d7ba 8889 7ebb de14 aa3b
000002a0: 8903 b93a e391 9f3b 89a4 343b ddf2 7c3b
000002b0: cd94 8dbb a4c6 3a3b 9d3e e63a a8f5 a53b
000002c0: 8b36 94bb 1e6f 4139 fd58 7c3b 3a7e b93b
000002d0: 4574 b6bb d170 273b e496 783b 7095 0ebb
000002e0: 9a54 8fbb 7f36 20bb 3808 2fbb 5326 ee3a
000002f0: 9f3c 7fba 1afc b7bb 1a2a 39bb 9e52 923a
00000300: c8d2 01bb 6b43 fbba d80f 98bb ca93 943b
00000310: ed94 ac3b bd70 a63b c558 89bb eb7e 113b
00000320: f12a a43a b93e 883b c436 86bb 063c c53b
00000330: 20eb ac3b c8ee abbb b1fc 94ba 50a2 a43a
00000340: a9f7 a13b 5b33 44bb a92f a6bb af85 24bb
00000350: 243e 76bb 0e74 5c3b 0c53 813b 9fe9 4f3b
00000360: f10e 373b 7e4c 64bb e111 5a3b f14d 9fbb
00000370: ce5a a0bb a508 1339 1b1f 69bb f623 4cbb
00000380: eb4c fc3a 8b0b 35bb 5247 7b3b 64c3 98bb
00000390: fc4e 8d3b 08c2 903b 3e2e 5e3b b4ce 053b
000003a0: 5d58 a53b 72cf 933b 2f2b 003b d2a6 733b
000003b0: e0b1 9c3b 577f 93bb b0d8 9a3b 85ae 943b
000003c0: efc0 0cbb 5ebe ae3b 5170 153b 1eb7 563a
000003d0: ba60 3abb 12cd 8f3b 0346 87b9 950a a23b
000003e0: 795b 9eba 18a5 5e3b e3c4 8a3b 087e bd3b
000003f0: 0986 5bbb 2bbf 3b3b 2304 62bb 55d1 23bb
0.0033066603 0.0004241546 0.00054686633 -0.0015500439 -0.0045419983 0.0010458457 0.0048592943 -0.0040756105
0.004728197 -0.003920341 0.003938509 -4.9413065e-05 0.0003657717 -0.0016055348 -0.0017157638 -0.0051142233
0.004742126 0.0055541764 -0.00041704977 0.0034599686 0.0042257956 0.003882077 -0.0048893974 0.0012223638
0.0039016753 0.0034372918 0.0041593844 0.00051456917 0.0033881424 -0.0044024116 -0.002265439 0.0016505003
0.0044445866 0.0042859707 -0.0054740543 -0.002377976 -0.0010841049 -0.0052414266 -0.0020960947 -2.2888518e-05
0.0044847433 -0.0012970282 0.005292632 0.000801104 -0.0018110286 -0.0048964387 0.0027408914 0.0042711403
-0.0035338886 0.00185886 0.0032605527 -0.0008759437 0.0017200779 -0.004809826 0.005309971 -0.0041921483
-0.0037992643 -0.0005492342 -0.004976227 -0.0020821353 -0.0031603219 0.0023808656 -0.0045041023 0.0035232631
-0.0040436517 0.00567783 0.0027096288 0.0045217294 -0.0034197345 -0.0012028248 0.0032899487 -0.0038017253
-0.00547403 0.0051466795 0.004473715 0.0059691225 0.0007392008 -0.0053606597 0.0039047722 -0.0014332124
0.0015902611 -0.003517432 -0.0056331647 0.0053208317 -0.0008985208 0.0014483456 -0.005380783 -0.0032216697
-0.0025624617 0.0026706907 0.0003610417 0.0045630154 -0.0013279758 0.004280886 -0.0023321158 0.004150857
0.004663301 -0.0021963357 0.0017717476 0.005836045 0.0018603007 -0.0012510478 -0.0028135267 0.0051199477
0.0046870657 0.0051533766 -0.00195399 0.0020511707 0.0016368699 -0.0020478948 -0.00422528 -0.0031475385
-0.0050580488 -0.002572381 0.0025079427 0.0014267876 0.0043246783 0.0050313827 0.0055736243 0.005103595
0.004546628 0.0012196406 -0.0008693038 0.0012343482 -0.002361935 0.0033104906 0.0038021277 -0.00479002
-0.0017596679 0.00502903 0.0045558857 0.004145114 -0.0033005902 0.0028916497 0.005056704 0.0047638332
0.0044110874 0.002548212 0.003846125 0.0033225603 -0.0042086723 0.0036201354 0.001414489 -0.0018280573
0.0064143 0.0048357844 0.0045320317 0.002390995 0.0008223042 0.0044948934 0.0049121547 0.0010522313
-0.001162396 0.0023967414 0.00063605077 -0.0026768497 0.0016791376 -0.001709403 0.003941742 0.004544506
-0.005207362 0.0038014457 -0.0042060236 0.0010887794 -0.0033479242 -0.001643237 -0.00388393 0.005190476
0.0014115433 0.004869686 0.002756389 0.0038596906 -0.004320717 0.0028499747 0.0017566268 0.005064685
-0.0045231036 0.00018447309 0.003850519 0.0056607993 -0.0055680596 0.0025549422 0.0037931735 -0.0021756552
-0.004374099 -0.0024446545 -0.002670778 0.001816938 -0.0009736511 -0.0056147696 -0.0028253854 0.0011163538
-0.0019809473 -0.0019169872 -0.0046405606 0.0045342194 0.005266777 0.0050793574 -0.0041914904 0.0022200893
0.0012525005 0.0041578677 -0.004095884 0.0060191182 0.0052770525 -0.005246971 -0.0011366812 0.001256058
0.0049428535 -0.0029937837 -0.0050715995 -0.0025104096 -0.003757366 0.003363851 0.0039466675 0.0031724942
0.002793249 -0.0034835632 0.0033274817 -0.0048615863 -0.0048936373 0.00014022233 -0.0035571519 -0.0031149364
0.0019248998 -0.0027625288 0.003834207 -0.0046619643 0.004312394 0.0044176616 0.0033902074 0.0020417394
0.005045934 0.0045108134 0.001955699 0.003717829 0.0047819465 -0.004501264 0.004725538 0.004537406
-0.0021477302 0.005332752 0.0022802541 0.0008190739 -0.0028439001 0.00438846 -0.0002580137 0.004945109
-0.0012081704 0.0033972915 0.0042348965 0.0057828464 -0.003349664 0.002864788 -0.003448733 -0.0024996598

network_body._body_endoder.seq_layers.2.weight f4 [256, 256]
00000000: 6fa3 79bd 2c5f f63c 2ba8 e0bc 888f 833d
00000010: 42fa 26bd abe2 bbbb 4486 7b3b fde8 57bd
00000020: c784 083d 87de 123c 4654 b03d 4767 a8bd
00000030: b67c a63b 22c5 f33c 7e5b ab3d c373 783d
00000040: 5613 343d 6015 24bd 9e33 033c fbf4 7a3d
00000050: 5488 eebd 1544 3ebd dd02 cbbb 06bf 11bb
00000060: fefc 69bd 3a81 1abd aaa2 783d c8db 9bbd
00000070: 66e1 cebd dcdc ea3c 77ad c93c e2f2 463d
00000080: aa52 a7bc f087 19bc 3116 f93a 457e bcbc
00000090: 2795 2cbd a7eb d0bd 0f3d 273d a48f a73c
000000a0: de44 f4bb 0176 d1bd fc05 da3c d62a 233c
000000b0: a4a0 883b 4550 11bd e3c7 243d 3ae6 073e
000000c0: f467 e6bc e948 84bd a6ea 8ebc 313d db3b
000000d0: 007e 61bd 5199 c63c e4c3 103d f296 f1bc
000000e0: 5020 bbbd 076b ff3c 794a 38bd 8718 96bc
000000f0: 3bc4 613a 2df0 e2bc 3a2f 48bc cf5b 803d
00000100: 27ca 47bd 8e7f 9c3d f10c 9abd 6920 dd3d
00000110: ccaa 583e 66f8 40bd 0c46 cabb d0c7 593b
00000120: 99ed 91bd fd0d 48bc e1a2 7a3d 8e67 833d
00000130: bcc5 3fbc db4a 683d 1f12 c1bd a91d a5bd
00000140: d296 92bd ed4f f6bd ad30 9f3d 7362 073d
00000150: 6e18 10bd 752f d2bd 0281 a13d dd2b 3d3d
00000160: 8967 be3c e0b3 143e 9d86 583b df01 8dbc
00000170: 6d79 b0bc 4cd0 74bd c7e4 873d f279 b43d
00000180: 6a3e 053d 4dba 2fbb 6c6c 833d 17c3 7ebc
00000190: b344 9bbd 054a 89bc 3b3c 5dbd e36c 7abc
000001a0: e0e1 d63c 457b 5e3b 341f 0c3d 0b54 17bd
000001b0: ff43 10bd be2b 183e 83a6 75bd 1812 d0bd
000001c0: 9478 dd3c abc9 89bd dc3b babd b7e8 89bd
000001d0: 8c69 a1bc 7d59 80bd 2616 a93d 0939 46bd
000001e0: 4433 5bbd 8458 df3c 9549 bc3c 7a58 37bd
000001f0: 9c5c 683d 2b1e f6bc 60df fdbc 3414 b3bc
00000200: c83a 7fbd 7974 a43d ade7 a13d 4fcf 0abd
00000210: f9f0 6f3b e6f0 a03d d10a f9bd 585c 15bd
00000220: 1160 a9bb d36a ef3c 5be4 b0bc eaa7 aebd
00000230: 7275 043d 86dd 313d 4cb1 9cbd 8434 003c
00000240: b4f3 74bc 50fd 1039 0965 673d 1ac0 23bd
00000250: 28ee d4bc 9930 c3bd a901 dabd 6651 2abb
00000260: 7884 f83a 3c31 9cbd c7e4 4fbd 785e a5bc
00000270: d4bc b1bc e87f 42bd 6b65 e3b9 b164 363d
00000280: 5812 64bc 04e4 59bd e928 523d babb f63c
00000290: b884 c33d 82d4 26be 1617 953d aeeb 6abc
000002a0: 7cf7 473d 1295 323d fff3 a33d d5d6 b5bc
000002b0: ca80 663d 5c43 883d 3900 833d 3d30 913d
000002c0: e483 55bd dab8 f3bc eed5 8abc 14da 74bb
000002d0: 0121 b8bc 9b4c e8bc 105a ef3c 449b fb3b
000002e0: e4ae 70bd 1fb5 bb3b 7f4e 2fbd 1da8 4f3d
000002f0: f117 5e3d 3dd8 3abd 8de9 463d 0280 ac3d
00000300: 9298 16bd 9883 eb3d 4e64 863d 8e97 093e
00000310: ed75 1a3d 7490 84bc 88a5 1dbd 70fd b5bd
00000320: 9165 333e 4e97 be3c 6583 c83d 566f bbbc
00000330: 1061 323c 12e4 3bbd 0396 23bd b937 bebc
00000340: b124 1e3c 30a3 df3d 90b3 c4bc 1c35 02bd
00000350: f819 8e3c 66ed fa3d d6a3 903c e0e2 5cbd
00000360: 1329 b2bc d382 a1bd 28af 91bd ac9b 913d
00000370: 1b19 fa3b 5dee f13c 1124 8c3c 5264 92bd
00000380: a31c 7a3d 0934 ebbc 4a15 93bd 2b74 13bd
00000390: 4a04 963c 39cd 8c3c 586e 46bc d953 f8bc
000003a0: 9efe a9bd a98c 04bd ee10 083d 4d68 853d
000003b0: fac9 c53d 866a 9bbc a3a8 d0bc a424 aebd
000003c0: 4a1f 2a3d 5cb0 39b9 d5e2 5abc a31b 8a3d
000003d0: f2fe a1ba 7d09 3cbc 3443 9d3b ea39 773d
000003e0: dcf0 a7ba f38c dabb 78c4 8ebc 4e23 273d
000003f0: 5841 173d e476 45be 81aa 1bbd 3487 d03d
-0.060946878 0.030074678 -0.027423939 0.06423861 -0.04076601 -0.005733808 0.003837959 -0.05271243
0.03332975 0.008964187 0.08609824 -0.082228236 0.0050807847 0.029757086 0.0836706 0.060657274
0.043963753 -0.040059447 0.008007912 0.061268788 -0.11647096 -0.046451647 -0.0061954097 -0.0022239103
-0.057126038 -0.037720896 0.060702004 -0.07610279 -0.10101585 0.028669767 0.024618847 0.048571475
-0.02042516 -0.009370789 0.0019003806 -0.023009429 -0.04213443 -0.10201197 0.040829714 0.020454235
-0.0074544987 -0.102275856 0.026614182 0.009958943 0.0041695405 -0.03547694 0.04022969 0.13271418
-0.02812574 -0.06459219 -0.017445873 0.006690644 -0.055051804 0.024243029 0.035343066 -0.029490922
-0.091370225 0.031178964 -0.044992898 -0.018322242 0.00086123095 -0.027702415 -0.012218291 0.06267511
-0.048776772 0.076415166 -0.075219996 0.10797197 0.21158904 -0.04711189 -0.006172901 0.003323067
-0.07125396 -0.012210366 0.06119049 0.06416236 -0.011704858 0.056712013 -0.094272844 -0.08062298
-0.07157673 -0.120269634 0.07772956 0.033052873 -0.035179548 -0.10262958 0.078859344 0.04618441
0.023242729 0.14521742 0.003303922 -0.017212806 -0.021542275 -0.05976896 0.06635433 0.08812322
0.032530226 -0.0026813925 0.06417164 -0.015549443 -0.07581463 -0.016758928 -0.05401252 -0.01528475
0.026230752 0.0033947986 0.034209445 -0.036945384 -0.035221096 0.14860436 -0.05997325 -0.10159701
0.027035035 -0.06727918 -0.090934485 -0.0673384 -0.019703649 -0.062670685 0.082561776 -0.048394237
-0.053515688 0.027263887 0.022984305 -0.044762112 0.056728944 -0.030043682 -0.030990303 -0.02186022
-0.062311918 0.08030028 0.07905517 -0.03388911 0.0036612137 0.07858448 -0.12160266 -0.03646502
-0.0051689227 0.029225742 -0.021593263 -0.08528121 0.032338567 0.04342415 -0.07651004 0.007825021
-0.0149506815 0.00013827276 0.05649284 -0.039978124 -0.025992468 -0.09530754 -0.10644848 -0.0025988459
0.0018960377 -0.07626578 -0.05075529 -0.020186648 -0.021696486 -0.047485262 -0.00043372376 0.04452962
-0.013920389 -0.05319597 0.051308546 0.030118812 0.095467985 -0.16292003 0.07279794 -0.014338417
0.048820004 0.043599196 0.08005523 -0.022197166 0.056275167 0.06653473 0.06396527 0.07089279
-0.052127734 -0.02975123 -0.016947713 -0.003736143 -0.022476675 -0.02835684 0.02921775 0.007678421
-0.05876054 0.0057283784 -0.04279947 0.050697435 0.05422205 -0.045616377 0.048562575 0.08422853
-0.036766596 0.11499709 0.065621 0.1343672 0.03771012 -0.016182162 -0.03848794 -0.0888623
0.17519213 0.023265507 0.097906865 -0.022880238 0.010887399 -0.0458718 -0.039937984 -0.02321993
0.009652303 0.109197974 -0.024011403 -0.03178893 0.017346367 0.122523114 0.017656248 -0.053927302
-0.021748101 -0.07886281 -0.071134865 0.0710977 0.0076323873 0.029532606 0.017107042 -0.07148041
0.061062466 -0.028711336 -0.07181795 -0.03599946 0.018312592 0.017187702 -0.012111269 -0.03031342
-0.083005175 -0.032360706 0.03321927 0.065140344 0.096576646 -0.018971693 -0.025471037 -0.085030824
0.041533746 -0.00017708674 -0.013359745 0.067435525 -0.0012359305 -0.011476872 0.004799271 0.060357966
-0.001281287 -0.0066696345 -0.017427668 0.040805154 0.03692755 -0.19283634 -0.038004402 0.10182038

network_body._body_endoder.seq_layers.4.bias f4 [256]
00000000: 5c1e e9ba 4532 9bbb c3a9 963b 84ed 94bb
00000010: eb09 2b3a cb15 af3b 8c35 853b e08a 433b
00000020: 84f2 9d3b 8cd3 a83b aef3 3abb 108a d73a
00000030: d220 85bb 7d60 52b8 2cb9 a4bb 0001 72bb
00000040: cc95 8abb 5333 babb e618 0d3b 0ff3 373b
00000050: 0ad6 9ebb c23f a1bb bd2e 8bb8 a95d 8bbb
00000060: 087a 91b9 1bbb 7d3b 0c41 dc3a 84a7 55bb
00000070: ba95 403b daaa c93a b7fd 94bb ca64 883a
00000080: 12e7 603b cfab 85bb d8a6 9f3b aeb7 d1ba
00000090: 8786 88bb 93a0 853b 8c70 8b3b 13fa d63a
000000a0: a0d4 da3a 6e52 83bb 47f2 e03a c3a8 25ba
000000b0: 85f9 c4ba e803 9e3b dc96 a5bb 0efa 183b
000000c0: 73d9 87ba 72b2 813b a1a2 873b eefd 853b
000000d0: 8474 22bb 756e 5cbb 0fff 9b3a d55c 0f3b
000000e0: b418 9cbb d5cf 233b e960 1a3b 8251 ac3b
000000f0: a8fa 9d3b cd7d 843b c026 893b c108 153a
00000100: 8e06 0abb 56e3 0cbb c388 603b d3cf 05bb
00000110: 4367 a3bb b4ad c2bb 4f75 e4ba 1a45 8fbb
00000120: ba23 a3bb 7195 79bb 1f32 9bbb f2f3 2abb
00000130: 48fd 9ebb 9d94 773b d0d9 86bb 415f 843b
00000140: a2cd 8cbb cc02 2cbb f860 9cbb 1f39 833b
00000150: 2445 72bb f11f 45bb 1c69 823b 9a2a 8abb
00000160: ae49 8fbb 9094 263b d6a4 253b a891 8abb
00000170: 8284 aabb abeb 4c3b f6f2 8bbb 700c 0eba
00000180: dd1e acbb b628 91bb 1ed7 f0ba c106 f83a
00000190: cac8 613b 7bb4 563b 8cde 8a3b 46a2 973b
000001a0: 86fd 3dbb a86e 83bb a5a6 423b f062 5c3b
000001b0: b9c2 88bb 5df5 caba d98d 9bbb 0d85 6fbb
000001c0: 76ff 923b e56d f43a 1252 193b a71d f5ba
000001d0: d618 60bb dba8 7abb f152 8a3b 041e babb
000001e0: 6608 863b bc7e 99bb ce16 7b3b ec86 f939
000001f0: 1ada 6ebb cc5f 9dba ef39 90bb 6bb4 783b
00000200: acac 263b d916 8fbb e2a3 963b e6fc 863b
00000210: 5390 fbba 0d96 63bb c5ef 53ba 577a 0339
00000220: 9db2 8b3b 8be0 983b 8fec a13b bf9a b7bb
00000230: 85f3 b0bb 3982 883b fc5a a8bb 5fbe feba
00000240: d7c0 5d3b 4d90 3ebb 01f3 623b 0c9c 66bb
00000250: 97a0 8fbb 7145 593b 65e0 89ba c5ee 933b
00000260: ad5b 30bb 5c3b a33a cad4 65bb 7406 273a
00000270: 29bb 853b 2d8b 043b e7a4 503b afa3 4bba
00000280: 90af 7e3b e338 82bb d186 473b 39d5 8a3b
00000290: afe8 83bb bd93 20bb 8097 913b 9b5c 4a3b
000002a0: b1e0 753b 6ffa 3bbb bf8f 0fbb aa74 c1bb
000002b0: 38e3 633b 6192 8a3b 5b13 1cb9 3af4 7d3b
000002c0: 6f38 713b 2dc3 4a3b dd3b 92bb efdf 383b
000002d0: e67d 03bb 5f64 c439 c950 133b 0275 89ba
000002e0: ab26 a5bb 863c 5a3b 3b0e 4b3b 8274 643b
000002f0: 02dc b6bb 90da af3b 2807 0b3b 4d16 933b
00000300: 358e 073b 6a7f 9abb 986d 883b 246a 91bb
00000310: 42a7 bebb b76e 8abb 30f0 5ebb 3aa9 8a3b
00000320: f141 713b c8b9 31bb 447a 42bb 90d4 493b
00000330: 6ed4 923b 6a81 aa3a 6b5d 59ba 846e 933b
00000340: 230d 9e3b 9bc4 11bb 056b 36bb 8045 943b
00000350: 260e 81bb 9bb6 2bbb 4118 683a a4cc 1ebb
00000360: e3f4 7aba 6e33 623a 4104 923b 0476 903b
00000370: 163d 96bb 0380 843b 94d7 a1bb 4482 883b
00000380: 6a54 373b 9280 53bb 0cba 50bb a904 45bb
00000390: c6f2 23bb f446 933a 97ab 1cbb 3918 9b3a
000003a0: 3fdc adbb 0c4f 7d3b 0f76 a7ba 3855 90ba
000003b0: 4c0c 33bb 41e5 073b 2154 ec39 a02f a83b
000003c0: 0872 36ba 2056 a2bb fcc5 333b 258e 833b
000003d0: 6177 8c3b 50eb 823b 3c9b 9737 5cc4 8e3b
000003e0: 2a87 a03b e579 8f3a bc4d 4338 9950 9c3b
000003f0: de6e 1abb 3ac0 a3bb 6c81 ee3a ce83 7cbb
-0.0017785537 -0.004736217 0.004597874 -0.0045449156 0.000652461 0.005343174 0.004065221 0.0029837415
0.00482017 0.0051521715 -0.0028526592 0.0016444344 -0.0040627504 -5.0157763e-05 -0.005026957 -0.0036926866
-0.004229283 -0.005682388 0.0021529733 0.0028068458 -0.004847293 -0.0049209306 -6.636742e-05 -0.0042531085
-0.00027747476 0.003871626 0.0016804053 -0.0032601068 0.002938612 0.0015386001 -0.0045468467 0.0010406014
0.0034317416 -0.004079319 0.0048721842 -0.0016000175 -0.0041664275 0.00407798 0.00425536 0.0016401432
0.0016695447 -0.004007629 0.0017162048 -0.0006319398 -0.0015027976 0.004822243 -0.005053384 0.0023342404
-0.0010364488 0.00395804 0.00413926 0.0040891087 -0.0024788687 -0.0033635173 0.0011901575 0.00218754
-0.004763687 0.0024995704 0.0023556298 0.00525874 0.0048211403 0.004043317 0.0041855276 0.00056852034
-0.0021061036 -0.0021497807 0.0034261204 -0.0020418062 -0.004986675 -0.005941117 -0.001742998 -0.004372251
-0.004978624 -0.0038083459 -0.0047361995 -0.0026085344 -0.004851971 0.003777779 -0.0041153207 0.0040396755
-0.0042969743 -0.0026246784 -0.0047723018 0.004004612 -0.003696748 -0.0030078853 0.003979815 -0.0042165043
-0.004372797 0.002541814 0.0025275252 -0.0042287894 -0.0052037844 0.0031268399 -0.0042709066 -0.00054187234
-0.0052527026 -0.004429902 -0.0018374657 0.0018922911 0.0034451955 0.0032761383 0.0042379554 0.004627499
-0.0028990223 -0.004010994 0.0029701379 0.0033628307 -0.0041736034 -0.0015484501 -0.004747134 -0.003654781
0.0044860197 0.0018648474 0.0023394865 -0.0018700854 -0.003419449 -0.0038247618 0.004221313 -0.0056798477
0.0040903566 -0.0046842974 0.0038313153 0.00047593506 -0.0036445917 -0.0012006699 -0.0044014375 0.0037949334
0.002543251 -0.0043667373 0.004597173 0.0041195033 -0.0019192792 -0.0034726888 -0.00080847397 0.00012538709
0.0042632357 0.0046654395 0.00494153 -0.005603164 -0.0054001235 0.0041659144 -0.0051377993 -0.0019435397
0.0033836865 -0.002907771 0.0034629705 -0.0035188226 -0.0043831575 0.0033152963 -0.0010519145 0.0045145475
-0.0026910112 0.0012453604 -0.003506946 0.0006371506 0.004081149 0.0020224557 0.003183657 -0.0007768226
0.0038861968 -0.0039740666 0.0030445347 0.004236844 -0.004025541 -0.0024502121 0.004443109 0.003087795
0.003751796 -0.0028683206 -0.0021905748 -0.0059038 0.0034772884 0.0042288755 -0.0001488453 0.0038750307
0.0036807319 0.0030939088 -0.0044627027 0.0028209647 -0.0020064055 0.00037458815 0.0022478572 -0.0010487142
-0.00504001 0.0033300235 0.0030983824 0.0034859483 -0.005580426 0.005366631 0.0021213982 0.0044887424
0.0020684127 -0.004714896 0.004163455 -0.004437702 -0.0058182785 -0.004224624 -0.0034017675 0.004231599
0.0036812986 -0.002711879 -0.0029674927 0.0030796863 0.00448089 0.0013008539 -0.00082918134 0.0044992585
0.0048233434 -0.002224243 -0.0027834785 0.0045248866 -0.003938454 -0.002620137 0.0008853712 -0.0024230862
-0.0009573234 0.00086288794 0.0044560735 0.0044086 -0.0045849187 0.0040435805 -0.004939029 0.0041659195
0.0027973899 -0.0032272679 -0.0031849174 -0.0030062592 -0.002501653 0.0011236356 -0.0023905986 0.001183278
-0.0053057964 0.0038651852 -0.0012776273 -0.0011011725 -0.0027320562 0.0020736011 0.0004507611 0.0051326305
-0.0006959741 -0.0049541146 0.002743124 0.0040147477 0.004286692 0.0039953366 1.807289e-05 0.004356904
0.0048989253 0.0010946362 4.656402e-05 0.00477035 -0.0023564617 -0.0049972804 0.001819653 -0.003853071

network_body._body_endoder.seq_layers.4.weight f4 [256, 256]
00000000: e50f 6e3d 1c66 e2bc da62 b8bc 9ba5 603d
00000010: 90e1 3bbd 1f63 9d3c 95f3 05be 02bc ecbd
00000020: 4237 2ebc 3fba 95bc 8dee 65bd 9384 b03d
00000030: 42ae 0cbe fe1f 483d 8126 cabc 0440 03bd
00000040: 0394 a23d dd96 9c3d 5fc1 813c e278 4d3d
00000050: d15d 5c3c 9a96 2f3c a3d5 f13b 8cef 38bc
00000060: 9199 903c d2cc 8bbc 28ee 5dbd 0338 0f3b
00000070: a630 393c c82d f0bc 44b5 863d 8531 babd
00000080: 7c5c a4ba 542d 17bd f2d8 c0bd b966 aebc
00000090: 617b b6bc 63f3 16bd 6f6f 85bd 343b 04bd
000000a0: f6d8 843d 45c2 8f3c 1f63 c9bb 8da0 4b3b
000000b0: 0493 9a3d 39ad c93c 9e79 153d 1f5b c9bb
000000c0: 1216 afbd 1552 883c b373 3d3d c9de 003d
000000d0: ee4b eb3b eb56 aebc 42e4 aa3b 4b1e 0abc
000000e0: cbf0 413d c903 d93c 2f87 d8bd d78b 823d
000000f0: c4e9 79bd 5e28 f6bc 6dd9 783b ec4d 81bd
00000100: d795 4f3d 0f32 21bd 1556 813b 53d3 c4bd
00000110: 99e2 7b3d aa5c 95bd 7339 58bd fc0c 883d
00000120: 0bdb 2b3c 9a87 fbbd 2364 9f3d 7f86 c13d
00000130: 5ff3 87bd 7952 20be 5ee2 3f3d 4f61 16bc
00000140: caa4 e13b 23da 473d 8dff 00be 6f24 dfbc
00000150: 28d3 1abd 73f5 703c ac89 bfbd 3356 9bbc
00000160: 3fe4 b3bd b9ad b1bd 54fb 463c 0dab 343d
00000170: ac74 a3bd a173 483d 46a1 45bd 12af a2bd
00000180: fa54 e1bc eaba 073e 60a9 00be c39d bdbc
00000190: 354a ffbc 2217 37bc 89a2 283e 5ce4 63bd
000001a0: 5a4f 1f3b 7df0 903d 3380 c8bc 5c0b c33a
000001b0: cdf9 ea3c 2180 3d3d 9869 06bd 9b69 ac3c
000001c0: 94e3 44bd 4fb0 f93b 51ed 17bd d02c c73c
000001d0: 0bcf d63c 6160 4bbd 7833 17bd 9534 843b
000001e0: 615f 1dbd edb0 173d 617a 153d db09 fdbc
000001f0: 0b85 7e3d aa5a d0bc 3fab a2bd 93ee 42bd
00000200: edff 84bb b373 ad3b 7ca4 febc 1e98 f9bc
00000210: 52f3 21bd de65 d2bd da9c 033d a849 9f3c
00000220: 5910 963d f7d1 c1bd 7c32 f43d 4231 afbd
00000230: 6fa5 63bd aecf d1bd eb65 e23b 0891 e3bc
00000240: e992 85bc 1f63 20bd d867 c8bc 026a 00be
00000250: ced7 b03d 0521 9d3c 64d4 c4bc ef90 f2bd
00000260: a7fd ebbd 0646 213d f700 b3bd bc4b e53c
00000270: d948 9dbd 5cab d93d c70b 053d bfba 733d
00000280: b5e7 18bc 34bc d3bc 0734 e7bd 1a21 923d
00000290: 83a5 43bd f704 d8bd 4089 d73d ccd4 fd3b
000002a0: 24cd f8bc 54c7 193d 824d 043d 6e37 bdbd
000002b0: 3287 ddbc 12b7 6e3d 91da 3f3d 2f35 833d
000002c0: 10b8 4abd 9346 02be 47af 873c 0bdb c53c
000002d0: 0b36 dbbc 4e6b 333d 9b2d a7bc a771 38bd
000002e0: ee65 c23c ae54 37bc 679c a23c fb09 49bd
000002f0: 421b 83bd 7dc3 09bd c949 2f3c 96ab 4fbc
00000300: f914 55bc 8a82 08ba 6e31 7f3d 9abe 19bd
00000310: ed5c 423d 3471 77bd 220b 1d3e b8d0 913d
00000320: 8ce3 213d c16f b13c a744 1c3d bb1b 39bc
00000330: 3034 873d 0d86 c03c abdf 12bd 5bd0 a93d
00000340: 7891 d4bc 204f fa3c 334e bcbb 950d 003e
00000350: 8f51 943c be43 acbd 3f6b 6f3d 9de9 d9bd
00000360: ff3f c8bd a94d a2bb a7ef bebc 7eb5 683d
00000370: 8b74 4c3d e4cd 113d 0f6b de3b bfd9 2bbd
00000380: 24a8 e53c efab 603d 36b6 c6bc 6855 a6bd
00000390: 803b 1abd 1108 50bd 313f eabc 8f78 87bd
000003a0: 1763 dc3d d0e3 34bd 02ff 9e3d da30 5fbd
000003b0: ae9e dabd 28ba d1bd c979 97bc 8d77 833d
000003c0: b0a5 afbd 8924 3a3d 900e 853d fb01 7c3d
000003d0: 8c6d e43c 337a e9bd d196 85bd f7c8 833c
000003e0: 86be f0bc ecfb 4a3d 0737 3bbd 2b04 9bbd
000003f0: 4f59 70bc 0418 7b3c 9f01 a7bb f457 0c3c
0.058120627 -0.02763658 -0.022508074 0.054845434 -0.04586941 0.019212304 -0.130812 -0.11559297
-0.010633292 -0.018277286 -0.056135703 0.086190365 -0.13738349 0.048858635 -0.024676563 -0.032043472
0.07938387 0.076459624 0.015839277 0.05016411 0.013450102 0.010717059 0.007380204 -0.011287581
0.017651351 -0.01706544 -0.0541822 0.0021853454 0.011303103 -0.029318705 0.065775424 -0.09091476
-0.001253977 -0.036908463 -0.09416379 -0.021289216 -0.022275629 -0.036853205 -0.06515395 -0.032283023
0.064866945 0.01754869 -0.0061458494 0.0031071038 0.07547572 0.024618732 0.036492936 -0.0061448957
-0.085491315 0.016640702 0.046252917 0.031462464 0.0071806824 -0.02128168 0.0052151987 -0.008430074
0.04734878 0.026491063 -0.10572659 0.063743286 -0.061013952 -0.030048545 0.0037971393 -0.063136905
0.050680008 -0.03935438 0.0039470294 -0.096106194 0.061495397 -0.07293065 -0.052789163 0.066431016
0.010489236 -0.12281723 0.077827714 0.09449481 -0.06638216 -0.15656461 0.04684674 -0.009178474
0.0068860995 0.048792016 -0.12597485 -0.027239053 -0.03779903 0.014706957 -0.09352431 -0.018962001
-0.08783769 -0.08675713 0.012144882 0.04410844 -0.07981238 0.048938397 -0.048249505 -0.07943548
-0.02750634 0.13254896 -0.12564611 -0.023146516 -0.031163314 -0.011174949 0.16468252 -0.055637702
0.0024308772 0.070771195 -0.024475193 0.0014880705 0.028683567 0.04626477 -0.032815546 0.02104645
-0.048068598 0.0076198946 -0.037091557 0.02431336 0.026221773 -0.04965246 -0.03691432 0.0040345886
-0.03842104 0.037033964 0.036493663 -0.030888489 0.0621386 -0.025433857 -0.07942819 -0.047590803
-0.004058829 0.0052933334 -0.031084292 -0.030468043 -0.03953869 -0.10273336 0.032132007 0.019444302
0.07327337 -0.09463876 0.11923692 -0.08554317 -0.05557769 -0.1024469 0.006909122 -0.027779117
-0.016305404 -0.03915703 -0.024463579 -0.12540439 0.086349115 0.019180784 -0.024027057 -0.1184405
-0.1152299 0.03937342 -0.087404184 0.027990215 -0.0767991 0.10628387 0.032481935 0.059504267
-0.009332587 -0.025846578 -0.1128922 0.0713522 -0.047765266 -0.10547822 0.10524225 0.0077463146
-0.030371256 0.03754361 0.03230048 -0.09239088 -0.027042005 0.05828006 0.0468393 0.06406628
-0.049491942 -0.12722234 0.016563071 0.0241523 -0.026759168 0.043803506 -0.020407489 -0.045030262
0.023730244 -0.011189623 0.01984997 -0.049081784 -0.064016834 -0.033633698 0.010698744 -0.012675187
-0.013005489 -0.000520744 0.062303 -0.037535287 0.047451902 -0.060410693 0.15336278 0.07119888
0.039523646 0.021659734 0.03815141 -0.011298115 0.06601751 0.02350142 -0.035857838 0.08291694
-0.025948271 0.030555308 -0.0057466268 0.12505181 0.018105296 -0.08411358 0.058451887 -0.10640261
-0.09777831 -0.0049531055 -0.023307635 0.05681371 0.04991583 0.035596743 0.0067876647 -0.041955706
0.028034277 0.05485147 -0.024256807 -0.08121759 -0.0376544 -0.050788943 -0.028594585 -0.066147916
0.107610874 -0.04416257 0.07763483 -0.054489948 -0.10674797 -0.102405846 -0.018490689 0.06419287
-0.08576524 0.045445 0.06496918 0.061525326 0.027884267 -0.11400261 -0.065229066 0.016087038
-0.029387724 0.049556658 -0.045706775 -0.07569154 -0.01466973 0.01532555 -0.005096629 0.0085658915
