Cursed Tennis/Assets/Tennis/results/TennisPro5/Tennis/Tennis-3456.onnx (onnx, 884278 bytes, 13 tensors)

60 f4 [84]
00000000: 5efd 1840 4d4e 0740 3e40 1c40 967d 4b40
00000010: 5efd 1840 4d4e 0740 531c 893f 6e78 803e
00000020: e429 883e 1f54 8b3c 1f54 8b3c 531c 893f
00000030: 8f39 dc40 00ef 0240 ae3f b83f 1dab 9d40
00000040: 8f39 dc40 00ef 0240 3430 e53e 531c 893f
00000050: 1f54 8b3c 1536 0540 973a 0340 bb31 1f40
00000060: 077e 4d40 1536 0540 973a 0340 5ad8 853f
00000070: 6d64 653e 89a3 753e 1f54 8b3c 1f54 8b3c
00000080: 5ad8 853f 112f e140 dd5c 0340 b312 c23f
00000090: 2a30 a040 112f e140 dd5c 0340 2f8c f83e
000000a0: 5ad8 853f 1f54 8b3c dc0d d73f b51e fc3f
000000b0: 0e8a 2240 74c8 4f40 dc0d d73f b51e fc3f
000000c0: 36eb 813f 35a8 423e b584 543e 1f54 8b3c
000000d0: 1f54 8b3c 36eb 813f 5e2b e640 5bd5 0440
000000e0: 5363 cc3f e720 a340 5e2b e640 5bd5 0440
000000f0: 6451 063f 36eb 813f 1f54 8b3c 9586 8b3f
00000100: cf3c ef3f a065 2540 6353 5240 9586 8b3f
00000110: cf3c ef3f 15d8 7a3f b51e 143e 76e7 293e
00000120: 1f54 8b3c 1f54 8b3c 15d8 7a3f 622f eb40
00000130: 4cb0 0740 bcb6 d93f 7c8c a640 622f eb40
00000140: 4cb0 0740 7ac8 103f 15d8 7a3f 1f54 8b3c
2.3904643 2.114154 2.441421 3.1795402 2.3904643 2.114154 1.0711769 0.2509188
0.2659446 0.017007886 0.017007886 1.0711769 6.882026 2.0458374 1.4394433 4.927138
6.882026 2.0458374 0.4476334 1.0711769 0.017007886 2.081426 2.050451 2.4874103
3.210817 2.081426 2.050451 1.045665 0.2240159 0.23988165 0.017007886 0.017007886
1.045665 7.0369954 2.052543 1.5161957 5.0058794 7.0369954 2.052543 0.48544452
1.045665 0.017007886 1.6801105 1.9696871 2.5396762 3.2466097 1.6801105 1.9696871
1.0149906 0.19009478 0.20753749 0.017007886 0.017007886 1.0149906 7.192794 2.0755222
1.5967811 5.0977664 7.192794 2.0755222 0.5246794 1.0149906 0.017007886 1.0900446
1.8690432 2.5843277 3.2863395 1.0900446 1.8690432 0.97985965 0.14464839 0.16592202
0.017007886 0.017007886 0.97985965 7.349534 2.1201353 1.7008891 5.204649 7.349534
2.1201353 0.565559 0.97985965 0.017007886

action_model._continuous_distribution.log_sigma f4 [1, 4]
00000000: 0000 0000 0000 0000 0000 0000 0000 0000
0.0 0.0 0.0 0.0

action_model._continuous_distribution.mu.bias f4 [4]
00000000: 0000 0000 0000 0000 0000 0000 0000 0000
0.0 0.0 0.0 0.0

action_model._continuous_distribution.mu.weight f4 [4, 256]
00000000: 3ef3 953b 28a9 683c 005b 7b3c 24d1 92bb
00000010: ff0c 583c 51a9 20bb 8ed3 8dbb 2fa1 40bc
00000020: 1a89 68bc b79e ce3b bbf6 773b ff08 e13c
00000030: 0325 35ba ea87 d73c 35ae 7fbc 4a56 95bc
00000040: 2030 553b 5f2e 2039 48d7 2a3c 3ae4 383c
00000050: d356 65bb 4cfe 033c 674b 0c3c 3052 633b
00000060: 8b4c a83b 8399 c7bc 1374 2ebc 3fc5 1ebd
00000070: e227 7b3b c214 2ab9 832c bfbc 8f1e 273b
00000080: df5a 1b3c 9752 37bc 12ae f6bb 6fb6 bb3c
00000090: 0dbe e6bb f43c a2bb 9798 95bc 3a1e 53bb
000000a0: cb22 2abc 85a6 4dbb b036 30bc 2375 d0bc
000000b0: 62ab 82bc 4368 e13c c62d a4bc 28c3 af3b
000000c0: 4b60 f73b 25d9 2c3b 6a99 08bc f079 cdbb
000000d0: cdd4 0b3c 95b7 323c ddbc 1d3b d350 08bb
000000e0: 73d2 a1bc 5b2f 533c 3a75 313b 13e6 693c
000000f0: c896 83bc 61d2 a6bc f605 9d3b a35a 5c3c
00000100: 5349 a93c df24 bbbb dac5 173c ff3f c53c
00000110: b81e 0cbb 2561 c63a 0f2d 3b3c 8d60 c2bc
00000120: 7dfe 593c 6d78 01bc 7835 653c 5a16 293b
00000130: a3ec 023c ecc7 2e3b 0dbb f03a b98d 843b
00000140: 0ba6 353c f7dd 6bbc b87c d83c 3d23 f0bb
00000150: 10ba 44bc 038f 7e3c 5f3f 80bb 4af7 0abc
00000160: 4296 6dbc c3b8 81bb 72f3 c6ba c9ae babc
00000170: bcaa 973c 43ad bc3b 92b5 3d3c c4c3 993c
00000180: 0d29 f83b d64a 9dba ae2f 273c 1ac5 ea3b
00000190: 6d77 613c 5624 013c 4d04 70ba 6759 c5bb
000001a0: 3a75 9f3b 8d2f 2bbc b7d3 a13b 4f8f 67bc
000001b0: 1bc4 b5bb 8541 f53a c57f 543c 95a8 d73c
000001c0: 9a0a 19bc 82ca 34b9 d586 ab3b cb40 2fbb
000001d0: a7de 82bc 9fb6 abbb 9f01 98bb 47aa 36bc
000001e0: 7539 83bb 17eb 763c f83c 67bb e70d 3f3c
000001f0: e8ad 713b 6660 c7bb adf3 183c 0748 143c
00000200: 4f95 0c3c 9ea6 063d d3d1 503b 88ec 593c
00000210: a160 273c 7968 14bc bb51 f5bb 4baf 1fbc
00000220: 9661 b73b a314 cebb 6b0a ba3b 0bd5 6c3c
00000230: 2205 cabb 7769 ab3c faec 4ebc e025 843b
00000240: 4fdf 85bc 4f55 4aba cbd5 64bc e327 643b
00000250: a4e9 a5ba 695e 97bb 7bdc dbbc 2fb5 543c
00000260: d370 dd3c b085 e1bb 8e5a b5bc 7da5 ebbb
00000270: b525 59ba 496f a3bc aff5 cfbb 7bda 8bbb
00000280: eb5c 113b b515 51bc 1dd0 dcba d272 56bc
00000290: 1768 eb3b 2938 4c3c e6a3 353c 8ea2 083c
000002a0: 2ace ac3a 171a d03b 0b63 0c3b 8795 fdbb
000002b0: cba5 adba 6b1c 81bc cffa 3c3c 63bf 993c
000002c0: 81ca 093c 7b1d 0d3c 5274 b63b bba5 7bbc
000002d0: ff0a 343a 2385 a2bb 9308 613c 6280 9e3a
000002e0: 6ed5 8abc 204a 81bc 15f0 15bb 436f 343b
000002f0: 4764 eabb 0c4e 09bc e22f 1cbc 55d2 af3b
00000300: 9cf6 1e3b bd3f cf3b a176 0b3c d32d d2bb
00000310: 10c1 84bc 0f82 21bc e06d 073b d590 b3bc
00000320: 8281 a7bc 97b6 c73b 3745 b53c 8c29 89bb
00000330: 4ea4 2abb 0710 82bb d758 023b 7e66 13bc
00000340: 5647 48bc 4335 403c c7bc f03b 7a4d b0bb
00000350: 9746 99bb 6335 2cbb 7fb2 d3bc 52f2 8bbb
00000360: 5f76 343c 6317 713c 4321 4f3c 7bb5 023c
00000370: 714a a6bb ee14 b53c 6787 98bb 4db9 bd3b
00000380: 7cdc 85bc 789c 30bc ef4f 84ba 1ca4 84bc
00000390: a077 62bc 1234 683c 372e c3ba 2bf5 ad3c
000003a0: 5698 80bb aabd f63b fb67 f03a 632a 2ebb
000003b0: 4587 cdbb 687b d53b a5b1 5e3b c7fa a2bb
000003c0: 45f2 c0bc 322a e8bb 45d6 da3c 429a 85bc
000003d0: c72a 00bb 384c 003c 3378 abbc 2f47 cbbb
000003e0: 336c 203b 3893 ce3b ea54 023c 2a90 68bc
000003f0: aaa6 823c 73a4 0abd f364 193c fdc0 6a3c
0.004576116 0.014200486 0.01534152 -0.004480498 0.013186692 -0.0024514983 -0.004328198 -0.011757179
-0.014192844 0.0063055414 0.0037836272 0.02747011 -0.0006910117 0.026309926 -0.015605499 -0.018229622
0.0032529905 0.00015276064 0.010427304 0.011284882 -0.0034994378 0.008056235 0.008562899 0.0034686439
0.0051360778 -0.024365192 -0.010647791 -0.038762327 0.0038323333 -0.00016220196 -0.023336655 0.0025500392
0.009482115 -0.011189125 -0.007528075 0.02291414 -0.007041699 -0.004951114 -0.018261237 -0.0032214061
-0.010384272 -0.003137977 -0.010755226 -0.02544648 -0.015950862 0.027515536 -0.020041358 0.0053638406
0.007549321 0.0026374545 -0.008337358 -0.0062706396 0.008534622 0.010908027 0.002406887 -0.0020800128
-0.01975367 0.012889708 0.002707793 0.014276045 -0.016063109 -0.020363988 0.0047919704 0.013449344
0.020664847 -0.0057111825 0.00926348 0.024078367 -0.0021380614 0.0015135152 0.011424317 -0.02372768
0.013305304 -0.007902247 0.013989799 0.0025800676 0.007990989 0.0026669456 0.0018366292 0.004045215
0.011086951 -0.014396182 0.026426658 -0.0073284195 -0.012007251 0.015537026 -0.0039138044 -0.00848181
-0.014501156 -0.003958793 -0.0015178754 -0.022788422 0.01851403 0.005757959 0.011578934 0.018770106
0.007573253 -0.0012000452 0.010204239 0.0071646096 0.0137613835 0.007882198 -0.00091559143 -0.0060226205
0.0048662694 -0.010448349 0.0049385685 -0.0141332885 -0.0055470592 0.0018711543 0.012969916 0.026325503
-0.0093409065 -0.00017241578 0.005234579 -0.00267415 -0.01597531 -0.005240276 -0.004638865 -0.011148996
-0.004004652 0.015070698 -0.0035284143 0.011661029 0.0036877338 -0.0060844896 0.009335441 0.009050376
0.00858052 0.032873742 0.0031863346 0.013301022 0.010215909 -0.009058111 -0.0074865497 -0.009746383
0.00559635 -0.006289081 0.0056775114 0.01445509 -0.0061651627 0.020924313 -0.012629742 0.0040328354
-0.016341833 -0.00077184004 -0.013966988 0.0034813813 -0.0012658131 -0.004619409 -0.026838532 0.012982651
0.027031338 -0.006882392 -0.022137906 -0.0071913586 -0.0008283512 -0.019950526 -0.0063464264 -0.0042679883
0.0022180628 -0.012761523 -0.001684669 -0.013088899 0.0071840393 0.0124645615 0.01108644 0.008339537
0.0013184 0.0063507664 0.002142134 -0.0077387723 -0.0013248263 -0.015760621 0.011534407 0.018768018
0.008410097 0.008612986 0.0055680657 -0.015359337 0.00068680936 -0.004959719 0.013734954 0.0012092704
-0.016947474 -0.015782416 -0.0022878696 0.0027532137 -0.0071530673 -0.008380424 -0.0095329005 0.0053656497
0.0024255877 0.006324737 0.00851217 -0.006414154 -0.01620534 -0.009857669 0.0020664856 -0.021919647
-0.020447496 0.0060947645 0.02212773 -0.004185861 -0.0026037875 -0.0039691958 0.0019889378 -0.008996604
-0.012224039 0.011731449 0.0073467228 -0.0053803297 -0.0046776044 -0.0026276938 -0.02584195 -0.00427083
0.01101455 0.0147150485 0.012642208 0.007977839 -0.005074792 0.022104707 -0.004654813 0.005789912
-0.016340487 -0.010779493 -0.0010094623 -0.016191535 -0.013822466 0.014172571 -0.0014891092 0.02123507
-0.00392441 0.007529934 0.0018341535 -0.0026575557 -0.006272229 0.0065149553 0.0033980396 -0.0049737426
-0.023553023 -0.007085108 0.0267135 -0.016308907 -0.0019556747 0.007830672 -0.020931339 -0.006203554
0.0024478554 0.006304171 0.007954815 -0.014194528 0.015948612 -0.033848237 0.009362447 0.014328239

network_body._body_endoder.seq_layers.0.bias f4 [256]
00000000: 0000 0000 0000 0000 0000 0000 0000 0000
00000010: 0000 0000 0000 0000 0000 0000 0000 0000
00000020: 0000 0000 0000 0000 0000 0000 0000 0000
00000030: 0000 0000 0000 0000 0000 0000 0000 0000
00000040: 0000 0000 0000 0000 0000 0000 0000 0000
00000050: 0000 0000 0000 0000 0000 0000 0000 0000
00000060: 0000 0000 0000 0000 0000 0000 0000 0000
00000070: 0000 0000 0000 0000 0000 0000 0000 0000
00000080: 0000 0000 0000 0000 0000 0000 0000 0000
00000090: 0000 0000 0000 0000 0000 0000 0000 0000
000000a0: 0000 0000 0000 0000 0000 0000 0000 0000
000000b0: 0000 0000 0000 0000 0000 0000 0000 0000
000000c0: 0000 0000 0000 0000 0000 0000 0000 0000
000000d0: 0000 0000 0000 0000 0000 0000 0000 0000
000000e0: 0000 0000 0000 0000 0000 0000 0000 0000
000000f0: 0000 0000 0000 0000 0000 0000 0000 0000
00000100: 0000 0000 0000 0000 0000 0000 0000 0000
00000110: 0000 0000 0000 0000 0000 0000 0000 0000
00000120: 0000 0000 0000 0000 0000 0000 0000 0000
00000130: 0000 0000 0000 0000 0000 0000 0000 0000
00000140: 0000 0000 0000 0000 0000 0000 0000 0000
00000150: 0000 0000 0000 0000 0000 0000 0000 0000
00000160: 0000 0000 0000 0000 0000 0000 0000 0000
00000170: 0000 0000 0000 0000 0000 0000 0000 0000
00000180: 0000 0000 0000 0000 0000 0000 0000 0000
00000190: 0000 0000 0000 0000 0000 0000 0000 0000
000001a0: 0000 0000 0000 0000 0000 0000 0000 0000
000001b0: 0000 0000 0000 0000 0000 0000 0000 0000
000001c0: 0000 0000 0000 0000 0000 0000 0000 0000
000001d0: 0000 0000 0000 0000 0000 0000 0000 0000
000001e0: 0000 0000 0000 0000 0000 0000 0000 0000
000001f0: 0000 0000 0000 0000 0000 0000 0000 0000
00000200: 0000 0000 0000 0000 0000 0000 0000 0000
00000210: 0000 0000 0000 0000 0000 0000 0000 0000
00000220: 0000 0000 0000 0000 0000 0000 0000 0000
00000230: 0000 0000 0000 0000 0000 0000 0000 0000
00000240: 0000 0000 0000 0000 0000 0000 0000 0000
00000250: 0000 0000 0000 0000 0000 0000 0000 0000
00000260: 0000 0000 0000 0000 0000 0000 0000 0000
00000270: 0000 0000 0000 0000 0000 0000 0000 0000
00000280: 0000 0000 0000 0000 0000 0000 0000 0000
00000290: 0000 0000 0000 0000 0000 0000 0000 0000
000002a0: 0000 0000 0000 0000 0000 0000 0000 0000
000002b0: 0000 0000 0000 0000 0000 0000 0000 0000
000002c0: 0000 0000 0000 0000 0000 0000 0000 0000
000002d0: 0000 0000 0000 0000 0000 0000 0000 0000
000002e0: 0000 0000 0000 0000 0000 0000 0000 0000
000002f0: 0000 0000 0000 0000 0000 0000 0000 0000
00000300: 0000 0000 0000 0000 0000 0000 0000 0000
00000310: 0000 0000 0000 0000 0000 0000 0000 0000
00000320: 0000 0000 0000 0000 0000 0000 0000 0000
00000330: 0000 0000 0000 0000 0000 0000 0000 0000
00000340: 0000 0000 0000 0000 0000 0000 0000 0000
00000350: 0000 0000 0000 0000 0000 0000 0000 0000
00000360: 0000 0000 0000 0000 0000 0000 0000 0000
00000370: 0000 0000 0000 0000 0000 0000 0000 0000
00000380: 0000 0000 0000 0000 0000 0000 0000 0000
00000390: 0000 0000 0000 0000 0000 0000 0000 0000
000003a0: 0000 0000 0000 0000 0000 0000 0000 0000
000003b0: 0000 0000 0000 0000 0000 0000 0000 0000
000003c0: 0000 0000 0000 0000 0000 0000 0000 0000
000003d0: 0000 0000 0000 0000 0000 0000 0000 0000
000003e0: 0000 0000 0000 0000 0000 0000 0000 0000
000003f0: 0000 0000 0000 0000 0000 0000 0000 0000
0.0 0.0 0.0 0.0 0.0 0.0 0.0 0.0
0.0 0.0 0.0 0.0 0.0 0.0 0.0 0.0
0.0 0.0 0.0 0.0 0.0 0.0 0.0 0.0
0.0 0.0 0.0 0.0 0.0 0.0 0.0 0.0
0.0 0.0 0.0 0.0 0.0 0.0 0.0 0.0
0.0 0.0 0.0 0.0 0.0 0.0 0.0 0.0
0.0 0.0 0.0 0.0 0.0 0.0 0.0 0.0
0.0 0.0 0.0 0.0 0.0 0.0 0.0 0.0
0.0 0.0 0.0 0.0 0.0 0.0 0.0 0.0
0.0 0.0 0.0 0.0 0.0 0.0 0.0 0.0
0.0 0.0 0.0 0.0 0.0 0.0 0.0 0.0
0.0 0.0 0.0 0.0 0.0 0.0 0.0 0.0
0.0 0.0 0.0 0.0 0.0 0.0 0.0 0.0
0.0 0.0 0.0 0.0 0.0 0.0 0.0 0.0
0.0 0.0 0.0 0.0 0.0 0.0 0.0 0.0
0.0 0.0 0.0 0.0 0.0 0.0 0.0 0.0
0.0 0.0 0.0 0.0 0.0 0.0 0.0 0.0
0.0 0.0 0.0 0.0 0.0 0.0 0.0 0.0
0.0 0.0 0.0 0.0 0.0 0.0 0.0 0.0
0.0 0.0 0.0 0.0 0.0 0.0 0.0 0.0
0.0 0.0 0.0 0.0 0.0 0.0 0.0 0.0
0.0 0.0 0.0 0.0 0.0 0.0 0.0 0.0
0.0 0.0 0.0 0.0 0.0 0.0 0.0 0.0
0.0 0.0 0.0 0.0 0.0 0.0 0.0 0.0
0.0 0.0 0.0 0.0 0.0 0.0 0.0 0.0
0.0 0.0 0.0 0.0 0.0 0.0 0.0 0.0
0.0 0.0 0.0 0.0 0.0 0.0 0.0 0.0
0.0 0.0 0.0 0.0 0.0 0.0 0.0 0.0
0.0 0.0 0.0 0.0 0.0 0.0 0.0 0.0
0.0 0.0 0.0 0.0 0.0 0.0 0.0 0.0
0.0 0.0 0.0 0.0 0.0 0.0 0.0 0.0
0.0 0.0 0.0 0.0 0.0 0.0 0.0 0.0

network_body._body_endoder.seq_layers.0.weight f4 [256, 84]
00000000: 7276 743d ac66 ccbb 9d1a aa3e 49c5 cbbd
00000010: 5e73 b13d 1ffb a0bd ac4d 7fbd c504 5fbc
00000020: b36a 8bbe cfcf 1cbd c0bd 933c 8c75 f5bd
00000030: d7c4 d2bd eedb 313d 0e81 403d 6538 343e
00000040: 68a7 3c3e 2664 26be bb68 c8bc dac8 de3c
00000050: bc5a bdbd 9ddb 02bc 788e 94be 1852 0f3e
00000060: 50fc 54bd 35a4 13be 8b78 05bd 718e 8abc
00000070: 86d6 593d ebbc a43c dbf3 0b3e b337 59be
00000080: 6e4f c53d 229d ca3c 9345 4cbe 96f7 65bd
00000090: e6a3 d6bd fc77 d23d a4c8 333e e1e4 e23c
000000a0: 9ed5 bb3c 1617 c9bc 5804 25bd 181f 0cbe
000000b0: cc47 4a3d 77e4 af3e 8209 dd3d 1734 7b3c
000000c0: a360 fcbd 8bff 1cbc 5fb9 203d a555 3ebd
000000d0: dc39 07bd c88e be3d ed00 353d 36cb 20be
000000e0: 959c 1cbd da1e a93c 8eae aabd 72de 84bd
000000f0: 9beb 5d3d 1ac2 98bd 57cf 423b 549d 5ebe
00000100: f8a0 2dbe af38 7abd 6509 8c3e 29fd 553d
00000110: 7752 ecbd a818 0fbd cd24 d5bc 9453 febd
00000120: 9cfc 9f3d 9d92 6ebd b0d2 8bbd 95ea 4f3d
00000130: 00e3 613e 1ad5 57bc 6635 703d c71d a33c
00000140: 253d 2b3e 8729 4f3d 52c6 b9bd a9c6 a9be
00000150: 1cb8 113d 7541 163e 34f5 923c 1ea3 17be
00000160: 0600 29be 8881 0e3c 63f6 f43c 9007 6d3c
00000170: baa4 23bd ca36 cabc 6681 023e 8a50 ecbc
00000180: 80f3 9abc 823f 8f3d 9a75 d43d 2cad f73d
00000190: 38ff 0bbd a376 64bd 123f 16be af67 9d3c
000001a0: 94fc b3bd e998 103d 6e30 c33d 36b9 adbd
000001b0: bb26 a5bd a3ea fbbb 8d11 0d3e ab86 843d
000001c0: 091d 85be ee9e 163e db16 7b3e 2cfe 2f3d
000001d0: 6afe 2fbe 97fa 35be 727f b2bd a9c5 8abd
000001e0: 5282 87bc 9f90 7dbd 3bc1 163e e6f5 6f3b
000001f0: 8a3d 94bc b5f8 273e e1f2 db3d 5b51 1b3d
00000200: c559 943d 9879 b93d 67a9 48bd 55f9 fd3d
00000210: 3c01 d43c df4a 8ebe aa43 49bd 4845 0cbc
00000220: 606b 3cbd 2e0f 13bd cce6 b73d ac50 c8bb
00000230: 6180 b5bb 35af 573d 4e42 953c 3c96 5bbe
00000240: 9401 8b3d 4ece 13be e102 0e3e c569 a8be
00000250: c4ac 6bbd 8dfa c83d 60b5 aebd 57ea fabd
00000260: 9f2d d03d 5ece 1cbd 0c76 b63d 96b8 1a3d
00000270: 4604 423e 11ee e83d 34ca 7e3d 27ee 0cbd
00000280: d5c3 cc3c 5879 a43d 8994 42bd e14e d13c
00000290: 5edd 15bd da4a d73c ffee 82bd 2620 22be
000002a0: e8dd cebd 953a 2ebd 8e7d c63b 27e1 07bd
000002b0: 422a b23d ede3 a53d 7425 053d 39a8 cebd
000002c0: 482d 6bbc 38e4 823d 5d97 a5bd 1e52 a33d
000002d0: 05f4 8bbd edf4 33bd e61c 26bd f4cd 53be
000002e0: 4b2b 193d 1548 aebd 575e 503e 5c0a 603e
000002f0: bbf2 d13d a579 9b3e 53e6 46be 7bd0 0cbe
00000300: a673 963d c3b0 9fbc 7002 883e d9f6 f83c
00000310: 6f5b 0abd 3ae2 86be 8f50 84bd dd7b cebd
00000320: cb88 2e3e 174f d5bd d064 9a3c 37df 4ebd
00000330: f976 f33d b3ff 66bc a1ea fb3c add8 6c3c
00000340: d054 2f3e 24bd 7dbd 8691 f6bd 1a49 debd
00000350: e37e 74bd 4ffa 603e cc41 6a3e 1769 9fbb
00000360: 0314 0cbe 0b4e 553e a618 f7bc 3fbf 1ebe
00000370: 8a78 b53d 311e 16bd 8479 c5bd f3e1 aabd
00000380: 66b2 4b3e 225d ebbd 26eb d63d 7b21 463c
00000390: ac41 c23d 4437 73bd dea6 cabd cf71 413d
000003a0: 3ca4 3d3c 4a55 d7bb 785c 78bd ec61 adbd
000003b0: 2298 0bbe 2a97 0fbd f3f2 ffbc 713e f2bd
000003c0: 6f62 65be 8b45 e2bd e0d0 ff3d a68d 58bd
000003d0: 6efd bbbc 57ad 38be 0893 593d 4c78 043e
000003e0: e581 8c3d 0b26 1f3d 0311 cebd e580 bb3e
000003f0: 646c c8bd 9fdc b1bd d0e3 db3d 8799 a03c
0.05968327 -0.0062378254 0.3322343 -0.099497385 0.08664583 -0.078603975 -0.062329933 -0.013611977
-0.27229843 -0.03828412 0.018034816 -0.11985311 -0.102914505 0.043422632 0.046998076 0.17599638
0.18423235 -0.16249141 -0.024464002 0.027195383 -0.09245822 -0.00798693 -0.29014945 0.1399616
-0.051998436 -0.14418109 -0.03258566 -0.016913624 0.0531831 0.020109614 0.13667242 -0.21212654
0.09634291 0.02473313 -0.19948415 -0.05614432 -0.1048048 0.102767915 0.17557007 0.027697029
0.022929009 -0.024547141 -0.040287346 -0.13683736 0.049384877 0.34353992 0.10792829 0.015332243
-0.123231195 -0.009582411 0.039239284 -0.046468396 -0.033014163 0.09304577 0.044190336 -0.15702519
-0.038235266 0.020644594 -0.08334075 -0.064877406 0.05417977 -0.07458897 0.0029725635 -0.21739703
-0.16955936 -0.061089214 0.27350917 0.052243385 -0.115391664 -0.034935623 -0.026018525 -0.12418285
0.07811853 -0.05824529 -0.06827295 0.050760824 0.2205925 -0.013173366 0.058644675 0.01991166
0.16722544 0.050576713 -0.0907103 -0.33159378 0.03557597 0.14673407 0.017939188 -0.14808318
-0.16503915 0.008697875 0.029902643 0.014467135 -0.039952017 -0.024684329 0.12744674 -0.028846998
-0.018914938 0.06994535 0.10373993 0.12093577 -0.034178942 -0.055777203 -0.14672497 0.01921448
-0.0878841 0.035302076 0.095307216 -0.08482592 -0.08064028 -0.007687883 0.13776226 0.064709984
-0.25998715 0.14709064 0.24520437 0.042967007 -0.17186895 -0.17771374 -0.087157145 -0.06775982
-0.016541634 -0.0619055 0.14722149 0.0036615073 -0.01809575 0.16403468 0.10739685 0.037919383
0.07243685 0.09056395 -0.04898968 0.12401072 0.025879495 -0.27791497 -0.049136795 -0.00856144
-0.04600084 -0.03590315 0.08979568 -0.0061131325 -0.0055389856 0.052657325 0.018220093 -0.21444029
0.067874104 -0.14434168 0.13868286 -0.32893196 -0.05753781 0.09813414 -0.08530688 -0.12251728
0.101649515 -0.038282745 0.089092344 0.03777369 0.18946943 0.113735326 0.062204555 -0.034406807
0.024995724 0.08030957 -0.047504935 0.025550308 -0.036588065 0.02628081 -0.06393241 -0.15832576
-0.10100919 -0.042536337 0.0060574478 -0.033173706 0.08699466 0.08100114 0.03250642 -0.1009068
-0.014354058 0.063911855 -0.08085511 0.07974647 -0.068336524 -0.04393475 -0.040554903 -0.20684034
0.037394803 -0.08509842 0.20348488 0.21878952 0.10251375 0.30366245 -0.19423799 -0.13751404
0.07346277 -0.019493466 0.2656436 0.030391144 -0.033778604 -0.26344472 -0.06460678 -0.10082219
0.1704437 -0.10415476 0.0188469 -0.050505843 0.118879266 -0.014099049 0.030751528 0.014455956
0.17122197 -0.061947957 -0.12039475 -0.10853787 -0.05969132 0.21970485 0.22876662 -0.0048648226
-0.13679509 0.20830552 -0.03016312 -0.15502642 0.088608816 -0.036649887 -0.09642318 -0.08343878
0.19892272 -0.11492373 0.1049407 0.012092943 0.09485182 -0.059378877 -0.09895109 0.047227677
0.011574801 -0.0065714465 -0.06063506 -0.08465943 -0.13632253 -0.03505627 -0.031243777 -0.11828316
-0.2240083 -0.110484205 0.124910116 -0.05286946 -0.022947993 -0.18034874 0.053118736 0.12936515
0.06860713 0.03885464 -0.100618385 0.36621776 -0.09786299 -0.08684658 0.10736811 0.019604458

network_body._body_endoder.seq_layers.2.bias f4 [256]
00000000: 0000 0000 0000 0000 0000 0000 0000 0000
00000010: 0000 0000 0000 0000 0000 0000 0000 0000
00000020: 0000 0000 0000 0000 0000 0000 0000 0000
00000030: 0000 0000 0000 0000 0000 0000 0000 0000
00000040: 0000 0000 0000 0000 0000 0000 0000 0000
00000050: 0000 0000 0000 0000 0000 0000 0000 0000
00000060: 0000 0000 0000 0000 0000 0000 0000 0000
00000070: 0000 0000 0000 0000 0000 0000 0000 0000
00000080: 0000 0000 0000 0000 0000 0000 0000 0000
00000090: 0000 0000 0000 0000 0000 0000 0000 0000
000000a0: 0000 0000 0000 0000 0000 0000 0000 0000
000000b0: 0000 0000 0000 0000 0000 0000 0000 0000
000000c0: 0000 0000 0000 0000 0000 0000 0000 0000
000000d0: 0000 0000 0000 0000 0000 0000 0000 0000
000000e0: 0000 0000 0000 0000 0000 0000 0000 0000
000000f0: 0000 0000 0000 0000 0000 0000 0000 0000
00000100: 0000 0000 0000 0000 0000 0000 0000 0000
00000110: 0000 0000 0000 0000 0000 0000 0000 0000
00000120: 0000 0000 0000 0000 0000 0000 0000 0000
00000130: 0000 0000 0000 0000 0000 0000 0000 0000
00000140: 0000 0000 0000 0000 0000 0000 0000 0000
00000150: 0000 0000 0000 0000 0000 0000 0000 0000
00000160: 0000 0000 0000 0000 0000 0000 0000 0000
00000170: 0000 0000 0000 0000 0000 0000 0000 0000
00000180: 0000 0000 0000 0000 0000 0000 0000 0000
00000190: 0000 0000 0000 0000 0000 0000 0000 0000
000001a0: 0000 0000 0000 0000 0000 0000 0000 0000
000001b0: 0000 0000 0000 0000 0000 0000 0000 0000
000001c0: 0000 0000 0000 0000 0000 0000 0000 0000
000001d0: 0000 0000 0000 0000 0000 0000 0000 0000
000001e0: 0000 0000 0000 0000 0000 0000 0000 0000
000001f0: 0000 0000 0000 0000 0000 0000 0000 0000
00000200: 0000 0000 0000 0000 0000 0000 0000 0000
00000210: 0000 0000 0000 0000 0000 0000 0000 0000
00000220: 0000 0000 0000 0000 0000 0000 0000 0000
00000230: 0000 0000 0000 0000 0000 0000 0000 0000
00000240: 0000 0000 0000 0000 0000 0000 0000 0000
00000250: 0000 0000 0000 0000 0000 0000 0000 0000
00000260: 0000 0000 0000 0000 0000 0000 0000 0000
00000270: 0000 0000 0000 0000 0000 0000 0000 0000
00000280: 0000 0000 0000 0000 0000 0000 0000 0000
00000290: 0000 0000 0000 0000 0000 0000 0000 0000
000002a0: 0000 0000 0000 0000 0000 0000 0000 0000
000002b0: 0000 0000 0000 0000 0000 0000 0000 0000
000002c0: 0000 0000 0000 0000 0000 0000 0000 0000
000002d0: 0000 0000 0000 0000 0000 0000 0000 0000
000002e0: 0000 0000 0000 0000 0000 0000 0000 0000
000002f0: 0000 0000 0000 0000 0000 0000 0000 0000
00000300: 0000 0000 0000 0000 0000 0000 0000 0000
00000310: 0000 0000 0000 0000 0000 0000 0000 0000
00000320: 0000 0000 0000 0000 0000 0000 0000 0000
00000330: 0000 0000 0000 0000 0000 0000 0000 0000
00000340: 0000 0000 0000 0000 0000 0000 0000 0000
00000350: 0000 0000 0000 0000 0000 0000 0000 0000
00000360: 0000 0000 0000 0000 0000 0000 0000 0000
00000370: 0000 0000 0000 0000 0000 0000 0000 0000
00000380: 0000 0000 0000 0000 0000 0000 0000 0000
00000390: 0000 0000 0000 0000 0000 0000 0000 0000
000003a0: 0000 0000 0000 0000 0000 0000 0000 0000
000003b0: 0000 0000 0000 0000 0000 0000 0000 0000
000003c0: 0000 0000 0000 0000 0000 0000 0000 0000
000003d0: 0000 0000 0000 0000 0000 0000 0000 0000
000003e0: 0000 0000 0000 0000 0000 0000 0000 0000
000003f0: 0000 0000 0000 0000 0000 0000 0000 0000
0.0 0.0 0.0 0.0 0.0 0.0 0.0 0.0
0.0 0.0 0.0 0.0 0.0 0.0 0.0 0.0
0.0 0.0 0.0 0.0 0.0 0.0 0.0 0.0
0.0 0.0 0.0 0.0 0.0 0.0 0.0 0.0
0.0 0.0 0.0 0.0 0.0 0.0 0.0 0.0
0.0 0.0 0.0 0.0 0.0 0.0 0.0 0.0
0.0 0.0 0.0 0.0 0.0 0.0 0.0 0.0
0.0 0.0 0.0 0.0 0.0 0.0 0.0 0.0
0.0 0.0 0.0 0.0 0.0 0.0 0.0 0.0
0.0 0.0 0.0 0.0 0.0 0.0 0.0 0.0
0.0 0.0 0.0 0.0 0.0 0.0 0.0 0.0
0.0 0.0 0.0 0.0 0.0 0.0 0.0 0.0
0.0 0.0 0.0 0.0 0.0 0.0 0.0 0.0
0.0 0.0 0.0 0.0 0.0 0.0 0.0 0.0
0.0 0.0 0.0 0.0 0.0 0.0 0.0 0.0
0.0 0.0 0.0 0.0 0.0 0.0 0.0 0.0
0.0 0.0 0.0 0.0 0.0 0.0 0.0 0.0
0.0 0.0 0.0 0.0 0.0 0.0 0.0 0.0
0.0 0.0 0.0 0.0 0.0 0.0 0.0 0.0
0.0 0.0 0.0 0.0 0.0 0.0 0.0 0.0
0.0 0.0 0.0 0.0 0.0 0.0 0.0 0.0
0.0 0.0 0.0 0.0 0.0 0.0 0.0 0.0
0.0 0.0 0.0 0.0 0.0 0.0 0.0 0.0
0.0 0.0 0.0 0.0 0.0 0.0 0.0 0.0
0.0 0.0 0.0 0.0 0.0 0.0 0.0 0.0
0.0 0.0 0.0 0.0 0.0 0.0 0.0 0.0
0.0 0.0 0.0 0.0 0.0 0.0 0.0 0.0
0.0 0.0 0.0 0.0 0.0 0.0 0.0 0.0
0.0 0.0 0.0 0.0 0.0 0.0 0.0 0.0
0.0 0.0 0.0 0.0 0.0 0.0 0.0 0.0
0.0 0.0 0.0 0.0 0.0 0.0 0.0 0.0
0.0 0.0 0.0 0.0 0.0 0.0 0.0 0.0

network_body._body_endoder.seq_layers.2.weight f4 [256, 256]
00000000: 06f3 dbbc 1e93 fc3d 3778 a33c 9c80 d13d
00000010: 27a9 123c 0d62 cabd 7112 abbb 054c 2fbc
00000020: 5d97 40bc 2ea4 263b 6958 a3bc 6f60 22be
00000030: b5a1 ebbc a0c1 e63d f7fa 513d 8c3b 66ba
00000040: d197 b83d adbe 04bd 4811 bf3d a368 9bbd
00000050: d101 893c b49f 643d 7f87 803c 7044 e4bd
00000060: f2eb 953c 32e3 67bc 17b4 423c ffa9 d13a
00000070: d75b bebc 06f8 6d3a 5f7e 873c f60f 243d
00000080: 71c0 18bb 6508 2b3d 9774 7f3d f92e 97bc
00000090: 7021 73bc 3a18 a5bd 92e1 7ebd 04da 653d
000000a0: 3169 6f3d e181 183d 17ea 0dbd c8ee 0abd
000000b0: a9c6 c3bd d56a 2e3d a0ed 703d a632 403d
000000c0: e6dc e63d 0ee1 fbbc 7125 a03b 6756 94bd
000000d0: 5dfb b9bb 6913 a13d a0cb 963c 8a76 79bd
000000e0: ce3d 5f3d 27a1 993c f318 92bd 7c07 5ebc
000000f0: 4af5 65bb 3291 bc3d 21a0 eb3c 09e8 b6bd
00000100: 1f82 2b3d e63a f9bc 7edf 563d 1f41 da3d
00000110: 9286 32bd 9dce 0cbd 0572 15bc 1a30 2abc
00000120: 8548 6cbd 5a15 873d 057a 91bd fdca 763c
00000130: 21a3 10bc 9097 0e3e f13b 143d aaa9 9d3d
00000140: 65d9 373d 5a47 c6bc da55 513d 6cac 92bd
00000150: 1598 963d c418 17bd 4da1 c8bd f766 3f3c
00000160: 6fc3 b0bd 0b90 adbc d6a6 443d 8bf7 67bd
00000170: 6f5a 8abc 33a1 27bc 254a 043e e22a c03d
00000180: d782 293d 7c2a 8c3c 7704 e7bd 31bf 943d
00000190: 1b54 a0ba 625e 113d b237 51bd 794f 503d
000001a0: d207 033d 709c d73d 28ee d7bd 86e3 c63c
000001b0: 09e1 c8bd 4db2 2bbd c14f 1a3d cc9b 9ebd
000001c0: 1160 033e 7bfa b1bd b77b c63c f2bf 673d
000001d0: 354a 593d 08ac cb3c f442 203d bcf3 773d
000001e0: 3a54 8c3d 6dad d7bd a150 43bd 0209 8cbd
000001f0: 37bf 793d af29 653c 0941 adbc 402f e8bc
00000200: 965e c93c ad98 233d 7af4 bcbb 6cd0 d73d
00000210: 1633 a33d 4f21 03bd df20 0e3d ea85 d63c
00000220: e40d f03c f1df 7c3c 5be2 813c e956 4fbd
00000230: 03d8 f03c c8c5 d63d 7b2c 6cba 6652 bebd
00000240: fb21 4e3d 269b 38bd bd62 e03d a50c 8b3d
00000250: 5f01 e4bd da63 153d 581e c2bc 6aae f83c
00000260: 27bf 10bd 93d4 8e3d d1dd 01be eff0 083d
00000270: 4834 01bd 9589 f13d ea83 a7bd 71bf 7b3c
00000280: de02 043e 4162 19bb 0e0e 17bd abda 4dbd
00000290: a1d3 e4bd ba06 66bd 7bfd a2bc 9a8b 343d
000002a0: f891 e0bd a48c c33d b380 04bc 4943 76bc
000002b0: 423d 9cbd 9c92 ad3c a167 22bd 342c 5f3d
000002c0: a2aa d0bd 8325 a03c fc04 453d e531 bbbb
000002d0: 982a 08be c7d2 1c3d 33e0 32bd 775d f63c
000002e0: 1b38 a7ba a6a7 ccbd 71ac 1cbd 64a2 e1bd
000002f0: 4391 03bd 1007 56bd 884d c73b fa7d a53b
00000300: 048c f83d 57e2 57bb 189d e33d 9a29 dfbd
00000310: feea e0bd 1fae b83b 878c aa3c cc3d 1d3d
00000320: e145 853d 9904 a03d 7df2 693d 39e7 153c
00000330: 48ae 19bc d522 c83d 6917 58bc 652a 29bd
00000340: 466d a83b 1a5d 9a3d ee37 7b3d 92ca b3bb
00000350: 3868 963d c740 cebc 05bc 51bd 2c8d 9fbc
00000360: 5564 6e3d ae69 4dbd d9bb fcbc ff8d 48bd
00000370: 5ae6 883d 16ab 7c3d dd6b 59bd a85b a03d
00000380: 2be8 873c 1740 613d ee25 bf3d 1ed3 dfbd
00000390: eda0 01bc e794 d83b a6ce 243d b907 4c3d
000003a0: dae4 14bd 6d6d fd3d 44fd ecbc 9871 b53d
000003b0: 39e0 f73b 833d 00bd 176c 74bd ea81 c13c
000003c0: 1bb7 38bd 1905 f13c d2cf 323d 741f 953d
000003d0: cf98 9cbb 7216 233d 9d7e ce3d 53da fb3b
000003e0: b326 203d b630 853d d740 5a3d 4872 bebd
000003f0: 652f 893c 7b6a b8bd 0117 61bd 3e9b c03c
-0.026849281 0.12332748 0.019954784 0.102296084 0.008951462 -0.09881983 -0.0052207042 -0.010699277
-0.011754838 0.0025427449 -0.019939618 -0.15857099 -0.028763631 0.112674 0.05126473 -0.0008782677
0.09013332 -0.032408405 0.09329468 -0.07588317 0.016724499 0.055816367 0.01568961 -0.11145866
0.018300984 -0.014153289 0.011883757 0.0015996097 -0.023237152 0.0009077791 0.01653975 0.040054284
-0.0023308063 0.041756053 0.062367048 -0.018455015 -0.014839515 -0.080612615 -0.06222684 0.05611612
0.058449928 0.037233237 -0.034647074 -0.033919126 -0.09559376 0.04258235 0.058820367 0.046923302
0.11272602 -0.030746963 0.004887276 -0.072430424 -0.005675717 0.0786503 0.018407643 -0.060904063
0.0545023 0.018753601 -0.07133665 -0.013551589 -0.003508883 0.09207381 0.028762879 -0.08930976
0.04187214 -0.030423593 0.052459233 0.10656952 -0.043585368 -0.03437673 -0.009121423 -0.010387445
-0.057686348 0.06595869 -0.071033515 0.015063045 -0.008827955 0.13925004 0.036189977 0.076983765
0.044885058 -0.024203945 0.051107265 -0.07161793 0.07353226 -0.036888853 -0.09796391 0.011682264
-0.08631026 -0.02118685 0.04801067 -0.05663256 -0.016888825 -0.010231304 0.12918909 0.09383179
0.041384544 0.017110102 -0.112801485 0.07263029 -0.0012232097 0.0354904 -0.051078506 0.05085704
0.03198988 0.10527885 -0.105434716 0.024278414 -0.09808547 -0.041918088 0.037673716 -0.0774456
0.12829615 -0.086903535 0.024228914 0.056579538 0.053049285 0.024862304 0.03912635 0.060535178
0.068520024 -0.10531125 -0.047684316 -0.068376556 0.060973372 0.013986989 -0.021149175 -0.028342843
0.024581235 0.039940525 -0.0057664486 0.105378 0.07968728 -0.032014187 0.034699317 0.026186902
0.029303499 0.015434251 0.015855005 -0.050619993 0.029399877 0.104869425 -0.00090093137 -0.0929306
0.050325375 -0.045069836 0.10956333 0.06789521 -0.11133074 0.03647218 -0.02369611 0.030356605
-0.035338547 0.06974139 -0.12682272 0.033432897 -0.031544 0.1179382 -0.081794575 0.015365467
0.12891719 -0.002340451 -0.036878638 -0.050257366 -0.111731775 -0.05615876 -0.01989626 0.044078447
-0.10965341 0.095483094 -0.008087325 -0.0150306905 -0.076288715 0.021188073 -0.03964961 0.054485515
-0.101887956 0.019549137 0.048100457 -0.005712735 -0.13297498 0.03828695 -0.043670844 0.030073864
-0.001275781 -0.09992914 -0.03825039 -0.11017302 -0.032120954 -0.05225283 0.0060822405 0.005050418
0.12136081 -0.0032941306 0.11113948 -0.10896607 -0.10982321 0.005635991 0.020818962 0.038389012
0.06507469 0.07813377 0.05711602 0.009149366 -0.009379931 0.09772269 -0.013189175 -0.041300196
0.0051399795 0.07537289 0.061332636 -0.0054867947 0.07344097 -0.025177373 -0.0512047 -0.019476496
0.058201153 -0.050149612 -0.030851291 -0.048963543 0.06684561 0.061686598 -0.053081382 0.07829982
0.016590199 0.05499276 0.093334064 -0.10928939 -0.007911903 0.0066095474 0.040236138 0.049812052
-0.036351062 0.12374387 -0.02892936 0.08859557 0.007564571 -0.031308662 -0.059673395 0.023621518
-0.045096498 0.029421376 0.043655224 0.0728139 -0.0047789584 0.039816327 0.10082743 0.0076859384
0.039099406 0.065034315 0.053284492 -0.09299141 0.016746232 -0.090046845 -0.05495358 0.023511525

network_body._body_endoder.seq_layers.4.bias f4 [256]
00000000: 0000 0000 0000 0000 0000 0000 0000 0000
00000010: 0000 0000 0000 0000 0000 0000 0000 0000
00000020: 0000 0000 0000 0000 0000 0000 0000 0000
00000030: 0000 0000 0000 0000 0000 0000 0000 0000
00000040: 0000 0000 0000 0000 0000 0000 0000 0000
00000050: 0000 0000 0000 0000 0000 0000 0000 0000
00000060: 0000 0000 0000 0000 0000 0000 0000 0000
00000070: 0000 0000 0000 0000 0000 0000 0000 0000
00000080: 0000 0000 0000 0000 0000 0000 0000 0000
00000090: 0000 0000 0000 0000 0000 0000 0000 0000
000000a0: 0000 0000 0000 0000 0000 0000 0000 0000
000000b0: 0000 0000 0000 0000 0000 0000 0000 0000
000000c0: 0000 0000 0000 0000 0000 0000 0000 0000
000000d0: 0000 0000 0000 0000 0000 0000 0000 0000
000000e0: 0000 0000 0000 0000 0000 0000 0000 0000
000000f0: 0000 0000 0000 0000 0000 0000 0000 0000
00000100: 0000 0000 0000 0000 0000 0000 0000 0000
00000110: 0000 0000 0000 0000 0000 0000 0000 0000
00000120: 0000 0000 0000 0000 0000 0000 0000 0000
00000130: 0000 0000 0000 0000 0000 0000 0000 0000
00000140: 0000 0000 0000 0000 0000 0000 0000 0000
00000150: 0000 0000 0000 0000 0000 0000 0000 0000
00000160: 0000 0000 0000 0000 0000 0000 0000 0000
00000170: 0000 0000 0000 0000 0000 0000 0000 0000
00000180: 0000 0000 0000 0000 0000 0000 0000 0000
00000190: 0000 0000 0000 0000 0000 0000 0000 0000
000001a0: 0000 0000 0000 0000 0000 0000 0000 0000
000001b0: 0000 0000 0000 0000 0000 0000 0000 0000
000001c0: 0000 0000 0000 0000 0000 0000 0000 0000
000001d0: 0000 0000 0000 0000 0000 0000 0000 0000
000001e0: 0000 0000 0000 0000 0000 0000 0000 0000
000001f0: 0000 0000 0000 0000 0000 0000 0000 0000
00000200: 0000 0000 0000 0000 0000 0000 0000 0000
00000210: 0000 0000 0000 0000 0000 0000 0000 0000
00000220: 0000 0000 0000 0000 0000 0000 0000 0000
00000230: 0000 0000 0000 0000 0000 0000 0000 0000
00000240: 0000 0000 0000 0000 0000 0000 0000 0000
00000250: 0000 0000 0000 0000 0000 0000 0000 0000
00000260: 0000 0000 0000 0000 0000 0000 0000 0000
00000270: 0000 0000 0000 0000 0000 0000 0000 0000
00000280: 0000 0000 0000 0000 0000 0000 0000 0000
00000290: 0000 0000 0000 0000 0000 0000 0000 0000
000002a0: 0000 0000 0000 0000 0000 0000 0000 0000
000002b0: 0000 0000 0000 0000 0000 0000 0000 0000
000002c0: 0000 0000 0000 0000 0000 0000 0000 0000
000002d0: 0000 0000 0000 0000 0000 0000 0000 0000
000002e0: 0000 0000 0000 0000 0000 0000 0000 0000
000002f0: 0000 0000 0000 0000 0000 0000 0000 0000
00000300: 0000 0000 0000 0000 0000 0000 0000 0000
00000310: 0000 0000 0000 0000 0000 0000 0000 0000
00000320: 0000 0000 0000 0000 0000 0000 0000 0000
00000330: 0000 0000 0000 0000 0000 0000 0000 0000
00000340: 0000 0000 0000 0000 0000 0000 0000 0000
00000350: 0000 0000 0000 0000 0000 0000 0000 0000
00000360: 0000 0000 0000 0000 0000 0000 0000 0000
00000370: 0000 0000 0000 0000 0000 0000 0000 0000
00000380: 0000 0000 0000 0000 0000 0000 0000 0000
00000390: 0000 0000 0000 0000 0000 0000 0000 0000
000003a0: 0000 0000 0000 0000 0000 0000 0000 0000
000003b0: 0000 0000 0000 0000 0000 0000 0000 0000
000003c0: 0000 0000 0000 0000 0000 0000 0000 0000
000003d0: 0000 0000 0000 0000 0000 0000 0000 0000
000003e0: 0000 0000 0000 0000 0000 0000 0000 0000
000003f0: 0000 0000 0000 0000 0000 0000 0000 0000
0.0 0.0 0.0 0.0 0.0 0.0 0.0 0.0
0.0 0.0 0.0 0.0 0.0 0.0 0.0 0.0
0.0 0.0 0.0 0.0 0.0 0.0 0.0 0.0
0.0 0.0 0.0 0.0 0.0 0.0 0.0 0.0
0.0 0.0 0.0 0.0 0.0 0.0 0.0 0.0
0.0 0.0 0.0 0.0 0.0 0.0 0.0 0.0
0.0 0.0 0.0 0.0 0.0 0.0 0.0 0.0
0.0 0.0 0.0 0.0 0.0 0.0 0.0 0.0
0.0 0.0 0.0 0.0 0.0 0.0 0.0 0.0
0.0 0.0 0.0 0.0 0.0 0.0 0.0 0.0
0.0 0.0 0.0 0.0 0.0 0.0 0.0 0.0
0.0 0.0 0.0 0.0 0.0 0.0 0.0 0.0
0.0 0.0 0.0 0.0 0.0 0.0 0.0 0.0
0.0 0.0 0.0 0.0 0.0 0.0 0.0 0.0
0.0 0.0 0.0 0.0 0.0 0.0 0.0 0.0
0.0 0.0 0.0 0.0 0.0 0.0 0.0 0.0
0.0 0.0 0.0 0.0 0.0 0.0 0.0 0.0
0.0 0.0 0.0 0.0 0.0 0.0 0.0 0.0
0.0 0.0 0.0 0.0 0.0 0.0 0.0 0.0
0.0 0.0 0.0 0.0 0.0 0.0 0.0 0.0
0.0 0.0 0.0 0.0 0.0 0.0 0.0 0.0
0.0 0.0 0.0 0.0 0.0 0.0 0.0 0.0
0.0 0.0 0.0 0.0 0.0 0.0 0.0 0.0
0.0 0.0 0.0 0.0 0.0 0.0 0.0 0.0
0.0 0.0 0.0 0.0 0.0 0.0 0.0 0.0
0.0 0.0 0.0 0.0 0.0 0.0 0.0 0.0
0.0 0.0 0.0 0.0 0.0 0.0 0.0 0.0
0.0 0.0 0.0 0.0 0.0 0.0 0.0 0.0
0.0 0.0 0.0 0.0 0.0 0.0 0.0 0.0
0.0 0.0 0.0 0.0 0.0 0.0 0.0 0.0
0.0 0.0 0.0 0.0 0.0 0.0 0.0 0.0
0.0 0.0 0.0 0.0 0.0 0.0 0.0 0.0

network_body._body_endoder.seq_layers.4.weight f4 [256, 256]
00000000: 84ef fc3d 58ab 983d b7d7 283d 29ad d93c
00000010: 119d ce3c 9161 b43d c1ce ac3d 898a 943d
00000020: be92 54bd 6889 523d 4794 303d f924 0ebd
00000030: 31a0 ec3d c4b1 8a3d 25e1 1f3d 34b4 6bbd
00000040: dbec c7bd c242 4cbc a05e a63c 6974 15bd
00000050: 8dbb 67bc db19 a6bd 3580 3ebd 209b c2bb
00000060: bad7 31bd 0c4a 6d3b 4301 653d 3eac 403d
00000070: 47aa b13d ad7c a13c fd28 823d 111d ecbd
00000080: dd38 ebbc 3fcb 07be d895 593d 8546 ae3d
00000090: 3b58 783c 1af7 87bd 0ecb 043c 3f88 98bd
000000a0: c616 56bd 01ff 5dbc d264 0abd eba1 233c
000000b0: 18e5 443e ada7 993c daae f83c 88e6 d93c
000000c0: 47a5 22bd fd67 b6bb cbd9 3fbd 0a3b 4b3d
000000d0: 19fc 383e 4056 d8bd 680a 083d 7427 543c
000000e0: a61e 07bd 4645 133d 706a 943d 006c 05bd
000000f0: a447 94bd 1be4 b53b 2111 93bd 44b5 4e3d
00000100: 09b5 3bbd 0ae0 0fbd 7321 ad3d c3cd 5ebd
00000110: 8a86 bfbd 17ba be3c f502 bbbd 6b41 573d
00000120: fd61 95bd 717d 2ebd 1971 e43d cc95 95bd
00000130: f775 b53c af5a c63c 5a6f af3d 7cd2 81bd
00000140: cabb 7abd 9c69 a03c 3ad4 a73c 21e3 dbbc
00000150: 9981 07bc 317d 25bd 59d8 9f3d 9cbb 0fbe
00000160: 8449 ab3d 0df2 ce3c de8e 1d3d df7e 513d
00000170: 0f4f 703b dc47 073d fdf1 36be 7cd7 4e3d
00000180: 2214 c03c c69a 233d 10a6 e1bd 7531 c4bd
00000190: 9534 913d 6126 6f3c 9a3e 0fbd 46ae 9f3d
000001a0: 023e b33c d75e 83bd 3d14 753d 371c 23bb
000001b0: 46a0 86bd e997 693d 8b36 ec3d 4c82 75bc
000001c0: 60a1 ddbc 6fb6 05bd 0a8a b33b efa2 6f3c
000001d0: a2fb 35bd e7e6 073d dfc5 643d 102c 003d
000001e0: 56d3 8c3d c881 563c f1ce c93a ec3e 0d3a
000001f0: c5f4 44bd 3fc0 8d3d bbf9 843d 2cab e33d
00000200: ab9a e4bc 6e81 003d ae6e 633a 36ce 07be
00000210: b696 1e3e 5c36 b53c 5686 00be 7d4d 23bd
00000220: 62c9 b73d 9945 073e 4440 133d 9520 d23d
00000230: a496 edbd 9233 62bd d039 14bd 055b 15bd
00000240: a397 123d 85b5 bf3b 3d0b 1ebd 9463 7e3b
00000250: 18c2 ca3d a7ba e8bb 9134 753d 33a8 253d
00000260: 8a7d f3bc 7e29 703b 1695 243d 9a69 a1bd
00000270: 6a51 9f3d dc2f 003d f4c7 1dbd d924 133d
00000280: 02ac d7bd 0763 3a3b 197c 71bd 05fd 03bd
00000290: 27f2 b03c a3ab 10bc 999c 043c 3129 29bd
000002a0: 2ad2 febd 9d42 e23d 2ae5 d23d 761b 53bd
000002b0: 6924 8f3d 79bc 633d 7843 803d 3633 4e3d
000002c0: 0dd9 87bc f4c1 813d d82b c33c ac82 ed3a
000002d0: 109f e23c 3559 8abd c022 02bd 50cb 70bd
000002e0: bb79 36bd da66 f6bb cb08 543b 0714 36bd
000002f0: 2f2f c03d 242b 063e 4149 5ebd 49c4 6abd
00000300: af94 9b3d 40bc a83d 14bd e73c 9477 c1bd
00000310: 78e2 103d a4ad c4bd fa1f a23d b662 b5bd
00000320: 737b 063d 6cc5 c3bd f554 37bb fc8c cf3d
00000330: 0b95 883d 1e8c e83c 90e2 5a3c bebd 893d
00000340: 3c99 7dbd 476a a93d 0369 18bd 7479 fc3c
00000350: 8ac6 7dba 229a 7e3d 9dae a13d f670 09bd
00000360: b0f3 abbd 4494 043d 6a6c f5bc f303 183b
00000370: efda 853b 4ebe 813d 298d fabd a2d8 b93c
00000380: 1037 8ebb 70cc e1bd 5ddb d4bc 8f64 003c
00000390: 33d7 91bb 9a1a 053d 3073 80bd 0dac 1bbc
000003a0: 21c2 273d c802 d53c f4ac 3a3d 66e2 273d
000003b0: 8d8f 6bbd 0304 8c3d 524b b33d d0f1 8d3d
000003c0: 853b fb3b eaee 57bd 15b0 0e3c 3693 073d
000003d0: 3465 a6bd 91cf ea3b 042c 7fbd 810a b0b7
000003e0: 3067 0a3d d7e1 da3d 7300 c8bc b348 1bbe
000003f0: 1354 6ebd ad48 0f3b f697 aabd 861a bb3d
0.123503715 0.07454556 0.041221347 0.026571827 0.02522138 0.08807672 0.08437873 0.07252986
-0.051897757 0.051400572 0.04311016 -0.03470323 0.115539916 0.06772187 0.039033074 -0.057544902
-0.097619735 -0.012467088 0.020308793 -0.03648797 -0.014143837 -0.081104 -0.046508987 -0.0059389025
-0.043418624 0.0036207465 0.055909406 0.047039263 0.08675056 0.01971277 0.06355474 -0.115289815
-0.028713638 -0.13261126 0.053121418 0.08509544 0.0151577545 -0.06638928 0.008105053 -0.07447862
-0.052267812 -0.013549567 -0.033787556 0.009987335 0.19228017 0.018756712 0.030356813 0.026599184
-0.039708402 -0.0055665956 -0.046838563 0.04961685 0.18064918 -0.10563326 0.03321305 0.0129488595
-0.032988213 0.035954736 0.07246864 -0.0325737 -0.07240227 0.005550874 -0.071810015 0.050465837
-0.045826945 -0.03512577 0.084536456 -0.05439545 -0.09351833 0.023282094 -0.091314234 0.05255262
-0.072940804 -0.0426001 0.11154384 -0.07303962 0.022150977 0.024213163 0.085661605 -0.06338975
-0.061214246 0.019581608 0.02048694 -0.026841702 -0.008270645 -0.040402595 0.07804937 -0.14036411
0.08363631 0.025261903 0.038466327 0.051146384 0.0036668216 0.033027515 -0.17865749 0.05049847
0.0234471 0.039942525 -0.11018002 -0.09579746 0.07090107 0.014596553 -0.03497181 0.07796912
0.021880154 -0.06414574 0.059833754 -0.0024888644 -0.065735385 0.05702964 0.11533841 -0.0149846785
-0.027054489 -0.032644685 0.005479102 0.014626249 -0.04442943 0.03317919 0.055852767 0.03129202
0.06876247 0.013092466 0.0015396756 0.0005388099 -0.048084993 0.06921434 0.06492945 0.11116633
-0.027905783 0.031373434 0.00086758554 -0.13262257 0.15487179 0.022120647 -0.12551245 -0.03986882
0.089739576 0.13210143 0.03594996 0.10260121 -0.11600998 -0.055224963 -0.036187947 -0.036463756
0.035789143 0.0058504962 -0.038584936 0.0038816677 0.09900302 -0.007102329 0.059864584 0.04044361
-0.029722948 0.0036645825 0.040181242 -0.0788147 0.077792004 0.031295642 -0.03852077 0.035923813
-0.10530855 0.0028440373 -0.05895624 -0.03222372 0.021599842 -0.008829984 0.008093976 -0.04129905
-0.12442429 0.11047862 0.10297616 -0.05153986 0.069893666 0.055599663 0.06262869 0.050341807
-0.01658299 0.06335822 0.023824617 0.0018120608 0.027663738 -0.06755296 -0.03177142 -0.058787644
-0.044549685 -0.007519585 0.0032353874 -0.044452693 0.093839996 0.13102394 -0.05426908 -0.0573161
0.075967185 0.08239031 0.028288402 -0.09446636 0.035372227 -0.09603432 0.07916255 -0.08856718
0.032832574 -0.095591396 -0.0027974222 0.101343125 0.06669053 0.028387126 0.013359681 0.067256436
-0.061913714 0.08272224 -0.037209522 0.030819632 -0.00096807687 0.06215871 0.07894633 -0.033554994
-0.08396089 0.03236796 -0.029958922 0.0023195713 0.004084937 0.06335126 -0.122339554 0.022686306
-0.00434006 -0.110253215 -0.025983507 0.007836475 -0.0044507026 0.032496072 -0.0627197 -0.009501469
0.04095662 0.026002303 0.045575097 0.040987395 -0.057509948 0.06836703 0.087546006 0.06930888
0.0076670074 -0.05271808 0.008708973 0.033099376 -0.08124772 0.007165857 -0.062297836 -2.0985726e-05
0.033789814 0.10687607 -0.024414277 -0.15164451 -0.05818565 0.0021863387 -0.083297655 0.09135918

network_body._body_endoder.seq_layers.6.bias f4 [256]
00000000: 0000 0000 0000 0000 0000 0000 0000 0000
00000010: 0000 0000 0000 0000 0000 0000 0000 0000
00000020: 0000 0000 0000 0000 0000 0000 0000 0000
00000030: 0000 0000 0000 0000 0000 0000 0000 0000
00000040: 0000 0000 0000 0000 0000 0000 0000 0000
00000050: 0000 0000 0000 0000 0000 0000 0000 0000
00000060: 0000 0000 0000 0000 0000 0000 0000 0000
00000070: 0000 0000 0000 0000 0000 0000 0000 0000
00000080: 0000 0000 0000 0000 0000 0000 0000 0000
00000090: 0000 0000 0000 0000 0000 0000 0000 0000
000000a0: 0000 0000 0000 0000 0000 0000 0000 0000
000000b0: 0000 0000 0000 0000 0000 0000 0000 0000
000000c0: 0000 0000 0000 0000 0000 0000 0000 0000
000000d0: 0000 0000 0000 0000 0000 0000 0000 0000
000000e0: 0000 0000 0000 0000 0000 0000 0000 0000
000000f0: 0000 0000 0000 0000 0000 0000 0000 0000
00000100: 0000 0000 0000 0000 0000 0000 0000 0000
00000110: 0000 0000 0000 0000 0000 0000 0000 0000
00000120: 0000 0000 0000 0000 0000 0000 0000 0000
00000130: 0000 0000 0000 0000 0000 0000 0000 0000
00000140: 0000 0000 0000 0000 0000 0000 0000 0000
00000150: 0000 0000 0000 0000 0000 0000 0000 0000
00000160: 0000 0000 0000 0000 0000 0000 0000 0000
00000170: 0000 0000 0000 0000 0000 0000 0000 0000
00000180: 0000 0000 0000 0000 0000 0000 0000 0000
00000190: 0000 0000 0000 0000 0000 0000 0000 0000
000001a0: 0000 0000 0000 0000 0000 0000 0000 0000
000001b0: 0000 0000 0000 0000 0000 0000 0000 0000
000001c0: 0000 0000 0000 0000 0000 0000 0000 0000
000001d0: 0000 0000 0000 0000 0000 0000 0000 0000
000001e0: 0000 0000 0000 0000 0000 0000 0000 0000
000001f0: 0000 0000 0000 0000 0000 0000 0000 0000
00000200: 0000 0000 0000 0000 0000 0000 0000 0000
00000210: 0000 0000 0000 0000 0000 0000 0000 0000
00000220: 0000 0000 0000 0000 0000 0000 0000 0000
00000230: 0000 0000 0000 0000 0000 0000 0000 0000
00000240: 0000 0000 0000 0000 0000 0000 0000 0000
00000250: 0000 0000 0000 0000 0000 0000 0000 0000
00000260: 0000 0000 0000 0000 0000 0000 0000 0000
00000270: 0000 0000 0000 0000 0000 0000 0000 0000
00000280: 0000 0000 0000 0000 0000 0000 0000 0000
00000290: 0000 0000 0000 0000 0000 0000 0000 0000
000002a0: 0000 0000 0000 0000 0000 0000 0000 0000
000002b0: 0000 0000 0000 0000 0000 0000 0000 0000
000002c0: 0000 0000 0000 0000 0000 0000 0000 0000
000002d0: 0000 0000 0000 0000 0000 0000 0000 0000
000002e0: 0000 0000 0000 0000 0000 0000 0000 0000
000002f0: 0000 0000 0000 0000 0000 0000 0000 0000
00000300: 0000 0000 0000 0000 0000 0000 0000 0000
00000310: 0000 0000 0000 0000 0000 0000 0000 0000
00000320: 0000 0000 0000 0000 0000 0000 0000 0000
00000330: 0000 0000 0000 0000 0000 0000 0000 0000
00000340: 0000 0000 0000 0000 0000 0000 0000 0000
00000350: 0000 0000 0000 0000 0000 0000 0000 0000
00000360: 0000 0000 0000 0000 0000 0000 0000 0000
00000370: 0000 0000 0000 0000 0000 0000 0000 0000
00000380: 0000 0000 0000 0000 0000 0000 0000 0000
00000390: 0000 0000 0000 0000 0000 0000 0000 0000
000003a0: 0000 0000 0000 0000 0000 0000 0000 0000
000003b0: 0000 0000 0000 0000 0000 0000 0000 0000
000003c0: 0000 0000 0000 0000 0000 0000 0000 0000
000003d0: 0000 0000 0000 0000 0000 0000 0000 0000
000003e0: 0000 0000 0000 0000 0000 0000 0000 0000
000003f0: 0000 0000 0000 0000 0000 0000 0000 0000
0.0 0.0 0.0 0.0 0.0 0.0 0.0 0.0
0.0 0.0 0.0 0.0 0.0 0.0 0.0 0.0
0.0 0.0 0.0 0.0 0.0 0.0 0.0 0.0
0.0 0.0 0.0 0.0 0.0 0.0 0.0 0.0
0.0 0.0 0.0 0.0 0.0 0.0 0.0 0.0
0.0 0.0 0.0 0.0 0.0 0.0 0.0 0.0
0.0 0.0 0.0 0.0 0.0 0.0 0.0 0.0
0.0 0.0 0.0 0.0 0.0 0.0 0.0 0.0
0.0 0.0 0.0 0.0 0.0 0.0 0.0 0.0
0.0 0.0 0.0 0.0 0.0 0.0 0.0 0.0
0.0 0.0 0.0 0.0 0.0 0.0 0.0 0.0
0.0 0.0 0.0 0.0 0.0 0.0 0.0 0.0
0.0 0.0 0.0 0.0 0.0 0.0 0.0 0.0
0.0 0.0 0.0 0.0 0.0 0.0 0.0 0.0
0.0 0.0 0.0 0.0 0.0 0.0 0.0 0.0
0.0 0.0 0.0 0.0 0.0 0.0 0.0 0.0
0.0 0.0 0.0 0.0 0.0 0.0 0.0 0.0
0.0 0.0 0.0 0.0 0.0 0.0 0.0 0.0
0.0 0.0 0.0 0.0 0.0 0.0 0.0 0.0
0.0 0.0 0.0 0.0 0.0 0.0 0.0 0.0
0.0 0.0 0.0 0.0 0.0 0.0 0.0 0.0
0.0 0.0 0.0 0.0 0.0 0.0 0.0 0.0
0.0 0.0 0.0 0.0 0.0 0.0 0.0 0.0
0.0 0.0 0.0 0.0 0.0 0.0 0.0 0.0
0.0 0.0 0.0 0.0 0.0 0.0 0.0 0.0
0.0 0.0 0.0 0.0 0.0 0.0 0.0 0.0
0.0 0.0 0.0 0.0 0.0 0.0 0.0 0.0
0.0 0.0 0.0 0.0 0.0 0.0 0.0 0.0
0.0 0.0 0.0 0.0 0.0 0.0 0.0 0.0
0.0 0.0 0.0 0.0 0.0 0.0 0.0 0.0
0.0 0.0 0.0 0.0 0.0 0.0 0.0 0.0
0.0 0.0 0.0 0.0 0.0 0.0 0.0 0.0
