Cursed Tennis/Assets/Tennis/results/TennisPro5/Tennis/Tennis-13094.onnx (onnx, 886342 bytes, 13 tensors)

60 f4 [84]
0	0x40583dfe	3.3787837
1	0x3fe6176c	1.7975898
2	0x40051477	2.079374
3	0x403e95da	2.9778962
4	0x40583dfe	3.3787837
5	0x3fe6176c	1.7975898
6	0x3f9058d8	1.1277113
7	0x3e01a062	0.12658837
8	0x3dfa0a79	0.12209029
9	0x3eabd62c	0.33561838
10	0x3eb6e961	0.3572493
11	0x3f9058d8	1.1277113
12	0x40c31334	6.096094
13	0x3fa8c719	1.318576
14	0x3fdd93d9	1.7310745
15	0x405923c1	3.3928072
16	0x40c31334	6.096094
17	0x3fa8c719	1.318576
18	0x3fa918d0	1.3210697
19	0x3f9058d8	1.1277113
20	0x3eabd62c	0.33561838
21	0x40433452	3.0500684
22	0x3ff1dc20	1.8895302
23	0x400fca29	2.2467139
24	0x404ef626	3.2337737
25	0x40433452	3.0500684
26	0x3ff1dc20	1.8895302
27	0x3f8af33f	1.0855483
28	0x3e02fdab	0.12792079
29	0x3df938c4	0.1216903
30	0x3ea0255e	0.3127851
31	0x3eaaa9ed	0.33332768
32	0x3f8af33f	1.0855483
33	0x40d32cb1	6.5992055
34	0x3fcc74a6	1.5973098
35	0x3fef4faa	1.8696187
36	0x406e28c6	3.7212386
37	0x40d32cb1	6.5992055
38	0x3fcc74a6	1.5973098
39	0x3fb70bcf	1.4300479
40	0x3f8af33f	1.0855483
41	0x3ea0255e	0.3127851
42	0x4019d78e	2.4037814
43	0x3ff2e4be	1.8976057
44	0x401acf2b	2.4188945
45	0x40553921	3.3316119
46	0x4019d78e	2.4037814
47	0x3ff2e4be	1.8976057
48	0x3f7e5d0e	0.9936074
49	0x3e009ee5	0.12560613
50	0x3df1f744	0.1181474
51	0x3e889b1f	0.26680848
52	0x3e92699b	0.28596196
53	0x3f7e5d0e	0.9936074
54	0x40e34407	7.102054
55	0x3ff68c82	1.926163
56	0x4000d4d3	2.0129898
57	0x407e16bd	3.9701378
58	0x40e34407	7.102054
59	0x3ff68c82	1.926163
60	0x3fc67161	1.550335
61	0x3f7e5d0e	0.9936074
62	0x3e889b1f	0.26680848
63	0x3f415ee5	0.7553542
64	0x3fe5596b	1.7917913
65	0x40257187	2.5850542
66	0x405b6d4c	3.428546
67	0x3f415ee5	0.7553542
68	0x3fe5596b	1.7917913
69	0x3f52e6b3	0.8238327
70	0x3df4f6fb	0.1196117
71	0x3de24d7c	0.11049935
72	0x3e347390	0.17622209
73	0x3e45c765	0.19314344
74	0x3f52e6b3	0.8238327
75	0x40f374a8	7.6079903
76	0x401304e8	2.2971745
77	0x400cd461	2.2004626
78	0x4083367a	4.1004
79	0x40f374a8	7.6079903
80	0x401304e8	2.2971745
81	0x3fd71880	1.6804352
82	0x3f52e6b3	0.8238327
83	0x3e347390	0.17622209

action_model._continuous_distribution.log_sigma f4 [1, 6]
0	0x00000000	0.0
1	0x00000000	0.0
2	0x00000000	0.0
3	0x00000000	0.0
4	0x00000000	0.0
5	0x00000000	0.0

action_model._continuous_distribution.mu.bias f4 [6]
0	0x00000000	0.0
1	0x00000000	0.0
2	0x00000000	0.0
3	0x00000000	0.0
4	0x00000000	0.0
5	0x00000000	0.0

action_model._continuous_distribution.mu.weight f4 [6, 256]
0	0xbc7b2aa2	-0.015329989
1	0xbacb8cef	-0.0015529672
2	0xbc0cd12f	-0.008594795
3	0x3bb613d2	0.005556562
4	0x3b86b05f	0.0041103805
5	0xbb391c15	-0.0028245498
6	0xbc5fb9b7	-0.013655118
7	0x3a68c63b	0.00088796363
8	0x3b4f8a1b	0.003166801
9	0xba369293	-0.000696459
10	0xbc225ffb	-0.009910579
11	0xbcca7a9a	-0.024716664
12	0xba83764c	-0.0010029762
13	0x3a40b8e7	0.00073517713
14	0xbd0cf8b7	-0.03441688
15	0xbba9f2ca	-0.0051864134
16	0xbc3cbcba	-0.011519605
17	0x3a2a3d39	0.0006494108
18	0xbbd9b98a	-0.0066444324
19	0xbc812b40	-0.015767694
20	0x39b01084	0.0003358164
21	0xbbbc3dae	-0.0057446575
22	0xbc3a35d0	-0.011365369
23	0xbc4d4cd5	-0.012530525
24	0x3c9cb27c	0.019128077
25	0xbaa45bd4	-0.0012539574
26	0x3c107e0c	0.008819114
27	0x3b334a30	0.0027357452
28	0xbbe565cf	-0.007000662
29	0x3c078cf7	0.008273355
30	0x3c3e48f7	0.011614076
31	0xbc03f7f1	-0.008054719
32	0x3c189138	0.009311967
33	0xb9e2e190	-0.00043274136
34	0xbbf9c870	-0.007622771
35	0x3b7dc1dd	0.0038720288
36	0xbb27fd4d	-0.0025633157
37	0x3c9f2da7	0.019430948
38	0xbc4b663e	-0.012414513
39	0xbc89d06f	-0.016823022
40	0xbbc7753f	-0.006086975
41	0xbc40578c	-0.011739623
42	0x3c3e69aa	0.011621872
43	0xbc2aab27	-0.010416782
44	0xbb230607	-0.0024875419
45	0x3c2ba407	0.010476119
46	0x3b2743b5	0.0025522534
47	0x3b621827	0.003449926
48	0x3a65f67b	0.0008772385
49	0x3bdc354a	0.0067202197
50	0xbc2669f2	-0.010157095
51	0x3b4ee18f	0.003156755
52	0xbc382527	-0.011239327
53	0xbb217c6a	-0.0024640807
54	0x3c1d8bff	0.009615897
55	0x3869c655	5.573624e-05
56	0x3c8ac8bc	0.01694142
57	0x3bae6db0	0.0053231344
58	0xbb480a8c	-0.0030523865
59	0x3c493723	0.012281212
60	0x3c1e8427	0.009675062
61	0xbb92a2b6	-0.004474963
62	0xbcdef0bd	-0.027214402
63	0x3bdb484b	0.0066919676
64	0xbcb8cf00	-0.022559643
65	0xbbeff75d	-0.007323189
66	0xbc8cd7f8	-0.017192826
67	0xbc054ee3	-0.008136484
68	0x3c083c48	0.008315153
69	0x3af258ad	0.0018489562
70	0xbcc9d1a1	-0.024636092
71	0xbcb3ed16	-0.021963637
72	0xbc1bebb7	-0.009516648
73	0xbc87cdd7	-0.016577644
74	0xbb807805	-0.0039205574
75	0xba9eebbc	-0.0012124698
76	0x3bf11d53	0.007358232
77	0xbcc0d009	-0.023536699
78	0xbaaa751e	-0.0013004874
79	0xbbc68a2a	-0.006058951
80	0x3c55f85f	0.013059705
81	0xbcae2503	-0.021257883
82	0xbbde3afb	-0.0067819334
83	0xbc0d0637	-0.008607439
84	0x3b4a1c22	0.0030839522
85	0x39a1b370	0.00030842004
86	0xbb28b4ac	-0.0025742454
87	0xbcefdab2	-0.029279087
88	0x3aa7a969	0.0012791577
89	0xba5101ca	-0.0007972984
90	0xbc4d7882	-0.012540938
91	0x3c8daeb7	0.017295225
92	0x3c62c9ca	0.013842056
93	0x3bc9b036	0.006155039
94	0xbb62a07a	-0.0034580515
95	0xbc021504	-0.007939581
96	0x3c78e955	0.015192349
97	0x3b410756	0.0029453835
98	0xb9808992	-0.0002451656
99	0xbb9007df	-0.0043954696
100	0x3c91c975	0.017796258
101	0xba25a44c	-0.00063187326
102	0xbb94c6ba	-0.0045402916
103	0x3a84633f	0.0010100378
104	0x393035c7	0.00016804702
105	0xbb519f75	-0.0031985913
106	0x3c8cb6be	0.017176982
107	0x3c1098c7	0.008825487
108	0xbc410e2f	-0.011783167
109	0xbc82e50e	-0.015978362
110	0x3b90ce0a	0.004419093
111	0xbbfc6125	-0.00770201
112	0xbc6abea2	-0.014327677
113	0xbc23d06e	-0.009998424
114	0x3bf1a187	0.007373992
115	0xbbf29378	-0.0074028336
116	0x39878f39	0.00025855916
117	0xbc3536b7	-0.011060408
118	0xbca4e026	-0.020126414
119	0x3ab5bca7	0.0013865427
120	0x3bca93f9	0.0061821905
121	0xbc17a2da	-0.009255135
122	0x3c5ff9e5	0.013670419
123	0xbb96b5f1	-0.004599326
124	0xbcbe5d9c	-0.023237996
125	0xbcc4d61f	-0.024027882
126	0x3c32a89c	0.010904457
127	0x3a3f700f	0.000730277
128	0xbcc5d99b	-0.024151614
129	0x3caf8106	0.021423828
130	0xbae2c362	-0.001730066
131	0x3cce2202	0.0251627
132	0x3cadbd01	0.021208288
133	0x3cb98eda	0.022651125
134	0xbc3fc0a7	-0.011703647
135	0x3cc973fb	0.024591437
136	0xbb5b7a17	-0.003348952
137	0xbc79e547	-0.015252418
138	0xbc9f64f8	-0.019457325
139	0x3b8ea885	0.004353585
140	0xbc4f3167	-0.012646056
141	0xbc765d5a	-0.015036905
142	0xbbea4368	-0.0071491487
143	0xbca68c7c	-0.02033066
144	0x3cb4b0ce	0.022056963
145	0x3c09e23f	0.008415758
146	0x3c80b6e7	0.015712215
147	0xbc3afb88	-0.011412509
148	0xbbaf8e7f	-0.005357563
149	0x3b731c5b	0.0037095759
150	0x3b9df82a	0.004820843
151	0xbcf5e5b5	-0.03001676
152	0xbce19d2b	-0.027540764
153	0x3a8796ff	0.0010344683
154	0x3c3175ef	0.01083134
155	0xbbd79e87	-0.006580177
156	0xbb83ef91	-0.0040263613
157	0xbc2a5ac7	-0.01039762
158	0xbc706532	-0.014672564
159	0xbc012fe5	-0.007884954
160	0x3c59346a	0.013257125
161	0x3c69372b	0.0142343445
162	0xbb8cb425	-0.004293936
163	0x3bbf8b3c	0.0058454555
164	0xbbb36077	-0.005474146
165	0x3bd77f33	0.0065764426
166	0x3b077842	0.0020671044
167	0x3c584cbf	0.013201891
168	0xbc52c95d	-0.012865392
169	0xbbdd392a	-0.0067511993
170	0xbc9f8f21	-0.019477429
171	0xbb7031ca	-0.003665077
172	0x3bb79d95	0.005603502
173	0x3b3250fb	0.0027208913
174	0x3c88f25b	0.016717127
175	0x3c1f129e	0.0097090285
176	0xb742fbe4	-1.1621949e-05
177	0x3b945a1e	0.0045273444
178	0x3a2e58c7	0.0006650802
179	0xbc230661	-0.009950251
180	0x3c2d37bb	0.010572369
181	0xbbedff07	-0.0072630676
182	0xbcd8e543	-0.026476508
183	0xbbc6bf0f	-0.0060652564
184	0xbc0a1180	-0.008427024
185	0xbb7a85a3	-0.0038226626
186	0x3b340c3b	0.002747311
187	0x3b8e8117	0.004348885
188	0x3c160a75	0.009157767
189	0xb9bdb50a	-0.00036183774
190	0x3c63c9fb	0.013903136
191	0x3bc99c05	0.006152632
192	0x3c021663	0.007939908
193	0x3aad0133	0.001319921
194	0xbc558b9d	-0.013033775
195	0xbbff7a0d	-0.007796532
196	0x3aba704f	0.0014224144
197	0x3be9a503	0.0071302666
198	0x3c1c59d2	0.009542899
199	0xbcd33670	-0.025782794
200	0xbbbcae8f	-0.0057581137
201	0x3c3107f7	0.010805122
202	0xbc6157bd	-0.013753829
203	0xbc0cfe0a	-0.0086054895
204	0xbc596b80	-0.013270259
205	0xbbdc431b	-0.006721867
206	0x3b149f89	0.0022678098
207	0x3b1af8e9	0.0023646897
208	0x3bc4a51f	0.0060011293
209	0xbafb5152	-0.0019174016
210	0xbc15c55f	-0.009141295
211	0xbaa23c66	-0.0012377619
212	0x3c16ab1d	0.00919607
213	0x3bd0c685	0.0063713216
214	0xbaeee298	-0.0018225489
215	0x3cc27154	0.02373568
216	0x3ae455b3	0.001742056
217	0xbba11bd3	-0.004916647
218	0xbbcee7f0	-0.00631427
219	0xbc7d3cf5	-0.015456428
220	0x3c2cff17	0.010558865
221	0xbce8a797	-0.028400226
222	0xbc924122	-0.017853323
223	0x3c8a5b1d	0.01688915
224	0xbbb4142b	-0.0054955683
225	0xbc9ed9e0	-0.019391
226	0xbb70468a	-0.0036663138
227	0xbc9ca543	-0.019121772
228	0xb9bd6903	-0.0003612713
229	0x3c3b0f76	0.01141726
230	0x3aca5128	0.0015435563
231	0xbba57805	-0.005049708
232	0x3ca55673	0.020182824
233	0xbc18657e	-0.009301541
234	0x3c304256	0.010758003
235	0xba448e4b	-0.000749801
236	0x3cba305b	0.022728136
237	0x3ba33598	0.004980754
238	0x3c7f991a	0.015600467
239	0x3b0acdbd	0.0021179758
240	0x3c5b0ca3	0.013369712
241	0xbc196865	-0.0093632685
242	0x3c35bf14	0.01109292
243	0x39c31bd1	0.00037214023
244	0xbaa0ea02	-0.0012276771
245	0xbb9202e2	-0.00445591
246	0x3c0c1ed7	0.008552275
247	0xbc869195	-0.01642684
248	0x3cede2ad	0.029038751
249	0xbacce447	-0.0015631997
250	0xbce12ca8	-0.027487114
251	0xbcafc92f	-0.021458237
252	0x3b378436	0.0028002388
253	0x3be74e85	0.007058921
254	0xbb885c92	-0.004161426
255	0xbc85c795	-0.01633052

network_body._body_endoder.seq_layers.0.bias f4 [256]
0	0x00000000	0.0
1	0x00000000	0.0
2	0x00000000	0.0
3	0x00000000	0.0
4	0x00000000	0.0
5	0x00000000	0.0
6	0x00000000	0.0
7	0x00000000	0.0
8	0x00000000	0.0
9	0x00000000	0.0
10	0x00000000	0.0
11	0x00000000	0.0
12	0x00000000	0.0
13	0x00000000	0.0
14	0x00000000	0.0
15	0x00000000	0.0
16	0x00000000	0.0
17	0x00000000	0.0
18	0x00000000	0.0
19	0x00000000	0.0
20	0x00000000	0.0
21	0x00000000	0.0
22	0x00000000	0.0
23	0x00000000	0.0
24	0x00000000	0.0
25	0x00000000	0.0
26	0x00000000	0.0
27	0x00000000	0.0
28	0x00000000	0.0
29	0x00000000	0.0
30	0x00000000	0.0
31	0x00000000	0.0
32	0x00000000	0.0
33	0x00000000	0.0
34	0x00000000	0.0
35	0x00000000	0.0
36	0x00000000	0.0
37	0x00000000	0.0
38	0x00000000	0.0
39	0x00000000	0.0
40	0x00000000	0.0
41	0x00000000	0.0
42	0x00000000	0.0
43	0x00000000	0.0
44	0x00000000	0.0
45	0x00000000	0.0
46	0x00000000	0.0
47	0x00000000	0.0
48	0x00000000	0.0
49	0x00000000	0.0
50	0x00000000	0.0
51	0x00000000	0.0
52	0x00000000	0.0
53	0x00000000	0.0
54	0x00000000	0.0
55	0x00000000	0.0
56	0x00000000	0.0
57	0x00000000	0.0
58	0x00000000	0.0
59	0x00000000	0.0
60	0x00000000	0.0
61	0x00000000	0.0
62	0x00000000	0.0
63	0x00000000	0.0
64	0x00000000	0.0
65	0x00000000	0.0
66	0x00000000	0.0
67	0x00000000	0.0
68	0x00000000	0.0
69	0x00000000	0.0
70	0x00000000	0.0
71	0x00000000	0.0
72	0x00000000	0.0
73	0x00000000	0.0
74	0x00000000	0.0
75	0x00000000	0.0
76	0x00000000	0.0
77	0x00000000	0.0
78	0x00000000	0.0
79	0x00000000	0.0
80	0x00000000	0.0
81	0x00000000	0.0
82	0x00000000	0.0
83	0x00000000	0.0
84	0x00000000	0.0
85	0x00000000	0.0
86	0x00000000	0.0
87	0x00000000	0.0
88	0x00000000	0.0
89	0x00000000	0.0
90	0x00000000	0.0
91	0x00000000	0.0
92	0x00000000	0.0
93	0x00000000	0.0
94	0x00000000	0.0
95	0x00000000	0.0
96	0x00000000	0.0
97	0x00000000	0.0
98	0x00000000	0.0
99	0x00000000	0.0
100	0x00000000	0.0
101	0x00000000	0.0
102	0x00000000	0.0
103	0x00000000	0.0
104	0x00000000	0.0
105	0x00000000	0.0
106	0x00000000	0.0
107	0x00000000	0.0
108	0x00000000	0.0
109	0x00000000	0.0
110	0x00000000	0.0
111	0x00000000	0.0
112	0x00000000	0.0
113	0x00000000	0.0
114	0x00000000	0.0
115	0x00000000	0.0
116	0x00000000	0.0
117	0x00000000	0.0
118	0x00000000	0.0
119	0x00000000	0.0
120	0x00000000	0.0
121	0x00000000	0.0
122	0x00000000	0.0
123	0x00000000	0.0
124	0x00000000	0.0
125	0x00000000	0.0
126	0x00000000	0.0
127	0x00000000	0.0
128	0x00000000	0.0
129	0x00000000	0.0
130	0x00000000	0.0
131	0x00000000	0.0
132	0x00000000	0.0
133	0x00000000	0.0
134	0x00000000	0.0
135	0x00000000	0.0
136	0x00000000	0.0
137	0x00000000	0.0
138	0x00000000	0.0
139	0x00000000	0.0
140	0x00000000	0.0
141	0x00000000	0.0
142	0x00000000	0.0
143	0x00000000	0.0
144	0x00000000	0.0
145	0x00000000	0.0
146	0x00000000	0.0
147	0x00000000	0.0
148	0x00000000	0.0
149	0x00000000	0.0
150	0x00000000	0.0
151	0x00000000	0.0
152	0x00000000	0.0
153	0x00000000	0.0
154	0x00000000	0.0
155	0x00000000	0.0
156	0x00000000	0.0
157	0x00000000	0.0
158	0x00000000	0.0
159	0x00000000	0.0
160	0x00000000	0.0
161	0x00000000	0.0
162	0x00000000	0.0
163	0x00000000	0.0
164	0x00000000	0.0
165	0x00000000	0.0
166	0x00000000	0.0
167	0x00000000	0.0
168	0x00000000	0.0
169	0x00000000	0.0
170	0x00000000	0.0
171	0x00000000	0.0
172	0x00000000	0.0
173	0x00000000	0.0
174	0x00000000	0.0
175	0x00000000	0.0
176	0x00000000	0.0
177	0x00000000	0.0
178	0x00000000	0.0
179	0x00000000	0.0
180	0x00000000	0.0
181	0x00000000	0.0
182	0x00000000	0.0
183	0x00000000	0.0
184	0x00000000	0.0
185	0x00000000	0.0
186	0x00000000	0.0
187	0x00000000	0.0
188	0x00000000	0.0
189	0x00000000	0.0
190	0x00000000	0.0
191	0x00000000	0.0
192	0x00000000	0.0
193	0x00000000	0.0
194	0x00000000	0.0
195	0x00000000	0.0
196	0x00000000	0.0
197	0x00000000	0.0
198	0x00000000	0.0
199	0x00000000	0.0
200	0x00000000	0.0
201	0x00000000	0.0
202	0x00000000	0.0
203	0x00000000	0.0
204	0x00000000	0.0
205	0x00000000	0.0
206	0x00000000	0.0
207	0x00000000	0.0
208	0x00000000	0.0
209	0x00000000	0.0
210	0x00000000	0.0
211	0x00000000	0.0
212	0x00000000	0.0
213	0x00000000	0.0
214	0x00000000	0.0
215	0x00000000	0.0
216	0x00000000	0.0
217	0x00000000	0.0
218	0x00000000	0.0
219	0x00000000	0.0
220	0x00000000	0.0
221	0x00000000	0.0
222	0x00000000	0.0
223	0x00000000	0.0
224	0x00000000	0.0
225	0x00000000	0.0
226	0x00000000	0.0
227	0x00000000	0.0
228	0x00000000	0.0
229	0x00000000	0.0
230	0x00000000	0.0
231	0x00000000	0.0
232	0x00000000	0.0
233	0x00000000	0.0
234	0x00000000	0.0
235	0x00000000	0.0
236	0x00000000	0.0
237	0x00000000	0.0
238	0x00000000	0.0
239	0x00000000	0.0
240	0x00000000	0.0
241	0x00000000	0.0
242	0x00000000	0.0
243	0x00000000	0.0
244	0x00000000	0.0
245	0x00000000	0.0
246	0x00000000	0.0
247	0x00000000	0.0
248	0x00000000	0.0
249	0x00000000	0.0
250	0x00000000	0.0
251	0x00000000	0.0
252	0x00000000	0.0
253	0x00000000	0.0
254	0x00000000	0.0
255	0x00000000	0.0

network_body._body_endoder.seq_layers.0.weight f4 [256, 84]
0	0x3e020f8f	0.12701248
1	0xbbf46da7	-0.0074593606
2	0x3d002159	0.031281803
3	0x3e0ed607	0.13948832
4	0xbcf134dc	-0.02944415
5	0x3b0b2e04	0.0021237144
6	0xbdd5beb8	-0.10436767
7	0xbd3b07f5	-0.045661885
8	0xbddc6b03	-0.10762598
9	0xbda44cef	-0.080224864
10	0x3e0e42a5	0.1389261
11	0xbdefd764	-0.117110044
12	0x3db1f99f	0.086901896
13	0x3dbf21b3	0.093325995
14	0xbe230960	-0.15921545
15	0x3c41d7c9	0.011831232
16	0xbe1a66d8	-0.15078294
17	0x3cfbd35d	0.030740434
18	0x3e59e962	0.21280435
19	0x3e3c69fc	0.18399805
20	0x3dc61b7b	0.0967321
21	0x3d8ccb47	0.068747096
22	0xbcb66ce6	-0.022268724
23	0x3e100cdb	0.14067404
24	0xbcf440e6	-0.029816102
25	0x3e5f0b8d	0.2178175
26	0xbdd67f50	-0.10473502
27	0x3e79ccbc	0.24394506
28	0xbdffd36f	-0.124915
29	0x3df32ac4	0.11873391
30	0x3d91d5a4	0.07120827
31	0xbd339878	-0.043846577
32	0x3d31ac2b	0.043377083
33	0xbc10cdf2	-0.008838164
34	0xbdd042da	-0.10169001
35	0xba91704d	-0.001109609
36	0x3eac55fc	0.3365935
37	0xbba3951a	-0.0049921395
38	0xbe0da154	-0.13831073
39	0xbd60c4b2	-0.054875083
40	0x3d212cdf	0.039349433
41	0xbbd589f8	-0.0065166913
42	0x3d25bf48	0.040465623
43	0x3cec0ec5	0.028815636
44	0xbc8cbd46	-0.017180096
45	0x3d2a0296	0.041506372
46	0xbd9a1f4e	-0.07525502
47	0xbd368681	-0.044561867
48	0xbda7369c	-0.08164713
49	0xbde1377b	-0.1099691
50	0x3dbca058	0.09210271
51	0xbea3e0a7	-0.32007334
52	0x3e601073	0.21881275
53	0xbbf028dc	-0.0073290896
54	0x3b458a04	0.0030142078
55	0x3e05935c	0.13044494
56	0xbdd70151	-0.10498298
57	0xbc1860ce	-0.009300424
58	0xbd22c231	-0.039735977
59	0xbd526460	-0.051365256
60	0xbda2d26c	-0.07950291
61	0x3e7ce098	0.2469505
62	0x3dffbaa0	0.12486768
63	0x3de47fb8	0.11157173
64	0x3dda3553	0.10654702
65	0xbdbf5c61	-0.09343792
66	0x3dbbd0c3	0.091706775
67	0xbd949fa5	-0.07257012
68	0xbd575d5c	-0.05257927
69	0x3dad786a	0.08470233
70	0x3e049194	0.12946159
71	0x3d065ee4	0.03280534
72	0x3de0ab48	0.10970169
73	0x3e846e7a	0.25865537
74	0x3c0d0e44	0.008609358
75	0x3dc7f7b5	0.09764043
76	0x3d5af11c	0.053452596
77	0x3d09ee14	0.033674315
78	0xbd197559	-0.037465427
79	0x3d0f5b76	0.034999333
80	0xbc21dcbd	-0.009879288
81	0xbde63d33	-0.112421416
82	0xbe396d5a	-0.1810812
83	0xbd8bb727	-0.06822043
84	0x3dda9b67	0.10674172
85	0xbdd72dcb	-0.10506781
86	0x3e30d77f	0.17269705
87	0xbd070aec	-0.0329694
88	0xbcfc2f33	-0.030784225
89	0xbd116338	-0.035495013
90	0xbe185a22	-0.14878133
91	0xbcc8205e	-0.024429496
92	0x3d335bef	0.043788847
93	0xbda947a9	-0.08265621
94	0x3bf328db	0.007420642
95	0x3d7a1e4b	0.061064046
96	0xbc522b40	-0.012827694
97	0xbbe2ceb5	-0.006921614
98	0x3d8820b7	0.06646865
99	0x3d16db01	0.036829952
100	0xbe0f81e9	-0.140144
101	0x3e552688	0.2081548
102	0xbb58255e	-0.0032981257
103	0x3d8c6a96	0.06856267
104	0x3e4dc7a9	0.20095696
105	0x3cf64935	0.030064205
106	0xbe0d2778	-0.13784587
107	0x3c68669d	0.014184621
108	0xbdf1ab93	-0.11800303
109	0xbd577842	-0.05260492
110	0x3e0246f3	0.12722377
111	0x3e5e8424	0.21730095
112	0xbdd2a38d	-0.10285101
113	0x3d5a8bb2	0.05335588
114	0x3923f9f9	0.00015638013
115	0x3cb0e5dd	0.021593982
116	0xbd201d5d	-0.039090503
117	0x3d01f352	0.03172619
118	0xbc15ecd7	-0.009150705
119	0xbd229903	-0.039696705
120	0xbdb3e8a2	-0.087846056
121	0xbd663c2b	-0.056209724
122	0x3dfbf1b5	0.12301961
123	0xbd0286c2	-0.031866796
124	0x3dc64d4c	0.09682712
125	0xbc1dd4b9	-0.009633237
126	0xbd786486	-0.06064274
127	0x3da60042	0.08105518
128	0xbbe8695c	-0.007092638
129	0x3da579ca	0.0807987
130	0x3d134234	0.035951808
131	0xbcc7684c	-0.024341725
132	0x3b0b9e47	0.0021304057
133	0x3bcc27fa	0.0062303515
134	0xbdf9e5d9	-0.12202043
135	0x3da72188	0.081606925
136	0x3ba55eb8	0.0050466917
137	0x3e8f4c60	0.27987957
138	0x3d11d776	0.03560587
139	0xbd5d811a	-0.0540782
140	0x3cf78393	0.030214107
141	0xbd96c5b7	-0.0736193
142	0xbd9f0b83	-0.077658676
143	0x3d14d635	0.036337096
144	0xbd8a2a94	-0.067464024
145	0x3ded7557	0.115946464
146	0xbca83f7f	-0.02053809
147	0x3dd49222	0.10379435
148	0x3e3f92f6	0.18708405
149	0x3e184120	0.14868593
150	0x3e25175c	0.16122192
151	0xbda0217f	-0.07818889
152	0x3d060e05	0.032728214
153	0x3a2c041f	0.00065618934
154	0xbe289138	-0.16461647
155	0x3d5cfd16	0.0539523
156	0x3e39b617	0.18135868
157	0xbdd0858b	-0.10181721
158	0xbd92bad9	-0.071645446
159	0x3c38b348	0.011273213
160	0x3e49cbf2	0.19706705
161	0xbdeaac42	-0.11458637
162	0xbd31fb0e	-0.043452315
163	0x3c9da4c5	0.019243607
164	0xbc340c5c	-0.010989275
165	0xbcbcc0fd	-0.023041243
166	0x3e015936	0.12631688
167	0x3de7a8fa	0.113115266
168	0xbe850a29	-0.25984314
169	0x3d0fe429	0.0351297
170	0xbdf27c46	-0.118401095
171	0xbe33ddc5	-0.17565067
172	0x3dbf37f9	0.09336848
173	0xbdb15cf1	-0.08660305
174	0xbd734b7b	-0.059398156
175	0x3d50e218	0.05099687
176	0x3c052948	0.008127518
177	0xbc5c68b5	-0.0134526985
178	0x3dfcd9c5	0.12346224
179	0x3d8d3aa5	0.06895951
180	0x3e38feb1	0.18065907
181	0xbd881243	-0.06644108
182	0xbc6d6c7d	-0.014491198
183	0xbd892ed9	-0.066983886
184	0xbd2ccbf0	-0.042186677
185	0xbc39d5b3	-0.011342454
186	0xbcd4916b	-0.025948247
187	0xbdde38fe	-0.10850714
188	0xbbf21684	-0.007387938
189	0x3d00661f	0.03134739
190	0xbd5e2910	-0.05423838
191	0x3d9080aa	0.07055791
192	0x3d755ada	0.059901096
193	0xbca41dfb	-0.020033827
194	0x3de40cac	0.111352295
195	0x3dad05e7	0.084483914
196	0xbe9a28fe	-0.301094
197	0xbdd962dd	-0.1061456
198	0xbe0ff49f	-0.1405816
199	0xbc6102f2	-0.013733612
200	0x3e12e4ee	0.14345142
201	0x3dbd80a6	0.09253053
202	0xbdc5e388	-0.09662539
203	0x3d7c38bf	0.061577555
204	0x3c1837c5	0.00929064
205	0x3ba8bf4e	0.0051497584
206	0x3df491e3	0.11941888
207	0x3e90143e	0.28140444
208	0xbd3d956d	-0.04628508
209	0xbd1bacc8	-0.038006574
210	0xbe1065ea	-0.14101377
211	0xbce24f33	-0.027625656
212	0x3db67042	0.0890813
213	0x3ce51583	0.02796436
214	0x3d42b95b	0.04754005
215	0xbd158b0e	-0.036509566
216	0x3dc7afbf	0.09750318
217	0x3cb1fcf4	0.021727063
218	0x3e194f61	0.14971687
219	0xbcab2295	-0.020890513
220	0xbdfa1677	-0.12211316
221	0x3ccf5334	0.025308229
222	0xbcc19f7c	-0.023635618
223	0x3d6db772	0.058036275
224	0xbd87f55c	-0.066385955
225	0x3e37ad9e	0.17937323
226	0x3db76e6c	0.08956608
227	0x3d114d9b	0.0354744
228	0x3d91b922	0.071153894
229	0x3c90f8dc	0.01769679
230	0x3c9efa02	0.019406322
231	0x3cc53537	0.024073226
232	0x3e3cb55d	0.1842856
233	0x3c304651	0.010758952
234	0xbc500b59	-0.012698018
235	0x3d5ccd33	0.05390663
236	0xbe1c423a	-0.15259638
237	0x3d21c958	0.039498657
238	0xbde720f7	-0.112855844
239	0xbd4e07e6	-0.0503005
240	0xbe0c0c69	-0.13676609
241	0x3ddbebc3	0.10738327
242	0x3a7713f3	0.0009425275
243	0xbd97281e	-0.073806986
244	0xbe05e6dd	-0.13076349
245	0x3df87525	0.121317185
246	0x3deed1a5	0.1166108
247	0xbe3ba945	-0.1832629
248	0x3e71b802	0.2360535
249	0xbe5f3dc9	-0.21800913
250	0xbd548710	-0.05188662
251	0x3de1190d	0.10991106
252	0x3cc6f5fa	0.024287213
253	0xbd0807a7	-0.033210423
254	0xbc50320d	-0.012707246
255	0xbd7d47aa	-0.061835922

network_body._body_endoder.seq_layers.2.bias f4 [256]
0	0x00000000	0.0
1	0x00000000	0.0
2	0x00000000	0.0
3	0x00000000	0.0
4	0x00000000	0.0
5	0x00000000	0.0
6	0x00000000	0.0
7	0x00000000	0.0
8	0x00000000	0.0
9	0x00000000	0.0
10	0x00000000	0.0
11	0x00000000	0.0
12	0x00000000	0.0
13	0x00000000	0.0
14	0x00000000	0.0
15	0x00000000	0.0
16	0x00000000	0.0
17	0x00000000	0.0
18	0x00000000	0.0
19	0x00000000	0.0
20	0x00000000	0.0
21	0x00000000	0.0
22	0x00000000	0.0
23	0x00000000	0.0
24	0x00000000	0.0
25	0x00000000	0.0
26	0x00000000	0.0
27	0x00000000	0.0
28	0x00000000	0.0
29	0x00000000	0.0
30	0x00000000	0.0
31	0x00000000	0.0
32	0x00000000	0.0
33	0x00000000	0.0
34	0x00000000	0.0
35	0x00000000	0.0
36	0x00000000	0.0
37	0x00000000	0.0
38	0x00000000	0.0
39	0x00000000	0.0
40	0x00000000	0.0
41	0x00000000	0.0
42	0x00000000	0.0
43	0x00000000	0.0
44	0x00000000	0.0
45	0x00000000	0.0
46	0x00000000	0.0
47	0x00000000	0.0
48	0x00000000	0.0
49	0x00000000	0.0
50	0x00000000	0.0
51	0x00000000	0.0
52	0x00000000	0.0
53	0x00000000	0.0
54	0x00000000	0.0
55	0x00000000	0.0
56	0x00000000	0.0
57	0x00000000	0.0
58	0x00000000	0.0
59	0x00000000	0.0
60	0x00000000	0.0
61	0x00000000	0.0
62	0x00000000	0.0
63	0x00000000	0.0
64	0x00000000	0.0
65	0x00000000	0.0
66	0x00000000	0.0
67	0x00000000	0.0
68	0x00000000	0.0
69	0x00000000	0.0
70	0x00000000	0.0
71	0x00000000	0.0
72	0x00000000	0.0
73	0x00000000	0.0
74	0x00000000	0.0
75	0x00000000	0.0
76	0x00000000	0.0
77	0x00000000	0.0
78	0x00000000	0.0
79	0x00000000	0.0
80	0x00000000	0.0
81	0x00000000	0.0
82	0x00000000	0.0
83	0x00000000	0.0
84	0x00000000	0.0
85	0x00000000	0.0
86	0x00000000	0.0
87	0x00000000	0.0
88	0x00000000	0.0
89	0x00000000	0.0
90	0x00000000	0.0
91	0x00000000	0.0
92	0x00000000	0.0
93	0x00000000	0.0
94	0x00000000	0.0
95	0x00000000	0.0
96	0x00000000	0.0
97	0x00000000	0.0
98	0x00000000	0.0
99	0x00000000	0.0
100	0x00000000	0.0
101	0x00000000	0.0
102	0x00000000	0.0
103	0x00000000	0.0
104	0x00000000	0.0
105	0x00000000	0.0
106	0x00000000	0.0
107	0x00000000	0.0
108	0x00000000	0.0
109	0x00000000	0.0
110	0x00000000	0.0
111	0x00000000	0.0
112	0x00000000	0.0
113	0x00000000	0.0
114	0x00000000	0.0
115	0x00000000	0.0
116	0x00000000	0.0
117	0x00000000	0.0
118	0x00000000	0.0
119	0x00000000	0.0
120	0x00000000	0.0
121	0x00000000	0.0
122	0x00000000	0.0
123	0x00000000	0.0
124	0x00000000	0.0
125	0x00000000	0.0
126	0x00000000	0.0
127	0x00000000	0.0
128	0x00000000	0.0
129	0x00000000	0.0
130	0x00000000	0.0
131	0x00000000	0.0
132	0x00000000	0.0
133	0x00000000	0.0
134	0x00000000	0.0
135	0x00000000	0.0
136	0x00000000	0.0
137	0x00000000	0.0
138	0x00000000	0.0
139	0x00000000	0.0
140	0x00000000	0.0
141	0x00000000	0.0
142	0x00000000	0.0
143	0x00000000	0.0
144	0x00000000	0.0
145	0x00000000	0.0
146	0x00000000	0.0
147	0x00000000	0.0
148	0x00000000	0.0
149	0x00000000	0.0
150	0x00000000	0.0
151	0x00000000	0.0
152	0x00000000	0.0
153	0x00000000	0.0
154	0x00000000	0.0
155	0x00000000	0.0
156	0x00000000	0.0
157	0x00000000	0.0
158	0x00000000	0.0
159	0x00000000	0.0
160	0x00000000	0.0
161	0x00000000	0.0
162	0x00000000	0.0
163	0x00000000	0.0
164	0x00000000	0.0
165	0x00000000	0.0
166	0x00000000	0.0
167	0x00000000	0.0
168	0x00000000	0.0
169	0x00000000	0.0
170	0x00000000	0.0
171	0x00000000	0.0
172	0x00000000	0.0
173	0x00000000	0.0
174	0x00000000	0.0
175	0x00000000	0.0
176	0x00000000	0.0
177	0x00000000	0.0
178	0x00000000	0.0
179	0x00000000	0.0
180	0x00000000	0.0
181	0x00000000	0.0
182	0x00000000	0.0
183	0x00000000	0.0
184	0x00000000	0.0
185	0x00000000	0.0
186	0x00000000	0.0
187	0x00000000	0.0
188	0x00000000	0.0
189	0x00000000	0.0
190	0x00000000	0.0
191	0x00000000	0.0
192	0x00000000	0.0
193	0x00000000	0.0
194	0x00000000	0.0
195	0x00000000	0.0
196	0x00000000	0.0
197	0x00000000	0.0
198	0x00000000	0.0
199	0x00000000	0.0
200	0x00000000	0.0
201	0x00000000	0.0
202	0x00000000	0.0
203	0x00000000	0.0
204	0x00000000	0.0
205	0x00000000	0.0
206	0x00000000	0.0
207	0x00000000	0.0
208	0x00000000	0.0
209	0x00000000	0.0
210	0x00000000	0.0
211	0x00000000	0.0
212	0x00000000	0.0
213	0x00000000	0.0
214	0x00000000	0.0
215	0x00000000	0.0
216	0x00000000	0.0
217	0x00000000	0.0
218	0x00000000	0.0
219	0x00000000	0.0
220	0x00000000	0.0
221	0x00000000	0.0
222	0x00000000	0.0
223	0x00000000	0.0
224	0x00000000	0.0
225	0x00000000	0.0
226	0x00000000	0.0
227	0x00000000	0.0
228	0x00000000	0.0
229	0x00000000	0.0
230	0x00000000	0.0
231	0x00000000	0.0
232	0x00000000	0.0
233	0x00000000	0.0
234	0x00000000	0.0
235	0x00000000	0.0
236	0x00000000	0.0
237	0x00000000	0.0
238	0x00000000	0.0
239	0x00000000	0.0
240	0x00000000	0.0
241	0x00000000	0.0
242	0x00000000	0.0
243	0x00000000	0.0
244	0x00000000	0.0
245	0x00000000	0.0
246	0x00000000	0.0
247	0x00000000	0.0
248	0x00000000	0.0
249	0x00000000	0.0
250	0x00000000	0.0
251	0x00000000	0.0
252	0x00000000	0.0
253	0x00000000	0.0
254	0x00000000	0.0
255	0x00000000	0.0

network_body._body_endoder.seq_layers.2.weight f4 [256, 256]
0	0x3d1e9292	0.038714
1	0x3cac499e	0.021031197
2	0xbce2e700	-0.02769804
3	0xbd26a47d	-0.040684212
4	0x3d03d9a7	0.03218999
5	0x3d72eb6a	0.05930654
6	0x3dad0211	0.0844766
7	0x3cc2023b	0.023682704
8	0xbd01ff10	-0.031737387
9	0xbd6d3146	-0.05790832
10	0xbdac4f62	-0.084135786
11	0xbd044e6d	-0.032301355
12	0x3c6103cd	0.013733816
13	0xbbd06bbb	-0.0063604987
14	0xbd4b444f	-0.04962569
15	0x3b30e1eb	0.0026990126
16	0xbd665da9	-0.056241665
17	0xbc926cce	-0.017874148
18	0xbd8f6069	-0.07000811
19	0xbdd47930	-0.10374677
20	0xbd97b9c3	-0.07408478
21	0xbdb0e3e4	-0.08637217
22	0xb8d30f2a	-0.000100640886
23	0x3d218191	0.039430205
24	0x3dfcd2b7	0.12344878
25	0xbbfce6a1	-0.007717923
26	0x3e066d06	0.13127527
27	0xbc9ab087	-0.018883003
28	0xbdb94c06	-0.090477034
29	0xbd9be3c4	-0.07611802
30	0x3c66aab3	0.014078784
31	0xbc1d81ff	-0.009613513
32	0x3c87618e	0.01652601
33	0xbc61cea9	-0.013782182
34	0x3cf431a5	0.029808829
35	0xbd874792	-0.06605448
36	0x3d09d35d	0.033648837
37	0x3d9e4534	0.07728043
38	0x3c4820b5	0.012214829
39	0xbe0a65c7	-0.13515387
40	0xbce8b419	-0.02840619
41	0xbcaa81bc	-0.020813815
42	0xbccb5e08	-0.024825111
43	0x3d44e177	0.048066583
44	0xbd830ca5	-0.06398896
45	0x3dd32b42	0.10310985
46	0xbb255df2	-0.0025232998
47	0xbc95d63c	-0.018290631
48	0xbcac431a	-0.02102809
49	0x3cb91baf	0.022596208
50	0xbd567fbf	-0.052367922
51	0x3a13c4f7	0.0005636955
52	0xbc37a258	-0.011208139
53	0x3d96747b	0.07346436
54	0x3d55916b	0.052140635
55	0x3d2e85be	0.042608015
56	0x3c89de76	0.01682971
57	0xbe133427	-0.14375363
58	0xbd85031a	-0.06494732
59	0x3d9502f7	0.07275956
60	0x3db7c2d3	0.08972707
61	0x3d8a4e09	0.06753165
62	0xbd205508	-0.039143592
63	0x3b9d8b55	0.0048078694
64	0xbb5f8d8d	-0.003411147
65	0x3d9c1dff	0.07622909
66	0x3a54543e	0.0008099711
67	0x3d84fe67	0.06493836
68	0xbd81a8a8	-0.06330997
69	0x3da6078a	0.08106907
70	0xbd83869d	-0.0642216
71	0xbb986aae	-0.004651389
72	0x3dc8f5fc	0.09812543
73	0x3d67a1d3	0.056550812
74	0xbdcaa44d	-0.09894619
75	0xbd860693	-0.06544223
76	0x3d92e6f7	0.07172959
77	0x3c8fc2a1	0.017548861
78	0xbd3a9794	-0.045554712
79	0xbccd3fee	-0.025054898
80	0x3a9c786c	0.0011937744
81	0xbdad5be8	-0.08464795
82	0x3d3d461a	0.046209432
83	0xbc9d5832	-0.019207094
84	0xbccfe46f	-0.02537748
85	0xbdf77c13	-0.12084212
86	0xbbedff9b	-0.0072631366
87	0x3d5a4d52	0.053296395
88	0x3cbec74b	0.02328839
89	0x3d642c2c	0.055706188
90	0xbd6b7f1d	-0.05749427
91	0x3c9ec0fa	0.019379128
92	0xbb94c723	-0.0045403405
93	0xbdb4735e	-0.08811067
94	0xbd76f61a	-0.060293294
95	0xbd6d1b37	-0.057887282
96	0xbd23695d	-0.039895404
97	0xbdd29944	-0.10283139
98	0x3cba05c8	0.022707835
99	0x3ca8dd2e	0.02061328
100	0x3bb7ffdd	0.005615218
101	0xbcd309b1	-0.025761457
102	0xbd82585b	-0.06364509
103	0x3cfaeda3	0.030630892
104	0xbb189fc5	-0.002328859
105	0x3c3f9586	0.011693364
106	0x3cc23dc6	0.023711096
107	0x3e08fd5c	0.13377899
108	0xbc801a8b	-0.015637657
109	0x3d61a0ca	0.05508498
110	0xbcfe5ba2	-0.031049553
111	0xbd08e0b2	-0.03341741
112	0xbd5ce022	-0.053924687
113	0x3d90e908	0.07075697
114	0x3d28ed3d	0.041241873
115	0x3c8fdfe1	0.017562808
116	0xbd71f509	-0.059071574
117	0xbcd68ccd	-0.026190186
118	0x3aa65eb9	0.0012693024
119	0xbd054f0c	-0.032546088
120	0x3db02b1f	0.08601975
121	0x3ca1dbe3	0.01975817
122	0xbca270f4	-0.01982925
123	0xbda09ff3	-0.07843008
124	0xbce01349	-0.027352946
125	0x3dac98df	0.08427595
126	0x3d81a467	0.063301854
127	0x3b769674	0.0037626298
128	0xbda63e4d	-0.08117352
129	0x3c5b34a3	0.013379249
130	0x3d49abeb	0.04923622
131	0x3d1de11b	0.038544755
132	0x3d38e659	0.04514155
133	0xbd365323	-0.04451288
134	0xbc7c40c5	-0.015396302
135	0x3e094dbe	0.13408563
136	0xbc5fe670	-0.01366578
137	0xbb4338b5	-0.0029788439
138	0x3bb851e9	0.005624999
139	0x3da1524c	0.07877025
140	0x3ccf9c24	0.025343008
141	0x3d02a8eb	0.031899374
142	0x3d63b4ab	0.05559222
143	0xbba8cfe7	-0.005151737
144	0x3c31c674	0.010850538
145	0xbd4c5be1	-0.04989231
146	0xbd8e9930	-0.06962812
147	0x3d7cd8a9	0.06173006
148	0xbe3901c5	-0.18067081
149	0xbdeb0e6e	-0.114773616
150	0x3dadf9c3	0.08494904
151	0x3d030de4	0.03199567
152	0xbdc4be08	-0.09606558
153	0xbd4f8ecf	-0.050673302
154	0x3dc165d6	0.09443252
155	0xbc005de5	-0.007834886
156	0x3ca8321b	0.020531705
157	0x3d80002f	0.06250035
158	0xbd279cd0	-0.040921032
159	0x3c9816a4	0.018565483
160	0xbdca517e	-0.09878825
161	0xbcc28d4b	-0.023749014
162	0xbc2a1b24	-0.010382447
163	0xbd9e0811	-0.07716382
164	0xbc129d3b	-0.0089486195
165	0xbd52e01d	-0.051483262
166	0xbc3a9733	-0.011388588
167	0x3d43979c	0.047752008
168	0x3e055736	0.1302155
169	0xbe081d23	-0.13292365
170	0x3d72f728	0.059317738
171	0x3a5b07a3	0.0008355325
172	0xbd2d81e6	-0.04236021
173	0x3d9ed996	0.07756345
174	0x3c5b7fda	0.013397181
175	0xbd973136	-0.07382433
176	0x3d286b11	0.04111773
177	0xbce18c4e	-0.027532723
178	0x3e03ca24	0.1287008
179	0xbd7fb04a	-0.06242398
180	0x3d85ee5c	0.06539604
181	0x3c3e40c1	0.011612118
182	0xbbcb570b	-0.0062054447
183	0xbd6868e0	-0.05674064
184	0xbd291073	-0.041275453
185	0xbc5eadbc	-0.013591226
186	0x3dcfd60c	0.10148248
187	0xbd26f477	-0.040760484
188	0xbb811454	-0.003939191
189	0x3db2ce2c	0.087307304
190	0xbc6eba66	-0.014570808
191	0x3d0b9bf7	0.034084287
192	0x3cddc720	0.02707249
193	0x3c7bc7c4	0.015367452
194	0x3def5f04	0.11688045
195	0xbdbc3cb6	-0.09191267
196	0xbd9445b8	-0.0723986
197	0x3c88539a	0.016641427
198	0x3da08fa6	0.07839899
199	0xbe0b6b7e	-0.13615224
200	0xbc82a1d0	-0.015946299
201	0x3c663435	0.014050533
202	0xbd849237	-0.06473201
203	0x3d877095	0.0661327
204	0xbd67745d	-0.056507457
205	0x3d108a6d	0.035288263
206	0xbd7f057d	-0.062261093
207	0xbc5c1e35	-0.013434936
208	0x3cc25407	0.023721708
209	0xbd2003e7	-0.03906622
210	0xbd9ea372	-0.077460185
211	0x3c1b8480	0.00949204
212	0x3cba6e3c	0.022757642
213	0xbb952c08	-0.004552368
214	0xbddc8721	-0.10767961
215	0xbcca1f34	-0.024673082
216	0xbcc2299a	-0.023701478
217	0xb9b8ce9e	-0.00035249157
218	0xbccad6a8	-0.02476056
219	0xbc210582	-0.009827973
220	0x3c8ef230	0.017449468
221	0x3c6fa638	0.014627032
222	0xbbd6b1aa	-0.006551941
223	0xbd8618f2	-0.06547727
224	0xbdd0f387	-0.10202699
225	0xbd190cc3	-0.037365686
226	0xbcf04d14	-0.029333629
227	0xbdac681e	-0.08418296
228	0xbd774ed2	-0.060377903
229	0x3d65e940	0.056130648
230	0x3a563a3d	0.00081721303
231	0x3d9ddf6d	0.07708631
232	0xbcd726fc	-0.026263706
233	0xbd00b9f0	-0.031427324
234	0x3d061190	0.032731593
235	0xbcb4261c	-0.021990828
236	0x3bd2443d	0.006416826
237	0xbd7b7f0b	-0.061400454
238	0xbc9c0e5c	-0.019049816
239	0xbd93d554	-0.072184235
240	0x3da0e78f	0.07856666
241	0x3d11781a	0.03551493
242	0x3db67b37	0.0891022
243	0xbd8469ff	-0.0646553
244	0x3db6e6a7	0.08930712
245	0xbd89f209	-0.06735618
246	0xbd1af538	-0.037831515
247	0x3c6da3c8	0.0145043805
248	0x3d84e2ad	0.064885475
249	0x3cd1e602	0.025622372
250	0x3d27ae6f	0.040937837
251	0x3c6c961c	0.014440086
252	0x3d2bb445	0.041919965
253	0x3ced43f6	0.02896307
254	0x3d9e42c2	0.07727577
255	0x3cc261ba	0.02372824

network_body._body_endoder.seq_layers.4.bias f4 [256]
0	0x00000000	0.0
1	0x00000000	0.0
2	0x00000000	0.0
3	0x00000000	0.0
4	0x00000000	0.0
5	0x00000000	0.0
6	0x00000000	0.0
7	0x00000000	0.0
8	0x00000000	0.0
9	0x00000000	0.0
10	0x00000000	0.0
11	0x00000000	0.0
12	0x00000000	0.0
13	0x00000000	0.0
14	0x00000000	0.0
15	0x00000000	0.0
16	0x00000000	0.0
17	0x00000000	0.0
18	0x00000000	0.0
19	0x00000000	0.0
20	0x00000000	0.0
21	0x00000000	0.0
22	0x00000000	0.0
23	0x00000000	0.0
24	0x00000000	0.0
25	0x00000000	0.0
26	0x00000000	0.0
27	0x00000000	0.0
28	0x00000000	0.0
29	0x00000000	0.0
30	0x00000000	0.0
31	0x00000000	0.0
32	0x00000000	0.0
33	0x00000000	0.0
34	0x00000000	0.0
35	0x00000000	0.0
36	0x00000000	0.0
37	0x00000000	0.0
38	0x00000000	0.0
39	0x00000000	0.0
40	0x00000000	0.0
41	0x00000000	0.0
42	0x00000000	0.0
43	0x00000000	0.0
44	0x00000000	0.0
45	0x00000000	0.0
46	0x00000000	0.0
47	0x00000000	0.0
48	0x00000000	0.0
49	0x00000000	0.0
50	0x00000000	0.0
51	0x00000000	0.0
52	0x00000000	0.0
53	0x00000000	0.0
54	0x00000000	0.0
55	0x00000000	0.0
56	0x00000000	0.0
57	0x00000000	0.0
58	0x00000000	0.0
59	0x00000000	0.0
60	0x00000000	0.0
61	0x00000000	0.0
62	0x00000000	0.0
63	0x00000000	0.0
64	0x00000000	0.0
65	0x00000000	0.0
66	0x00000000	0.0
67	0x00000000	0.0
68	0x00000000	0.0
69	0x00000000	0.0
70	0x00000000	0.0
71	0x00000000	0.0
72	0x00000000	0.0
73	0x00000000	0.0
74	0x00000000	0.0
75	0x00000000	0.0
76	0x00000000	0.0
77	0x00000000	0.0
78	0x00000000	0.0
79	0x00000000	0.0
80	0x00000000	0.0
81	0x00000000	0.0
82	0x00000000	0.0
83	0x00000000	0.0
84	0x00000000	0.0
85	0x00000000	0.0
86	0x00000000	0.0
87	0x00000000	0.0
88	0x00000000	0.0
89	0x00000000	0.0
90	0x00000000	0.0
91	0x00000000	0.0
92	0x00000000	0.0
93	0x00000000	0.0
94	0x00000000	0.0
95	0x00000000	0.0
96	0x00000000	0.0
97	0x00000000	0.0
98	0x00000000	0.0
99	0x00000000	0.0
100	0x00000000	0.0
101	0x00000000	0.0
102	0x00000000	0.0
103	0x00000000	0.0
104	0x00000000	0.0
105	0x00000000	0.0
106	0x00000000	0.0
107	0x00000000	0.0
108	0x00000000	0.0
109	0x00000000	0.0
110	0x00000000	0.0
111	0x00000000	0.0
112	0x00000000	0.0
113	0x00000000	0.0
114	0x00000000	0.0
115	0x00000000	0.0
116	0x00000000	0.0
117	0x00000000	0.0
118	0x00000000	0.0
119	0x00000000	0.0
120	0x00000000	0.0
121	0x00000000	0.0
122	0x00000000	0.0
123	0x00000000	0.0
124	0x00000000	0.0
125	0x00000000	0.0
126	0x00000000	0.0
127	0x00000000	0.0
128	0x00000000	0.0
129	0x00000000	0.0
130	0x00000000	0.0
131	0x00000000	0.0
132	0x00000000	0.0
133	0x00000000	0.0
134	0x00000000	0.0
135	0x00000000	0.0
136	0x00000000	0.0
137	0x00000000	0.0
138	0x00000000	0.0
139	0x00000000	0.0
140	0x00000000	0.0
141	0x00000000	0.0
142	0x00000000	0.0
143	0x00000000	0.0
144	0x00000000	0.0
145	0x00000000	0.0
146	0x00000000	0.0
147	0x00000000	0.0
148	0x00000000	0.0
149	0x00000000	0.0
150	0x00000000	0.0
151	0x00000000	0.0
152	0x00000000	0.0
153	0x00000000	0.0
154	0x00000000	0.0
155	0x00000000	0.0
156	0x00000000	0.0
157	0x00000000	0.0
158	0x00000000	0.0
159	0x00000000	0.0
160	0x00000000	0.0
161	0x00000000	0.0
162	0x00000000	0.0
163	0x00000000	0.0
164	0x00000000	0.0
165	0x00000000	0.0
166	0x00000000	0.0
167	0x00000000	0.0
168	0x00000000	0.0
169	0x00000000	0.0
170	0x00000000	0.0
171	0x00000000	0.0
172	0x00000000	0.0
173	0x00000000	0.0
174	0x00000000	0.0
175	0x00000000	0.0
176	0x00000000	0.0
177	0x00000000	0.0
178	0x00000000	0.0
179	0x00000000	0.0
180	0x00000000	0.0
181	0x00000000	0.0
182	0x00000000	0.0
183	0x00000000	0.0
184	0x00000000	0.0
185	0x00000000	0.0
186	0x00000000	0.0
187	0x00000000	0.0
188	0x00000000	0.0
189	0x00000000	0.0
190	0x00000000	0.0
191	0x00000000	0.0
192	0x00000000	0.0
193	0x00000000	0.0
194	0x00000000	0.0
195	0x00000000	0.0
196	0x00000000	0.0
197	0x00000000	0.0
198	0x00000000	0.0
199	0x00000000	0.0
200	0x00000000	0.0
201	0x00000000	0.0
202	0x00000000	0.0
203	0x00000000	0.0
204	0x00000000	0.0
205	0x00000000	0.0
206	0x00000000	0.0
207	0x00000000	0.0
208	0x00000000	0.0
209	0x00000000	0.0
210	0x00000000	0.0
211	0x00000000	0.0
212	0x00000000	0.0
213	0x00000000	0.0
214	0x00000000	0.0
215	0x00000000	0.0
216	0x00000000	0.0
217	0x00000000	0.0
218	0x00000000	0.0
219	0x00000000	0.0
220	0x00000000	0.0
221	0x00000000	0.0
222	0x00000000	0.0
223	0x00000000	0.0
224	0x00000000	0.0
225	0x00000000	0.0
226	0x00000000	0.0
227	0x00000000	0.0
228	0x00000000	0.0
229	0x00000000	0.0
230	0x00000000	0.0
231	0x00000000	0.0
232	0x00000000	0.0
233	0x00000000	0.0
234	0x00000000	0.0
235	0x00000000	0.0
236	0x00000000	0.0
237	0x00000000	0.0
238	0x00000000	0.0
239	0x00000000	0.0
240	0x00000000	0.0
241	0x00000000	0.0
242	0x00000000	0.0
243	0x00000000	0.0
244	0x00000000	0.0
245	0x00000000	0.0
246	0x00000000	0.0
247	0x00000000	0.0
248	0x00000000	0.0
249	0x00000000	0.0
250	0x00000000	0.0
251	0x00000000	0.0
252	0x00000000	0.0
253	0x00000000	0.0
254	0x00000000	0.0
255	0x00000000	0.0

network_body._body_endoder.seq_layers.4.weight f4 [256, 256]
0	0xbbbbd87b	-0.0057325936
1	0xbdc52e2e	-0.09627949
2	0xbdb916e7	-0.090375714
3	0xbdb71f9a	-0.089415744
4	0xbe06a5a0	-0.13149118
5	0xbd8fc21a	-0.07019444
6	0xbd993415	-0.07480637
7	0xbc4f3a6b	-0.012648205
8	0xbdeddab4	-0.1161398
9	0xbc3d5b71	-0.011557446
10	0xbc3302d6	-0.010925969
11	0x3cf35b08	0.029706493
12	0x3d5242c4	0.051333204
13	0xbd03ae4d	-0.032148648
14	0xbd233f2f	-0.03985518
15	0x3e043671	0.12911393
16	0x3dd58698	0.10426062
17	0xbcce3c0f	-0.025175123
18	0xbd48b406	-0.04899981
19	0xbd294092	-0.041321345
20	0x3c0faa27	0.008768595
21	0xbd354c6f	-0.044262346
22	0xbd873424	-0.06601742
23	0xbc863b9b	-0.016385844
24	0x3e1a3a2b	0.15061252
25	0xbdd5da2e	-0.10442005
26	0xbd8eb234	-0.06967583
27	0xbc8a5793	-0.016887462
28	0xbd2c3972	-0.04204697
29	0xbc2fec0b	-0.010737429
30	0xbdc01de5	-0.09380702
31	0xbc07f4bd	-0.008298096
32	0x3cbe65b4	0.023241855
33	0x3df83e58	0.12121266
34	0x3d1c3740	0.038138628
35	0xbd47f3ca	-0.04881648
36	0x3c1477a5	0.009061729
37	0x3d8507bc	0.06495616
38	0xbd05e0ab	-0.032684963
39	0xbc565738	-0.013082318
40	0x3d111213	0.035417628
41	0xbb7eefbb	-0.0038900215
42	0x3d2273a9	0.039661083
43	0x3cc1676b	0.023608884
44	0x37d0cdb9	2.489133e-05
45	0xbc63d72b	-0.0139062805
46	0x3c73ce45	0.014880721
47	0x3d5a7d36	0.053342067
48	0x3e0775cb	0.13228528
49	0x3d440bdb	0.04786287
50	0xbcb53e25	-0.02212436
51	0xbd0488c5	-0.032356996
52	0x3ce605ba	0.028078903
53	0x3d9dc213	0.07703032
54	0x3db17dec	0.08666596
55	0x3da375c1	0.07981444
56	0xbc0fd600	-0.008779049
57	0xbce2d46a	-0.027689178
58	0x3d73f466	0.05955925
59	0x3cb97979	0.02264093
60	0x3d8ecc7c	0.06972596
61	0xbd29e704	-0.04148008
62	0x3dbf86a8	0.093518555
63	0x3de8b01b	0.113617145
64	0xbc239bb0	-0.009985849
65	0xbd1f903b	-0.03895591
66	0x3ccf490c	0.025303386
67	0x3e1414e3	0.14461093
68	0x3ca832f4	0.020532109
69	0x3d800e72	0.06252755
70	0x3d902f42	0.07040264
71	0xbd5560d8	-0.05209431
72	0x3dae4201	0.08508683
73	0xbd2a45ee	-0.041570596
74	0xbcc78311	-0.02435449
75	0xbd450997	-0.04810485
76	0x3d173d62	0.036923774
77	0x3b974fb7	0.004617657
78	0x3e0645b9	0.13112535
79	0x3b92b980	0.0044776797
80	0x3c01e0e6	0.007927155
81	0x3d9c9be2	0.0764692
82	0xbd894587	-0.067027144
83	0x3ce4d97b	0.027935734
84	0xbc9f964b	-0.019480845
85	0xbdbc9a4f	-0.092091195
86	0xbcbc7b10	-0.0230079
87	0x3d99f937	0.07518237
88	0x3d4151c0	0.047197104
89	0xbd3c6ec6	-0.04600408
90	0x3d145e54	0.03622277
91	0xbc9e1e61	-0.019301595
92	0x3d9bb3e1	0.076026686
93	0x3bc9108d	0.006136006
94	0xb984220d	-0.00025202372
95	0xbd5d3ef1	-0.054015104
96	0xbd426cb9	-0.047466967
97	0x3c859e5c	0.016310863
98	0xbdac5c67	-0.08416062
99	0xbd5e9fa1	-0.054351453
100	0x3de29bc1	0.11064864
101	0xbcd650cd	-0.026161576
102	0x3c842e0a	0.016135234
103	0x3b884d9d	0.004159643
104	0x3c46cb63	0.012133452
105	0xbcf73797	-0.030177874
106	0x3d28cfca	0.041213788
107	0xbd867c79	-0.0656671
108	0x3d352c7c	0.044231877
109	0x3cad3a32	0.021145914
110	0xbd8234c4	-0.063577205
111	0xbd8f09a4	-0.06984261
112	0xbd994685	-0.07484154
113	0xbd14c129	-0.036317024
114	0xbd17a858	-0.03702578
115	0xbd84f1b2	-0.06491412
116	0xbc971754	-0.01844374
117	0x3d4ff6bf	0.050772425
118	0xbd1f6c90	-0.038921893
119	0x3da6256b	0.08112606
120	0xbd372f52	-0.044722863
121	0xbe56b462	-0.20967248
122	0x3ded5123	0.11587741
123	0xbd7e4568	-0.06207791
124	0x3d75dce8	0.060025126
125	0xbdd375bd	-0.10325191
126	0xbd78233d	-0.06058048
127	0xbd3a5029	-0.045486603
128	0xbcf74597	-0.03018455
129	0xbd82534b	-0.06363543
130	0xbbdfd016	-0.0068302257
131	0xbd2a5118	-0.041581243
132	0x3cd8abf5	0.026449183
133	0x3cdf91a3	0.027291125
134	0xbc9ae5a2	-0.018908326
135	0xbddf3a32	-0.10899772
136	0xbe2809e0	-0.16410017
137	0xbda0a5e0	-0.07844138
138	0x3d48bf3c	0.0490105
139	0x3dfc348a	0.123147085
140	0x3c6e71e7	0.014553524
141	0x3c0c76a5	0.008573209
142	0xbde64a0a	-0.112445906
143	0xbd2f0e1b	-0.04273806
144	0x3cb797f3	0.022411322
145	0x3d874f19	0.066068836
146	0xbc879160	-0.016548812
147	0x3d0e6442	0.034763582
148	0x3dfcc5c8	0.12342411
149	0xbde32a92	-0.11092104
150	0x3da55592	0.08072962
151	0xbd470562	-0.048589118
152	0xbd480cbc	-0.04884027
153	0x3dc39c05	0.09551243
154	0x3cd6b845	0.026210913
155	0xbca5e316	-0.020249885
156	0x3d31292c	0.043252155
157	0xbbf81b18	-0.007571589
158	0x3da601b7	0.08105796
159	0x3e03537c	0.12824816
160	0xbd3d06ab	-0.046148937
161	0x3c38f339	0.011288458
162	0x3d26b9ba	0.040704466
163	0x3da70e09	0.08156974
164	0xbd0e0ae8	-0.03467837
165	0x3dc35ad7	0.09538811
166	0xbd9aade2	-0.07552697
167	0x3bf42e0a	0.0074517773
168	0xbdd20b9a	-0.10256119
169	0x3e0e1038	0.13873374
170	0xbd812c52	-0.063072816
171	0x3d890b08	0.06691557
172	0xbddf55d0	-0.10905039
173	0x3e22ca85	0.15897568
174	0xbe2ba5b1	-0.16762425
175	0x3c8187eb	0.015811881
176	0x3b2e14fe	0.0026562805
177	0x3d88195f	0.06645464
178	0xbd7f9cb6	-0.06240531
179	0x3d6f9660	0.05849302
180	0xbdabed67	-0.0839489
181	0xbd0b6888	-0.034035236
182	0x39e38a44	0.0004339983
183	0x3d867150	0.065645814
184	0xbd8f20d3	-0.069886826
185	0xbd9ba7ab	-0.076003395
186	0xbdaf0f7f	-0.085478775
187	0x3d233a09	0.03985027
188	0xbcb7526b	-0.022378167
189	0xbd0f3eb7	-0.03497192
190	0x3d529600	0.051412582
191	0xbd17a7e3	-0.037025344
192	0x3b60d458	0.0034306254
193	0x3e0c03fa	0.13673392
194	0xbcbd7a90	-0.023129731
195	0xbd812584	-0.06305984
196	0x3d16630d	0.036715556
197	0xbd1ac002	-0.03778077
198	0x3d1fb95a	0.038995124
199	0x3d1972ca	0.037462987
200	0xbdd8c604	-0.105846435
201	0xbd3e41a4	-0.04644932
202	0xbcb0afb0	-0.02156815
203	0x3da14d4b	0.078760706
204	0x3b81cf71	0.0039614965
205	0xbe109448	-0.14119065
206	0x3da16dfe	0.078823075
207	0x3c9451ab	0.018105349
208	0xbcf4287a	-0.029804457
209	0xbd6cb9ed	-0.0577945
210	0x3da33438	0.07968944
211	0xba372993	-0.0006987091
212	0x3ccb1d8b	0.02479436
213	0xba742488	-0.0009313305
214	0x3bc6651f	0.006054535
215	0xbb858087	-0.0040741595
216	0x3d4365d9	0.04770455
217	0xbac48d50	-0.0014995728
218	0xbca08a31	-0.019597145
219	0x3cdd2ec0	0.026999831
220	0x3cd60fed	0.02613064
221	0xbc568480	-0.013093114
222	0x3a183960	0.00058068894
223	0x3d3f9e1e	0.04678165
224	0x3a85475e	0.0010168364
225	0x3d9e7b79	0.07738394
226	0xbda8022e	-0.08203541
227	0x3d5c6ae6	0.053812884
228	0x3e03931d	0.12849088
229	0x3d8c8c53	0.06862702
230	0x3d4c3295	0.049852926
231	0x3b80b86c	0.003928235
232	0x3dcc46f6	0.09974472
233	0x3e0b979e	0.13632056
234	0xbd40e3c3	-0.04709221
235	0xbd5b3044	-0.053512827
236	0x3d23032d	0.03979795
237	0xbd4280ad	-0.047485996
238	0xbd904cc2	-0.070458904
239	0xbd9dc29a	-0.07703133
240	0x3d0ab540	0.03386426
241	0xbd18ace1	-0.037274245
242	0xbc12cb4a	-0.008959601
243	0xbde66da9	-0.11251385
244	0x3df69213	0.1203958
245	0xbc6294e7	-0.013829446
246	0xbd77ff09	-0.060545955
247	0x3b1e781e	0.0024180482
248	0x3dfa9aa6	0.12236528
249	0x3d34bf82	0.04412795
250	0x3d28bf54	0.04119809
251	0x3caea60d	0.021319414
252	0xbcf45d5d	-0.029829675
253	0xbcae8f60	-0.0213086
254	0xbd2aa556	-0.041661583
255	0x3ca515a5	0.020151922

network_body._body_endoder.seq_layers.6.bias f4 [256]
0	0x00000000	0.0
1	0x00000000	0.0
2	0x00000000	0.0
3	0x00000000	0.0
4	0x00000000	0.0
5	0x00000000	0.0
6	0x00000000	0.0
7	0x00000000	0.0
8	0x00000000	0.0
9	0x00000000	0.0
10	0x00000000	0.0
11	0x00000000	0.0
12	0x00000000	0.0
13	0x00000000	0.0
14	0x00000000	0.0
15	0x00000000	0.0
16	0x00000000	0.0
17	0x00000000	0.0
18	0x00000000	0.0
19	0x00000000	0.0
20	0x00000000	0.0
21	0x00000000	0.0
22	0x00000000	0.0
23	0x00000000	0.0
24	0x00000000	0.0
25	0x00000000	0.0
26	0x00000000	0.0
27	0x00000000	0.0
28	0x00000000	0.0
29	0x00000000	0.0
30	0x00000000	0.0
31	0x00000000	0.0
32	0x00000000	0.0
33	0x00000000	0.0
34	0x00000000	0.0
35	0x00000000	0.0
36	0x00000000	0.0
37	0x00000000	0.0
38	0x00000000	0.0
39	0x00000000	0.0
40	0x00000000	0.0
41	0x00000000	0.0
42	0x00000000	0.0
43	0x00000000	0.0
44	0x00000000	0.0
45	0x00000000	0.0
46	0x00000000	0.0
47	0x00000000	0.0
48	0x00000000	0.0
49	0x00000000	0.0
50	0x00000000	0.0
51	0x00000000	0.0
52	0x00000000	0.0
53	0x00000000	0.0
54	0x00000000	0.0
55	0x00000000	0.0
56	0x00000000	0.0
57	0x00000000	0.0
58	0x00000000	0.0
59	0x00000000	0.0
60	0x00000000	0.0
61	0x00000000	0.0
62	0x00000000	0.0
63	0x00000000	0.0
64	0x00000000	0.0
65	0x00000000	0.0
66	0x00000000	0.0
67	0x00000000	0.0
68	0x00000000	0.0
69	0x00000000	0.0
70	0x00000000	0.0
71	0x00000000	0.0
72	0x00000000	0.0
73	0x00000000	0.0
74	0x00000000	0.0
75	0x00000000	0.0
76	0x00000000	0.0
77	0x00000000	0.0
78	0x00000000	0.0
79	0x00000000	0.0
80	0x00000000	0.0
81	0x00000000	0.0
82	0x00000000	0.0
83	0x00000000	0.0
84	0x00000000	0.0
85	0x00000000	0.0
86	0x00000000	0.0
87	0x00000000	0.0
88	0x00000000	0.0
89	0x00000000	0.0
90	0x00000000	0.0
91	0x00000000	0.0
92	0x00000000	0.0
93	0x00000000	0.0
94	0x00000000	0.0
95	0x00000000	0.0
96	0x00000000	0.0
97	0x00000000	0.0
98	0x00000000	0.0
99	0x00000000	0.0
100	0x00000000	0.0
101	0x00000000	0.0
102	0x00000000	0.0
103	0x00000000	0.0
104	0x00000000	0.0
105	0x00000000	0.0
106	0x00000000	0.0
107	0x00000000	0.0
108	0x00000000	0.0
109	0x00000000	0.0
110	0x00000000	0.0
111	0x00000000	0.0
112	0x00000000	0.0
113	0x00000000	0.0
114	0x00000000	0.0
115	0x00000000	0.0
116	0x00000000	0.0
117	0x00000000	0.0
118	0x00000000	0.0
119	0x00000000	0.0
120	0x00000000	0.0
121	0x00000000	0.0
122	0x00000000	0.0
123	0x00000000	0.0
124	0x00000000	0.0
125	0x00000000	0.0
126	0x00000000	0.0
127	0x00000000	0.0
128	0x00000000	0.0
129	0x00000000	0.0
130	0x00000000	0.0
131	0x00000000	0.0
132	0x00000000	0.0
133	0x00000000	0.0
134	0x00000000	0.0
135	0x00000000	0.0
136	0x00000000	0.0
137	0x00000000	0.0
138	0x00000000	0.0
139	0x00000000	0.0
140	0x00000000	0.0
141	0x00000000	0.0
142	0x00000000	0.0
143	0x00000000	0.0
144	0x00000000	0.0
145	0x00000000	0.0
146	0x00000000	0.0
147	0x00000000	0.0
148	0x00000000	0.0
149	0x00000000	0.0
150	0x00000000	0.0
151	0x00000000	0.0
152	0x00000000	0.0
153	0x00000000	0.0
154	0x00000000	0.0
155	0x00000000	0.0
156	0x00000000	0.0
157	0x00000000	0.0
158	0x00000000	0.0
159	0x00000000	0.0
160	0x00000000	0.0
161	0x00000000	0.0
162	0x00000000	0.0
163	0x00000000	0.0
164	0x00000000	0.0
165	0x00000000	0.0
166	0x00000000	0.0
167	0x00000000	0.0
168	0x00000000	0.0
169	0x00000000	0.0
170	0x00000000	0.0
171	0x00000000	0.0
172	0x00000000	0.0
173	0x00000000	0.0
174	0x00000000	0.0
175	0x00000000	0.0
176	0x00000000	0.0
177	0x00000000	0.0
178	0x00000000	0.0
179	0x00000000	0.0
180	0x00000000	0.0
181	0x00000000	0.0
182	0x00000000	0.0
183	0x00000000	0.0
184	0x00000000	0.0
185	0x00000000	0.0
186	0x00000000	0.0
187	0x00000000	0.0
188	0x00000000	0.0
189	0x00000000	0.0
190	0x00000000	0.0
191	0x00000000	0.0
192	0x00000000	0.0
193	0x00000000	0.0
194	0x00000000	0.0
195	0x00000000	0.0
196	0x00000000	0.0
197	0x00000000	0.0
198	0x00000000	0.0
199	0x00000000	0.0
200	0x00000000	0.0
201	0x00000000	0.0
202	0x00000000	0.0
203	0x00000000	0.0
204	0x00000000	0.0
205	0x00000000	0.0
206	0x00000000	0.0
207	0x00000000	0.0
208	0x00000000	0.0
209	0x00000000	0.0
210	0x00000000	0.0
211	0x00000000	0.0
212	0x00000000	0.0
213	0x00000000	0.0
214	0x00000000	0.0
215	0x00000000	0.0
216	0x00000000	0.0
217	0x00000000	0.0
218	0x00000000	0.0
219	0x00000000	0.0
220	0x00000000	0.0
221	0x00000000	0.0
222	0x00000000	0.0
223	0x00000000	0.0
224	0x00000000	0.0
225	0x00000000	0.0
226	0x00000000	0.0
227	0x00000000	0.0
228	0x00000000	0.0
229	0x00000000	0.0
230	0x00000000	0.0
231	0x00000000	0.0
232	0x00000000	0.0
233	0x00000000	0.0
234	0x00000000	0.0
235	0x00000000	0.0
236	0x00000000	0.0
237	0x00000000	0.0
238	0x00000000	0.0
239	0x00000000	0.0
240	0x00000000	0.0
241	0x00000000	0.0
242	0x00000000	0.0
243	0x00000000	0.0
244	0x00000000	0.0
245	0x00000000	0.0
246	0x00000000	0.0
247	0x00000000	0.0
248	0x00000000	0.0
249	0x00000000	0.0
250	0x00000000	0.0
251	0x00000000	0.0
252	0x00000000	0.0
253	0x00000000	0.0
254	0x00000000	0.0
255	0x00000000	0.0
