Cursed Tennis/Assets/Tennis/results/TennisPro5/Tennis/Tennis-163188.onnx (onnx, 886342 bytes, 13 tensors)

60 f4 [84]
000000 1d e7 3b 40 6a ca 08 40 9c c9 1c 40 17 00 40 40
       2.935981 2.1373544 2.4498053 3.0000055
000010 82 2b 90 40 6a ca 08 40 09 29 0e 41 cf 07 bf 3e
       4.505311 2.1373544 8.885018 0.37310645
000020 dc 5c 9e 3e 5f 91 89 3e 58 1a da 3e 09 29 0e 41
       0.3093022 0.26868722 0.42598224 8.885018
000030 67 75 99 43 d9 ea 9f 4a 48 d8 5f 3f 73 0a c5 45
       306.9172 5.2401725e+06 0.87439394 6305.306
000040 2d 8d 48 43 d9 ea 9f 4a 4a 77 37 3f 09 29 0e 41
       200.55147 5.2401725e+06 0.71666396 8.885018
000050 f5 81 d6 3e 92 8e 3b 40 c7 47 04 40 d4 4b 20 40
       0.41896024 2.9305768 2.066881 2.5046282
000060 14 c9 49 40 6f bb 96 40 c7 47 04 40 a2 39 0e 41
       3.1528978 4.71038 2.066881 8.8890705
000070 d2 ab c2 3e b6 80 9b 3e d1 fd 86 3e ef fc dc 3e
       0.38021713 0.30371636 0.26365522 0.43161723
000080 a2 39 0e 41 4c d7 99 43 96 ef 9f 4a 2e c6 68 3f
       8.8890705 307.682 5.240779e+06 0.909274
000090 3f 0b c5 45 2c 19 46 43 96 ef 9f 4a d1 72 40 3f
       6305.406 198.09833 5.240779e+06 0.75175196
0000a0 a2 39 0e 41 2a 81 da 3e 1d 9e 39 40 dd 2b fd 3f
       8.8890705 0.4267667 2.9002755 1.9779011
0000b0 92 b1 23 40 32 18 4c 40 d6 03 9d 40 dd 2b fd 3f
       2.557713 3.1889768 4.9067183 1.9779011
0000c0 16 49 0e 41 e0 1f c6 3e 83 17 98 3e 4f d1 83 3e
       8.892843 0.38696194 0.29705438 0.25745627
0000d0 4d b6 df 3e 16 49 0e 41 df 38 9a 43 4f f4 9f 4a
       0.43693772 8.892843 308.4443 5.2413835e+06
0000e0 3c 81 72 3f d0 0b c5 45 b2 90 43 43 4f f4 9f 4a
       0.94728446 6305.4766 195.56522 5.2413835e+06
0000f0 ed 0d 4a 3f 16 49 0e 41 0b 49 de 3e 3f 08 36 40
       0.789275 8.892843 0.43415102 2.8442533
000100 0b ea ee 3f 8e 08 27 40 9f cc 4e 40 e2 0c a3 40
       1.8665174 2.6098971 3.231239 5.0953226
000110 0b ea ee 3f 70 57 0e 41 0c 62 c9 3e 86 10 94 3e
       1.8665174 8.896347 0.39332616 0.28918856
000120 c0 d6 7f 3e ae 59 e2 3e 70 57 0e 41 44 9a 9a 43
       0.24984264 0.44209045 8.896347 309.2052
000130 0a f9 9f 4a 39 57 7f 3f 28 0c c5 45 e4 f2 40 43
       5.241989e+06 0.99742466 6305.5195 192.94879
000140 0a f9 9f 4a 8a 3f 54 3f 70 57 0e 41 ad d3 e1 3e
       5.241989e+06 0.8290945 8.896347 0.44106808

action_model._continuous_distribution.log_sigma f4 [1, 6]
000000 a1 24 c7 bc aa 2b e3 bb aa de 6a bb 17 b2 17 bc
       -0.024309458 -0.0069326954 -0.0035838285 -0.0092587685
000010 f8 bc 2f 3c 22 26 23 bc
       0.010726206 -0.009957822

action_model._continuous_distribution.mu.bias f4 [6]
000000 4f 94 86 3b 38 9f d0 3b 61 3d 6f 3c e5 bf 53 bc
       0.004107035 0.0063666366 0.014602036 -0.012924169
000010 ea c7 04 3c 3e 9f 45 3c
       0.008104304 0.012061892

action_model._continuous_distribution.mu.weight f4 [6, 256]
000000 16 51 1a bc 74 9c f2 bb c3 27 32 3b 47 a3 b2 3c
       -0.009418746 -0.0074039046 0.0027184344 0.021806372
000010 3f a2 88 bb a9 7d 01 3c 1f 79 95 bc c9 54 22 3c
       -0.004169732 0.007903495 -0.018246232 0.00990791
000020 1a 26 3f 3c ca c5 2f bd 4b f1 3f bb ec 0f bf 3c
       0.011666799 -0.042913236 -0.002928811 0.023323022
000030 7b e7 86 bc e6 93 f6 3b a5 c4 ac 3c 0e f1 10 3d
       -0.0164678 0.007524955 0.021089861 0.035386138
000040 fc 81 39 bc b0 f4 75 bb e6 28 6c 3b 23 0e 05 bc
       -0.011322495 -0.0037529878 0.003603512 -0.008121046
000050 43 c2 64 3b c8 c7 2a 3c 23 0d ce bb a8 8d 3f 3b
       0.0034905828 0.010423608 -0.006288187 0.002922872
000060 2a ff 16 bc 55 b2 88 bc 3f 8a 8c bc f0 9f 8a bc
       -0.009216109 -0.016686598 -0.017155765 -0.016921967
000070 0b 6e fa 3b 26 96 73 3c cb 44 a1 3b b4 01 66 3c
       0.0076425127 0.014867341 0.004921531 0.014038492
000080 06 58 1e bb 63 8b b3 3b 74 6f ec ba ab 08 12 3c
       -0.0024161353 0.0054792627 -0.0018038587 0.008913199
000090 75 62 2c 3c 4c b8 d5 bc 92 71 0c bc 21 0c 7e bc
       0.010521521 -0.026088856 -0.008571999 -0.015505821
0000a0 45 f2 8c bc 6a 91 1a bc aa 00 98 3c 10 43 99 bb
       -0.017205367 -0.0094340835 0.018555004 -0.004677184
0000b0 02 8b 93 3c b7 91 96 bc 97 ec 21 bc ab 9f a6 bc
       0.01801062 -0.01838003 -0.009883068 -0.020339807
0000c0 5c f5 8e 3c f6 fc e8 3b 84 ee b6 bb c6 43 56 bb
       0.01745098 0.0071102334 -0.0055826325 -0.0032694205
0000d0 33 ff 70 3b 0f d7 c1 3b d3 a1 dc bc c0 40 c5 bc
       0.0036773204 0.0059155296 -0.026932633 -0.024078727
0000e0 54 d6 1b bc 40 9a 01 bd a0 3d 03 bc a1 eb 1b 3c
       -0.009511549 -0.031641245 -0.008010298 0.0095166275
0000f0 50 2f 84 bc 98 ba b1 ba c6 13 22 3c 0a 6d 99 3c
       -0.016135842 -0.0013559638 0.00989241 0.018728752
000100 1a f8 ed bb dd 2d a6 ba ff 85 1a 3b 96 30 90 bb
       -0.007262242 -0.0012678463 0.0023578403 -0.004400323
000110 59 e2 2c 3c d1 d5 14 bd db da f0 bc d9 55 35 3c
       0.010552012 -0.036336724 -0.029401233 0.011067831
000120 5f c2 99 3c 59 81 00 bc 0d 42 a0 3a 5d 1c 1e bc
       0.018769441 -0.007843339 0.0012226716 -0.009650317
000130 ff 17 37 bb 7f 49 2d 3b 2f 12 76 3c 9e 92 0f bc
       -0.0027937887 0.0026441512 0.015018984 -0.008762984
000140 6d c2 a6 3c 06 25 1f bc 4f c6 fd 3b dd ef 1d 3c
       0.020356381 -0.009713417 0.0077445875 0.009639707
000150 0f c4 92 3c c0 da cf ba 0e c2 3d bc 98 25 94 bc
       0.017915754 -0.0015858039 -0.011581911 -0.018084332
000160 df f3 f3 bb ce 40 74 bc 57 bb 97 3b 71 12 b0 bc
       -0.007444843 -0.014908029 0.004630487 -0.021493169
000170 2b dd ac ba 4a 8e 8a 3c a6 db 54 3b 47 05 d9 b9
       -0.0013188472 0.016913552 0.0032479553 -0.00041393397
000180 19 a0 b4 ba bd 9f 09 3d 27 24 9c b9 c8 56 b2 bb
       -0.0013780623 0.033599604 -0.00029781574 -0.005442474
000190 24 3c 35 bc 77 82 11 3c c5 d3 f0 bc d9 97 0e 3c
       -0.011061702 0.008881203 -0.029397855 0.0087031955
0001a0 4d ca 14 3c 14 28 cc 3c 67 f0 05 bd c9 10 93 bc
       0.009081435 0.024921454 -0.03269997 -0.01795234
0001b0 70 9a d1 bc 6c 92 2d 3c 57 fc c5 bc 55 51 53 3c
       -0.025586337 0.010593992 -0.024168177 0.012897809
0001c0 8e 9e e0 37 0f f0 0d bb 16 09 a6 bc 0f 3a dc bc
       2.6776714e-05 -0.0021657979 -0.020268004 -0.026883153
0001d0 be 72 c4 bc c2 93 05 3c 67 32 19 bc 08 55 b6 3c
       -0.023980495 0.008152904 -0.009350396 0.022257343
0001e0 b0 2b 03 3d 73 f8 15 bc ed 6b 2e bc 2c d6 a2 bb
       0.032024086 -0.009153473 -0.010645849 -0.004969379
0001f0 a9 fa 83 b8 2d 15 e3 3a 73 7b 89 bc 6c 64 8b bb
       -6.293256e-05 0.0017325036 -0.016782498 -0.0042539146
000200 b9 de 92 bb c2 44 05 3c 54 a8 79 bb d5 30 41 bb
       -0.004482117 0.008134069 -0.0038094716 -0.002947857
000210 fd a5 ab bb 8b b0 28 bc fb 06 e3 bb d5 7c 0c 3c
       -0.005238293 -0.010295997 -0.0069283224 0.008574684
000220 95 87 18 bc 21 df 44 3c 0d df 83 3b 2b 71 69 3b
       -0.009309669 0.012016089 0.0040243925 0.0035620432
000230 0c f9 47 3c 9d 1f 90 bc d4 bc 1a bc a5 93 21 bc
       0.0122053735 -0.0175932 -0.009444434 -0.009861861
000240 a3 5d 94 3c 03 15 33 bc ba 6a 03 3b b0 cb c2 3c
       0.018111056 -0.010930303 0.0020052628 0.023778766
000250 d2 ab 53 bb 23 8e 28 3c 00 02 a0 bb c5 bd ff 3b
       -0.0032298458 0.010287794 -0.004883051 0.0078046047
000260 08 36 30 3c 92 48 f9 bb 9f 66 51 bc 6d 73 19 3c
       0.01075507 -0.007607528 -0.012780814 0.009365899
000270 57 fd bf 3c aa fe 36 bc 4c ed fa 39 fe a9 1b 3b
       0.023436232 -0.011169115 0.00047860516 0.0023752446
000280 61 2c 02 3c fc 0f b3 3c 03 17 78 bc a4 46 e3 bc
       0.007945151 0.021858208 -0.015142205 -0.027743645
000290 c8 23 2b 3c 18 38 af bc a7 e8 1c ba 3c 08 d0 b8
       0.010445543 -0.021389052 -0.00059855956 -9.919747e-05
0002a0 12 23 11 bb cb 8c 5c 3a 5e 0c 23 3b e5 58 77 bb
       -0.0022146148 0.0008413314 0.0024879198 -0.0037742194
0002b0 d8 3c e0 bb 15 63 2c 3c a4 44 c2 3c ac 0b 01 bd
       -0.0068431906 0.01052167 0.023714371 -0.03150527
0002c0 fe 7f c3 bc c7 28 6f bc 78 1c 3c 3c e3 cd fc bc
       -0.023864742 -0.014597124 0.011481397 -0.030859893
0002d0 f9 56 47 3c 08 3f 08 3b 4a 27 7c b9 81 0a 3f 3c
       0.012166732 0.0020789523 -0.00024047229 0.011660219
0002e0 54 a6 00 bb 93 ad 0e bc 75 84 c1 3c 9e 9d f8 bc
       -0.001963039 -0.0087083755 0.02362273 -0.030348595
0002f0 1c 9f d2 bc 08 a2 c3 bc e6 1c 29 bc 66 cd c7 3c
       -0.025710635 -0.023880973 -0.010321831 0.024389934
000300 54 9e aa 3c 47 b7 53 3b c6 32 a2 bc 6f 88 58 3c
       0.02082745 0.0032305287 -0.019799601 0.013216122
000310 d4 c4 60 b8 ab f1 47 3c d8 76 31 bd 7b 74 02 bb
       -5.3589072e-05 0.012203614 -0.04332623 -0.0019905854
000320 be b1 a2 bc 24 f9 03 bb 11 f5 77 3c 92 23 aa bc
       -0.019860145 -0.0020137513 0.015134112 -0.020768914
000330 45 08 5e bb c0 d6 2d 3c b5 fa b2 bc 76 da eb 39
       -0.003387944 0.010610282 -0.021848062 0.0004498546
000340 4b 4b 16 bc 43 c0 bb 3a 1c b9 07 bc 31 ca a8 bc
       -0.009173225 0.0014324266 -0.00828388 -0.020604225
000350 e3 9d 2d bb 9c 82 f1 bb d0 25 05 3c dd 0a 2e 3c
       -0.0026491813 -0.007370306 0.008126691 0.010622707
000360 d8 8f 0f bc 22 fb 7e b9 1a 35 ad bc 5c 19 7a bc
       -0.008762322 -0.00024316882 -0.021143485 -0.015264835
000370 69 50 3b 3c 7f 2c af bb ae 22 c1 3c e0 31 b9 b9
       0.0114327455 -0.0053458805 0.023576107 -0.0003532311
000380 59 ed 63 3c f9 e8 12 bc fa 63 a1 3c b1 1a 85 3c
       0.013911569 -0.008966678 0.019700993 0.016248079
000390 7b d6 21 bb f6 31 e8 3a f5 06 21 3b bc c5 19 bc
       -0.002469449 0.0017715085 0.0024570797 -0.009385522
0003a0 dc 25 23 bc 4f a5 db bb e6 1f bb 3c 62 22 5a bb
       -0.009957757 -0.006703056 0.022842359 -0.0033284654
0003b0 6a 60 8e ba 5c 9c 49 3c 9f 1a 20 bb 0c a8 d9 bb
       -0.0010862474 0.012305345 -0.002442993 -0.006642347
0003c0 34 94 79 3c d7 4d ce 3b 02 fc 67 3c 69 fd 03 3d
       0.015233088 0.0062959003 0.014159204 0.032224093
0003d0 6c a2 b9 bb 5a 05 20 bc a3 a9 a2 3b 7e 6e 81 bb
       -0.005665114 -0.009766901 0.00496407 -0.0039499393
0003e0 a3 bc aa bc 0e 27 82 ba 85 96 20 bd 61 0f f0 bb
       -0.020841902 -0.0009929852 -0.039206047 -0.007326052
0003f0 ae ca 08 3b 57 c8 37 bc 9a b1 ee bc 95 36 f3 3a
       0.002087276 -0.011217198 -0.029137421 0.0018555695

network_body._body_endoder.seq_layers.0.bias f4 [256]
000000 75 54 87 bb a5 3b 55 3a 57 32 0f 3c fd 86 28 bb
       -0.004129941 0.0008134193 0.008740029 -0.0025715225
000010 41 86 70 3b 31 d0 d4 3b ea fc a4 bb ce e6 3a 3c
       0.0036701115 0.006494545 -0.0050350325 0.011407567
000020 fc b5 0b 3b b1 0f 60 3b d2 b2 8f bc bb 18 09 b9
       0.0021318188 0.003418904 -0.017541323 -0.00013074551
000030 ca 17 1f 3c e7 28 38 3c 2d 01 46 bc 11 17 5e 3b
       0.009710262 0.011240221 -0.012085241 0.003388826
000040 e1 5b a5 3a 33 0e 1d 3c c2 94 bc 3b 55 2f 3c bc
       0.0012615883 0.009585905 0.005755038 -0.011485894
000050 dd ac 14 bc fd 7d 41 3c 4b c6 f8 3b b2 ef 80 3b
       -0.009074417 0.011809823 0.0075919977 0.003934824
000060 89 6a b6 ba 44 fc 68 bb a8 4d 08 3c 88 07 44 bc
       -0.0013917248 -0.0035550753 0.008319296 -0.011964686
000070 84 07 ae 37 f7 b6 94 bc 65 08 d4 bb e2 87 4c 3c
       2.0745916e-05 -0.01815365 -0.0064707273 0.012483569
000080 53 ad 10 bc e2 bd cd ba a1 19 02 3c 1a b4 ef 3b
       -0.008830386 -0.0015696848 0.007940681 0.007315171
000090 35 db 98 3b 78 1d 02 bc ed bf 14 3c e1 54 42 3c
       0.0046648034 -0.007941596 0.009078962 0.011861057
0000a0 6a 12 2e bc 88 6c 68 bc cc 52 56 3c d8 53 b0 3b
       -0.010624507 -0.014186032 0.013081264 0.0053810887
0000b0 89 49 20 3c a4 d2 94 3a b8 24 2a bc 83 96 47 3c
       0.009783157 0.001135428 -0.010384731 0.012181881
0000c0 3d 65 cf 3b b1 28 55 3c c2 00 7e bb 6b eb 71 3c
       0.006329207 0.01301019 -0.0038757776 0.014765601
0000d0 57 7b ab 3b 1c b3 d4 3b 10 92 43 bc e7 fc ba 3a
       0.005233209 0.006491078 -0.0119366795 0.0014266045
0000e0 6b 7c 19 3c 24 3a aa bb f7 f5 fd b9 1a 61 54 bc
       0.009368042 -0.005194919 -0.00048439178 -0.012962604
0000f0 9d 42 cc 3b 5d e7 61 3c ed d0 8d bb b4 ff 0e 3c
       0.006233527 0.013788071 -0.0043278844 0.008727957
000100 ad 48 36 3c de db 82 bb 13 25 71 bb 34 b8 b6 3b
       0.011125726 -0.0039934954 -0.003679578 0.005576158
000110 67 42 19 3c fb 21 78 3c 50 52 0e 3c 85 e6 75 bb
       0.00935421 0.01514482 0.008686617 -0.0037521434
000120 66 54 4a 3b 76 5e 4d 3c 66 78 d5 3b e8 5b 62 3c
       0.003087306 0.012534728 0.0065145968 0.0138158575
000130 6f ee 3d 3c 52 2a ca bb c4 0a 46 3c 2f dd 0b 3c
       0.0115924915 -0.0061695958 0.012087528 0.008536621
000140 c8 59 1f bc 8c 5d 9c ba fa 6f ff bb 62 a5 b5 bb
       -0.009725995 -0.0011929735 -0.007795331 -0.005543397
000150 b7 ad 2c 3c 29 4d f2 b7 39 f4 ca 3a 61 cd 8a 3c
       0.010539464 -2.8884579e-05 0.0015484161 0.016943635
000160 a7 e5 41 3b 5c 12 27 3a c4 60 86 3a 59 12 68 bc
       0.0029586346 0.000637328 0.0010252227 -0.014164531
000170 e4 12 dc 3b 46 75 77 bb 73 a8 83 3b e9 8b 30 3c
       0.006716119 -0.003775911 0.0040178834 0.010775545
000180 f2 84 c6 ba 18 49 8e bb 61 9b 80 bc d1 4b 12 3c
       -0.0015145822 -0.0043422095 -0.01569909 0.008929209
000190 74 14 81 bb cb fe 4e bc 22 90 38 3c 55 fa 52 3c
       -0.003939206 -0.01263399 0.011264833 0.012877067
0001a0 04 f0 80 3a 8f 4f ad bb 8f 6d 86 3b 5f a1 f7 3b
       0.0009837155 -0.005289025 0.004102416 0.0075570787
0001b0 26 25 3b bb 77 17 24 3c dd ec fa 3b 1f fa 1f bb
       -0.0028556078 0.01001536 0.007657631 -0.0024410558
0001c0 ba 0f fa 3a f4 1e 06 3c 4e 8c f0 3b be 2f 1d 3c
       0.0019078173 0.008186091 0.0073409444 0.009593902
0001d0 ac 98 66 3c 48 c9 67 3c 23 93 e2 3b c1 ad cd 3b
       0.014074486 0.01414711 0.0069145127 0.0062768166
0001e0 bd e0 07 3a fe 61 09 bc 28 6d 5c 3b 61 67 b3 3b
       0.000518333 -0.00838518 0.0033634398 0.00547497
0001f0 01 21 5a bc b6 c9 a1 bb e4 c0 98 bb e1 cd 82 b9
       -0.013313533 -0.004937376 -0.004661666 -0.00024948924
000200 46 e6 05 3b 0c 10 1f 3b 00 3a 2e 3c 3c 70 49 3a
       0.0020431443 0.002427104 0.010633945 0.0007684266
000210 f3 54 89 3b 9a 28 50 bc 53 0d 9b 3b 1e 45 fe 3b
       0.004191035 -0.012704993 0.004731813 0.0077597043
000220 84 af cc 3b 33 37 cb b9 ef 97 2c 3c f9 c3 0d bc
       0.006246509 -0.00038760304 0.010534271 -0.008652681
000230 48 a2 f7 b9 48 b6 73 bc 87 73 c4 3b c7 37 01 3c
       -0.0004723242 -0.014875002 0.0059952172 0.0078868335
000240 83 f7 2f 3c 1d 46 16 3b a8 4d 0f 3b ef d5 c1 3b
       0.010740164 0.0022929974 0.0021866355 0.0059153954
000250 3f c8 0e bc 30 ff 80 bc e3 4f de 3b c0 4a af 3b
       -0.008714735 -0.015746683 0.0067844256 0.005349487
000260 c0 d2 16 bc 8e 40 84 3b 44 30 21 ba 33 2e ad bc
       -0.00920552 0.004036016 -0.0006148855 -0.021140194
000270 90 ac 4a 3c 16 74 56 bc 33 9f 1f bb 09 b5 bf 3b
       0.012370244 -0.0130892005 -0.0024356365 0.0058504385
000280 7f b7 37 3c db 08 40 3c ac 10 08 3c cb f4 cd ba
       0.0112131825 0.011720861 0.008304756 -0.0015713213
000290 82 64 66 bc 0b 76 0a 3c 93 f2 45 3c 45 a9 3a bc
       -0.014062049 0.008450995 0.01208176 -0.011392896
0002a0 37 8b 21 bc 5e 3d a9 3b af eb 18 bc 9b b9 1e 3c
       -0.009859852 0.0051647862 -0.009333535 0.0096878065
0002b0 b2 78 1e 3c 55 62 77 ba 98 e3 47 3c d9 c6 e8 3b
       0.009672331 -0.0009436955 0.012200259 0.0071037826
0002c0 08 88 a3 3a 09 f6 1f ba 11 d1 35 3c cd 1e 7c bc
       0.0012476454 -0.0006102031 0.011097209 -0.015388203
0002d0 af 2b 95 3b 1f 39 0c bc 6d ef 62 3c 1f ed c6 3b
       0.0045523266 -0.008558541 0.013851029 0.0060707475
0002e0 9a dd 7f 3b 1a b9 21 3c f0 3b 02 3b ed 71 58 3c
       0.0039041997 0.009870792 0.0019872151 0.013210756
0002f0 15 42 19 3c 81 a2 34 3c b0 8e 27 3c b6 7a 53 3c
       0.009354134 0.011025072 0.01022689 0.012907675
000300 73 5b 1e 3b 34 c2 4c 3b 42 fb c8 3a 73 d4 41 3c
       0.0024163395 0.0031243684 0.001533367 0.011830437
000310 cf a0 80 3b 7a 1a e4 3b 0a 9b 18 3c 62 69 2e 3b
       0.00392542 0.006961164 0.009314308 0.0026613106
000320 4a df 4d 3c f3 96 c1 3a bc 6b 10 3c 39 fa c7 3b
       0.012565443 0.0014769718 0.008814748 0.006102827
000330 b5 67 06 3a bf d2 3c 3c e7 be 86 bb 95 4f 35 3c
       0.0005127148 0.011524855 -0.004112113 0.011066337
000340 e1 be 14 3c cd 49 05 bc 6e de 7d 3b cd 42 04 3c
       0.009078712 -0.008135271 0.0038737315 0.008072567
000350 d2 27 2b bb 95 8d 54 3b 8a 67 44 bb 0b f8 0f bc
       -0.0026116264 0.0032433022 -0.002996894 -0.008787165
000360 68 00 28 bc a1 6f 80 3c 16 8e 22 bb af 6d d3 bb
       -0.010254003 0.015678229 -0.0024803928 -0.0064522843
000370 69 97 ed 3b d7 6d 60 3a 91 42 32 3c c2 0e df 3a
       0.0072507155 0.0008561289 0.0108801285 0.0017017948
000380 61 23 64 3c c7 f5 a7 3b 88 26 81 3c ea 12 d8 3b
       0.013924451 0.0051257345 0.015765443 0.0065940516
000390 3f 3f 28 3c c3 37 c7 3b 5a e3 57 3c 81 22 1d ba
       0.010268985 0.0060796454 0.013176763 -0.0005994216
0003a0 af 45 84 3c 8e d6 0b 3c b8 ab 98 3b 13 bb cd bb
       0.016146509 0.008535041 0.0046591423 -0.0062784045
0003b0 ee 3d e3 ba 64 2d 2c bc 29 e6 33 3c 0f 7e 13 3c
       -0.0017337182 -0.010508869 0.010980167 0.009002223
0003c0 aa f3 03 3c 51 f1 a9 3b 98 53 17 bc de cc 38 3c
       0.0080536995 0.005186238 -0.009236239 0.011279313
0003d0 d6 bb e0 ba 2f 17 24 bc 29 4b 11 3c 87 c6 cc bb
       -0.0017145823 -0.010015293 0.008868017 -0.0062492522
0003e0 60 e8 01 3c d7 90 54 3b 2a b8 18 3c 81 bd 90 3b
       0.007928938 0.0032434964 0.009321252 0.004417122
0003f0 95 78 4a bc 8c 31 03 3b bf 1e 97 3b 45 ce af 3b
       -0.012357851 0.0020018546 0.0046118195 0.0053651654

network_body._body_endoder.seq_layers.0.weight f4 [256, 84]
000000 14 75 20 3d c9 91 34 3e 16 f7 ed bd b6 e5 db bc
       0.039174154 0.17633738 -0.116193935 -0.026842933
000010 bd 19 cb bb a4 21 0c 3e ce fe 89 3d ee 3a ff bd
       -0.0061981366 0.13684708 0.06738053 -0.12462412
000020 1a ae 83 3e 8f af 32 be d8 a1 c7 3d ac 4b 17 3e
       0.25718766 -0.17449783 0.09747666 0.1477496
000030 6a 01 bb bd 99 32 60 bc 32 3f 37 3e b2 3e 0e 3e
       -0.09131129 -0.013683938 0.17895201 0.13891104
000040 f5 57 b9 bc 69 9f 70 bd 89 cd 06 be 8c 06 0e 3d
       -0.022624949 -0.058745775 -0.13164343 0.034674212
000050 64 35 1c 3c 6d 6c 58 3d d9 38 07 3e 7e 1b 8d bc
       0.009534214 0.052837778 0.1320528 -0.017225023
000060 ec 14 a0 bd e2 b6 2d 3d 83 b2 a6 3c 0b c7 2b bd
       -0.078164905 0.04241074 0.020348793 -0.04193787
000070 6f a6 ba 3d c6 1c d1 bc 9f a3 3c be f4 42 a6 3d
       0.09113776 -0.025526416 -0.18421791 0.08118239
000080 28 1a 4f bd 3f 1e c3 3b 9b ce 86 be 49 ad f8 3d
       -0.050562054 0.0059545333 -0.26329502 0.121424265
000090 cd 55 fd 3d 6d e1 73 3d 5b 8a 46 bd a6 ad bd 3c
       0.12369881 0.059541155 -0.04847179 0.023154091
0000a0 a9 8f bd 3d d1 0f 43 3e 8e 28 9e bc 6c 30 e1 bd
       0.092559166 0.19049002 -0.019306447 -0.10995564
0000b0 c4 56 dd 3c 01 c4 1e 3d a3 a3 dd 3d 91 c3 b7 bd
       0.027018912 0.038761143 0.10822227 -0.08972848
0000c0 9c c3 05 3e fa 8e 8f bd e6 1a cb bd 9e 8e 2c be
       0.130629 -0.070096925 -0.0991724 -0.16851279
0000d0 19 38 23 3e 7a 2d d6 3d 01 92 3b 3c fe a3 c8 3d
       0.15939368 0.10457893 0.011448384 0.09796904
0000e0 f9 4c 64 3d 80 0e d6 3d 69 ca 2a bd 63 69 2d 3d
       0.05573747 0.104519844 -0.04169694 0.042336833
0000f0 56 e2 37 bd cd f2 2b 3e 83 d1 2e be ec 34 60 bd
       -0.044893585 0.1679184 -0.1707211 -0.05473797
000100 a4 bc 19 bd f0 ee f4 bb 57 60 ea bd 6c fd a0 3c
       -0.037533417 -0.0074747726 -0.114441566 0.019652091
000110 ce 93 26 be 7e f2 13 bd 9c c5 c0 bd 72 ba 29 3d
       -0.1626732 -0.03611993 -0.09412691 0.041437574
000120 44 c7 da bb 55 ea 73 3d cb b3 20 be ae a5 1a be
       -0.0066765863 0.05954965 -0.15693586 -0.15102264
000130 d5 49 ed 3d 25 d8 3d ba 31 c8 3b 3d 91 bc 47 bd
       0.11586348 -0.0007241986 0.045845214 -0.048763815
000140 15 5a c6 3d 11 c2 bb 3c 54 dc 28 3e d4 d0 32 be
       0.096851505 0.022919687 0.16490299 -0.17462474
000150 67 97 39 3d 80 c5 13 be 6c a4 ba bd e1 52 db bd
       0.045310404 -0.14430809 -0.09113392 -0.10709167
000160 8e 85 3d 3d 87 ff 3d 3e 97 43 6a be 7d e3 21 3e
       0.046269946 0.18554507 -0.22877346 0.15809436
000170 09 95 de bd 9f 12 da 3d 58 60 0b be b6 c1 f1 bd
       -0.1086827 0.10648083 -0.13610971 -0.118045256
000180 d5 86 ff 3d 38 45 0c bd 03 30 49 3c f7 1f 89 bc
       0.12476889 -0.0342457 0.012279513 -0.016738875
000190 9e a4 48 be a8 cc 99 bb c6 ef 52 3d 6c b8 6b bc
       -0.19594046 -0.0046935864 0.051498197 -0.014387231
0001a0 37 5f 72 3d e5 21 93 3a 05 45 c3 bc 06 f9 b1 bd
       0.059172835 0.0011225311 -0.023836622 -0.086900756
0001b0 b6 7d c0 3d 6c 76 de bd 16 03 6d bc ca 4f 0d be
       0.093989775 -0.10862431 -0.014466068 -0.13799968
0001c0 29 56 3f be d1 6a 46 ba ad c7 5a bd 1c 8a 63 3d
       -0.18685211 -0.00075690175 -0.053413082 0.055551633
0001d0 65 b1 05 bc c4 ea 6c 3c 69 ed 97 bd 61 49 9b bd
       -0.00815997 0.014460269 -0.07418329 -0.07582355
0001e0 61 5c 20 bd be 8f d9 bd ca 7d ef bc d0 a6 a7 3b
       -0.0391506 -0.1062312 -0.029234786 0.005116321
0001f0 b0 cb e8 3c 11 2b cf 3d 06 9a 31 3e 1a d0 15 3e
       0.028417438 0.10115636 0.17343912 0.14630166
000200 df e3 1f be 8d b7 dc bd 27 35 ab bd 8f 69 18 3d
       -0.1561427 -0.10777197 -0.083597474 0.037210044
000210 b8 1f 55 3e 80 eb 93 bc 11 b9 12 be 59 18 2b be
       0.20812881 -0.018056631 -0.1432841 -0.16708507
000220 b9 b6 47 3d 22 7b 3e 3e a2 d4 3f bd 3c 41 c1 bc
       0.048758242 0.18601659 -0.04683364 -0.023590676
000230 ee b0 e1 bc a9 98 f7 3b 73 cc 66 3e 16 41 a5 bd
       -0.027550187 0.0075560403 0.22538929 -0.08069055
000240 e7 b6 33 3e 29 f7 87 bc fd 36 4b be c6 20 8c bd
       0.1755024 -0.016597347 -0.19845195 -0.068421885
000250 2a a3 54 3e c4 aa 77 bc b0 e4 81 bd 4b 45 da 3d
       0.20765367 -0.015116397 -0.06342447 0.10657748
000260 3b 55 d8 bd e5 c0 1f 3d c2 dd aa 3d 96 61 da bc
       -0.105631314 0.039002318 0.08343078 -0.02665786
000270 7d 7e f5 bb c3 f2 bb bd 63 03 76 bd f6 5f 5d bd
       -0.007491885 -0.091771625 -0.060061824 -0.054046594
000280 de 64 31 3e 3e b1 0c 3e 50 93 9b bc 4b a6 e0 3d
       0.17323634 0.13739488 -0.018991143 0.10969218
000290 1f 99 24 3e fb 98 f5 3d 34 bf a6 bd 2e 10 7d 3d
       0.16074036 0.11992069 -0.08141938 0.06178301
0002a0 a9 cc 99 3b 17 9c 11 3e d4 b6 7a 3d 7d 9e 65 bd
       0.004693587 0.142197 0.061209515 -0.05605935
0002b0 fc 7c 43 bd 3e b6 42 3c af b4 8b bc 67 3d 9e bb
       -0.047726616 0.01188427 -0.01705393 -0.004829097
0002c0 d9 38 93 bd e1 72 26 3e e8 04 61 bd af 05 fd bd
       -0.07188577 0.1625476 -0.05493632 -0.123546
0002d0 ca 2f 10 3e 25 fc 06 bd 8d 46 31 bd 69 75 78 bc
       0.1408073 -0.032955308 -0.043280173 -0.0151647115
0002e0 a7 68 09 bc aa 14 84 bc 87 89 ab 3d 70 6b 1a be
       -0.0083867675 -0.016123135 0.08375841 -0.15080047
0002f0 77 54 16 3d 95 d0 2c 3e 00 1e b3 bd ce 0c ef 3d
       0.036701646 0.16876443 -0.087459564 0.11672364
000300 8b 77 31 3e 52 6f f5 3d b6 01 dd bd 86 90 b7 bc
       0.17330758 0.11984123 -0.10791342 -0.022407781
000310 8a 2a 6f 3e 35 e6 00 3d 65 f9 84 3c 3a a8 8f ba
       0.23356071 0.031469543 0.016232202 -0.001096017
000320 f9 31 2a 3e 83 5c 5c 3d 62 f9 13 3e cb 8d c8 bc
       0.16620626 0.053799164 0.144506 -0.024481675
000330 33 7f 7e 3d 7e 5c 47 bd 4a 31 86 bd 77 23 bb bb
       0.062133025 -0.04867219 -0.0655237 -0.005711015
000340 6d 94 ab bc b9 c7 03 3e 42 a9 ed bd ef 53 94 bd
       -0.020944798 0.12869157 -0.11604549 -0.072425716
000350 4c c2 89 be 32 2b 20 3c 22 ca 03 3d 3b ae 96 3c
       -0.2690605 0.009775924 0.03217519 0.018393626
000360 cb 7d 55 bd 3f c4 7d be c6 50 b8 bd 7b 8e ba 3c
       -0.05212192 -0.24781893 -0.08999781 0.022773018
000370 c0 12 c1 3c da bd 0c be 11 ac 04 bd 76 aa ab 3e
       0.023568511 -0.13744298 -0.032390658 0.3352849
000380 32 7b 10 3d ed a2 59 3e b2 53 4b bc 92 d7 e9 3d
       0.03527374 0.21253558 -0.012410091 0.1141807
000390 8c 72 f8 bc 57 89 21 be d4 d6 d8 3b 15 c1 38 bd
       -0.030328058 -0.15775047 0.0066174064 -0.045106012
0003a0 67 57 fa 3d 1c c2 c5 bd 0c a0 89 3d c1 32 af 3d
       0.12223702 -0.09656164 0.0671998 0.085546024
0003b0 7a 9b 8d 3d 2f db 1e bd a2 64 77 be e2 f7 b6 3d
       0.069144204 -0.03878325 -0.24159482 0.08933999
0003c0 60 d4 36 bd b6 98 a2 3c 88 b8 af bc 76 20 8a 3d
       -0.04463613 0.019848209 -0.021450296 0.06744473
0003d0 ae 26 ba bc fa 29 12 3e 55 9f a6 bc 7d 72 64 3d
       -0.022723522 0.14273825 -0.020339647 0.055773247
0003e0 ed 4b 97 3c b1 7d e2 3d 2f f3 29 be 8d 9a 81 3d
       0.018468821 0.1105913 -0.16596673 0.06328306
0003f0 f3 7c 21 3e d5 e8 13 bd fc e7 09 3b 77 19 90 3c
       0.1577032 -0.036110718 0.0021042814 0.017590268

network_body._body_endoder.seq_layers.2.bias f4 [256]
000000 53 38 23 bc 90 af 10 3c c4 dc 49 bc 8a 41 bc 3b
       -0.009962159 0.00883092 -0.012320701 0.0057451176
000010 11 cc 90 3b a8 4f 4d 3c 0b 3e 0c 3c 3f 6f 56 bc
       0.004418858 0.012531199 0.008559714 -0.013088047
000020 e1 66 30 3c 3c 6f 01 3c 53 7e 27 bc 98 7f 45 3c
       0.010766716 0.0079000555 -0.010222989 0.0120543465
000030 7d 77 71 3c c0 f5 c7 ba ab 4f 06 3a 69 a6 01 bb
       0.014737961 -0.0015255734 0.0005123566 -0.0019783026
000040 05 a1 32 3c 6e 97 e0 bb 67 3d 7d bb 71 55 9f bb
       0.010902648 -0.0068539893 -0.0038641335 -0.0048624803
000050 c8 95 38 3c 09 35 41 3c 22 1e 69 bc 26 3f c1 bb
       0.011266179 0.01179243 -0.014228376 -0.0058974205
000060 1d 8c 85 3b 5f af 62 3c 30 3e 66 bb f7 f0 3b bb
       0.0040755407 0.013835757 -0.0035132281 -0.0028677562
000070 44 54 87 3b 36 06 33 38 16 fb 47 3c be e3 1a 3c
       0.0041299183 4.268271e-05 0.01220586 0.009453712
000080 bd f6 47 3b 11 32 1b ba bf 9a de b7 46 8b 28 3c
       0.0030512058 -0.0005920241 -2.6536522e-05 0.010287112
000090 05 1c fc 3b f1 01 15 bc 3b 2f 0b 3b 07 45 3f 3c
       0.00769377 -0.009094701 0.0021237868 0.011674172
0000a0 7b e2 23 3c 59 fa 1c 3c 97 94 aa ba 01 31 e1 3a
       0.010002728 0.009581172 -0.0013014254 0.0017180742
0000b0 0e 45 03 bc ed f8 91 bc d9 04 1b bc 7a b8 2f 3c
       -0.008012069 -0.017818892 -0.009461605 0.010725135
0000c0 d3 7d d3 3a 9d 1d 42 3c c7 60 96 3b d7 02 2c 3c
       0.0016135521 0.011847881 0.0045891735 0.010498724
0000d0 03 3f 25 3b 6e 20 63 3b b6 8b 1e 3b 17 f5 50 3c
       0.002521456 0.003465678 0.002419216 0.0127537465
0000e0 83 dd 24 3c 62 83 48 bc e0 5f d3 3b 5d 39 12 3c
       0.010062578 -0.012238355 0.006450638 0.008924809
0000f0 41 a5 ef 3b 39 8c 61 bc ff 91 39 3b f1 47 39 3b
       0.007313401 -0.013766342 0.002831578 0.002827164
000100 cd 77 f7 bb a6 16 ec 3a df af 51 3c 48 21 2b 3c
       -0.007552123 0.0018012121 0.012798279 0.010444947
000110 81 f8 d1 bb 24 dc e6 3b 1b 72 63 3c a7 f5 52 3c
       -0.006407798 0.007045286 0.013882185 0.012875951
000120 af 02 11 3c 8a e9 73 3b 62 80 0c 3b bf c7 03 3c
       0.0088507375 0.0037218058 0.0021438827 0.008043229
000130 b4 85 7b ba 4c 36 17 bc e9 19 2f 3c 7d 5e 62 bb
       -0.00095948135 -0.009229254 0.01068733 -0.0034541183
000140 70 19 9c ba 59 de 95 3c 8d f1 af 3b 52 cf 5f 3c
       -0.0011909436 0.0182945 0.0053693713 0.013660269
000150 31 74 20 3c 7f 9f 6f bc 65 32 9d 3b f3 51 c7 bb
       0.009793327 -0.014625429 0.0047972673 -0.006082767
000160 27 98 b3 3a 40 90 c7 39 bd 14 56 bc 24 94 15 3c
       0.0013701961 0.00038063712 -0.013066468 0.009129558
000170 6f 84 fd 3b 0e 9a 3d bc e3 5e 20 bc 4d 8d 6b 3c
       0.0077367346 -0.011572374 -0.009788248 0.01437695
000180 1a ef 67 ba dd 95 ac bb fc d2 7c b9 54 4c eb 3b
       -0.00088475796 -0.0052668885 -0.0002411119 0.00718073
000190 73 64 00 3b 35 6d ef ba c0 20 db 3b ce 4a 80 3c
       0.0019591122 -0.0018266799 0.0066872537 0.01566067
0001a0 87 c4 49 3c 4e 3e 10 3c 16 63 c0 bb 37 d6 5b bc
       0.012314922 0.008803917 -0.005871187 -0.013417772
0001b0 c5 08 93 bb b4 9c 67 bc 3a 49 53 bc 51 1a b8 3b
       -0.0044871294 -0.014136482 -0.012895877 0.0056183715
0001c0 aa 7d 5c 3c c9 49 38 3c 02 aa 65 3c 0b 1d da bb
       0.013457695 0.0112480605 0.014017584 -0.006656294
0001d0 2f 6c ea bb 4f e2 47 bc 9f 08 8a bc eb b0 35 3c
       -0.00715401 -0.012199952 -0.016849814 0.011089544
0001e0 86 97 7d 3b 9e e5 63 bc bb 44 24 ba d5 96 23 3c
       0.0038695051 -0.0139097255 -0.0006266345 0.009984692
0001f0 b4 71 a8 b9 82 7b 67 3c 50 90 8a 3a 4a 56 79 3c
       -0.00032128172 0.014128568 0.0010571573 0.015218327
000200 6b 8b 2e bc ef 0f 41 3c a3 37 42 3c 9e 45 a4 3b
       -0.010653357 0.011783584 0.011854085 0.005013182
000210 c9 52 f9 b9 e1 8a 50 3c 54 59 36 3c e7 33 9a 3b
       -0.0004755466 0.012728424 0.011129696 0.0047058943
000220 2b 2f 4d 3c 12 b0 26 ba f3 62 1c bb 58 c4 fc 3b
       0.012523453 -0.0006358634 -0.002386269 0.0077138357
000230 a6 37 29 3b b4 71 0a bc 7f 75 38 3c a3 e2 34 3c
       0.0025820523 -0.0084499605 0.011258482 0.0110403625
000240 2b 91 b5 bb ae f8 30 bc 3c bb 74 3c a8 3f 33 3c
       -0.005540987 -0.010801477 0.014937218 0.01094047
000250 e5 af 60 3c 84 aa 0a 3c 59 3b b2 3b 08 b0 02 bc
       0.0137138115 0.008463506 0.0054392037 -0.007976539
000260 be 5a 20 3c 8e 8f 89 3b 27 44 c8 ba d7 7a 24 3c
       0.00978726 0.0041980213 -0.00152791 0.010039053
000270 03 17 6f 3c 42 06 62 3c e9 9d 57 bc f8 89 fb 3b
       0.014592889 0.013795437 -0.013160207 0.0076763593
000280 e1 2c 78 3c 47 d3 68 bc 56 da 3e bc 7c 8d b0 3b
       0.015147419 -0.014210529 -0.011648735 0.00538796
000290 fe 12 16 3c 50 b6 27 bc f8 ef 82 3c c4 f8 0b 3c
       0.0091598015 -0.010236338 0.015983567 0.008543197
0002a0 f6 53 13 bb 45 f9 02 3c 36 71 6d 3c f7 aa 08 3c
       -0.0022480465 0.007994001 0.014492324 0.008341542
0002b0 ff dd 40 bc 6b e2 20 3c 36 d5 c9 bb e0 ff c3 bb
       -0.011771678 0.009819607 -0.00615945 -0.0059814304
0002c0 7f d0 d2 3b d2 bf 53 3c 56 ea f2 3b 69 27 c2 bb
       0.006433546 0.0129241515 0.007413189 -0.005925108
0002d0 55 c5 31 bc 4c da 81 bc 26 f4 f1 3a 90 fe 73 bc
       -0.01085027 -0.015851162 0.0018459603 -0.014892235
0002e0 b9 6b 01 bc 31 87 2e 3c 58 21 07 3b 4f d9 14 bc
       -0.007899218 0.010652349 0.002061924 -0.0090850135
0002f0 5f 86 11 bc 1d 73 8a bb 00 80 00 3c 99 2b 57 bc
       -0.008882134 -0.0042251484 0.007843018 -0.013132953
000300 c6 26 06 3c 03 dc 3c bc 0a a5 58 bc 15 c9 f4 3a
       0.008187955 -0.011527064 -0.013222942 0.001867565
000310 80 60 e6 3b 10 8a 22 bc d5 e3 4b bc af 9c c5 39
       0.0070305467 -0.009920612 -0.012444456 0.00037691506
000320 0c 81 0a 3c 05 2e 8b 3c 47 07 1d bc 4b 64 3e 3c
       0.008453619 0.016989717 -0.009584255 0.011620591
000330 a0 aa 18 bc f5 0e 5c 3c 85 3d 98 bb 85 0d a7 b9
       -0.009318024 0.0134313 -0.0046460056 -0.00031862795
000340 b4 cd 74 3b 24 a8 35 3c ca 0d 36 3c 0a 62 42 3c
       0.0037354054 0.011087451 0.011111686 0.011864195
000350 d4 6e 2b 3c 24 b6 3a 3c 4e 73 14 3c 0a d3 97 3b
       0.010463435 0.011395965 0.009060694 0.004633312
000360 2f b0 9c b9 59 7a 57 3c 26 9a dc 3a ea 35 59 bc
       -0.00029885906 0.013151729 0.0016830608 -0.013257483
000370 f1 56 8c 3b 6c 2c 3a 3b 3e 3f 02 bc b4 fa 1d bc
       0.004282825 0.0028407825 -0.007949648 -0.009642292
000380 58 a0 e5 3a 20 11 ac b6 82 12 29 3c c9 b7 38 3b
       0.00175191 -5.127993e-06 0.010319354 0.0028185716
000390 08 a7 13 bc f9 e2 9a bc 4a 22 21 bc 7f 85 47 3c
       -0.009011991 -0.018907057 -0.009834835 0.012177824
0003a0 f6 b1 0a bc 36 35 96 3b 00 d1 36 bc 8b 9f 60 bc
       -0.008465281 0.00458398 -0.011158228 -0.013709913
0003b0 d1 f6 5f bc 95 8b 5c 37 85 fb e1 ba cb f9 17 3c
       -0.013669685 1.3145521e-05 -0.0017241096 0.009275864
0003c0 6c 1b 51 3b 79 c3 e2 3b 5a 98 43 3c e2 d3 ab bb
       0.0031907214 0.006920275 0.011938179 -0.0052437643
0003d0 92 9d 19 3c 72 9f 8e 39 38 66 b8 ba 49 d5 69 3b
       0.009375947 0.00027203147 -0.001406855 0.0035680106
0003e0 dc fd 3e bc bb f9 65 3c 67 3b 3b bb 5f ec 64 38
       -0.0116572045 0.014036591 -0.0028569342 5.4579574e-05
0003f0 b8 ff aa bb 23 23 48 3c 7a 71 47 bc 87 25 9e b8
       -0.0052184723 0.0122154085 -0.012173051 -7.541017e-05

network_body._body_endoder.seq_layers.2.weight f4 [256, 256]
000000 8f 8c f7 3d 9b 9d b0 3d df a7 44 bd 57 18 d3 bc
       0.12087356 0.08623811 -0.048011657 -0.025768442
000010 0c d7 b0 3d 63 fb a9 3d 0c 40 e4 bd 5e 0c b6 bb
       0.08634767 0.08299901 -0.111450285 -0.0055556735
000020 0b a9 8b 3b 08 29 36 be d3 72 3e bd f3 fa 93 3d
       0.004262095 -0.1778909 -0.046496224 0.07225599
000030 57 c4 b7 bc d8 42 11 bd ee d3 58 3d 6e 82 f5 3d
       -0.02243249 -0.035464138 0.052936487 0.11987768
000040 5d 70 4a bb db 0e cc 3d de f2 37 bd df dc 5b 3c
       -0.0030889728 0.09963771 -0.04490935 0.013419359
000050 42 c8 8d bd 60 b5 79 bb f5 4f a9 bd 0e 35 8a 3d
       -0.06922962 -0.0038102493 -0.08267204 0.06748401
000060 e8 18 aa 3d 34 c7 3f 3d 3b da 3c bd 93 46 71 3d
       0.08305532 0.046820834 -0.04610656 0.058905195
000070 84 36 0c 3d f3 23 80 3c e1 ce 81 3d 38 f7 52 3c
       0.034231678 0.015642142 0.06338287 0.012876324
000080 4f 65 2b 3d c9 84 75 3c 70 2a b7 3c 9b e7 2e 3d
       0.041844662 0.014985272 0.022359103 0.042701345
000090 f8 f8 b6 bc a7 16 11 bd 74 39 61 bd d5 de 1a 3d
       -0.022335514 -0.035421994 -0.054986432 0.037810165
0000a0 c6 53 1d bd 39 e4 3f bc 57 49 20 bc a8 52 9c bc
       -0.03840997 -0.011712127 -0.009783111 -0.019082382
0000b0 ea 16 94 3d ea b7 ad bd f5 31 74 3d 16 51 84 bd
       0.07230933 -0.084823444 0.059617955 -0.064607784
0000c0 70 f7 b8 bc 44 bf 24 bc 0f 0e 01 be b4 45 82 bd
       -0.022578925 -0.010055367 -0.12603019 -0.06360951
0000d0 29 cd 5c 3d 06 08 c8 3b a3 6e 94 3d 0a 80 0e 3e
       0.053906593 0.006104472 0.07247665 0.1391603
0000e0 a0 a4 db bc 9c f1 9c 3d 72 35 d2 bd 65 f1 0f bd
       -0.026811898 0.07663271 -0.102641 -0.03514232
0000f0 98 45 82 3b 0a df 98 bd 6a 0b a3 bd 16 f7 bd 3c
       0.0039755814 -0.07464416 -0.079611614 0.023189109
000100 fd 1b e2 bc 37 9b 51 3d 17 97 02 bd 92 cd ff 3d
       -0.027601236 0.051173415 -0.03188237 0.12490381
000110 05 01 f8 bb 10 e2 4f 3d 6f f1 21 3d 4a bb 82 3d
       -0.007568481 0.0507527 0.03953689 0.06383379
000120 59 88 77 bc 16 7e 4f 3d dc 9b 54 bd 31 a8 70 bd
       -0.015108191 0.050657354 -0.05190645 -0.05875415
000130 b7 5b 8b bb 7d b7 ba 3c fb c9 a1 bb 1e 2e 51 3b
       -0.0042528766 0.022792572 -0.004937408 0.0031918357
000140 28 d7 af 3d 7c ad 27 3d 45 96 2a 3b a2 a7 b8 3d
       0.0858596 0.040936932 0.002602951 0.090163484
000150 4a fc c2 bc fc a8 3d 3d f5 6f de bb 43 b8 cc 3b
       -0.023801941 0.046303734 -0.0067882487 0.0062475516
000160 ab 6f c4 3d 5e 23 3d bc c5 ed 3a bd cb 94 8c 3d
       0.095916115 -0.011544077 -0.04563691 0.068643175
000170 31 1e 3e bd ce 40 94 bd 9b d6 e2 bd 3e 0a 17 be
       -0.04641551 -0.07238923 -0.11076089 -0.14750001
000180 a9 16 af 3b e2 04 45 3b a9 cb bd 3d 0d 45 d5 bc
       0.0053432775 0.0030062725 0.09267361 -0.026033903
000190 e2 f3 f4 bc 0b 38 01 3d 95 ea 3f 3d 94 58 b7 3d
       -0.029901449 0.031547587 0.046854574 0.08952442
0001a0 9c 32 2a 3d 82 fb 3a bd 61 dd 91 3c 86 80 a0 bd
       0.04155217 -0.045650013 0.017805757 -0.07837014
0001b0 d3 31 77 3b cf fb f5 3d a5 47 72 3b 0a 27 ea 3c
       0.0037718907 0.12010919 0.0036968973 0.028583068
0001c0 77 6a 5e bb cd 3e 4e 3c 20 44 41 3d d4 98 a3 bd
       -0.003393797 0.012588215 0.04718411 -0.07988134
0001d0 e5 87 45 3d 65 16 d2 bd 83 9f 11 be 40 e6 25 bc
       0.048225302 -0.10258178 -0.14221005 -0.010125697
0001e0 3c 84 b4 3a 90 f3 e7 3c 56 23 e6 bc 92 6b 1a 3c
       0.0013772319 0.028314382 -0.028093021 0.009425061
0001f0 9c 63 0a be 04 85 cc bb 9a e8 a5 bd ad 24 92 bd
       -0.1351456 -0.0062414426 -0.08101006 -0.071359016
000200 3a ca 69 bd 48 a0 d3 bd 28 77 52 bb 13 81 19 bd
       -0.057077624 -0.103333056 -0.003211448 -0.03747661
000210 87 91 13 bc 08 04 66 bd 1e 33 30 bd c2 6e 57 bc
       -0.009006864 -0.05615619 -0.0430175 -0.013148965
000220 51 93 b7 bd 1d 7b 33 3d e4 08 b4 3d a7 bf 85 bd
       -0.08963645 0.04381858 0.08790758 -0.065306954
000230 29 2c 6d bd 0d 91 16 bd 47 7c 02 bc cf 63 42 3d
       -0.057903443 -0.036759425 -0.0079642 0.047458466
000240 18 89 b2 bd 6b f5 68 bb 1f 7b 23 bd 39 b7 af bc
       -0.08717555 -0.003554667 -0.03991234 -0.021449672
000250 45 fb 00 bc f7 6b 8f 3d dd b0 56 3c 5b 69 18 3d
       -0.007872407 0.070030145 0.013103691 0.03720985
000260 13 54 c3 3b 02 84 10 3d 86 94 a0 bc ff 1e 33 3d
       0.00596095 0.035282142 -0.019602071 0.043730732
000270 91 cc 0d 3c a7 03 09 3c 98 3d da bd 9e 5a 9c b8
       0.008654729 0.008362687 -0.10656279 -7.4555384e-05
000280 79 b3 42 3d 52 a3 f2 bd 16 46 0a bd 66 22 90 bd
       0.04753444 -0.11847557 -0.033758245 -0.07037811
000290 ea 6a 04 be 6a 3e 63 bc 30 ce 73 3d d1 c5 c0 bd
       -0.1293141 -0.013869861 0.059522808 -0.094127305
0002a0 02 15 b2 bd 25 d9 d0 3c f9 d6 c7 bd 02 42 83 bc
       -0.08695413 0.025494168 -0.097578 -0.016022686
0002b0 55 ce db bb b6 19 14 bc d1 9d 4e 3c 26 d0 4e bd
       -0.0067079463 -0.009039333 0.012610869 -0.050491475
0002c0 b2 9c df bd ed 7f 34 bd c2 5d 7f 3c 0e f0 9b 3d
       -0.10918559 -0.044067312 0.015586318 0.07614146
0002d0 90 26 09 3b 48 4f 89 bd 69 ee 29 bd 51 fd ef bc
       0.0020927526 -0.06704575 -0.04148713 -0.029295595
0002e0 f8 a0 7a bd 6a 85 bb 3b 6d 78 cc bc c8 1e cb 3d
       -0.061188668 0.0057226913 -0.024959767 0.099179804
0002f0 d8 55 10 bd 32 5e 0e 3d 24 aa 9f bd cb b4 e1 bd
       -0.035238117 0.0347578 -0.077961236 -0.11020812
000300 d7 89 8c 3d 71 c1 9a 3c 02 e1 64 bd f9 f2 df bb
       0.06862228 0.018891068 -0.055878647 -0.0068343845
000310 8b 4d 28 3c 07 5b 6c 3c 58 80 22 bc 2a eb cb bc
       0.010272394 0.0144259995 -0.009918295 -0.024892408
000320 e8 a5 18 3c c0 c7 ec bd 53 89 9e 3d 93 32 1e bd
       0.009316899 -0.11561537 0.07741036 -0.03862245
000330 c1 f9 55 bb ab 42 a1 bc 54 ea 05 3d 19 88 8d bc
       -0.0032650086 -0.01968511 0.032694176 -0.01727681
000340 fb c0 34 3c 6d 71 91 3c e0 4c f5 bd 0e b2 4d bd
       0.011032338 0.017754281 -0.11977553 -0.050218634
000350 28 0e d9 bd 0b ae 80 bc 59 29 7b bc d3 b7 ee bc
       -0.10598403 -0.01570799 -0.015329682 -0.029140389
000360 f6 ba c6 3d 50 2f 26 3c 9a 09 97 bb 0f c1 d7 bc
       0.09703629 0.010143116 -0.004609299 -0.026337175
000370 bf b7 c4 bd d6 93 e3 3c 50 9a ce 3d 80 6e 9d bc
       -0.09605359 0.027780455 0.100880265 -0.01921773
000380 bd 13 d1 bc 16 2d 41 3c e9 ee 72 bb f3 b4 8d 3d
       -0.025522107 0.0117905345 -0.003706867 0.06919279
000390 7d 05 63 bd 26 ac ea 3d 05 6d d8 bd 3e d2 e9 3a
       -0.055425156 0.11458616 -0.10567669 0.0017839146
0003a0 24 71 3b bd 7d 5e 41 3b 4f 3b 84 bc 92 08 ad bd
       -0.045762196 0.0029505782 -0.016141562 -0.084489
0003b0 33 2f 85 bd c9 2b 83 3d fc df 92 bb 3f 52 82 3b
       -0.06503143 0.06404836 -0.0044822674 0.0039770897
0003c0 ed 16 23 bd e8 43 b2 3d 60 e0 a1 bd 4b 27 b0 bd
       -0.039816786 0.08704358 -0.07904124 -0.086012445
0003d0 77 97 d9 3c d2 60 dd bc f5 17 9e bd ec 99 09 3d
       0.026561482 -0.027023707 -0.07719413 0.033594057
0003e0 36 ee 98 3b 3c 08 f7 3c 45 76 72 bd 9a 15 33 3d
       0.004667069 0.030155294 -0.059194822 0.043721773
0003f0 79 d9 8a ba b3 7d 81 3d b9 d9 7f bc 84 96 8d ba
       -0.0010593376 0.06322803 -0.015615874 -0.0010802303

network_body._body_endoder.seq_layers.4.bias f4 [256]
000000 88 b2 6b 3c 5c 73 83 bc c0 42 64 3b 07 b5 f4 3b
       0.014385827 -0.016046219 0.0034829825 0.007467869
000010 e2 a5 0a 3c 31 62 58 bc d9 22 45 3a c7 23 79 bc
       0.008462401 -0.013207004 0.00075201463 -0.015206284
000020 67 da 29 3c 56 08 9c 3b 53 d7 d6 3b cc f1 d2 bb
       0.010367013 0.004761736 0.0065564304 -0.006437516
000030 6a fc 8a bc 09 87 2c 3c 8f c3 21 bc 39 9a 5b bc
       -0.016966064 0.010530242 -0.009873285 -0.013403469
000040 c1 27 32 3c 8a 5a a9 3b 9b e4 41 3c 01 bb 7f 39
       0.010873736 0.005168264 0.011834289 0.0002438836
000050 72 f6 81 3b 57 5d 9e bb 4c 70 5f bc 22 7a 56 3c
       0.003966146 -0.0048329043 -0.0136376135 0.013090642
000060 96 a3 92 3a e6 fd 15 bc af c0 15 bc 7e d5 14 bc
       0.0011187668 -0.009154772 -0.009140178 -0.009084104
000070 57 0f 36 3c 0a a4 a2 39 6d 0b 33 bc 81 df 03 3c
       0.011112056 0.00031021266 -0.010928017 0.008048893
000080 59 57 41 3a e0 27 62 3a 1f d1 62 3c 56 5c 63 bc
       0.00073753815 0.00086271577 0.013843804 -0.013876995
000090 bf 56 1c 3c 45 07 a9 3b ab cd b2 bb 99 51 83 3c
       0.009542166 0.0051583373 -0.0054566464 0.01603012
0000a0 16 f8 01 3c 6d b8 36 bc 2d 09 5c bc 25 ff 64 bc
       0.007932683 -0.011152369 -0.013429922 -0.013976847
0000b0 ff 7b 4d 39 02 c4 98 bc af 0a 2a bc a3 89 ed bb
       0.00019596516 -0.018648151 -0.010378524 -0.0072490736
0000c0 01 be 19 bc 6f 55 da 3b 33 91 77 bc 18 0b 50 bb
       -0.009383679 0.0066630165 -0.015110302 -0.0031744894
0000d0 1d 98 7f 3b c8 d9 3f 3c 85 57 30 bc b8 ea f5 bb
       0.0039000579 0.011709638 -0.010763054 -0.0075047873
0000e0 4c 31 69 bc e7 ae 1c 3c 57 d1 8f 39 eb ec a1 3b
       -0.014232945 0.009563184 0.00027431056 0.004941573
0000f0 fe a4 5f bc e6 44 95 bc 41 00 84 bb cc e3 ea bb
       -0.013650177 -0.01822133 -0.0040283506 -0.007168269
000100 c1 fa 5b 3c 08 8d db 3b 02 6f 52 3b fd 3a 81 3c
       0.013426484 0.006700162 0.0032109623 0.015775198
000110 a6 5f 26 3c 44 b3 f5 3b 71 9d 2b bc 92 43 e7 3b
       0.01015464 0.007498177 -0.010474549 0.0070576156
000120 a0 bb fb 3b 69 cc 1c 3b 72 f5 5e 3c 51 15 b0 3b
       0.0076822788 0.002392555 0.013608323 0.005373635
000130 e2 84 08 3c e9 b1 7a ba d6 05 38 bc b6 f7 0f 39
       0.008332463 -0.0009563254 -0.01123186 0.00013729822
000140 0a 19 3a 3c fa 9b de bb 47 ca 4f 3c 1d 5c ea 3b
       0.011358509 -0.006793496 0.012682504 0.007152094
000150 20 30 2a bb 5d 84 c4 bb ff 3a fb 3b 5f bb 19 3c
       -0.0025968626 -0.0059972242 0.007666945 0.009383052
000160 74 7f e7 bb c1 4e 79 bc aa 95 9c 3b 0c c7 56 bb
       -0.007064754 -0.01521653 0.0047785835 -0.003277245
000170 83 24 e5 3b 4c 5a 60 3c 16 41 73 bb 5c 09 fa 3a
       0.006992878 0.013693403 -0.0037117652 0.0019076276
000180 c5 67 8f 3b c9 64 cf 3b c8 ce ec 3b 4a 64 26 3c
       0.004376384 0.006329153 0.0072267987 0.010155747
000190 a4 e1 5b bc 1b ac 38 3c cc 37 6a bc ff 37 b8 3b
       -0.013420496 0.011271502 -0.01429553 0.0056219096
0001a0 11 48 0e 3c c1 57 6a 3c 77 8b 62 3c a2 14 72 bc
       0.008684174 0.014303149 0.013827196 -0.014775427
0001b0 4b 36 a7 3b 41 a4 be 3b 8d ad 9b bc f1 1b 0f 3c
       0.005102908 0.0058179204 -0.019003654 0.008734689
0001c0 2a 6f 0e bc 57 b9 fa 3b a7 fb 5b 3c 9c ad e0 bb
       -0.008693496 0.0076514888 0.013426698 -0.0068566334
0001d0 7b 3e 14 3c c3 40 e1 3b aa 68 ae 39 29 ba 64 3c
       0.0090481 0.0068741753 0.00033265847 0.0139604
0001e0 fb fc 25 ba 4d b8 46 3c 77 df 71 3b 4b 3d 00 3c
       -0.00063319475 0.012128902 0.0036906877 0.007827113
0001f0 92 13 54 bc c8 04 52 3b ee b7 95 3a 60 2a 27 3c
       -0.012944119 0.0032046307 0.0011422613 0.010202974
000200 71 6b 57 3b 36 74 10 bc 06 3a d4 bb 2a 36 71 bb
       0.0032870437 -0.008816769 -0.0064766435 -0.0036805966
000210 ae 07 1d bc 63 6f 1b 3c 33 b8 7a 3c 83 92 ea bb
       -0.0095843505 0.009487006 0.015302706 -0.007158579
000220 5e f6 0e bb 90 e6 06 3a 57 dc a6 3a 59 a1 e7 3b
       -0.0021814327 0.0005146051 0.0012730461 0.0070687947
000230 e2 4a 15 bc 22 cd 2a 3c 79 f2 0e bc fd 1f c4 3b
       -0.009112092 0.010424884 -0.008724802 0.0059852586
000240 11 f3 87 bc 78 91 1e 3c 20 4c 08 3c 67 b5 4d bc
       -0.016595395 0.009678237 0.008318931 -0.012555457
000250 c0 43 05 bc 70 7a bf 3a 94 e5 d1 bb 64 07 37 bb
       -0.008133829 0.0014608633 -0.0064055417 -0.002792799
000260 43 68 0f bc 2d 35 82 bc 85 6a 6c bc 1a 9d 4b bc
       -0.008752885 -0.015894497 -0.014429693 -0.012427593
000270 9b ba 75 ba 33 75 d6 3b 83 1f 3c 3c c8 45 48 3c
       -0.00093738147 0.006544733 0.011482122 0.012223668
000280 bd 54 56 3c 98 21 f0 bb 8a f8 6f ba 25 12 5f 3c
       0.013081727 -0.0073282234 -0.00091541617 0.013615166
000290 9f ae 89 bc e8 a4 9d 3b bd 90 29 bc 07 2f 44 3c
       -0.016806899 0.004810918 -0.01034945 0.011974103
0002a0 4d ba c3 bb 9d 4c 3c 3c e4 62 a5 3b 2a ce 4b 3c
       -0.0059731365 0.011492875 0.005047189 0.01243929
0002b0 28 b1 5d 3c b3 ea 15 3c b8 64 48 bb 23 4f 41 bc
       0.013531007 0.009150195 -0.0030577611 -0.011798653
0002c0 c6 e7 16 bc b4 1a 85 3c 57 03 32 3c 40 a3 88 b9
       -0.0092105325 0.016248085 0.010865054 -0.00026061572
0002d0 9d e8 08 3a 0c b0 2c bc 7f 11 7a bc 1e 4c 6c bc
       0.00052226504 -0.01054002 -0.01526296 -0.014422445
0002e0 3b bf 59 3c db 5f 2f 3c cc 9d 20 bc d0 9a 9e bc
       0.013290222 0.010704006 -0.009803247 -0.01936093
0002f0 ab 20 3d 3c 95 61 69 3b 61 52 61 3c b8 05 4a bc
       0.011543433 0.0035611142 0.013752551 -0.012330465
000300 57 aa 4f 3c a6 f9 28 3c f9 4b 3b bc c6 be 69 bc
       0.0126748895 0.010313427 -0.0114316875 -0.014266675
000310 f9 ac 63 3b 71 0d 9b 3b cc 47 61 3c 43 3b 25 3c
       0.003474055 0.004731827 0.013750028 0.01008493
000320 4c 2c 1b bc b0 9d fc bb 05 eb 07 3c d6 dd dd bb
       -0.00947101 -0.0077092275 0.008295779 -0.0067708297
000330 ef c6 37 bc 81 dc 0a bc c7 16 82 bb 9e 39 cd 3b
       -0.011216863 -0.008475424 -0.0039700004 0.006262972
000340 20 92 e4 3b c1 1f f9 3b 3d 7b f6 3b c5 33 2b bc
       0.0069754273 0.0076026623 0.0075220154 -0.010449355
000350 90 14 8d b9 11 03 3f 3c e7 03 f9 bb c6 e8 32 3c
       -0.00026908936 0.011658446 -0.007599342 0.010919755
000360 5a 38 fd b9 8e 19 c3 3a 71 f3 30 3c db c5 ec 3b
       -0.00048297906 0.0014884935 0.010800228 0.0072257346
000370 34 7b 4d bb 39 fb 9d 3b d2 b5 dc 3b b9 e8 0d bc
       -0.0031353952 0.004821208 0.006735542 -0.008661442
000380 f1 87 4b 3b 2c 8b 81 3c 9c e0 0c ba fb 30 49 3c
       0.003105637 0.015813433 -0.00053740456 0.012279744
000390 33 97 90 3a 34 0b 48 3c 2a d3 3a 3c 92 8a 61 bb
       0.0011031389 0.012209702 0.0114028845 -0.003441487
0003a0 08 34 02 3c bc 32 bc ba 7b 96 d0 bb 7c 93 68 3c
       0.0079469755 -0.0014358382 -0.006365595 0.014195319
0003b0 07 00 88 bc 3b 3d 4d 3c 69 68 06 3c 1c 94 75 3c
       -0.016601576 0.0125268055 0.008203604 0.014988925
0003c0 02 4a b8 bb c8 e9 6c 3c ea 9b db b9 a5 15 62 3c
       -0.005624057 0.014460035 -0.000418871 0.013799106
0003d0 3e 81 58 bb 71 8b 5d bc ca ce 99 3b a8 bf 5b 3c
       -0.0033036019 -0.013522015 0.0046938406 0.013412394
0003e0 f1 f1 15 3c a2 e8 83 bb ca c4 60 3c df 17 3e 3c
       0.009151922 -0.0040255347 0.013718793 0.011602371
0003f0 5e 78 5a 3c ed 1f 20 bc 66 61 29 3c 44 fa 2a 3a
       0.013334362 -0.009773237 0.010338163 0.0006522278
