Cursed Tennis/Assets/Tennis/results/TennisPro5/Tennis/Tennis-165830.onnx (onnx, 886342 bytes, 13 tensors)

60 f4 [84]
00000000: 72d3 1b41 82e2 f83f 0e70 1940 ce44 4d40
00000010: 63a3 db40 1770 c643 59ef 9d4a 6a03 833f
00000020: 6fd5 c145 63a3 db40 5a6b d23e a6e0 8241
00000030: 82e2 f83f 63a3 db40 9457 cf3e a8c1 9f3e
00000040: 8aef 8b3e 1716 dd3e 9192 b143 59ef 9d4a
00000050: 15a8 4a40 c09f 1741 63e2 f43f f4cd 1c40
00000060: c41b 5540 3f45 db40 15c0 c643 4307 9e4a
00000070: ce16 873f 3ae5 c145 3f45 db40 980a d63e
00000080: b368 8341 63e2 f43f 3f45 db40 5561 d23e
00000090: a3b6 9d3e cbe4 893e 34a6 df3e ac14 b143
000000a0: 4307 9e4a ab49 4b40 af2d 1341 473c ef3f
000000b0: 4112 2040 d74e 5740 9be2 da40 0d10 c743
000000c0: 251f 9e4a e56f 8b3f c7f4 c145 9be2 da40
000000d0: 7d68 d93e 37f1 8341 473c ef3f 9be2 da40
000000e0: 6559 d53e dd50 9b3e 0e45 873e f510 e23e
000000f0: 9b92 b043 251f 9e4a 4200 4c40 0976 0e41
00000100: dcb6 e73f 855c 2340 eaf0 5940 b17a da40
00000110: e45f c743 0537 9e4a d54f 913f 1b04 c245
00000120: b17a da40 3f98 dc3e 407a 8441 dcb6 e73f
00000130: b17a da40 704a d83e 978a 983e 2310 843e
00000140: 104d e43e 420c b043 0537 9e4a afce 4c40
9.739122 1.9444125 2.3974643 3.2073245 6.8636947 396.8757 5.1752125e+06 1.0235417
6202.679 6.8636947 0.41097528 16.359692 1.9444125 6.8636947 0.40496504 0.31202435
0.2733119 0.43180916 355.14505 5.1752125e+06 3.166509 9.476501 1.9131588 2.4500704
3.3298197 6.852203 397.50064 5.1782735e+06 1.0553834 6204.6533 6.852203 0.41804957
16.426123 1.9131588 6.852203 0.41089883 0.30803403 0.26932368 0.4368149 354.1615
5.1782735e+06 3.1763713 9.198653 1.869027 2.5011141 3.364187 6.840162 398.1254
5.1813305e+06 1.0893523 6206.597 6.840162 0.4246253 16.49278 1.869027 6.840162
0.41669765 0.3033513 0.26419872 0.44153562 353.14536 5.1813305e+06 3.1875157 8.903817
1.8102679 2.552522 3.4053292 6.827477 398.74915 5.1843865e+06 1.1352488 6208.513
6.827477 0.43084905 16.559692 1.8102679 6.827477 0.4224429 0.29793236 0.2579356
0.44590044 352.09576 5.1843865e+06 3.200115

action_model._continuous_distribution.log_sigma f4 [1, 6]
00000000: 5add 3cb9 155d 04bc 9d1f b2ba 7562 793b
00000010: 18b6 24bc 7534 f6bb
-0.00018011537 -0.008078833 -0.0013589744 0.003805307 -0.01005318 -0.0075135776

action_model._continuous_distribution.mu.bias f4 [6]
00000000: 6b79 01bc 4d2e 883c b542 3a3b 656c 0d3c
00000010: 6f6c 873c 6da6 c4bb
-0.007902483 0.01662364 0.0028421108 0.0086318 0.016531197 -0.006001285

action_model._continuous_distribution.mu.weight f4 [6, 256]
00000000: ac81 d3bb df88 4cbc 7b69 e93c 5467 93ba
00000010: e97f 253c b699 f4ba 9e4b 213c e8e9 913c
00000020: 945c 38ba 2ff2 1bbc e6c7 b9bc bb9f b6bc
00000030: 3991 7bbc d14e 8a3b da41 e0bb d751 023c
00000040: 161d 773c 2f3b 75bc 0c21 93bc 3552 bbbc
00000050: 2f33 ae3c 4453 dfbc 9f35 cd3c b244 483c
00000060: 3f07 af3c da7a 63bc c737 b839 8869 8bbc
00000070: 1d87 88bc ce50 42bc a3df 463b 6bc5 bdba
00000080: 8242 d2bb 9166 013d f587 4bbb 49d8 3abc
00000090: 639a 8fbc 5ccb 063c 2a1e 62bc 07d8 a83b
000000a0: 97ef 73bc 238b f2bb 176e d13b 3531 443b
000000b0: 4d8c 49ba 82ee 683c de9f 4bbc 48d1 9d3c
000000c0: 2682 c83b 8e88 e93c 475f b53b ba0a 48bc
000000d0: 970f 6c3a 90c6 b63b dba8 223c be23 e0bb
000000e0: 32e5 51bb ac3c 193c bf2f 4e3c 222f 5b3c
000000f0: 330a 923c 0c55 77bc 86d6 6e3c 9bbb b4bc
00000100: cecd 023c 62df 043a a72e 5bbc b705 3f3c
00000110: 0526 643a 9550 823b 6754 37bb 7c00 bc3c
00000120: a37f 01ba 30d6 19bc 4712 1a3c 1980 43bc
00000130: 6d8a 0bbc 3aa1 303c d9a0 7cbc 7d72 ddba
00000140: fc7d f13a 9d9b a43b 54b2 66bc 7574 1c3c
00000150: d0ae 92bc 9c38 cfbc 6675 0fbc b34a 9dbc
00000160: 7389 f13b 1fd7 923c 83fb e6bb c25e 013b
00000170: 4cad c1bb 657f 8dbb caf7 18bc 4814 b73b
00000180: 1f1d 9c3c cbfc b03b 866d 9e3c 867b 0dbc
00000190: a543 dcbb 00a1 debb 0961 5e3c 79a5 9b3c
000001a0: aa6a 793b 68f0 dcbb 2705 653b ffe3 833c
000001b0: e9b7 023b 1809 67bc 7d27 22bc 9723 41bc
000001c0: 487a 3fba e20e a3bc e281 daba 5cab c6bb
000001d0: 1701 e4bc 07bc 373c 978f 933c 7b96 06bc
000001e0: 7d08 d33b c4e4 423c a5d3 0f3b f5b1 103c
000001f0: 2c22 b4bc d61e 733c 36ea 923c d2d2 dcbb
00000200: caef 69bc dbed abbb db68 14b8 3e13 8bbc
00000210: c807 86bc acb8 63bc c545 9bba cd6e 6b3b
00000220: 8ffa 92bb c795 2a3c c415 ba3c b503 48ba
00000230: 9436 343c 9dd2 a4bb 4c66 253c 0f4d 7abc
00000240: e0a9 e23c c4d9 7d3c 053d 643c 512d 9abc
00000250: a9a4 343c 440b 00bb ea58 b23b 600b 1abc
00000260: 9881 afbc b929 86ba 3ed0 b3bb f4c2 933a
00000270: 55e0 2ebc 1272 fdbb 0411 d93c 8aa9 5bbc
00000280: 65f5 28bc 90ad 2e3c 5f5a ca3b 2d93 86bc
00000290: 0751 88bc 8bf3 d8bb 9caa 54bc f283 22bc
000002a0: b86e 9e3c 7fd5 1b39 6251 cbbc a2a6 993c
000002b0: fc25 c9bc 2f94 74bc e4d6 e8bb b276 cc3b
000002c0: 1ea3 d5bb 015f c63c d865 253c eb29 413b
000002d0: acf4 843c c43b f7bb 311d e33b 1baf 8c3c
000002e0: bd47 603c f0b6 2dbc 3ce7 513c 353e d93b
000002f0: a0ec 0d3c 295d f2bc 2444 eebb f90d 26bc
00000300: 4789 973c 5b82 ab3b 19d7 d73c 6e2c a6bc
00000310: dffb 7a3c fb12 02bd 0317 debc d05b b5bb
00000320: dee0 3d3c 8d45 4ebb 40dc 4a3c fd7e 263c
00000330: 3859 51bc 6878 973b 17f6 e1bc 76ee 303c
00000340: 81e7 d93b bb77 c33a c310 51bb 2564 81bc
00000350: 6219 37bc ca1c 1dbb 3eba d83b dd8c 91bc
00000360: 3688 b3bc 6dc3 2bbc 56a9 bcbb 2d07 ccbc
00000370: 6dfd d2ba b38f d8bc dee8 ce3a b519 bd3a
00000380: b43d 423c cd96 d73b 6167 6fbb 071c c7bc
00000390: 6584 b2bb 1176 023b b22f d53b bb7c 8d3c
000003a0: 32cf 85bc 5767 af3c 5ab7 8cbc 3d22 8c3b
000003b0: 9821 71bc 3d54 febb 3904 4a3c 8fa0 aaba
000003c0: 59e9 f93b 8194 a4bc 8b20 d5bc f465 a4bb
000003d0: 3d51 973c 1448 9639 4328 293c c791 91bc
000003e0: 1657 3139 16c2 b53c 5691 f83b 1bc2 b93a
000003f0: ca45 543c cfa6 c6bc 08ce 52bc 5bfe 163c
-0.006454667 -0.0124838045 0.02849268 -0.0011246004 0.010101297 -0.0018661532 0.009844689 0.01781173
-0.0007032838 -0.00951819 -0.022678327 -0.022292962 -0.015354448 0.0042208214 -0.0068437876 0.007954082
0.015082618 -0.014967724 -0.017960094 -0.022866348 0.02126464 -0.027261384 0.025049983 0.0122234095
0.02136576 -0.013884271 0.00035136772 -0.017018095 -0.01666599 -0.011860086 0.00303457 -0.0014478391
-0.0064166198 0.031591956 -0.0031056379 -0.011404105 -0.017529672 0.008227196 -0.013801137 0.0051527056
-0.014888666 -0.0074018403 0.0063912976 0.0029936556 -0.0007688448 0.014217021 -0.012428252 0.019264832
0.0061190305 0.028507497 0.0055350396 -0.012209589 0.00090050086 0.0055778697 0.009927954 -0.0068401983
-0.003202748 0.009352844 0.012584626 0.013377937 0.017827129 -0.01509596 0.014577514 -0.022062114
0.007983638 0.0005068687 -0.013377822 0.011659077 0.0008703175 0.0039768913 -0.0027973892 0.02294945
-0.0004939979 -0.009389445 0.009403772 -0.011932396 -0.00851689 0.010780627 -0.015419208 -0.0016895082
0.0018424387 0.0050234334 -0.014080603 0.00954925 -0.017905623 -0.025295548 -0.008756017 -0.019200658
0.0073711216 0.017924843 -0.0070490255 0.0019740318 -0.005910551 -0.004318165 -0.009336421 0.0055871345
0.019056855 0.005401229 0.019339334 -0.008635407 -0.006721931 -0.006794095 0.01357294 0.018999802
0.0038057962 -0.006742526 0.0034945698 0.016099928 0.0019946045 -0.014101289 -0.00989711 -0.01178827
-0.0007304293 -0.019904558 -0.0016670788 -0.006062908 -0.02783255 0.011214263 0.018012805 -0.008214588
0.006440221 0.011895362 0.0021946218 0.008831491 -0.02198895 0.014838895 0.017933946 -0.006738999
-0.014278362 -0.0052468604 -3.5383604e-05 -0.016976949 -0.016361132 -0.01389901 -0.0011846354 0.0035924197
-0.0044854353 0.010411686 0.022715457 -0.0007629947 0.010999341 -0.00502999 0.01009519 -0.015277161
0.027668893 0.015493814 0.013930564 -0.018820437 0.011025586 -0.0019537965 0.0054427283 -0.009402126
-0.0214241 -0.0010235823 -0.005487471 0.001127331 -0.010673602 -0.0077345455 0.026497371 -0.0134071205
-0.010312413 0.010661498 0.006175324 -0.0164276 -0.0166402 -0.0066208295 -0.01298013 -0.0099191535
0.019339904 0.00014861485 -0.02481908 0.018756215 -0.024554245 -0.014927908 -0.007105695 0.0062397355
-0.006519689 0.024215223 0.010095082 0.0029474448 0.01622995 -0.0075449664 0.00693097 0.01717334
0.013688979 -0.010602698 0.012811478 0.00662973 0.008662373 -0.029585438 -0.0072713066 -0.010135167
0.018498076 0.0052340454 0.026347684 -0.020284858 0.01531884 -0.031756382 -0.027110582 -0.0055346265
0.011589257 -0.003147456 0.012381613 0.010162112 -0.012777619 0.004622508 -0.027583165 0.010799041
0.006649912 0.0014913002 -0.003190086 -0.015794823 -0.011175485 -0.0023973458 0.0066139987 -0.017767364
-0.021915536 -0.010483605 -0.005757491 -0.024905765 -0.0016097255 -0.026435709 0.0015785953 0.0014427217
0.0118555315 0.006579256 -0.0036530124 -0.024305357 -0.0054479116 0.00199068 0.00650593 0.01727139
-0.01633415 0.021411581 -0.017177273 0.0042765425 -0.014717482 -0.007761507 0.012330108 -0.0013017821
0.007626694 -0.020090343 -0.026016494 -0.0050170366 0.018471355 0.00028663932 0.010324541 -0.017769707
0.00016912477 0.022187274 0.007585685 0.0014172228 0.012956092 -0.024249462 -0.0128665045 0.0092159165

network_body._body_endoder.seq_layers.0.bias f4 [256]
00000000: 7295 58bc 65c9 763c 96a6 c73a 500d 413c
00000010: f2fa d1bb c6bd 313c 6743 a03c 89e4 953c
00000020: c510 95ba 0a5b a43b b3c4 e63b 9fef 403c
00000030: 0b60 373c 83ca 823c 4850 423b 9cc3 77bc
00000040: eac3 953c 0c45 293a e757 6cbc 9665 a63c
00000050: 99f8 523c 823b 623b 73fd 043a 895f 8e3c
00000060: acf8 123a 6b69 9abc e1bf 843c 8cfb d43a
00000070: e53b 78bc 6663 43bc 90c5 19bc 32bd 25bc
00000080: e0ff 133c 0f7a 45bb 4abc 35bc 4901 1f3c
00000090: 4793 ad3c 69f5 d23b 1fb9 263c 9af3 64bc
000000a0: 8339 993c 785c 843a 7dfe babb 2a01 9bbb
000000b0: a604 2abc 44f8 583c 7428 3d3c 4bd0 6abc
000000c0: c2dd 8d3c 812c 81bc 1a56 543c 528c 3ebc
000000d0: ef70 1d3c c1e1 813c 6d2d 2c3c 5dee 843c
000000e0: c936 65bc 1a6b 2d3c e411 83bc f5c6 e93b
000000f0: b43c 6c3c 3524 d33a d9c4 00bb 573f 84bc
00000100: ac1c 3e3b c462 d03b 7e07 6e3c 676f 913c
00000110: cd05 383c c339 093c 0203 acbb 9c1a 3f3c
00000120: c5cd 913a 2f09 1c3c 8449 e83b 173c 13bb
00000130: 5c67 f8bb a846 593c 95b7 3d3c 0537 8b3c
00000140: 1f27 193b 4fa5 d2bb 02c3 843c 3b82 803c
00000150: b8cf 56bb c000 3abc eebb 493b 7b34 bcba
00000160: 261d 243a 7acd 063c fd5d 543c f4dd 0f3c
00000170: bfaa 123a efb0 4e3c 72e1 903c 27b1 8d3c
00000180: d793 8c3c 6b90 48bc acc4 8cbc 8f50 a3bb
00000190: c0ff 553c 81a9 6cbb 7a92 5d3c 9a63 32bc
000001a0: 661b 83bb 277f 723c d586 82bc cc17 e53b
000001b0: 3c7c 6c3c 6343 053c e622 4fbc 5a60 713c
000001c0: 54dc 953c 1085 5cbc 8ab9 743c 8b69 193c
000001d0: d737 b43b 8206 5d3c 6384 3c3c 63eb 883c
000001e0: 0b5c 543c 806d 3d3c 59bf 413b 9047 3d3c
000001f0: 50c9 a4bb 9fc9 40bb bfcc 92bc 038b 86bc
00000200: 12f7 a63c 0672 8e3c d794 083c 2e94 303c
00000210: 0ee8 16bc 3851 5dbc 858a 9e3c 8963 563b
00000220: 4150 c0bb 40a5 6f3c 81ef 823c 6be2 3dbc
00000230: de00 4f3a 513f 5d3b d537 7fbc 2449 49b9
00000240: b9b4 d2bb 1edb 8fbb a759 003c f718 693b
00000250: db4b 1b3c 7dac 9a3c a5c8 2c3c a2ea 2f3c
00000260: ce2d 98bc 6f01 233c a17b 503c 97a2 1dba
00000270: 20a4 07bc c5b0 4b3c 6253 df3a 0d03 90bb
00000280: b70b 873c fe21 9ebc 7355 133c 5baa 43bc
00000290: 3c3a 773c 6769 353c 85e4 583c 9c13 d83b
000002a0: 93d4 d5bb c700 21bc 190c 353b 58ea 753c
000002b0: 1378 213c 33b6 283c 226c 943c cc52 863b
000002c0: 4245 0e3c 9708 553c ed2d b3bc efe3 743c
000002d0: fac5 663c 5f90 413c 47dd 233c 64d0 883c
000002e0: d9b7 bebb 388c 4abc dd92 97bc 3029 703c
000002f0: 6772 933c c528 4abb b561 3f3c 5abd 8abc
00000300: f070 283b a5bd 9c3b 6ba6 ff3b 16df 363b
00000310: 0bae 223c cfd1 723c 2619 db3b 77a9 ba3c
00000320: 18f8 4e3c 511f a8bc 50e2 913a a519 5c3b
00000330: db04 2fbc 0cd4 4cbc 0286 5dbc 6042 87bc
00000340: df82 4abc fef4 0cbb 5b73 90bb 4d72 cd3b
00000350: b885 9c3c d1a3 47bc e9de 623c b8a1 333c
00000360: 2fda cbbb aaf6 333c 4575 4a3c 31d6 a4bb
00000370: 2e89 043c c4a0 5fbc 9174 0a3c 7925 ad3b
00000380: e4ed 633c 4e87 373c 962f 6cbc 8aec a73c
00000390: f4ea 88bc a21b 2c3c c3be d13a eff8 8abc
000003a0: d750 18bc 5253 7e3c 37af 6d3c 3859 0e3c
000003b0: 53d5 833c a305 363c 1fd3 27bc 0510 d73b
000003c0: c9af 623c 775a 0d3c c6c0 dc3b f976 a13c
000003d0: 3475 14bc e224 343c b7e1 863c 3fc8 a6bb
000003e0: e43d 81bc 4005 7b3c ab39 843c 0bb0 283c
000003f0: c49b 96bc 67d5 9f3c a1ea 8b3c f8dc 443c
-0.013219224 0.015062665 0.0015232142 0.011782959 -0.006408089 0.010848468 0.01956339 0.01829745
-0.0011372796 0.0050157355 0.0070424913 0.01177588 0.011192332 0.015965706 0.0029649902 -0.0151223205
0.018281896 0.0006457127 -0.014425254 0.020312112 0.012876653 0.0034520333 0.0005073167 0.01737954
0.0005606513 -0.018849095 0.016204776 0.0016249283 -0.015150999 -0.011925554 -0.0093854815 -0.010115908
0.009033173 -0.0030132567 -0.011092255 0.009704896 0.021188391 0.0064379466 0.010175972 -0.013974095
0.018704182 0.0010098359 -0.005706607 -0.0047303634 -0.010377085 0.013242785 0.011545289 -0.0143318875
0.017317656 -0.015768291 0.012959981 -0.011630135 0.009609445 0.015854718 0.010508877 0.016226942
-0.013990113 0.010584617 -0.015999742 0.007134313 0.01441877 0.0016108813 -0.001964858 -0.016143484
0.002900879 0.00635943 0.014528153 0.017753316 0.011231852 0.008375588 -0.005249382 0.011664059
0.0011123946 0.009523674 0.007088842 -0.0022466236 -0.007580681 0.013261475 0.011579414 0.016994009
0.0023369265 -0.0064283977 0.016206268 0.015687099 -0.0032777619 -0.011352718 0.003078218 -0.0014358902
0.0006260447 0.0082277 0.012961862 0.008780945 0.0005594901 0.012615426 0.017685626 0.017296387
0.01716034 -0.012241463 -0.017183624 -0.0049839686 0.013061464 -0.0036111774 0.013523692 -0.010888005
-0.004001069 0.014800823 -0.015933434 0.006991362 0.014433917 0.008133742 -0.012642598 0.014732445
0.018293537 -0.013459459 0.014936814 0.009363542 0.0054998207 0.013490321 0.011506173 0.016713804
0.012961398 0.011561751 0.0029563515 0.011552706 -0.005028881 -0.002941705 -0.017919896 -0.016423708
0.020381484 0.017388355 0.008336267 0.010777516 -0.0092106 -0.013508134 0.01935316 0.0032713136
-0.005868942 0.014626801 0.015983345 -0.011589627 0.00078965526 0.0033759663 -0.015577276 -0.00019196101
-0.006430235 -0.0043901345 0.007833875 0.0035567859 0.009478535 0.018881077 0.010545884 0.010737093
-0.018576529 0.009949072 0.012724788 -0.00060133025 -0.008278877 0.012432282 0.00170384 -0.004394895
0.016485078 -0.019303318 0.008992541 -0.011942471 0.015089568 0.011072493 0.013238077 0.0065941345
-0.006525585 -0.0098268455 0.002762562 0.015009485 0.009855288 0.010297346 0.018117968 0.0040992256
0.008683505 0.013002536 -0.021872485 0.014946922 0.014085287 0.011814206 0.010001487 0.01670093
-0.005820256 -0.012362532 -0.018502647 0.014658257 0.017998887 -0.0030847054 0.01168101 -0.016935993
0.0025702082 0.0047833496 0.007801821 0.0027903966 0.00992919 0.01482053 0.0066863475 0.022785885
0.012632392 -0.020522745 0.0011130068 0.0033584621 -0.01068231 -0.012501728 -0.0135207195 -0.016511142
-0.012360304 -0.0021508331 -0.0044082827 0.006269729 0.01910673 -0.012185053 0.013847091 0.01096385
-0.006221078 0.010984102 0.012357061 -0.0050304164 0.008089347 -0.013649169 0.008450643 0.005284008
0.013911698 0.011201693 -0.014415642 0.020498533 -0.016713597 0.010504635 0.0016002286 -0.016964404
-0.0092966175 0.015522795 0.0145071065 0.008688264 0.016092932 0.011109742 -0.010243206 0.006563189
0.013835856 0.0086275255 0.0067368476 0.01971005 -0.0090611465 0.010995122 0.016465051 -0.005089789
-0.015776582 0.015321076 0.01614078 0.010295878 -0.018384822 0.019510938 0.017079653 0.012015574

network_body._body_endoder.seq_layers.0.weight f4 [256, 84]
00000000: ff66 8c3c 36ff 91bd 4193 28bd 3091 f3bd
00000010: 1ad9 3fbd 47e9 bb3d 8382 b5bd de6d 883e
00000020: 12c7 3a3e 71bd 16bc f92c 9abd 7fd7 98bd
00000030: 4238 4dbd e55f 2a3d e074 1cbe 8157 a13d
00000040: 1181 f53d df96 46bd 9bb3 8bbd 9e29 233d
00000050: baf5 603e 0c38 6ebd 91db fdbc 331e a3bc
00000060: 14ad 81bc fe60 193d 30a8 4fbe 2e54 22be
00000070: 54cc 30be 0df8 3a3d d017 4a3d c767 c83d
00000080: 8874 f6bd f964 b2bc 3c4d 503c f690 f0bc
00000090: b250 213d 5391 803d 1b58 503e 1edd d6bd
000000a0: 1086 123e 381e 923d 4479 35bd 99d1 15bd
000000b0: a1d8 f9bc 61fa 89bd 38fb 94bd 4f77 713d
000000c0: fbbd 26bd 5cd4 093e 7209 ca3c f893 6eba
000000d0: 5104 703d 0efb 9d3d 7720 f9bd 40c6 533e
000000e0: 053b 0fbe d4dc 30be d641 993d 3403 c3bd
000000f0: 0d5c 433d 0297 3abd e1ca c2bd 22f9 943d
00000100: 15f8 9f3d b1af 393d df49 a33c 4217 32bc
00000110: ad64 3d3e f684 083e 0fcc 3cbe af41 8fbd
00000120: d84a 853d f2c8 213b e3fb b03c d682 993c
00000130: 9705 64bd 2ce7 a8bd 9969 4b3d 1042 ab3d
00000140: 0683 b7ba 66a7 05be 8078 0ebe 4449 8dbd
00000150: 9afc e73c 5311 0e3d f4bb 52be 22d2 2ebe
00000160: 795b ac3d 8d60 b83d 7ea4 66bd fc15 c53c
00000170: 8c99 10bd e1a4 663d 2094 343e ff77 133e
00000180: 91e3 d73c 8a9b d73d 1a52 823c 0240 d63c
00000190: a83a c5bd d583 05bd 67a1 8d3b 2425 acbc
000001a0: 2317 ab3d 12b6 313d 65ee fa3d ec7b ef3d
000001b0: 8e57 bdbd 50ab 2c3e ebf2 3b3d 700f 92be
000001c0: 20b3 7b3d 2e28 c7bd def3 713d 6089 ab3d
000001d0: a015 693e fce8 2a3e 2e73 e63c d384 263d
000001e0: c506 0b3e b536 a93d 4812 14bd cc40 28be
000001f0: 0324 e4bd 5a5b c3bd 6b72 923d 4660 bdbd
00000200: b96f f4bd 7daf 7f3d fdc2 3a3e dcf7 06bd
00000210: 4323 d03d 2dd8 dbbd 8822 3bbe d45d ab3d
00000220: bee1 c2bd a14c 53bc d4f2 2abd 0c77 12be
00000230: 2879 363e 28e7 c1bd a344 d53d df7f 4d3d
00000240: 824a dcbd 50b3 413d 851c 3fbe e9fd 00bd
00000250: 8a13 03bc 1c8a 06be 81e0 f23d 8c0e 0dbe
00000260: bed5 6e3d 85c0 823d abe7 133e 50f7 da3c
00000270: 9a11 413d d80a b03b 6eaa b4bd 62a7 8cbd
00000280: 0483 a0be b468 053e 6607 573d 944f 82bd
00000290: da60 513c bfa4 743d 4b7f 89be faa4 9e3c
000002a0: 8fae 03bb f77d 99bd 0511 333e 8ef6 623c
000002b0: 1b7b 11bd 06b6 bc3d 3fdd 21be 34a7 643e
000002c0: 9b29 45bd ffd8 2abc 346a 013d 7cdf aa3d
000002d0: 226b ffbd 35b8 85be 9736 8abd 2297 fd3d
000002e0: 806f c3bd 70de 313d 226e cbbd 4a48 2b3d
000002f0: 368f 69bd 6d26 533e da24 eebd c012 77bd
00000300: 5c75 203e 6ee8 fb3d 31c4 0b3d b9ca 363e
00000310: 46da 99bc d29a 4cbe a8f8 38be 82ea 48bd
00000320: 8868 383d 9daf 33be 5aee e43d aba9 d339
00000330: de30 aebd 1cf2 5ebd 2be2 95bc bd34 13bd
00000340: c9b3 28bd 2535 8ebd c2c9 b1bd 92a4 743e
00000350: e9af 723d 67c8 51be 7e3b 28be bef7 2e3d
00000360: 435b 9bbc eb68 223d a979 ae3c 8d78 033e
00000370: 82be 19bb 8eba c23b ffae 783c a8ff 8d3d
00000380: f2a2 213c 0c1b 853e 1cca acbd 131c 883d
00000390: 1298 8dbd 923d 67bd bb74 a03c 62da 00be
000003a0: 21e2 303e acf0 d6bd 058d d43c bd3b 81bd
000003b0: 3543 873d 7ae3 943d fef5 32bc 896e 133e
000003c0: 1f69 8cbd b79f 063e b3fe d83d 040f 0fbd
000003d0: fd4e 363b a19c 673c d308 c83d f075 e0bb
000003e0: d2fb 6dbd f46f ca3d d804 dabd 2e8f 1c3d
000003f0: a0f1 f2bd 251b 773d 44cd 1abb ee6e 943d
0.017138956 -0.07128756 -0.041156057 -0.11892927 -0.046837904 0.091753535 -0.08862784 0.26646322
0.18240002 -0.00920044 -0.07528109 -0.074629776 -0.05010248 0.04159536 -0.1527896 0.07878018
0.11987508 -0.048483726 -0.068213664 0.03983461 0.21968737 -0.05815892 -0.030988486 -0.019911861
-0.0158296 0.037446015 -0.20279002 -0.15852425 -0.17265445 0.045646716 0.049339116 0.09785419
-0.12033945 -0.021776663 0.012713727 -0.029365998 0.039383598 0.062777184 0.2034611 -0.104913935
0.14308953 0.0713467 -0.0443051 -0.03657684 -0.030498805 -0.06737209 -0.07274479 0.058951672
-0.040708523 0.13459915 0.024662707 -0.00091010286 0.058597866 0.077139005 -0.12164395 0.20681095
-0.13987358 -0.17271739 0.0748326 -0.09522095 0.04769521 -0.04555417 -0.09511352 0.07274081
0.0781099 0.045333568 0.019932685 -0.010869803 0.18495436 0.1333197 -0.18437217 -0.0699495
0.06508416 0.0024686423 0.021604484 0.018739145 -0.055669393 -0.082472175 0.049661253 0.0836221
-0.001400084 -0.13052139 -0.13913155 -0.0689874 0.028318692 0.03468449 -0.20579511 -0.17072347
0.084158845 0.090027906 -0.056309216 0.024058335 -0.035302684 0.056309585 0.1763463 0.14401244
0.02635363 0.105277136 0.01590829 0.026153568 -0.096303284 -0.032596428 0.004322219 -0.021013804
0.08354022 0.043386526 0.122525014 0.11693558 -0.09245215 0.16862226 0.04588596 -0.28527403
0.061450124 -0.097244605 0.05907046 0.083758116 0.22762156 0.16690439 0.028131094 0.040654015
0.13576801 0.08262388 -0.036150247 -0.16430968 -0.11139681 -0.09538908 0.0715073 -0.09246878
-0.11935372 0.062423218 0.18238445 -0.03295122 0.10162976 -0.10734592 -0.18274891 0.08367506
-0.09515713 -0.012896688 -0.041735485 -0.14303225 0.17819655 -0.09467918 0.10413482 0.050170776
-0.10756399 0.047290146 -0.18663223 -0.031492148 -0.008000264 -0.13138622 0.11859227 -0.1377508
0.05830931 0.063843764 0.14443843 0.026729256 0.047135927 0.0053723864 -0.088215694 -0.06867863
-0.31349957 0.13028222 0.05249729 -0.063628346 0.012779439 0.059727427 -0.2685493 0.019365776
-0.0020093059 -0.07494729 0.17486961 0.0138527285 -0.035517793 0.09214406 -0.15807055 0.22329408
-0.04813538 -0.010427712 0.031595424 0.083434075 -0.12471606 -0.261171 -0.067486934 0.12382342
-0.09542751 0.043425024 -0.099331155 0.041816987 -0.057021342 0.20620127 -0.11628123 -0.060320616
0.15669769 0.12300192 0.03412265 0.1785077 -0.018780839 -0.19980934 -0.18063605 -0.04905177
0.045021564 -0.1754746 0.111782745 0.0004037147 -0.085054144 -0.054430112 -0.018296322 -0.035938967
-0.04118708 -0.0694373 -0.086810604 0.23890904 0.059249792 -0.20486604 -0.16428944 0.042716734
-0.018964415 0.03965084 0.021298246 0.12838955 -0.0023459499 0.005942649 0.015178441 0.06933528
0.009865509 0.25997198 -0.08436987 0.0664598 -0.06913771 -0.056455202 0.019586911 -0.12583306
0.17273761 -0.10495123 0.02594615 -0.06310222 0.066046156 0.0726995 -0.010922907 0.14397635
-0.06855988 0.13146864 0.10595455 -0.03492643 0.0027818077 0.014136464 0.09767308 -0.0068499967
-0.058101483 0.098846346 -0.10645455 0.038222484 -0.118624926 0.06032862 -0.0023620883 0.07247721

network_body._body_endoder.seq_layers.2.bias f4 [256]
00000000: e96a 763c 4999 6d3b 813c 8a3b 0f90 c43b
00000010: e53b 2abc 9985 5abc ba35 f73b 23e5 2ebc
00000020: d55e d1bb eba9 06bc af4d a0bb 8dc6 953c
00000030: f72e e939 eebc a0bc 73c0 8a3b a306 09bb
00000040: 6e91 3f3c 6ce6 4abc 7e5f 80bc 4bcf 5d3c
00000050: ef09 4dbc 4cb7 1abc 8b5b d0bb 06ea 13bc
00000060: f093 23bc 9197 84bb 1894 2cbc 231d 073b
00000070: a5d9 3d3c efee 833c 0914 203c bb5b b33c
00000080: f583 5cbb 86f5 733c d44f 35bc 6aee 403c
00000090: 0403 823c 687c 2a3c 9648 1d3c d44f 893c
000000a0: 50ce 853c 0011 b6bb a991 afbc a9b4 08bc
000000b0: 09c2 90bc b832 593c 60fe 043c ab88 8bbc
000000c0: 7f66 85bc e835 4a3b d57e f0bb 7283 02bc
000000d0: 882d 2e3c 97ca 3cbc d46d 92bc e31b 5ebc
000000e0: 98b0 acbc a05f 0f3c c198 ca3b 2bf0 5bbb
000000f0: 820c 193c a217 023c e056 a7b9 2b38 863c
00000100: 2354 5e3c b54b 843c cd81 61ba 464c cdbc
00000110: b89d d83b c8d8 18bb e653 a63b fab8 24bc
00000120: ee76 f53b c6e5 0dbb 193d 98bb 0e9d 873c
00000130: 29b5 a5bc 913c d83b aca0 f93b 165b d03b
00000140: 2aaf 72bc c9b7 4d3a 4c80 883c b01c 98bc
00000150: a89f 943c d30c 48bc 57df 173c 18a1 78bb
00000160: 2438 f6bb 9f26 61bb 6d7a 963c 8793 36bc
00000170: a33e 56bc 1526 693c 03cc 90bc 9524 4ab8
00000180: bc35 a53b ff8f 153c 4858 803c 0aa2 d539
00000190: 059f 4dbb e81d 773c ba57 6f3c 561c e2bb
000001a0: fc21 9a3c edae 17bc 3d4e 4c3c b0d0 3e3c
000001b0: 27b6 2fbb 507e ebba 33d3 4bbc cba5 a4bc
000001c0: 655b 563b d1b1 dd3b 0a54 8fba e5b4 923b
000001d0: b847 903c 7ec5 9eba 3814 893c e105 5c3c
000001e0: b986 513c 8fbf 793c f661 283c eb5a 46bc
000001f0: dc94 a8bc d224 89bc 67d8 8abc d718 253c
00000200: b1c0 153c ed1b 7fbc 5da3 90bc 63ea a93c
00000210: ad2a 8ebc 29b8 8bbc 648a 323c 9c0c a43c
00000220: 53df 553c 82c8 813c 4487 81bc 8cbc 503b
00000230: 6ffd 9a3a c983 3d3c 5ec4 5bbc 47ac 92bc
00000240: a380 b9bc 03ab 903c 6676 e2bb 262f 7ebc
00000250: 8eb9 9ebc 33af a23c 50aa 11bc d205 d5bc
00000260: 505b 22bc f47d 313c c7a2 4dbc c019 ccbb
00000270: 9f0c d739 a415 12bb d686 e0ba 8db5 a7bc
00000280: 1cb9 903c 3720 53ba 7be1 c93b 3046 53bc
00000290: d0af 8ebc dc54 833c 9160 5abb 9ac3 27bb
000002a0: 6796 a4bc ee0a d4bc 3ac7 8e3b 94ed 2c3c
000002b0: 1e31 d03a b03c 803c b65e 93bc 1b8d 093c
000002c0: 0f32 fbbb ce00 633c ad49 143c 5cb1 933c
000002d0: 7bbe 1f3c 86f4 983b 12f7 98bc a511 1c3c
000002e0: 4695 933c e096 a9bc 14cd 6e3c 2e76 f2bb
000002f0: bd1a 34bc 4514 5f3a 0cf9 1e3c 7558 54bc
00000300: f0b2 3f3c accb 993c 51c5 ef3b 4940 cf3a
00000310: 1bed 723c f70c 61bc 49e2 edbb 4b01 833c
00000320: 79ce 893c c2ef 663c 1042 7c3c 152e e33b
00000330: f49d 2abc f26c 89bc 784f 163c 678e 4c3c
00000340: bb13 893c fdf0 8c3c 8d95 693c b955 87bc
00000350: b2cb a2bc 9382 38bc 5369 573c 8c65 9c3b
00000360: 349c 903c 93f4 1a3c 201b 6d3c 381f 7d3c
00000370: 89b7 a43b 38f6 bb3b 805f bcbb 66f2 b339
00000380: 08c1 04bc 9891 9a3c 4ee8 45bc b297 73bb
00000390: 2bd7 61bc 21d5 29bc 2afd 613b ac01 523b
000003a0: 80bd 5bbc 71f0 0cbc 3e6b 8fbc 4eec 633c
000003b0: 3b5f 953c 5ebf cb3a f68d 523c 522a 42bb
000003c0: 8003 86bc 7c36 93bb 0a60 6bbb 2fd7 583c
000003d0: 3caf 503c dc26 28bc e9a9 1abc 60c0 423c
000003e0: 1abf ebbb bb58 ab3b ddd8 793c f139 f63b
000003f0: 7db4 163c 119c a93c 0483 613c b9d7 033c
0.015040138 0.0036254695 0.0042186384 0.0059986184 -0.0103902565 -0.013337516 0.0075442465 -0.010674748
-0.0063894787 -0.008219223 -0.004892073 0.018283153 0.00044476215 -0.019621339 0.0042343675 -0.0020908497
0.011692388 -0.012384038 -0.015670534 0.013538192 -0.012514575 -0.009443115 -0.006358569 -0.0090279635
-0.0099840015 -0.0040463884 -0.010533355 0.0020616732 0.011587535 0.016105143 0.009770402 0.021894326
-0.0033647988 0.01489008 -0.011066396 0.011775592 0.015870579 0.010405637 0.009599825 0.016761698
0.016333729 -0.005556226 -0.02143176 -0.008343854 -0.017670648 0.013256721 0.008117288 -0.017032942
-0.016284226 0.0030854885 -0.0073393383 -0.007965909 0.010630973 -0.011522911 -0.017874636 -0.013556453
-0.0210803 0.008750826 0.0061827605 -0.00335599 0.009341361 0.007940205 -0.0003191745 0.016384205
0.013569864 0.016149381 -0.00086024107 -0.025060784 0.0066105984 -0.002332257 0.0050759194 -0.0100538675
0.007490984 -0.0021651848 -0.0046459553 0.016554382 -0.020227985 0.006599017 0.0076180305 0.0063585145
-0.01481227 0.00078475155 0.01666274 -0.018568367 0.018142536 -0.012210089 0.009269557 -0.0037937816
-0.0075140167 -0.0034355295 0.018368924 -0.011143572 -0.013076457 0.014230271 -0.017675405 -4.8194623e-05
0.005041806 0.00912857 0.015667096 0.00040747254 -0.00313753 0.015082814 0.014608318 -0.0069003506
0.018815033 -0.009258014 0.012469825 0.011646435 -0.0026811452 -0.0017966721 -0.012440491 -0.020098587
0.0032708284 0.006765582 -0.001093508 0.0044771307 0.017612323 -0.0012113301 0.016733274 0.013429136
0.012788468 0.015243425 0.010277262 -0.0121066375 -0.020578794 -0.01674119 -0.016948892 0.010076723
0.0091401795 -0.015570623 -0.017656023 0.020741647 -0.017354334 -0.017055588 0.010897253 0.020025544
0.013053733 0.01584268 -0.01581157 0.0031850664 0.0011824797 0.011567065 -0.013413517 -0.017904414
-0.022644347 0.01765967 -0.006911087 -0.015514171 -0.019375589 0.019858932 -0.008890703 -0.026003752
-0.009909466 0.010833252 -0.012551016 -0.0062286556 0.000410174 -0.002229073 -0.0017130028 -0.020472312
0.017666392 -0.00080538116 0.0061609126 -0.012895152 -0.017417818 0.016031675 -0.0033321718 -0.0025598765
-0.020091249 -0.025884118 0.0043572458 0.01055469 0.0015883779 0.015653938 -0.017989498 0.008395459
-0.0076658796 0.013855172 0.009050769 0.018028907 0.009750004 0.0046678213 -0.0186725 0.009525691
0.018015515 -0.020701826 0.014575262 -0.007399342 -0.010992703 0.00085097953 0.009702932 -0.012960543
0.011700377 0.018773876 0.007317223 0.0015812005 0.014827038 -0.013736001 -0.0072596413 0.015991827
0.016822087 0.014095249 0.01539661 0.0069329836 -0.0104136355 -0.016775582 0.00917422 0.012485123
0.016733041 0.017204756 0.014256847 -0.016520368 -0.01987252 -0.0112616 0.01314767 0.0047728475
0.017652608 0.009457725 0.014471799 0.015449338 0.005026762 0.0057361387 -0.005748689 0.0003432214
-0.008102663 0.018868253 -0.012079312 -0.0037169275 -0.01378421 -0.010365755 0.0034483173 0.0032044454
-0.01341188 -0.008602248 -0.017507192 0.01391132 0.018233886 0.0015544703 0.012851229 -0.0029627276
-0.01635909 -0.004492579 -0.0035915398 0.0132348975 0.012737092 -0.010263171 -0.009439924 0.011886686
-0.007194412 0.0052290834 0.015249458 0.0075142314 0.009198305 0.020704301 0.013764147 0.008047038

network_body._body_endoder.seq_layers.2.weight f4 [256, 256]
00000000: bf6c 46be d360 203c 1101 663b f023 69bd
00000010: 6125 483d ea4a 273d 7bcf 013e 4492 f03d
00000020: c101 7f3d 6ccb 87bc 5851 32bc 35cb a3bd
00000030: 387f a63d 68b6 debc 5947 673b 2356 28bd
00000040: cd3c 6a3d fafc 36bd 6d40 943d a409 4abd
00000050: 3eaa 163d 5d3c 46be e0da 323c 8e92 2a3e
00000060: 47a4 64bc d128 a03d 2c40 ddbc 2d30 98bd
00000070: f2ae 59bc d4c0 acbc 65df 8f3d 50dd 05be
00000080: cda0 1f3c 9002 fc3c 02ac 46bc 6774 f9bd
00000090: 3d6b 833c 679a b5bc f5cb b23d 8cc9 57bd
000000a0: 405e b3bd 0296 fabd 896f 713d 89e5 a03d
000000b0: 0506 a3bd c7db 74bd 6952 153c 76a8 50bc
000000c0: 284d ab3c 0ab4 43bd aa7f c13d b0ba e63a
000000d0: 6f14 08be 35c8 893d fa5a 01bd 3530 a5bc
000000e0: 5f6d 98bc ac3c b03d edf5 573c cae1 84bd
000000f0: 4ca4 673c 9640 d4bc c423 903d ee03 cd3b
00000100: 85ee aebd 554d 923c 50d0 893d 96ff 0f3c
00000110: 30a1 9f3c c06d bdbd fde0 b4bc 36db 3e3c
00000120: 6b03 55bd 4301 683c 94ef c5bc a719 37bc
00000130: f382 99bd 314a e53c 5686 b63c a520 4d3c
00000140: 5611 c4bc 0d29 a3bc 6bc4 37be 7e0e 8c3d
00000150: 6adb 5abd 7253 453d a91d 3b3d 528a 473d
00000160: 3473 713d 69c4 27bc 2d62 9bbd 1885 d9bd
00000170: bfa3 17bd b1bf 25bd 6d81 b53d af65 213e
00000180: 78b4 84bd 8378 80bd 3984 c8bc 7568 9b3d
00000190: 6970 98bb cb80 1d3d 8a9e f9bc b774 543d
000001a0: 7a8c 6cbd 5bd2 843d 530b aebc 9587 613d
000001b0: a9df 2a3d 3270 743a 619f 6cbc 39e3 41bd
000001c0: 7e09 a93c 4bf7 a1bb a3f5 cd3c ef37 aabd
000001d0: 8158 743d f04a 09bd 891e d2bd 4b0c 5fbd
000001e0: ce38 fd3d 8094 0cbd 25d7 903d 3d28 38bd
000001f0: 8b32 89bb d803 19bd 8970 5fbd 04a7 b0bc
00000200: 9651 94bb 3442 64bc fd68 193e 8c02 bf3d
00000210: dcde 68bc 5d4c 20bd 4993 0e3d ff36 003d
00000220: d08b 2bbd a9d4 de3c 8a1a 953d d870 26bd
00000230: 0379 8abd 1f87 a83d 0dd3 a7bd 44e4 35bd
00000240: b5a0 fcbc 4fad 53bd 3d7b d03c 5369 6f3d
00000250: 9754 9bbd 3353 a63c 32fe 993a 0601 cebd
00000260: 7ef2 953c 18c1 09bd c8fb af3d 1996 2dbd
00000270: 0078 36bd f8a0 88bd 00a4 8b3c 06f8 933c
00000280: 0f20 053e 986d 193e cad0 b5bc 0a96 f13c
00000290: 8618 d33b e6df ef3c b612 143d 8bbf 893d
000002a0: 9e9f 99bb fefe e3bd 8963 dabc 08af b63d
000002b0: d49d 86bd 25d4 4ebd 117b 543d 8f75 f8bd
000002c0: 5329 0ebb 0af1 2ebd 8161 0a3c a902 033e
000002d0: ee5d 883d 1e5b 79bd 600e 123d acd1 a03d
000002e0: 22c3 263d effe c03d fa8b d73d 8ac2 c9bd
000002f0: eeaa 3cbc 19d6 22bc d806 dabb cba1 a5bc
00000300: c0c1 59bd 1da8 f53d df23 46bd 5e37 0b3e
00000310: dcfe 98bd 9ca3 d73d d28e 683c 7729 6fbd
00000320: 3eb9 473d a8d6 33bd 7b90 57bc e89e bfbd
00000330: 3d0a a13d e86e 8cbd 3237 0cbc 0e3f 963d
00000340: d737 e7bc d14c 13bd b5d2 80bc 8b56 113e
00000350: ecba 073a f6e1 553d 1c31 a5bd 1f5e dfbc
00000360: ec69 fa3c d8bf 423e 17c2 e3bc c538 4ebd
00000370: 6f2d 7c3d acc1 46bd d50e 4b3b fd76 143e
00000380: 1b94 e2bc 5b79 923d ec70 0c3c a122 30bd
00000390: 0df1 843c d14c d4bd 97ff 10bd 877c efbc
000003a0: 1de2 963d d1f6 2a3e 48a2 5d3d f8c7 71bd
000003b0: 03c6 7d3d f14d 653d 057d 343d ec45 cbbd
000003c0: 7192 18bd 1a15 d3bc 9d13 f63d cf67 d4bd
000003d0: 162a 343d b6f1 96bd f098 f43a 34fb d73c
000003e0: 3895 383d 1958 39bd 8e77 a2bd 429f 133c
000003f0: 28a7 733c 5e24 4a3d e70e 1dbc f370 96bd
-0.19377421 0.00978871 0.003509585 -0.05691904 0.048863772 0.040842928 0.12676804 0.11746648
0.062257532 -0.016576491 -0.010883652 -0.07997743 0.08129734 -0.027186587 0.003529033 -0.04109777
0.05718689 -0.04467485 0.07238851 -0.0493256 0.03678345 -0.19358964 0.010916442 0.16657469
-0.013955182 0.07820285 -0.027008139 -0.07431064 -0.013286339 -0.021088041 0.07025031 -0.13072705
0.009742928 0.03076294 -0.012125971 -0.12180405 0.016042346 -0.022168351 0.08730308 -0.052682444
-0.08758211 -0.12235643 0.05894426 0.0785628 -0.079601325 -0.05977991 0.009113886 -0.012735477
0.020910814 -0.04777912 0.09448178 0.0017603245 -0.13289045 0.067276396 -0.031580903 -0.020164588
-0.01860684 0.08605322 0.013181192 -0.06488378 0.0141382925 -0.025909703 0.07038072 0.006256572
-0.08541588 0.01785914 0.067291856 0.008788964 0.01948604 -0.09249449 -0.022079939 0.011648944
-0.052005213 0.014160457 -0.024162091 -0.01117555 -0.0749568 0.027989479 0.022280853 0.01251999
-0.023934048 -0.019917035 -0.17946021 0.06838702 -0.053431906 0.048175283 0.045682583 0.048715897
0.058947757 -0.010239699 -0.07587085 -0.10621089 -0.037021395 -0.040466014 0.08862577 0.15761445
-0.06479734 -0.06272986 -0.024477111 0.07588283 -0.004652072 0.038452905 -0.030471105 0.05186912
-0.057751156 0.064854346 -0.021245634 0.05506094 0.041717205 0.000932458 -0.014442296 -0.047335837
0.020634409 -0.0049428097 0.025141543 -0.0831145 0.059654716 -0.03351873 -0.1025973 -0.054455083
0.1236435 -0.034321308 0.070722856 -0.04496025 -0.0041869334 -0.03735718 -0.05455068 -0.021564014
-0.0045263274 -0.0139318 0.14981456 0.09326658 -0.01421329 -0.039135326 0.03480843 0.03130245
-0.041881382 0.027201014 0.072804525 -0.04063496 -0.067613624 0.08228897 -0.081945516 -0.044407144
-0.03083835 -0.05167895 0.02544939 0.058450054 -0.075844936 0.020303344 0.001174873 -0.10058789
0.018304106 -0.033631414 0.08592945 -0.042379472 -0.044548035 -0.06671327 0.017045975 0.018062603
0.1300051 0.14983213 -0.022194285 0.02949049 0.0064421324 0.029281568 0.036150657 0.06725987
-0.0046882173 -0.1113262 -0.02665879 0.08920103 -0.06573072 -0.050495286 0.051875178 -0.121317975
-0.0021692112 -0.04271034 0.008446098 0.12793984 0.06658541 -0.06087791 0.03565824 0.07852492
0.040713437 0.09423625 0.10524745 -0.098515585 -0.011515362 -0.00993874 -0.006653648 -0.02021875
-0.05316329 0.11994956 -0.048374053 0.1359534 -0.074704856 0.10529253 0.014194207 -0.058389153
0.048760645 -0.043905884 -0.013157005 -0.09356481 0.07863281 -0.06857091 -0.008558081 0.073362455
-0.028224869 -0.03596193 -0.015725473 0.1419317 0.0005177695 0.052217446 -0.080660075 -0.02726656
0.030568086 0.19018495 -0.02780251 -0.05034711 0.061566766 -0.048524544 0.0030984182 0.14498515
-0.027658513 0.07152053 0.008571845 -0.043001775 0.016228223 -0.10366214 -0.0354 -0.029234184
0.073673464 0.16695715 0.05410984 -0.059028596 0.061956417 0.055982534 0.04406454 -0.09925446
-0.037249032 -0.025766898 0.1201546 -0.103713624 0.04398545 -0.073703215 0.0018661302 0.0263649
0.04506418 -0.045250032 -0.079329595 0.009010138 0.014871396 0.04935109 -0.0095860725 -0.07345762

network_body._body_endoder.seq_layers.4.bias f4 [256]
00000000: 58a2 793b 3957 76bc 1c6b 133c ca6c 4a3b
00000010: c75f 803c 2c11 f9bb 3a59 51bc 4ccc dbbb
00000020: b6d5 c5bc 9fcc 6e3c 918d aabc ec06 88bc
00000030: b3dc 1d3c d161 a93b b622 8cbc 8b26 2bbc
00000040: 24b9 aa3b 4b27 053c dc2a 9dbc d6d1 0e3c
00000050: df59 5dbc bd00 223c c897 e1bb 0107 40bc
00000060: ba3f 643c 67ad 923b e7ca 713b ea9d 1dbc
00000070: 2a02 a83b 7144 6e3c 3ef9 9fbc b3f1 64bc
00000080: fc4b 893c fb07 53bc 9e35 423c 2cd9 87bc
00000090: 6be0 b33a a1bf 8abc 3af7 9e3c f0cd 373c
000000a0: 4488 58bc 0095 b7bc 8662 15bc 1110 43bc
000000b0: 5f60 0cbc e78e b1bc a954 3e3c 57a9 1a3c
000000c0: 3fdd f3bb 921a 8e3c 7085 3abc 7175 81bc
000000d0: 80f3 063c 9926 be3b b13e 9dbc 81d5 783c
000000e0: 891c 633b 53a9 35bb dc76 853c b081 14bc
000000f0: 2c71 873b a783 1fbc 42a1 80bc 2c5e 9bbc
00000100: 4e60 4bbb 0474 503c ea66 f83a 272f 1cbc
00000110: 08ff 623c 5eb6 a9bb 57ca 01bc 93a3 5c3c
00000120: 0c1f 983c 57b2 af3b b900 4dbc 686c 8f3c
00000130: 36b9 95bc 20f9 0abc dccc bd3b b182 393c
00000140: 3513 2a39 e85b 81bb 33f8 243b a58b 82bc
00000150: 49cb 723c cb70 c3bc 9864 803c 336a 4a3c
00000160: c897 35bc c55b 493c 221d 7c3c 43af 633b
00000170: 24b9 40b9 8eae 823c 4db4 9bbb 8e15 563a
00000180: a1bc 12bc 9c97 68bc bb52 76bc f93d a6bb
00000190: 294f a9bc c07e 943b a22b d2ba b2ff 083c
000001a0: a6ed 83bc c283 acbc b76f 5b3c 3f35 843c
000001b0: e924 863c a42e c03b bce9 863c 0b2f 453c
000001c0: 1ed9 a1bc 82ec 043c e85d 883c 4b63 8ebc
000001d0: b14a 853c eff7 88bc 8210 9639 8160 453b
000001e0: da9c da3a e91b 873c 1055 623c 5965 a7bb
000001f0: f92c 09bb a0f7 bdbb f21d 2c3c 5dbc 463c
00000200: 2825 1b3b a2e3 8c3c 52aa c33b bc3a 693b
00000210: d8dd 3e3c 6648 10bc e983 76bc d243 07bc
00000220: e088 95bc 8e8b eebb 9449 3cbc 1390 96bc
00000230: 5cca 8c3c 3305 903c c6d4 753c 2b74 903c
00000240: 562a 2abc 9154 68bc 1dc7 533c bc69 923c
00000250: 1f73 14ba bd75 98bc 4f50 683c e215 0dbc
00000260: b4b1 8fbb e655 90bc e2f7 043c d344 91bc
00000270: 8cde 413b 3b95 02bb 5490 da3b 3aef 5b3b
00000280: 4352 753c 92c1 8bbc 444e 173c 9d89 653c
00000290: ee97 3ebc 5a85 8abc 19e9 a5bb fa83 973b
000002a0: e631 e2bb 9712 72bc 5012 563c fe6c 843c
000002b0: 562d 64bc 82f4 2b3c 11df 0f3c 69b5 41bb
000002c0: 0267 a8ba 9808 d1bb d931 5d3c 6dbc 203c
000002d0: 2141 583b 2540 b0bc ac02 823c f66f 4abc
000002e0: 2749 4a3c b333 9e3b 9967 3c3c 51e3 9dbc
000002f0: 2363 f13a ad99 363c a50b 41bc 64dd 923c
00000300: 0523 8b3c c2ac 673c 3901 5cbb b143 393c
00000310: 85ff 67bc 4792 863c e8ff 8a3c 45be e9bb
00000320: 005d 86b9 e64e c4bc 5aa4 9dbc 182f e33b
00000330: a1d3 853c 5e88 a83c 57d9 9a3c 04a4 8d3c
00000340: bf5c 613c 7e41 8b3c e7f0 d4bb 938c 8fba
00000350: e4c4 9fbc b24c 703b 11dc bdbb 524c bc3b
00000360: f31a 3abb 688e 0abc ce67 40bc 027d dfbb
00000370: b3f8 40bc 03a5 6d3c c89c 92bc c739 543c
00000380: ae3f 8fbc 2dbc 493c 7cb9 a9bc bd60 95bb
00000390: 17f1 8f3c f7d7 923c b62c 8fbc cebe 503c
000003a0: fcda 51bc ccf1 b53b 67e2 07bc f02b 19bb
000003b0: add8 97bc 573b a03b 5d36 863b 7cd8 9bbb
000003c0: e309 063c 9052 8c3c 664e 813c ba58 f53b
000003d0: 19e0 7f3c 635e 88bc ba0a 473c 4593 403c
000003e0: 1051 103c 980d c63a abc4 72bc 93d0 423c
000003f0: 0398 95bc 11ee 16bc 968e 973b 16c5 5e3b
0.003809115 -0.015035444 0.008997705 0.0030887597 0.01567067 -0.007600924 -0.012777621 -0.0067077037
-0.024149757 0.014575153 -0.020819457 -0.016604863 0.009635138 0.0051691313 -0.017106395 -0.010446201
0.0052100588 0.008127044 -0.019185476 0.008717021 -0.0135101965 0.009887871 -0.006884549 -0.01172042
0.013931209 0.0044762376 0.003689462 -0.009620169 0.005127211 0.014542685 -0.019528028 -0.013973641
0.016759865 -0.012880321 0.011853604 -0.016583048 0.0013723498 -0.016937079 0.019404996 0.011218533
-0.013216082 -0.022409916 -0.009117728 -0.011905686 -0.0085678985 -0.021674586 0.011616864 0.009439788
-0.007442146 0.017346654 -0.011384353 -0.01580307 0.008236766 0.005802941 -0.019194933 0.015187622
0.003465446 -0.0027719333 0.016292028 -0.009064123 0.004133364 -0.009735978 -0.015701894 -0.018965803
-0.0031032744 0.012722973 0.0018951569 -0.009532726 0.0138547495 -0.0051792106 -0.007921777 0.0134667335
0.018569492 0.005361836 -0.012512379 0.017507747 -0.018276792 -0.008482248 0.0057922434 0.011322663
0.00016219619 -0.0039477237 0.0025172352 -0.015935728 0.014818975 -0.023857495 0.015672967 0.012354421
-0.011083551 0.012289946 0.015387805 0.0034741915 -0.00018379517 0.015952375 -0.004751718 0.0008166664
-0.008956105 -0.014196303 -0.015034373 -0.0050733057 -0.02066763 0.0045317113 -0.0016034732 0.008361744
-0.01610453 -0.02105892 0.013393334 0.016138671 0.016375022 0.005864935 0.016468875 0.012035142
-0.01975685 0.0081130285 0.01664634 -0.017381331 0.016270967 -0.016719786 0.0002862253 0.0030117335
0.0016678825 0.0164928 0.013814226 -0.005108517 -0.0020931347 -0.0057973415 0.010505186 0.01212987
0.002367327 0.017198388 0.0059712315 0.0035587987 0.011649571 -0.008806324 -0.015046098 -0.008255916
-0.018253744 -0.00727982 -0.011492152 -0.018379247 0.017186336 0.017580604 0.015004342 0.017633518
-0.01038607 -0.014180318 0.01292589 0.017872684 -0.00056629063 -0.01861083 0.014179303 -0.008611174
-0.0043851975 -0.017619085 0.0081157405 -0.017733013 0.0029582111 -0.0019925374 0.0066700373 0.0033559338
0.014973226 -0.017060075 0.009234969 0.01400986 -0.011632903 -0.01690929 -0.005063188 0.004623887
-0.006902921 -0.01477494 0.0130658895 0.016165253 -0.013926825 0.010495307 0.0087812105 -0.0029557592
-0.0012848082 -0.0063791983 0.013500654 0.009810549 0.0032997804 -0.021514961 0.015870415 -0.012355795
0.012346542 0.0048279404 0.011499309 -0.019273432 0.0018416386 0.011145038 -0.011782561 0.017927833
0.016984472 0.01414031 -0.0033570065 0.011307643 -0.014160042 0.016427172 0.016967729 -0.0071332776
-0.00025627762 -0.023963403 -0.019243408 0.0069331042 0.016336264 0.020572837 0.018902464 0.017290123
0.013755023 0.016999003 -0.0064984444 -0.0010951929 -0.019503064 0.0036666808 -0.005794056 0.005746403
-0.002839741 -0.008456804 -0.011743499 -0.006820322 -0.0117780445 0.014504674 -0.017897025 0.012953228
-0.01748642 0.012312931 -0.020718329 -0.0045586512 0.017571015 0.017925246 -0.017477375 0.012740804
-0.012808558 0.005552506 -0.008293725 -0.0023372136 -0.018535936 0.0048898864 0.004095836 -0.0047560316
0.008181068 0.017129213 0.015784454 0.0074873837 0.015617394 -0.01664657 0.0121485535 0.011753862
0.008808389 0.0015110252 -0.014817397 0.011890548 -0.018260961 -0.009212033 0.004625152 0.0033991984

network_body._body_endoder.seq_layers.4.weight f4 [256, 256]
00000000: 48ed b43d d1b5 393c c9c1 9c3b 9ed6 343d
00000010: 8ef2 85bc 8844 7ebd f004 973d 26b4 903d
00000020: 7d14 abbd 7338 ca3d 9cb9 bcbd e859 6cbc
00000030: 3404 a53d aa77 38bd 3145 0ebd 5dcf 21bd
00000040: bc2c 4b3c 0be7 6cbc a0ff af3d 89d1 053d
00000050: 2b9d 463d 3e9f 253d b0f9 40bd c555 8f3d
00000060: 7b4c 52bc 941f 413c 4a23 833d e8ef 69bc
00000070: 8fe2 0d3d cbc0 babb 8965 65bc d5de ccbd
00000080: 59fa ce3c c8c2 10be 42a3 b33b 18b6 c53c
00000090: 2fc7 b53d 3e9a 39bc 3c7d 01be 6b6a 9cbd
000000a0: 3dda 343d ac5e ae3c 7df2 213d a551 2dbd
000000b0: 3b28 f8bd 8aa0 81bc 6c85 e43c 1ce2 0ebd
000000c0: 8abb dbbd badb c1bd ed41 483c a77b ecbd
000000d0: 5579 c53d 85f7 823d 93c2 8b3d 1f82 19bc
000000e0: 7a3e 2dbd e616 1abd 1439 323d bf12 b5bd
000000f0: 3aeb 96bc b661 113e 3b76 983d c339 e4bd
00000100: 3999 e0bd 6d44 4c3d 748f d7bc 583e 9dbd
00000110: 7526 343d 7404 81bc 4639 54bd 969c e1bc
00000120: c533 f9ba d29e 82bb df37 5f3c ea7a 853d
00000130: 53b0 ddbd 42b2 d7bb aab4 84bd b1a5 5a3d
00000140: bd81 20bc fac0 503d 1ec0 bc3a f533 97bc
00000150: cb0d b5bd 3c53 713d 7d12 29bb 862d b03c
00000160: aff3 d23c 1302 bcbd 12df be3d cd8a a43c
00000170: fa9f debd e73a 473d 9676 113c c097 e4bd
00000180: 66b4 ccbb c2b0 ad3d 45e9 193c a16f 86bd
00000190: 4777 cfbc ceb2 cabd 6563 22bd 7579 63bd
000001a0: 13d0 42bd c23d dcbc fbd5 533d ea22 ca3c
000001b0: e975 033d 8da2 a83d e449 973d 04bd 7e3d
000001c0: 6153 d9bc 3f36 e53d c05f cd3d d759 2ebd
000001d0: 1a77 65bd 046c c1bb de44 96bd 2b9e 3cbd
000001e0: 701a 15bd f4f3 cb3c 27b1 c83d b781 cd3c
000001f0: e8bf 62bd 7ed3 4f3d e86d 6c3d 4910 4fbb
00000200: ea7c 0abc 3f2b 073d 6f31 153c 6a19 26bd
00000210: 74d8 afbd 6b30 45bd 74d1 7e3b 6132 08bd
00000220: c46d 65bd 3d36 34bb 5bdb 87bc 99ed f73c
00000230: af5a 773d 5758 643d 13af f4bd 4bf3 69bd
00000240: 5e8a 66bd 72de ae3d 9175 31bd 80e8 d53d
00000250: 20be b3bd 438f ac3c 965b 823c 5195 a0bc
00000260: 6e0b 353d 8ccf 8c3c 3d3d 843c df8e 713c
00000270: ca2a c53a 5c60 9abd 6752 0a3e 73d8 ea3c
00000280: 5fd3 1dbb 864a 693d 447e 713d a731 72b9
00000290: 1355 b53d cbcc c93d fd17 a8bd bc0e b03c
000002a0: 4cb5 243d d7e4 833d cff0 ec3a 6ef8 353c
000002b0: 4bc5 87bd 618a afbd e385 8c3d bcc6 c8bc
000002c0: d789 75bd 7549 013e 78ee bcbd 32e1 333d
000002d0: ec26 043c 746e a5bd 0441 62bd 8699 f03d
000002e0: 96f0 77bd 6595 893c 7f45 7dbd bbbc 80bc
000002f0: 744a 403d 77a8 0bbd c7e4 0e3d 2527 9dbd
00000300: ca97 273b c1b9 5f39 dff5 9bbd ad07 9f3d
00000310: d538 ccbc 04b4 573c 21a6 803d 41cf 32bd
00000320: 8b7d 12be 7f49 cbbd eaf1 c73d 417e e4bd
00000330: 7eb6 833d 5058 c9bd 3978 63bc 3bed b13d
00000340: 16a2 493d 805e 65bd ae1a 28bd af5f a43d
00000350: 00b3 8abb 9910 bbbd 784d e63d 982f 5e3d
00000360: 6f16 ddbd 0b4f 003c bb52 88bc ae87 b93c
00000370: 9631 47bd e7de cd3d 5854 323d 4754 6abd
00000380: a75b 1ebc 2910 e23c a82b 40bd 116a 0b3e
00000390: 0298 56bd 7987 333d 94ca bebd a948 133b
000003a0: 71b0 6fbd 9e44 6f3d cd10 4ebd 8e7d 91bd
000003b0: 2ac3 4c3d 2b9d 7b3c 9991 c33d b2e5 4c3d
000003c0: b1f9 adbd 9f7a b33d b812 fc3c 679f c23d
000003d0: 8b4c 01bd cd08 013e 2c7d 653d 1833 873d
000003e0: 116d 9e3b fdf2 71bd b105 b0bb 563b f83d
000003f0: 2d92 8fbb a9cd 22bc 678d 39bd 68c7 593c
0.0883432 0.011334852 0.004783843 0.044149987 -0.01635101 -0.062077075 0.07373989 0.070656106
-0.08353517 0.09874048 -0.0921509 -0.014425732 0.08057442 -0.045035996 -0.034733955 -0.039504398
0.012400802 -0.014459382 0.085936785 0.03267053 0.04848973 0.04043507 -0.04711312 0.06998781
-0.012835617 0.011787314 0.06403215 -0.0142783895 0.03463989 -0.0056992522 -0.014001259 -0.10003439
0.02526586 -0.14136803 0.0054821083 0.02413468 0.08875882 -0.011328278 -0.1264543 -0.07637485
0.04415344 0.021285377 0.039537895 -0.04231419 -0.12117048 -0.015823621 0.027895652 -0.034883603
-0.107291296 -0.09465738 0.012222749 -0.11547022 0.09642283 0.06394867 0.068242215 -0.009369402
-0.04229591 -0.037619494 0.043511465 -0.08841466 -0.018422712 0.1419743 0.07444426 -0.1114383
-0.10966725 0.049869943 -0.026313521 -0.07677907 0.043981988 -0.015749194 -0.051812433 -0.027540486
-0.0019012621 -0.003986218 0.013624161 0.065175846 -0.10824647 -0.0065825293 -0.064797714 0.053380672
-0.009796557 0.050965287 0.0014400517 -0.018457392 -0.088405214 0.05891727 -0.0025798373 0.021506082
0.025750963 -0.09180083 0.09319891 0.020085717 -0.10870357 0.048640158 0.008878371 -0.111617565
-0.006247091 0.084809795 0.009393995 -0.0656426 -0.02532543 -0.098973855 -0.03964557 -0.055535752
-0.047561716 -0.026884917 0.05171774 0.024674851 0.03209487 0.08234129 0.073871404 0.062191978
-0.026529016 0.11191987 0.100280285 -0.042566147 -0.056021787 -0.005902769 -0.07337354 -0.04604928
-0.036402166 0.0248966 0.09799414 0.025086267 -0.055358797 0.050738804 0.057722002 -0.00315954
-0.008452633 0.033000227 0.009106024 -0.04055158 -0.08586207 -0.048141878 0.0038882168 -0.03325117
-0.056012884 -0.002749815 -0.016584089 0.030264663 0.060389217 0.05574831 -0.11947455 -0.057116788
-0.0562843 0.08538522 -0.04332501 0.104447365 -0.08776498 0.021064406 0.015912812 -0.01960245
0.044200353 0.01718881 0.016142482 0.014743536 0.0015042659 -0.0753791 0.13507996 0.028667664
-0.0024082286 0.056955837 0.058958307 -0.00023097415 0.08854117 0.09853514 -0.082077004 0.0214914
0.04021196 0.06440132 0.0018077138 0.011106594 -0.066294275 -0.085713156 0.06861474 -0.024508826
-0.059945907 0.12625678 -0.09225172 0.043915935 0.00806592 -0.08077708 -0.055237785 0.11748032
-0.060532175 0.01679487 -0.061833855 -0.015714994 0.046946004 -0.034096207 0.034886148 -0.07673482
0.002557265 0.00021336136 -0.076152556 0.07765136 -0.024929443 0.013165478 0.062816866 -0.043654684
-0.14305703 -0.09926128 0.09762938 -0.111568935 0.06431292 -0.098312974 -0.013883644 0.08687826
0.049226843 -0.055998325 -0.04104107 0.08026063 -0.0042327642 -0.09134025 0.11245245 0.054244608
-0.107952945 0.007831345 -0.016641011 0.022647705 -0.048631273 0.10052281 0.043537468 -0.05720928
-0.009665406 0.027595596 -0.046916634 0.1361468 -0.05239106 0.04383037 -0.093159825 0.0022473729
-0.058517877 0.058415048 -0.05030899 -0.07104026 0.04999081 0.015357296 0.09549255 0.050023742
-0.084948905 0.087636225 0.030770645 0.0950306 -0.031567138 0.12601013 0.056027576 0.06601542
0.004834779 -0.059069622 -0.005371772 0.121206924 -0.004381439 -0.0099367285 -0.045300867 0.013292171
