Cursed Tennis/Assets/Tennis/results/TennisPro5/Tennis/Tennis-14170.onnx (onnx, 886342 bytes, 13 tensors)

60 f4 [84]
3.0364106 1.7408367 2.2483456 3.1397443 3.0364106 1.7408367 0.9713427 0.12911531
0.123349465 0.31168827 0.32550862 0.9713427 6.6320586 1.4259026 1.7976933 3.5252085
6.6320586 1.4259026 1.5322356 0.9713427 0.31168827 2.6311 1.8111333 2.3563702
3.343769 2.6311 1.8111333 0.9331167 0.12759572 0.12179867 0.28224263 0.29705268
0.9331167 6.9513583 1.6644894 1.8674455 3.7775748 6.9513583 1.6644894 1.5999604
0.9331167 0.28224263 2.0122511 1.8226548 2.4649644 3.3968327 2.0122511 1.8226548
0.8777661 0.12475145 0.119017355 0.23941754 0.25649822 0.8777661 7.2611427 1.954481
1.9444596 3.9939213 7.2611427 1.954481 1.6735506 0.8777661 0.23941754 0.7680997
1.7737902 2.5665288 3.4531004 0.7680997 1.7737902 0.8037017 0.12039074 0.114649214
0.1744065 0.1973818 0.8037017 7.563343 2.2879784 2.0485096 4.1671925 7.563343
2.2879784 1.753707 0.8037017 0.1744065
00000000: 8d54 4240 bdd3 de3f e5e4 0f40 92f1 4840
00000010: 8d54 4240 bdd3 de3f eaa9 783f ce36 043e
00000020: a59e fc3d 9b95 9f3e 11a9 a63e eaa9 783f
00000030: d339 d440 fa83 b63f d01a e63f 049d 6140
00000040: d339 d440 fa83 b63f 4c20 c43f eaa9 783f
00000050: 9b95 9f3e f163 2840 37d3 e73f c5ce 1640
00000060: 5000 5640 f163 2840 37d3 e73f bce0 6e3f
00000070: 74a8 023e 9571 f93d 1b82 903e 4a17 983e
00000080: bce0 6e3f 8771 de40 fd0d d53f 7408 ef3f
00000090: c9c3 7140 8771 de40 fd0d d53f 81cb cc3f
000000a0: bce0 6e3f 1b82 903e b9c8 0040 c14c e93f
000000b0: fac1 1d40 b565 5940 b9c8 0040 c14c e93f
000000c0: 47b5 603f b07d ff3d 5fbf f33d df29 753e
000000d0: bc53 833e 47b5 603f 485b e840 6f2c fa3f
000000e0: 0de4 f83f 689c 7f40 485b e840 6f2c fa3f
000000f0: e836 d63f 47b5 603f df29 753e 2fa2 443f
00000100: 8f0b e33f 0242 2440 99ff 5c40 2fa2 443f
00000110: 8f0b e33f 65bf 4d3f 6c8f f63d 35cd ea3d
00000120: 9e97 323e 741e 4a3e 65bf 4d3f e806 f240
00000130: 3d6e 1240 c81a 0340 a459 8540 e806 f240
00000140: 3d6e 1240 7979 e03f 65bf 4d3f 9e97 323e

action_model._continuous_distribution.log_sigma f4 [1, 6]
0.0 0.0 0.0 0.0 0.0 0.0
00000000: 0000 0000 0000 0000 0000 0000 0000 0000
00000010: 0000 0000 0000 0000

action_model._continuous_distribution.mu.bias f4 [6]
0.0 0.0 0.0 0.0 0.0 0.0
00000000: 0000 0000 0000 0000 0000 0000 0000 0000
00000010: 0000 0000 0000 0000

action_model._continuous_distribution.mu.weight f4 [6, 256]
0.006299826 0.021717004 0.015755922 0.0029674799 0.01179822 0.0030668492 0.009932916 -0.0185045
0.001528237 0.009782202 0.013193272 -0.00756654 -0.017549153 -0.015989967 0.0029911373 0.017878098
0.011237571 -0.012986466 -0.02019593 0.003175496 0.0062170113 0.012645893 0.0028914593 -0.009400322
0.0021899468 -0.00030554784 0.017739546 0.01319426 -0.0017910909 -0.017263697 0.0052409675 0.02449528
-0.008635478 -0.005843654 0.0014257546 -0.00886046 -0.021989487 -0.0038559106 0.0032527414 -0.004364706
-0.02881378 -0.004618218 -0.0022213154 -0.024725996 -0.0030708811 -0.007858115 0.0017434413 0.006422136
-0.012674684 0.0170029 0.0010528782 -0.012188817 -0.0014275924 0.00613079 0.000560115 -0.017898656
0.010296329 0.008043528 0.002088172 0.015435711 0.005094891 0.0015501705 -0.0137725845 0.0129162995
-0.015446565 -0.022359086 0.0075199394 0.007365878 -0.004674385 0.0015043138 -0.018533086 -0.0072982735
0.012952131 -0.015157725 0.008568076 -0.0018982784 0.0038957037 -0.0165228 0.0049233045 -0.01478591
-0.008966306 -0.0052252817 -0.0029236968 -0.029906452 0.014310255 -0.008463188 0.0013821105 -0.009436512
0.0052680555 0.010251757 0.039621014 -0.0061198547 0.0057999264 0.0164886 0.005933951 -0.007978244
-0.0059123975 0.0029237447 0.020948345 0.010919436 -0.02291209 -0.01667725 -0.01309052 0.013907938
-0.006603735 -0.024065023 -0.015874716 -0.006009991 0.008609089 -0.013917642 -0.022876102 -0.022569133
0.013539043 -0.0012955841 0.008467959 0.01204931 -0.024069093 0.016042188 -0.0064222566 -0.0029401132
0.0026120355 -0.0006829915 0.0006142795 0.0091841845 -0.011862375 -0.0248317 0.011184491 0.01933851
-0.023045119 0.0067061 -0.0067577935 0.010126792 -0.02465668 -0.010938157 -0.007123382 0.015309705
-0.008762889 -0.002528209 0.016591972 -0.0018212342 -0.018087653 0.0018953197 -0.007131529 -2.5628658e-05
0.010423197 -0.014210205 0.015659625 0.012377652 -0.013537742 -0.042791795 -0.01225196 0.0012614985
0.016281705 -0.01261891 0.019454474 0.009008517 0.00014854681 0.015345389 -0.017845709 0.023110172
-0.0051178304 0.021971885 -0.002165232 -0.034039687 0.0023055403 0.0047032787 -0.023466391 0.0006999281
-0.018751262 0.0012003735 0.007969114 -0.0042500957 -0.0015232034 -0.014655046 -0.019269122 -0.012001161
-0.0127722 0.009184696 -0.0017671234 0.0030629549 -0.015220541 -0.017607411 -0.018060077 -0.017886212
0.008792324 0.0146648465 -0.012832711 -0.005973108 0.0061095213 -0.007865212 0.00025492834 0.00028852708
0.017598696 0.004384549 -0.0012186551 -0.020013863 -0.014723346 -0.0012586587 0.010214963 0.0016106106
0.015651986 0.012453704 -0.0018172264 0.00033741302 0.002648737 -0.013011989 -0.019801222 -0.004608963
0.004880609 -0.020870639 -0.00585604 0.00887521 -0.0046821157 0.0056922236 0.005855177 -0.013845515
-0.015901648 0.0023124653 -0.014284732 -0.0059212684 -0.0045134267 -0.0001233518 0.0042244215 -0.00074792694
-0.00033620006 0.005196451 -0.00071575167 -0.0001746168 -0.0065378617 0.00985912 0.01178288 0.027508149
0.011949255 0.00013726966 0.012175085 -0.0056638727 -0.0074888775 0.0020609729 -0.0066309036 -0.011078033
0.017288266 0.019204853 -0.0028892404 -0.022489348 0.008108794 0.016469097 -0.0056466605 -0.011997924
0.01877003 -0.0045939474 -0.0010007088 -0.01847984 -0.0043601654 -0.0061106062 -0.018162405 -0.003861754
00000000: c56e ce3b dce7 b13c 9012 813c 0d7a 423b
00000010: 524d 413c 31fd 483b abbd 223c c096 97bc
00000020: 204f c83a 8745 203c 9828 583c bdf0 f7bb
00000030: 3ec3 8fbc 64fd 82bc f506 443b 1775 923c
00000040: ca1d 383c 30c5 54bc ef71 a5bc fb1b 503b
00000050: 12b8 cb3b b830 4f3c a37e 3d3b cf03 1abc
00000060: 3685 0f3b f031 a0b9 8652 913c bd2c 583c
00000070: 0ac3 eaba 996c 8dbc 6cbc ab3b 53aa c83c
00000080: d27b 0dbc 1f7c bfbb 63e0 ba3a 762b 11bc
00000090: 4c23 b4bc 72b3 7cbb f22b 553b cf05 8fbb
000000a0: e00a ecbc 6c54 97bb 7d93 11bb 2c8e cabc
000000b0: d640 49bb 53bf 00bc 2f84 e43a c870 d23b
000000c0: 7aa9 4fbc aa49 8b3c bb00 8a3a 9bb3 47bc
000000d0: 0d1e bbba cbe4 c83b aed4 123a 34a0 92bc
000000e0: efb1 283c 00c9 033c b6d9 083b 10e6 7c3c
000000f0: 0bf3 a63b 172f cb3a 68a6 61bc e39e 533c
00000100: 9713 7dbc 672a b7bc d369 f63b 775d f13b
00000110: 952b 99bb 652c c53a b3d2 97bc 5b26 efbb
00000120: 2d35 543c 1b58 78bc 1e61 0c3c a7cf f8ba
00000130: 104f 7f3b d35a 87bc ac53 a13b 9a40 72bc
00000140: 6ae7 12bc d738 abbb 7e9b 3fbb 60fe f4bc
00000150: 8f75 6a3c 2fa9 0abc ef27 b53a 9a9b 1abc
00000160: a79f ac3b fcf6 273c a549 223d 1089 c8bb
00000170: 4f0d be3b 1a13 873c 9771 c23b 2eb7 02bc
00000180: c9bc c1bb 4c9c 3f3b dd9b ab3c 6fe7 323c
00000190: 23b2 bbbc ba9e 88bc 9f79 56bc 1fde 633c
000001a0: 2564 d8bb 0324 c5bc b10b 82bc 75ef c4bb
000001b0: 230d 0d3c d206 64bc aa66 bbbc e7e2 b8bc
000001c0: ddd2 5d3c 97d0 a9ba 32bd 0a3c 786a 453c
000001d0: 8c2c c5bc e86a 833c cb71 d2bb eaae 40bb
000001e0: af2e 2b3b c90a 33ba 9907 213a 4379 163c
000001f0: 685a 42bc d96b cbbc 283f 373c cc6b 9e3c
00000200: 1ec9 bcbc d8be db3b 7b70 ddbb d8ea 253c
00000210: cefc c9bc f535 33bc 426b e9bb 8fd5 7a3c
00000220: 3892 0fbc 4fb0 25bb e3eb 873c 7bb6 eeba
00000230: 8f2c 94bc 606c f83a 9aaf e9bb 20fd d6b7
00000240: 0fc6 2a3c ebd1 68bc 9d48 803c a3cb 4a3c
00000250: 68cd 5dbc 7346 2fbd 72bc 48bc de58 a53a
00000260: 3661 853c 8bbf 4ebc fd5e 9f3c 7598 133c
00000270: 3bc3 1b39 3a6b 7b3c 2a31 92bc 8b51 bd3c
00000280: 79b3 a7bb 62fe b33c 91e6 0dbb 336d 0bbd
00000290: 8c18 173b f61d 9a3b 973c c0bc 617b 373a
000002a0: 3f9c 99bc da55 9d3a e390 023c 6344 8bbb
000002b0: 3aa6 c7ba b81b 70bc 47da 9dbc 85a0 44bc
000002c0: 7d42 51bc 687b 163c d29e e7ba dbbb 483b
000002d0: 935f 79bc 6b3d 90bc baf2 93bc 1b86 92bc
000002e0: ae0d 103c d344 703c 4b40 52bc 10ba c3bb
000002f0: 6132 c83b 17dd 00bc e7a7 8539 7345 9739
00000300: 242b 903c 43ac 8f3b 48bb 9fba 1df4 a3bc
00000310: 303a 71bc 94f9 a4ba a95c 273c 201b d33a
00000320: 9838 803c 9f0a 4c3c 0030 eeba cfe6 b039
00000330: 6f96 2d3b 3d30 55bc 2c36 a2bc c906 97bb
00000340: 84ed 9f3b e7f8 aabc 06e4 bfbb 5469 113c
00000350: 6f6c 99bb d585 ba3b c9dc bf3b 4dd8 62bc
00000360: 2c44 82bc bb8c 173b 820a 6abc 3307 c2bb
00000370: 5ee5 93bb ff57 01b9 046d 8a3b 8710 44ba
00000380: 0244 b0b9 fe46 aa3b 48a1 3bba 5719 37b9
00000390: 8f3b d6bb 2588 213c fb0c 413c c558 e13c
000003a0: cfc6 433c 0bf0 0f39 027a 473c 0298 b9bb
000003b0: 4265 f5bb 6311 073b 0d48 d9bb a380 35bc
000003c0: 1fa0 8d3c 7f53 9d3c 6959 3dbb 953b b8bc
000003d0: bfda 043c 33ea 863c 9f07 b9bb f192 44bc
000003e0: 9bc3 993c d388 96bb 372a 83ba 0963 97bc
000003f0: b8df 8ebb 7b3b c8bb 53c9 94bc 7b15 7dbb

network_body._body_endoder.seq_layers.0.bias f4 [256]
0.0 0.0 0.0 0.0 0.0 0.0 0.0 0.0
0.0 0.0 0.0 0.0 0.0 0.0 0.0 0.0
0.0 0.0 0.0 0.0 0.0 0.0 0.0 0.0
0.0 0.0 0.0 0.0 0.0 0.0 0.0 0.0
0.0 0.0 0.0 0.0 0.0 0.0 0.0 0.0
0.0 0.0 0.0 0.0 0.0 0.0 0.0 0.0
0.0 0.0 0.0 0.0 0.0 0.0 0.0 0.0
0.0 0.0 0.0 0.0 0.0 0.0 0.0 0.0
0.0 0.0 0.0 0.0 0.0 0.0 0.0 0.0
0.0 0.0 0.0 0.0 0.0 0.0 0.0 0.0
0.0 0.0 0.0 0.0 0.0 0.0 0.0 0.0
0.0 0.0 0.0 0.0 0.0 0.0 0.0 0.0
0.0 0.0 0.0 0.0 0.0 0.0 0.0 0.0
0.0 0.0 0.0 0.0 0.0 0.0 0.0 0.0
0.0 0.0 0.0 0.0 0.0 0.0 0.0 0.0
0.0 0.0 0.0 0.0 0.0 0.0 0.0 0.0
0.0 0.0 0.0 0.0 0.0 0.0 0.0 0.0
0.0 0.0 0.0 0.0 0.0 0.0 0.0 0.0
0.0 0.0 0.0 0.0 0.0 0.0 0.0 0.0
0.0 0.0 0.0 0.0 0.0 0.0 0.0 0.0
0.0 0.0 0.0 0.0 0.0 0.0 0.0 0.0
0.0 0.0 0.0 0.0 0.0 0.0 0.0 0.0
0.0 0.0 0.0 0.0 0.0 0.0 0.0 0.0
0.0 0.0 0.0 0.0 0.0 0.0 0.0 0.0
0.0 0.0 0.0 0.0 0.0 0.0 0.0 0.0
0.0 0.0 0.0 0.0 0.0 0.0 0.0 0.0
0.0 0.0 0.0 0.0 0.0 0.0 0.0 0.0
0.0 0.0 0.0 0.0 0.0 0.0 0.0 0.0
0.0 0.0 0.0 0.0 0.0 0.0 0.0 0.0
0.0 0.0 0.0 0.0 0.0 0.0 0.0 0.0
0.0 0.0 0.0 0.0 0.0 0.0 0.0 0.0
0.0 0.0 0.0 0.0 0.0 0.0 0.0 0.0
00000000: 0000 0000 0000 0000 0000 0000 0000 0000
00000010: 0000 0000 0000 0000 0000 0000 0000 0000
00000020: 0000 0000 0000 0000 0000 0000 0000 0000
00000030: 0000 0000 0000 0000 0000 0000 0000 0000
00000040: 0000 0000 0000 0000 0000 0000 0000 0000
00000050: 0000 0000 0000 0000 0000 0000 0000 0000
00000060: 0000 0000 0000 0000 0000 0000 0000 0000
00000070: 0000 0000 0000 0000 0000 0000 0000 0000
00000080: 0000 0000 0000 0000 0000 0000 0000 0000
00000090: 0000 0000 0000 0000 0000 0000 0000 0000
000000a0: 0000 0000 0000 0000 0000 0000 0000 0000
000000b0: 0000 0000 0000 0000 0000 0000 0000 0000
000000c0: 0000 0000 0000 0000 0000 0000 0000 0000
000000d0: 0000 0000 0000 0000 0000 0000 0000 0000
000000e0: 0000 0000 0000 0000 0000 0000 0000 0000
000000f0: 0000 0000 0000 0000 0000 0000 0000 0000
00000100: 0000 0000 0000 0000 0000 0000 0000 0000
00000110: 0000 0000 0000 0000 0000 0000 0000 0000
00000120: 0000 0000 0000 0000 0000 0000 0000 0000
00000130: 0000 0000 0000 0000 0000 0000 0000 0000
00000140: 0000 0000 0000 0000 0000 0000 0000 0000
00000150: 0000 0000 0000 0000 0000 0000 0000 0000
00000160: 0000 0000 0000 0000 0000 0000 0000 0000
00000170: 0000 0000 0000 0000 0000 0000 0000 0000
00000180: 0000 0000 0000 0000 0000 0000 0000 0000
00000190: 0000 0000 0000 0000 0000 0000 0000 0000
000001a0: 0000 0000 0000 0000 0000 0000 0000 0000
000001b0: 0000 0000 0000 0000 0000 0000 0000 0000
000001c0: 0000 0000 0000 0000 0000 0000 0000 0000
000001d0: 0000 0000 0000 0000 0000 0000 0000 0000
000001e0: 0000 0000 0000 0000 0000 0000 0000 0000
000001f0: 0000 0000 0000 0000 0000 0000 0000 0000
00000200: 0000 0000 0000 0000 0000 0000 0000 0000
00000210: 0000 0000 0000 0000 0000 0000 0000 0000
00000220: 0000 0000 0000 0000 0000 0000 0000 0000
00000230: 0000 0000 0000 0000 0000 0000 0000 0000
00000240: 0000 0000 0000 0000 0000 0000 0000 0000
00000250: 0000 0000 0000 0000 0000 0000 0000 0000
00000260: 0000 0000 0000 0000 0000 0000 0000 0000
00000270: 0000 0000 0000 0000 0000 0000 0000 0000
00000280: 0000 0000 0000 0000 0000 0000 0000 0000
00000290: 0000 0000 0000 0000 0000 0000 0000 0000
000002a0: 0000 0000 0000 0000 0000 0000 0000 0000
000002b0: 0000 0000 0000 0000 0000 0000 0000 0000
000002c0: 0000 0000 0000 0000 0000 0000 0000 0000
000002d0: 0000 0000 0000 0000 0000 0000 0000 0000
000002e0: 0000 0000 0000 0000 0000 0000 0000 0000
000002f0: 0000 0000 0000 0000 0000 0000 0000 0000
00000300: 0000 0000 0000 0000 0000 0000 0000 0000
00000310: 0000 0000 0000 0000 0000 0000 0000 0000
00000320: 0000 0000 0000 0000 0000 0000 0000 0000
00000330: 0000 0000 0000 0000 0000 0000 0000 0000
00000340: 0000 0000 0000 0000 0000 0000 0000 0000
00000350: 0000 0000 0000 0000 0000 0000 0000 0000
00000360: 0000 0000 0000 0000 0000 0000 0000 0000
00000370: 0000 0000 0000 0000 0000 0000 0000 0000
00000380: 0000 0000 0000 0000 0000 0000 0000 0000
00000390: 0000 0000 0000 0000 0000 0000 0000 0000
000003a0: 0000 0000 0000 0000 0000 0000 0000 0000
000003b0: 0000 0000 0000 0000 0000 0000 0000 0000
000003c0: 0000 0000 0000 0000 0000 0000 0000 0000
000003d0: 0000 0000 0000 0000 0000 0000 0000 0000
000003e0: 0000 0000 0000 0000 0000 0000 0000 0000
000003f0: 0000 0000 0000 0000 0000 0000 0000 0000

network_body._body_endoder.seq_layers.0.weight f4 [256, 84]
-0.0032673422 -0.02106782 0.03164876 0.06547569 -0.1802066 -0.014175722 -0.011541754 -0.098641716
0.20112973 0.12357177 -0.055672266 -0.20616663 -0.0463817 0.24637859 0.045118213 -0.03831032
-0.013469993 0.13150989 -0.10190515 0.054773435 0.044451624 -0.03915821 -0.07805335 -0.07562265
0.09486025 0.0115551 -0.2119877 -0.10034704 -0.077123016 -0.009242589 -0.08683328 -0.07285306
-0.16325417 0.088467054 0.07839181 -0.15138723 -0.09330692 0.31201348 0.083752505 0.08630275
0.03572455 -0.010287011 -0.07701821 -0.09211353 -0.06926817 0.03340852 -0.018500498 0.1782714
0.28624815 -0.006162785 0.17049819 -0.027032463 0.057757832 0.01786407 -0.009658458 -0.0033681896
-0.17883119 0.018809412 0.032789204 -0.14843401 -0.17259015 -0.00053901435 0.123297505 -0.10152024
0.11256365 0.0031719734 -0.08468008 -0.06336406 0.06586674 -0.09038858 0.1026165 -0.05000876
-0.17233902 -0.12613125 -0.03281864 -0.10740058 -0.03642712 0.11102044 -0.0048323665 0.049660638
-0.04013528 -0.120662436 0.03680999 -0.048151076 0.045716 0.16840795 -0.052309025 0.06683648
-0.09212799 -0.043741085 -0.0639571 0.051064033 -0.1224754 0.04909596 -0.22597343 -0.09581713
0.06462776 0.31148982 -0.15115574 0.2862971 0.02541708 -0.06305536 -0.0695642 0.044380654
-0.077906296 0.10243135 -0.15201 -0.04000598 -0.016770452 0.10477799 0.029783806 0.038614552
0.026839072 0.26825872 0.13626713 -0.12925874 0.01957649 -0.10385038 -0.068381034 0.002017582
-0.06628857 0.07704344 0.007848059 -0.055942714 -0.0934296 -0.17678186 0.08949536 0.005581444
-0.119110785 -0.10190199 0.080259755 0.22054453 0.07566529 0.08403075 -0.046564333 -0.058439285
0.03156111 -0.048931245 0.009131926 0.037889656 -0.14173535 0.03005093 0.03120482 -0.07214467
-0.032718245 0.07569864 -0.20171876 -0.013789089 -0.019080708 0.15547009 0.08812444 -0.19778
0.2992169 0.040475216 0.08564416 0.0004470705 -0.17671633 0.18715839 0.023508769 0.15667167
0.0344031 -0.00078582496 -0.03619138 -0.06214726 0.057271555 0.03854607 -0.03441646 -0.099024855
-0.24603078 -0.0031843008 -0.02479909 -0.07651028 -0.02098229 0.21774149 0.10664688 -0.20490538
-0.045690157 -0.063201986 -0.05365348 0.009276454 -0.02083431 -0.07058584 0.10199867 0.13056126
-0.08629147 -0.08831701 -0.006061925 -0.012495128 -0.034699775 0.052282035 -0.0029220264 -0.07103792
0.065335035 0.065862656 -0.08121476 0.11171577 0.09442698 -0.06426998 -0.0833469 0.075041845
0.10920327 0.30902207 -0.088423505 -0.23825227 0.25050473 0.15037441 -0.065828316 -0.06400716
-0.21982488 0.018548865 -0.23523289 0.21168837 -0.06959289 -0.03131238 0.20338617 -0.07405572
-0.12009486 -0.07493406 -0.04049225 0.11275551 0.1279029 0.08738479 0.28091216 0.05879644
-0.098503225 0.039991472 -0.11303333 -0.044384267 -0.16543543 0.119481206 0.03389428 -0.006233221
0.058760937 -0.04878676 -0.10379611 0.12940279 0.02650226 0.093226835 0.20448571 -0.048464432
0.027520796 0.22829574 -0.13829616 -0.023551911 -0.06928821 0.040524784 -0.18474679 0.011587603
0.17935175 0.035193037 0.027858175 -0.104538396 0.094396554 0.08075493 -0.13250446 -0.089003645
00000000: e820 56bb 6c96 acbc 21a2 013d 1e18 863d
00000010: 1488 38be 4a41 68bc a019 3dbc ab04 cabd
00000020: f4f4 4d3e 3213 fd3d 9a08 64bd 581d 53be
00000030: bdfa 3dbd ab4a 7c3e e0cd 383d 48eb 1cbd
00000040: 3fb1 5cbc 87aa 063e a6b3 d0bd 1c5a 603d
00000050: e812 363d 5c64 20bd 6fda 9fbd 0ce0 9abd
00000060: 1746 c23d 9a51 3d3c 4e13 59be c082 cdbd
00000070: acf2 9dbd 3a6e 17bc a6d5 b1bd fc33 95bd
00000080: 1a2c 27be 372e b53d e38b a03d 4105 1bbe
00000090: b317 bfbd 3bc0 9f3e 6f86 ab3d 7fbf b03d
000000a0: e853 123d da8a 28bc b9bb 9dbd 05a6 bcbd
000000b0: 78dc 8dbd 5fd7 083d 5b8e 97bc c78c 363e
000000c0: 1e8f 923e 30f1 c9bb 1497 2e3e 2f73 ddbc
000000d0: 7a93 6c3d ac57 923c 823e 1ebc d8bc 5cbb
000000e0: 861f 37be 3216 9a3c f94d 063d 16ff 17be
000000f0: 79bb 30be a44c 0dba 6783 fc3d d8e9 cfbd
00000100: c587 e63d e2e0 4f3b c06c adbd 04c5 81bd
00000110: 24e5 863d a61d b9bd 9928 d23d fcd5 4cbd
00000120: a479 30be 8d28 01be d76c 06bd d6f4 dbbd
00000130: 9b34 15bd af5e e33d d458 9ebb f468 4b3d
00000140: e464 24bd de1d f7bd 12c6 163d 103a 45bd
00000150: b340 3b3d 2273 2c3e fd41 56bd 90e1 883d
00000160: 9aad bcbd da29 33bd f1fb 82bd 8528 513d
00000170: 62d4 fabd d818 493d 9465 67be c53b c4bd
00000180: 8f5b 843d 987b 9f3e 92c8 1abe 8995 923e
00000190: 7b37 d03c 2b23 81bd ad77 8ebd 7dc8 353d
000001a0: 568d 9fbd 87c7 d13d 82a8 1bbe 4fdd 23bd
000001b0: 3062 89bc d895 d63d 2bfd f33c 4b2a 1e3d
000001c0: 9ddd db3c 3559 893e 9c89 0b3e 675c 04be
000001d0: e05e a03c 82af d4bd 5b0b 8cbd 6939 043b
000001e0: 4dc2 87bd f3c8 9d3d 2595 003c 3024 65bd
000001f0: 0558 bfbd 4e06 35be 5849 b73d 8ce4 b63b
00000200: 5bf0 f3bd feb1 d0bd 3a5f a43d 6dd6 613e
00000210: 67f6 9a3d 5018 ac3d 3eba 3ebd 085e 6fbd
00000220: 3946 013d 216c 48bd 139e 153c 2f32 1b3d
00000230: 1223 11be 5e2d f63c 40a1 ff3c 96c0 93bd
00000240: 9103 06bd e307 9b3d 5d8f 4ebe a2eb 61bc
00000250: 254f 9cbc 8d33 1f3e 967a b43d d786 4abe
00000260: f532 993e 57c9 253d 3566 af3d c964 ea39
00000270: 20f5 34be 73a6 3f3e 7695 c03c 8a6e 203e
00000280: 44ea 0c3d d2ff 4dba 6a3d 14bd 208e 7ebd
00000290: 9495 6a3d 7ce2 1d3d 46f8 0cbd 8bcd cabd
000002a0: 7eef 7bbe b4af 50bb 7627 cbbc 6cb1 9cbd
000002b0: 0de3 abbc a0f7 5e3e ae69 da3d b7d2 51be
000002c0: 9a25 3bbd 0b70 81bd c0c3 5bbd 45fc 173c
000002d0: b7ac aabc 4f8f 90bd aee4 d03d dab1 053e
000002e0: 95b9 b0bd 8cdf b4bd 1da3 c6bb 5eb8 4cbc
000002f0: 5a21 0ebd b025 563d 787f 3fbb 547c 91bd
00000300: 60ce 853d 00e3 863d ed53 a6bd 3dcb e43d
00000310: ef62 c13d fb9f 83bd c8b1 aabd 8aaf 993d
00000320: f7a5 df3d 2438 9e3e 6217 b5bd 67f8 73be
00000330: 2842 803e c0fb 193e ffd0 86bd 3016 83bd
00000340: c619 61be caf3 973c e4e0 70be d6c4 583e
00000350: b886 8ebd 6941 00bd 7744 503e 86aa 97bd
00000360: 4bf4 f5bd 0777 99bd 34db 25bd 5cec e63d
00000370: faf8 023e ccf6 b23d b8d3 8f3e 89d4 703d
00000380: 0fbc c9bd 19ce 233d 057e e7bd 47cc 35bd
00000390: e867 29be 90b2 f43d bbd4 0a3d 0c40 ccbb
000003a0: 4faf 703d a0d4 47bd 0e93 d4bd 2a82 043e
000003b0: 441b d93c b6ed be3d b464 513e a482 46bd
000003c0: 4b73 e13c 5cc6 693e 829d 0dbe f0ef c0bc
000003d0: fae6 8dbd 51fd 253d 432e 3dbe eed9 3d3c
000003e0: fca7 373e 9326 103d d436 e43c 3a18 d6bd
000003f0: fb52 c13d d762 a53d 40af 07be 8b47 b6bd

network_body._body_endoder.seq_layers.2.bias f4 [256]
0.0 0.0 0.0 0.0 0.0 0.0 0.0 0.0
0.0 0.0 0.0 0.0 0.0 0.0 0.0 0.0
0.0 0.0 0.0 0.0 0.0 0.0 0.0 0.0
0.0 0.0 0.0 0.0 0.0 0.0 0.0 0.0
0.0 0.0 0.0 0.0 0.0 0.0 0.0 0.0
0.0 0.0 0.0 0.0 0.0 0.0 0.0 0.0
0.0 0.0 0.0 0.0 0.0 0.0 0.0 0.0
0.0 0.0 0.0 0.0 0.0 0.0 0.0 0.0
0.0 0.0 0.0 0.0 0.0 0.0 0.0 0.0
0.0 0.0 0.0 0.0 0.0 0.0 0.0 0.0
0.0 0.0 0.0 0.0 0.0 0.0 0.0 0.0
0.0 0.0 0.0 0.0 0.0 0.0 0.0 0.0
0.0 0.0 0.0 0.0 0.0 0.0 0.0 0.0
0.0 0.0 0.0 0.0 0.0 0.0 0.0 0.0
0.0 0.0 0.0 0.0 0.0 0.0 0.0 0.0
0.0 0.0 0.0 0.0 0.0 0.0 0.0 0.0
0.0 0.0 0.0 0.0 0.0 0.0 0.0 0.0
0.0 0.0 0.0 0.0 0.0 0.0 0.0 0.0
0.0 0.0 0.0 0.0 0.0 0.0 0.0 0.0
0.0 0.0 0.0 0.0 0.0 0.0 0.0 0.0
0.0 0.0 0.0 0.0 0.0 0.0 0.0 0.0
0.0 0.0 0.0 0.0 0.0 0.0 0.0 0.0
0.0 0.0 0.0 0.0 0.0 0.0 0.0 0.0
0.0 0.0 0.0 0.0 0.0 0.0 0.0 0.0
0.0 0.0 0.0 0.0 0.0 0.0 0.0 0.0
0.0 0.0 0.0 0.0 0.0 0.0 0.0 0.0
0.0 0.0 0.0 0.0 0.0 0.0 0.0 0.0
0.0 0.0 0.0 0.0 0.0 0.0 0.0 0.0
0.0 0.0 0.0 0.0 0.0 0.0 0.0 0.0
0.0 0.0 0.0 0.0 0.0 0.0 0.0 0.0
0.0 0.0 0.0 0.0 0.0 0.0 0.0 0.0
0.0 0.0 0.0 0.0 0.0 0.0 0.0 0.0
00000000: 0000 0000 0000 0000 0000 0000 0000 0000
00000010: 0000 0000 0000 0000 0000 0000 0000 0000
00000020: 0000 0000 0000 0000 0000 0000 0000 0000
00000030: 0000 0000 0000 0000 0000 0000 0000 0000
00000040: 0000 0000 0000 0000 0000 0000 0000 0000
00000050: 0000 0000 0000 0000 0000 0000 0000 0000
00000060: 0000 0000 0000 0000 0000 0000 0000 0000
00000070: 0000 0000 0000 0000 0000 0000 0000 0000
00000080: 0000 0000 0000 0000 0000 0000 0000 0000
00000090: 0000 0000 0000 0000 0000 0000 0000 0000
000000a0: 0000 0000 0000 0000 0000 0000 0000 0000
000000b0: 0000 0000 0000 0000 0000 0000 0000 0000
000000c0: 0000 0000 0000 0000 0000 0000 0000 0000
000000d0: 0000 0000 0000 0000 0000 0000 0000 0000
000000e0: 0000 0000 0000 0000 0000 0000 0000 0000
000000f0: 0000 0000 0000 0000 0000 0000 0000 0000
00000100: 0000 0000 0000 0000 0000 0000 0000 0000
00000110: 0000 0000 0000 0000 0000 0000 0000 0000
00000120: 0000 0000 0000 0000 0000 0000 0000 0000
00000130: 0000 0000 0000 0000 0000 0000 0000 0000
00000140: 0000 0000 0000 0000 0000 0000 0000 0000
00000150: 0000 0000 0000 0000 0000 0000 0000 0000
00000160: 0000 0000 0000 0000 0000 0000 0000 0000
00000170: 0000 0000 0000 0000 0000 0000 0000 0000
00000180: 0000 0000 0000 0000 0000 0000 0000 0000
00000190: 0000 0000 0000 0000 0000 0000 0000 0000
000001a0: 0000 0000 0000 0000 0000 0000 0000 0000
000001b0: 0000 0000 0000 0000 0000 0000 0000 0000
000001c0: 0000 0000 0000 0000 0000 0000 0000 0000
000001d0: 0000 0000 0000 0000 0000 0000 0000 0000
000001e0: 0000 0000 0000 0000 0000 0000 0000 0000
000001f0: 0000 0000 0000 0000 0000 0000 0000 0000
00000200: 0000 0000 0000 0000 0000 0000 0000 0000
00000210: 0000 0000 0000 0000 0000 0000 0000 0000
00000220: 0000 0000 0000 0000 0000 0000 0000 0000
00000230: 0000 0000 0000 0000 0000 0000 0000 0000
00000240: 0000 0000 0000 0000 0000 0000 0000 0000
00000250: 0000 0000 0000 0000 0000 0000 0000 0000
00000260: 0000 0000 0000 0000 0000 0000 0000 0000
00000270: 0000 0000 0000 0000 0000 0000 0000 0000
00000280: 0000 0000 0000 0000 0000 0000 0000 0000
00000290: 0000 0000 0000 0000 0000 0000 0000 0000
000002a0: 0000 0000 0000 0000 0000 0000 0000 0000
000002b0: 0000 0000 0000 0000 0000 0000 0000 0000
000002c0: 0000 0000 0000 0000 0000 0000 0000 0000
000002d0: 0000 0000 0000 0000 0000 0000 0000 0000
000002e0: 0000 0000 0000 0000 0000 0000 0000 0000
000002f0: 0000 0000 0000 0000 0000 0000 0000 0000
00000300: 0000 0000 0000 0000 0000 0000 0000 0000
00000310: 0000 0000 0000 0000 0000 0000 0000 0000
00000320: 0000 0000 0000 0000 0000 0000 0000 0000
00000330: 0000 0000 0000 0000 0000 0000 0000 0000
00000340: 0000 0000 0000 0000 0000 0000 0000 0000
00000350: 0000 0000 0000 0000 0000 0000 0000 0000
00000360: 0000 0000 0000 0000 0000 0000 0000 0000
00000370: 0000 0000 0000 0000 0000 0000 0000 0000
00000380: 0000 0000 0000 0000 0000 0000 0000 0000
00000390: 0000 0000 0000 0000 0000 0000 0000 0000
000003a0: 0000 0000 0000 0000 0000 0000 0000 0000
000003b0: 0000 0000 0000 0000 0000 0000 0000 0000
000003c0: 0000 0000 0000 0000 0000 0000 0000 0000
000003d0: 0000 0000 0000 0000 0000 0000 0000 0000
000003e0: 0000 0000 0000 0000 0000 0000 0000 0000
000003f0: 0000 0000 0000 0000 0000 0000 0000 0000

network_body._body_endoder.seq_layers.2.weight f4 [256, 256]
-0.11240974 -0.015228059 0.08237439 0.12682286 0.075217426 0.044786483 0.04849531 0.02344862
-0.001554322 0.012451702 0.09767647 -0.01473683 -0.10655696 -0.07318005 -0.016611755 -0.044962745
-0.054757632 -0.06749572 -0.08330968 -0.017174002 0.07091078 -0.11060504 0.12420998 0.011486411
-0.0031862555 -0.031374484 0.002753331 0.061799716 -0.06414483 -0.036397856 0.013860691 -0.05444747
0.049629845 0.059097733 -0.06694708 -0.0049062152 0.12482803 0.05770962 -0.07047326 0.02600258
0.09626808 -0.024025576 0.11621202 -0.041725043 0.0004838125 0.004893836 0.109405845 -0.02840343
-0.103362754 -0.025572719 -0.010997796 0.04663613 0.09436651 -0.050580148 0.03580676 0.03613792
-0.04194577 0.013018418 0.006551842 -0.044851545 -0.009683412 -0.031067003 -0.009502801 -0.019374255
0.158628 0.02673558 -0.0190268 0.01225439 0.06164165 0.045651965 0.02699219 0.12261246
0.12543721 -0.04922136 -0.046275496 -0.028759036 0.025629675 0.10490534 -0.023408659 0.056090742
0.105644606 0.027658688 0.015063078 0.06221173 -0.018642278 -0.057127953 -0.08000699 0.0155015625
0.06275949 -0.014696861 -0.009327897 0.03462093 0.01613768 0.08839765 0.06156008 0.015571741
-0.038852714 0.075031124 -0.019075878 0.017891673 0.0894743 -0.06939703 -0.01001693 -0.05972138
-0.030007966 0.044655457 -0.0019371805 0.042072233 0.062578164 0.038077027 0.10550678 -0.0065034735
-0.10846309 0.03392686 -0.048443273 0.066645674 0.04986648 0.076610796 -0.08163514 -0.0028453353
0.11968533 0.0023892387 -0.0317987 -0.10234593 0.06382751 -0.010986964 0.040265903 -0.033394806
-0.008036075 -0.02322573 0.04852577 -0.009347006 -0.03303667 -0.03842605 -0.040999062 0.026449686
-0.11047294 0.038652685 -0.07579339 0.021602562 0.066384606 0.07216582 0.0005317272 -0.00605092
-0.09021272 0.0151331555 -0.07136457 0.027785966 -0.0755693 0.011092215 0.05390357 0.005566129
-0.020728601 -0.049896587 -0.044239238 -0.0945523 -0.1055251 -0.016965259 0.02899902 0.045983106
-0.042062942 -0.007030945 -0.030828953 0.02506837 0.02439098 -0.033977196 0.020683972 0.07660182
-0.04403858 -0.023454228 -0.058268197 -0.024002604 -0.07648677 0.012745218 -0.029145347 0.0018532842
0.0061719473 -0.1668924 0.03767525 0.009199837 -0.11337145 -0.023124298 -0.04971036 -0.019127863
0.060593344 -0.061716102 -0.033098217 -0.075664945 0.048587207 -0.05092251 -0.07422768 0.044058327
0.06000849 0.14424212 0.038135774 -0.044222344 0.083499715 0.097448945 -0.028803658 0.048517194
0.061323844 0.1317917 -0.0042482857 0.12015545 -0.0071210787 0.026964929 -0.008206668 -0.13788126
0.027985588 0.015399284 0.030354291 -0.010336874 -0.05331845 -0.023123434 0.0831568 -0.123129904
-0.010078315 -0.07337589 -0.014628705 0.06847908 0.07934682 -0.10129309 0.06330481 -0.14652012
0.047452353 -0.044531234 0.08063938 0.0261438 0.038784288 -0.03080601 0.05138033 -0.09541179
-0.11525687 0.053515088 0.0054339673 0.01987542 0.008328614 -0.06194756 -0.00082859077 0.037181947
-0.0782006 -0.03392023 -0.04637901 -0.13777299 0.01126646 0.11772331 -0.101648085 0.051423084
0.12522058 0.008306496 0.03846306 0.005262346 -0.02754954 0.07738965 0.056714047 -0.044814724
00000000: 1437 e6bd 1c7f 79bc e7b3 a83d dadd 013e
00000010: 980b 9a3d 0872 373d 05a3 463d 5217 c03c
00000020: 64ba cbba 3902 4c3c 9a0a c83d bf72 71bc
00000030: 893a dabd 6cdf 95bd 6015 88bc db2a 38bd
00000040: 8a49 60bd 323b 8abd 449e aabd 7eb0 8cbc
00000050: ac39 913d e584 e2bd cd61 fe3d 8031 3c3c
00000060: 7fd0 50bb 8882 00bd 3b71 343b b321 7d3d
00000070: 5d5e 83bd eb15 15bd f417 633c 4f04 5fbd
00000080: aa48 4b3d 7710 723d 8d1b 89bd 51c4 a0bb
00000090: d7a5 ff3d ec60 6c3d 4954 90bd 5d03 d53c
000000a0: 3328 c53d 49d1 c4bc 9100 ee3d e1e7 2abd
000000b0: 37a8 fd39 795c a03b 2c10 e03d 4fae e8bc
000000c0: daaf d3bd e17d d1bc 1a30 34bc 8705 3f3d
000000d0: 3b43 c13d 212d 4fbd 1caa 123d 5b05 143d
000000e0: 54cf 2bbd 344b 553c d6b0 d63b 41b6 37bd
000000f0: 2ca7 1ebc 3a80 febc a3b1 1bbc c2b6 9ebc
00000100: 616f 223e 9304 db3c 17de 9bbc a3c6 483c
00000110: f47b 7c3d 8efd 3a3d ba1e dd3c 3e1c fb3d
00000120: 9d72 003e 569c 49bd 608b 3dbd 1298 ebbc
00000130: 53f5 d13c 9cd8 d63d 84c3 bfbc 68bf 653d
00000140: 335c d83d 7994 e23c 21cb 763c bad1 7e3d
00000150: b1b7 98bc 00ff 69bd b4da a3bd 44fa 7d3c
00000160: 0c88 803d 1acb 70bc 09d4 18bc adce 0d3d
00000170: 2b33 843c d409 b53d 6c26 7c3d 9e20 7f3c
00000180: 0624 1fbd eba9 993d 0445 9cbc 8f91 923c
00000190: 4d3e b73d 0820 8ebd 0d1e 24bc 689e 74bd
000001a0: 44d3 f5bc a4e8 363d fee8 fdba ef53 2c3d
000001b0: fb28 803d a8f6 1b3d f013 d83d 171b d5bb
000001c0: e621 debd e4f6 0a3d 746c 46bd 877d 883d
000001d0: cb40 4c3d 1fe6 9c3d 5330 a7bd ce78 3abb
000001e0: 951d f53d c694 1c3b 5b3f 02bd be9a d1bd
000001f0: ffb7 823d ab02 34bc dced 243d fec8 08bd
00000200: bea9 03bc e343 bebc f5c2 463d 2f24 19bc
00000210: 7651 07bd a264 1dbd a2ee 27bd 03ad d83c
00000220: a33f e2bd 4752 1e3d 9139 9bbd dbf7 b03c
00000230: a7f4 873d accb 933d 9c63 0b3a cc46 c6bb
00000240: 72c1 b8bd 0ef1 773c 9627 92bd 659f e33c
00000250: 14c4 9abd 1fbc 353c fdc9 5c3d 1364 b63b
00000260: 07cf a9bc 5d60 4cbd 3434 35bd a3a4 c1bd
00000270: 8b1d d8bd bafa 8abc 5a8f ed3c c858 3c3d
00000280: 314a 2cbd d763 e6bb 008d fcbc 2f5c cd3c
00000290: 98cf c73c ac2b 0bbd 6f71 a93c 6ae1 9c3d
000002a0: cc61 34bd 1523 c0bc a2aa 6ebd 1ca1 c4bc
000002b0: 18a5 9cbd 52d1 503c 39c2 eebc e6e9 f23a
000002c0: 0c3e ca3b d7e5 2abe 5d51 1a3d eaba 163c
000002d0: 4a2f e8bd 2b6f bdbc 179d 4bbd 09b2 9cbc
000002e0: ba30 783d 06ca 7cbd ff91 07bd 39f6 9abd
000002f0: 6103 473d 1f94 50bd af04 98bd 8176 343d
00000300: 76cb 753d 35b4 133e 4234 1c3d 7d22 35bd
00000310: e601 ab3d 5093 c73d a6f5 ebbc f7b9 463d
00000320: b62e 7b3d 67f4 063e 3435 8bbb 1014 f63d
00000330: f057 e9bb 8ee5 dc3c 4375 06bc bf30 0dbe
00000340: 0842 e53c 474d 7c3c 90a9 f83c fe5b 29bc
00000350: 7264 5abd 5b6d bdbc 1d4e aa3d 882b fcbd
00000360: 841f 25bc 1946 96bd 3cad 6fbc c33e 8c3d
00000370: 9680 a23d c072 cfbd f4a5 813d 5f09 16be
00000380: 665d 423d 6266 36bd 4226 a53d 862b d63c
00000390: 46dc 1e3d e35c fcbc 2e74 523d 4267 c3bd
000003a0: cb0b ecbd a332 5b3d 6c0f b23b c7d1 a23c
000003b0: bd74 083c babc 7dbd c935 59ba 194c 183d
000003c0: a327 a0bd f0ef 0abd ebf7 3dbd 5d14 0dbe
000003d0: f596 383c eb18 f13d df2c d0bd 03a1 523d
000003e0: d339 003e f817 083c 718b 1d3d c26f ac3b
000003f0: 93af e1bc 777e 9e3d fd4c 683d a58f 37bd

network_body._body_endoder.seq_layers.4.bias f4 [256]
0.0 0.0 0.0 0.0 0.0 0.0 0.0 0.0
0.0 0.0 0.0 0.0 0.0 0.0 0.0 0.0
0.0 0.0 0.0 0.0 0.0 0.0 0.0 0.0
0.0 0.0 0.0 0.0 0.0 0.0 0.0 0.0
0.0 0.0 0.0 0.0 0.0 0.0 0.0 0.0
0.0 0.0 0.0 0.0 0.0 0.0 0.0 0.0
0.0 0.0 0.0 0.0 0.0 0.0 0.0 0.0
0.0 0.0 0.0 0.0 0.0 0.0 0.0 0.0
0.0 0.0 0.0 0.0 0.0 0.0 0.0 0.0
0.0 0.0 0.0 0.0 0.0 0.0 0.0 0.0
0.0 0.0 0.0 0.0 0.0 0.0 0.0 0.0
0.0 0.0 0.0 0.0 0.0 0.0 0.0 0.0
0.0 0.0 0.0 0.0 0.0 0.0 0.0 0.0
0.0 0.0 0.0 0.0 0.0 0.0 0.0 0.0
0.0 0.0 0.0 0.0 0.0 0.0 0.0 0.0
0.0 0.0 0.0 0.0 0.0 0.0 0.0 0.0
0.0 0.0 0.0 0.0 0.0 0.0 0.0 0.0
0.0 0.0 0.0 0.0 0.0 0.0 0.0 0.0
0.0 0.0 0.0 0.0 0.0 0.0 0.0 0.0
0.0 0.0 0.0 0.0 0.0 0.0 0.0 0.0
0.0 0.0 0.0 0.0 0.0 0.0 0.0 0.0
0.0 0.0 0.0 0.0 0.0 0.0 0.0 0.0
0.0 0.0 0.0 0.0 0.0 0.0 0.0 0.0
0.0 0.0 0.0 0.0 0.0 0.0 0.0 0.0
0.0 0.0 0.0 0.0 0.0 0.0 0.0 0.0
0.0 0.0 0.0 0.0 0.0 0.0 0.0 0.0
0.0 0.0 0.0 0.0 0.0 0.0 0.0 0.0
0.0 0.0 0.0 0.0 0.0 0.0 0.0 0.0
0.0 0.0 0.0 0.0 0.0 0.0 0.0 0.0
0.0 0.0 0.0 0.0 0.0 0.0 0.0 0.0
0.0 0.0 0.0 0.0 0.0 0.0 0.0 0.0
0.0 0.0 0.0 0.0 0.0 0.0 0.0 0.0
00000000: 0000 0000 0000 0000 0000 0000 0000 0000
00000010: 0000 0000 0000 0000 0000 0000 0000 0000
00000020: 0000 0000 0000 0000 0000 0000 0000 0000
00000030: 0000 0000 0000 0000 0000 0000 0000 0000
00000040: 0000 0000 0000 0000 0000 0000 0000 0000
00000050: 0000 0000 0000 0000 0000 0000 0000 0000
00000060: 0000 0000 0000 0000 0000 0000 0000 0000
00000070: 0000 0000 0000 0000 0000 0000 0000 0000
00000080: 0000 0000 0000 0000 0000 0000 0000 0000
00000090: 0000 0000 0000 0000 0000 0000 0000 0000
000000a0: 0000 0000 0000 0000 0000 0000 0000 0000
000000b0: 0000 0000 0000 0000 0000 0000 0000 0000
000000c0: 0000 0000 0000 0000 0000 0000 0000 0000
000000d0: 0000 0000 0000 0000 0000 0000 0000 0000
000000e0: 0000 0000 0000 0000 0000 0000 0000 0000
000000f0: 0000 0000 0000 0000 0000 0000 0000 0000
00000100: 0000 0000 0000 0000 0000 0000 0000 0000
00000110: 0000 0000 0000 0000 0000 0000 0000 0000
00000120: 0000 0000 0000 0000 0000 0000 0000 0000
00000130: 0000 0000 0000 0000 0000 0000 0000 0000
00000140: 0000 0000 0000 0000 0000 0000 0000 0000
00000150: 0000 0000 0000 0000 0000 0000 0000 0000
00000160: 0000 0000 0000 0000 0000 0000 0000 0000
00000170: 0000 0000 0000 0000 0000 0000 0000 0000
00000180: 0000 0000 0000 0000 0000 0000 0000 0000
00000190: 0000 0000 0000 0000 0000 0000 0000 0000
000001a0: 0000 0000 0000 0000 0000 0000 0000 0000
000001b0: 0000 0000 0000 0000 0000 0000 0000 0000
000001c0: 0000 0000 0000 0000 0000 0000 0000 0000
000001d0: 0000 0000 0000 0000 0000 0000 0000 0000
000001e0: 0000 0000 0000 0000 0000 0000 0000 0000
000001f0: 0000 0000 0000 0000 0000 0000 0000 0000
00000200: 0000 0000 0000 0000 0000 0000 0000 0000
00000210: 0000 0000 0000 0000 0000 0000 0000 0000
00000220: 0000 0000 0000 0000 0000 0000 0000 0000
00000230: 0000 0000 0000 0000 0000 0000 0000 0000
00000240: 0000 0000 0000 0000 0000 0000 0000 0000
00000250: 0000 0000 0000 0000 0000 0000 0000 0000
00000260: 0000 0000 0000 0000 0000 0000 0000 0000
00000270: 0000 0000 0000 0000 0000 0000 0000 0000
00000280: 0000 0000 0000 0000 0000 0000 0000 0000
00000290: 0000 0000 0000 0000 0000 0000 0000 0000
000002a0: 0000 0000 0000 0000 0000 0000 0000 0000
000002b0: 0000 0000 0000 0000 0000 0000 0000 0000
000002c0: 0000 0000 0000 0000 0000 0000 0000 0000
000002d0: 0000 0000 0000 0000 0000 0000 0000 0000
000002e0: 0000 0000 0000 0000 0000 0000 0000 0000
000002f0: 0000 0000 0000 0000 0000 0000 0000 0000
00000300: 0000 0000 0000 0000 0000 0000 0000 0000
00000310: 0000 0000 0000 0000 0000 0000 0000 0000
00000320: 0000 0000 0000 0000 0000 0000 0000 0000
00000330: 0000 0000 0000 0000 0000 0000 0000 0000
00000340: 0000 0000 0000 0000 0000 0000 0000 0000
00000350: 0000 0000 0000 0000 0000 0000 0000 0000
00000360: 0000 0000 0000 0000 0000 0000 0000 0000
00000370: 0000 0000 0000 0000 0000 0000 0000 0000
00000380: 0000 0000 0000 0000 0000 0000 0000 0000
00000390: 0000 0000 0000 0000 0000 0000 0000 0000
000003a0: 0000 0000 0000 0000 0000 0000 0000 0000
000003b0: 0000 0000 0000 0000 0000 0000 0000 0000
000003c0: 0000 0000 0000 0000 0000 0000 0000 0000
000003d0: 0000 0000 0000 0000 0000 0000 0000 0000
000003e0: 0000 0000 0000 0000 0000 0000 0000 0000
000003f0: 0000 0000 0000 0000 0000 0000 0000 0000

network_body._body_endoder.seq_layers.4.weight f4 [256, 256]
0.036024112 0.04727335 0.05399355 0.057748955 0.0031402896 -0.018352877 -0.084340274 -0.011771669
-0.047373675 0.06799541 -0.060543776 -0.03934604 -0.045433957 -0.01717897 0.047967993 0.072028324
-0.025830138 0.055768114 0.18147701 0.037202034 -0.15690026 0.020225989 0.03971941 -0.009052259
-0.0011934692 0.004563236 0.01730105 0.06618253 -0.07443504 0.02809379 -0.043142322 0.023073973
-0.093044914 -0.08257664 0.053876564 -0.024027852 -0.0071546556 -0.013049749 -0.005978947 0.037418183
-0.038144793 0.1500039 0.048929796 -0.02890322 -0.036422536 0.027579462 -0.0052784183 -0.064531855
0.04918404 0.010725534 0.045701876 0.024915302 -0.028956356 0.055838726 -0.0009892249 0.019833267
0.12670802 0.08698689 0.082315005 -0.022313021 -0.06388306 0.0605086 0.08892703 0.030376421
-0.071014255 -0.019809509 -0.07459547 0.0034973067 0.055351425 -0.04466052 -0.121662654 0.028779564
0.0017486155 -0.056968953 0.13166457 -0.059227917 7.6736e-05 -0.0028037913 -0.07330744 0.07068625
-0.09219568 -0.07765196 -0.02439922 -0.07164761 0.09531908 -0.02282276 -0.07691728 0.008497655
0.053509384 -0.06516373 0.03626786 0.127183 0.045085482 -0.03052754 0.022455644 -0.046124693
0.056393493 -0.09347089 -0.06780386 0.055343192 0.04649598 -0.024289487 -0.04847007 -0.028903887
-0.017180458 -0.110649936 -0.07799327 0.057927944 0.0144168725 -0.08439918 -0.014003269 0.04151101
0.055507425 -0.015917178 0.03613843 -0.027107408 0.016759306 -0.04464284 -0.07873076 -0.06292874
-0.11748893 0.00344134 -0.02081871 0.026655663 -0.012282026 -0.087905586 -0.1062506 -0.101530276
0.056998387 0.017020885 0.012116808 -0.041436225 0.033620387 -0.09897922 0.01865107 -0.08392606
0.010671507 0.0056783305 0.11353131 0.059563026 -0.048200984 0.027755562 0.039303627 0.051890124
-0.027504971 -0.01968154 0.0836008 0.113045014 -0.06188199 0.04408418 -0.060089577 0.02473714
0.001593737 -0.0027725275 0.07203357 -0.07699632 -0.0026774686 -0.04962508 0.06762157 -0.06533066
0.0040206374 -0.021850545 -0.11417174 0.017238999 0.124945275 0.0049356213 -0.008391464 0.013540331
0.020058082 -0.0077579967 0.0069151064 -0.0049468176 -0.064007856 -0.07075161 -0.007283109 0.06050099
0.09657094 -0.028517187 0.077679485 0.01882124 0.077872865 -0.038727645 -0.05577962 -0.035859615
0.062336612 -0.08971262 -0.032895144 -0.08320245 -0.019466989 0.0448703 0.0023274776 0.014093763
0.039296955 -0.07307508 -0.1427763 0.017710814 0.088116266 -0.11520376 -0.0034091491 -0.041470345
-0.015084607 0.0155284135 -0.011897144 0.03490046 -0.016963452 -0.06928798 -0.023481766 0.01853197
0.0039203893 0.06582513 0.12700205 -0.0326747 0.11464013 0.047666688 0.073205076 -0.02631055
0.032888718 0.030138431 -0.12373842 0.07267735 -0.008205044 -0.07746262 0.07608109 -0.08108631
0.03596171 0.004976969 0.09820576 0.0142698465 -0.07046664 0.063841075 -0.035662737 0.07223464
-0.07134908 0.09578431 0.012181322 -0.024683826 0.12549281 -0.07436089 -0.017762763 0.018965328
-0.019954637 -0.015467379 -0.0779257 0.017555602 0.06620009 -0.008430119 0.11130453 0.06675837
0.13007337 -0.053767126 -0.0033505498 0.030873505 0.010049403 0.031448994 0.06769938 -0.072554104
00000000: 058e 133d b3a1 413d 5728 5d3d 2b8a 6c3d
00000010: 51cd 4d3b c658 96bc 98ba acbd f5dd 40bc
00000020: e60a 42bd 2d41 8b3d c0fc 77bd 5029 21bd
00000030: f518 3abd e9ba 8cbc 167a 443d 9683 933d
00000040: ba99 d3bc 1b6d 643d 1cd5 393e 2961 183d
00000050: 76aa 20be f9b0 a53c d2b0 223d ed4f 14bc
00000060: 2e6e 9cba 3387 953b eeba 8d3c b58a 873d
00000070: 6671 98bd f324 e63c 01b6 30bd a105 bd3c
00000080: 558e bebd f11d a9bd acad 5c3d 0fd6 c4bc
00000090: 9a71 eabb 9dce 55bc 0beb c3bb cf43 193d
000000a0: b73d 1cbd 9f9a 193e 9c6a 483d 72c6 ecbc
000000b0: cc2f 15bd 53ee e13c 95f6 acbb 4729 84bd
000000c0: 3475 493d 26ba 2f3c e431 3b3d 2d1b cc3c
000000d0: e135 edbc 26b7 643d e1a8 81ba 6079 a23c
000000e0: bfbf 013e 2f26 b23d c594 a83d ccc9 b6bc
000000f0: 1fd5 82bd ded7 773d 601f b63d f9d7 f83c
00000100: ec6f 91bd 8d47 a2bc 83c5 98bd 1233 653b
00000110: 2db8 623d f3ed 36bd 452a f9bd 1fc3 eb3c
00000120: cd31 e53a 4758 69bd 14d3 063e f998 72bd
00000130: 54ed a038 d0bf 37bb 3622 96bd f4c3 903d
00000140: 17d1 bcbd fe07 9fbd dfe0 c7bc fbbb 92bd
00000150: a636 c33d ccf6 babc cf86 9dbd c039 0b3c
00000160: a82c 5b3d 9074 85bd 9c8d 143d 433c 023e
00000170: 8eab 383d e414 fabc e6f4 b73c 3fed 3cbd
00000180: ddfc 663d aa6d bfbd c0dc 8abd 8baf 623d
00000190: 9272 3e3d bffa c6bc 8d88 46bd d8c7 ecbc
000001a0: 08be 8cbc 6f9c e2bd efba 9fbd da45 6d3d
000001b0: bf34 6c3c 7ad9 acbd f86d 65bc 7307 2a3d
000001c0: c15b 633d be64 82bc e405 143d 5b10 debc
000001d0: d04a 893c 69db 36bd 983d a1bd c9e0 80bd
000001e0: 099e f0bd 1b88 613b 008c aabc fa5c da3c
000001f0: 8d3a 49bc d807 b4bd ea99 d9bd 1bef cfbd
00000200: 2477 693d 626f 8b3c 9485 463c 08b9 29bd
00000210: 88b5 093d 9eb5 cabd 21ca 983c 6de1 abbd
00000220: 8bd7 2e3c 4a11 ba3b 1a83 e83d 5cf8 733d
00000230: 656e 45bd a25f e33c d7fc 203d bd8a 543d
00000240: 1b52 e1bc 2e3b a1bc e536 ab3d 2584 e73d
00000250: f877 7dbd 9d91 343d 7d20 76bd 8ba5 ca3c
00000260: f1e4 d03a 4bb3 35bb 5686 933d 3fb0 9dbd
00000270: 7878 2fbb ab43 4bbd 2d7d 8a3d 15cc 85bd
00000280: 8dbf 833b eaff b2bc e0d2 e9bd cd38 8d3c
00000290: 4fe3 ff3d feba a13b 5a7c 09bc 44d8 5d3c
000002a0: d950 a43c cb36 febb 1e98 e23b ea18 a2bb
000002b0: 8d16 83bd 38e6 90bd 25a7 eebb e3cf 773d
000002c0: fcc6 c53d e09c e9bc 6c16 9f3d 002f 9a3c
000002d0: cf7b 9f3d e1a0 1ebd 2c79 64bd 88e1 12bd
000002e0: ad54 7f3d 40bb b7bd 0fbd 06bd 0c66 aabd
000002f0: 3c79 9fbc ebc9 373d 9888 183b 87e9 663c
00000300: d8f5 203d 63a8 95bd f333 12be 4516 913c
00000310: 4d76 b43d f3ef ebbd 086c 5fbb cfdc 29bd
00000320: 6d25 77bc e36a 7e3c 3dec 42bc c9f3 0e3d
00000330: f0f6 8abc dbe6 8dbd d55c c0bc 5cd0 973c
00000340: 9c76 803b 53cf 863d d30c 023e e8d5 05bd
00000350: 72c8 ea3d 253e 433d 8bec 953d 3989 d7bc
00000360: 52b6 063d dfe4 f63c 926a fdbd ddd7 943d
00000370: 736e 06bc b9a4 9ebd 67d0 9b3d 9410 a6bd
00000380: 964c 133d d815 a33b 1a20 c93d 13cc 693c
00000390: d050 90bd 1cbf 823d 1713 12bd c1ef 933d
000003a0: 771f 92bd 902a c43d 2b94 473c bc35 cabc
000003b0: 3081 003e 864a 98bd 3783 91bc 2d5d 9b3c
000003c0: e877 a3bc e46a 7dbc 8297 9fbd c4d0 8f3c
000003d0: ea93 873d 7b1e 0abc a1f3 e33d 9db8 883d
000003e0: f431 053e eb3a 5cbd e694 5bbb 6fea fc3c
000003f0: 40a6 243c a9d0 003d f9a5 8a3d 3f97 94bd

network_body._body_endoder.seq_layers.6.bias f4 [256]
0.0 0.0 0.0 0.0 0.0 0.0 0.0 0.0
0.0 0.0 0.0 0.0 0.0 0.0 0.0 0.0
0.0 0.0 0.0 0.0 0.0 0.0 0.0 0.0
0.0 0.0 0.0 0.0 0.0 0.0 0.0 0.0
0.0 0.0 0.0 0.0 0.0 0.0 0.0 0.0
0.0 0.0 0.0 0.0 0.0 0.0 0.0 0.0
0.0 0.0 0.0 0.0 0.0 0.0 0.0 0.0
0.0 0.0 0.0 0.0 0.0 0.0 0.0 0.0
0.0 0.0 0.0 0.0 0.0 0.0 0.0 0.0
0.0 0.0 0.0 0.0 0.0 0.0 0.0 0.0
0.0 0.0 0.0 0.0 0.0 0.0 0.0 0.0
0.0 0.0 0.0 0.0 0.0 0.0 0.0 0.0
0.0 0.0 0.0 0.0 0.0 0.0 0.0 0.0
0.0 0.0 0.0 0.0 0.0 0.0 0.0 0.0
0.0 0.0 0.0 0.0 0.0 0.0 0.0 0.0
0.0 0.0 0.0 0.0 0.0 0.0 0.0 0.0
0.0 0.0 0.0 0.0 0.0 0.0 0.0 0.0
0.0 0.0 0.0 0.0 0.0 0.0 0.0 0.0
0.0 0.0 0.0 0.0 0.0 0.0 0.0 0.0
0.0 0.0 0.0 0.0 0.0 0.0 0.0 0.0
0.0 0.0 0.0 0.0 0.0 0.0 0.0 0.0
0.0 0.0 0.0 0.0 0.0 0.0 0.0 0.0
0.0 0.0 0.0 0.0 0.0 0.0 0.0 0.0
0.0 0.0 0.0 0.0 0.0 0.0 0.0 0.0
0.0 0.0 0.0 0.0 0.0 0.0 0.0 0.0
0.0 0.0 0.0 0.0 0.0 0.0 0.0 0.0
0.0 0.0 0.0 0.0 0.0 0.0 0.0 0.0
0.0 0.0 0.0 0.0 0.0 0.0 0.0 0.0
0.0 0.0 0.0 0.0 0.0 0.0 0.0 0.0
0.0 0.0 0.0 0.0 0.0 0.0 0.0 0.0
0.0 0.0 0.0 0.0 0.0 0.0 0.0 0.0
0.0 0.0 0.0 0.0 0.0 0.0 0.0 0.0
00000000: 0000 0000 0000 0000 0000 0000 0000 0000
00000010: 0000 0000 0000 0000 0000 0000 0000 0000
00000020: 0000 0000 0000 0000 0000 0000 0000 0000
00000030: 0000 0000 0000 0000 0000 0000 0000 0000
00000040: 0000 0000 0000 0000 0000 0000 0000 0000
00000050: 0000 0000 0000 0000 0000 0000 0000 0000
00000060: 0000 0000 0000 0000 0000 0000 0000 0000
00000070: 0000 0000 0000 0000 0000 0000 0000 0000
00000080: 0000 0000 0000 0000 0000 0000 0000 0000
00000090: 0000 0000 0000 0000 0000 0000 0000 0000
000000a0: 0000 0000 0000 0000 0000 0000 0000 0000
000000b0: 0000 0000 0000 0000 0000 0000 0000 0000
000000c0: 0000 0000 0000 0000 0000 0000 0000 0000
000000d0: 0000 0000 0000 0000 0000 0000 0000 0000
000000e0: 0000 0000 0000 0000 0000 0000 0000 0000
000000f0: 0000 0000 0000 0000 0000 0000 0000 0000
00000100: 0000 0000 0000 0000 0000 0000 0000 0000
00000110: 0000 0000 0000 0000 0000 0000 0000 0000
00000120: 0000 0000 0000 0000 0000 0000 0000 0000
00000130: 0000 0000 0000 0000 0000 0000 0000 0000
00000140: 0000 0000 0000 0000 0000 0000 0000 0000
00000150: 0000 0000 0000 0000 0000 0000 0000 0000
00000160: 0000 0000 0000 0000 0000 0000 0000 0000
00000170: 0000 0000 0000 0000 0000 0000 0000 0000
00000180: 0000 0000 0000 0000 0000 0000 0000 0000
00000190: 0000 0000 0000 0000 0000 0000 0000 0000
000001a0: 0000 0000 0000 0000 0000 0000 0000 0000
000001b0: 0000 0000 0000 0000 0000 0000 0000 0000
000001c0: 0000 0000 0000 0000 0000 0000 0000 0000
000001d0: 0000 0000 0000 0000 0000 0000 0000 0000
000001e0: 0000 0000 0000 0000 0000 0000 0000 0000
000001f0: 0000 0000 0000 0000 0000 0000 0000 0000
00000200: 0000 0000 0000 0000 0000 0000 0000 0000
00000210: 0000 0000 0000 0000 0000 0000 0000 0000
00000220: 0000 0000 0000 0000 0000 0000 0000 0000
00000230: 0000 0000 0000 0000 0000 0000 0000 0000
00000240: 0000 0000 0000 0000 0000 0000 0000 0000
00000250: 0000 0000 0000 0000 0000 0000 0000 0000
00000260: 0000 0000 0000 0000 0000 0000 0000 0000
00000270: 0000 0000 0000 0000 0000 0000 0000 0000
00000280: 0000 0000 0000 0000 0000 0000 0000 0000
00000290: 0000 0000 0000 0000 0000 0000 0000 0000
000002a0: 0000 0000 0000 0000 0000 0000 0000 0000
000002b0: 0000 0000 0000 0000 0000 0000 0000 0000
000002c0: 0000 0000 0000 0000 0000 0000 0000 0000
000002d0: 0000 0000 0000 0000 0000 0000 0000 0000
000002e0: 0000 0000 0000 0000 0000 0000 0000 0000
000002f0: 0000 0000 0000 0000 0000 0000 0000 0000
00000300: 0000 0000 0000 0000 0000 0000 0000 0000
00000310: 0000 0000 0000 0000 0000 0000 0000 0000
00000320: 0000 0000 0000 0000 0000 0000 0000 0000
00000330: 0000 0000 0000 0000 0000 0000 0000 0000
00000340: 0000 0000 0000 0000 0000 0000 0000 0000
00000350: 0000 0000 0000 0000 0000 0000 0000 0000
00000360: 0000 0000 0000 0000 0000 0000 0000 0000
00000370: 0000 0000 0000 0000 0000 0000 0000 0000
00000380: 0000 0000 0000 0000 0000 0000 0000 0000
00000390: 0000 0000 0000 0000 0000 0000 0000 0000
000003a0: 0000 0000 0000 0000 0000 0000 0000 0000
000003b0: 0000 0000 0000 0000 0000 0000 0000 0000
000003c0: 0000 0000 0000 0000 0000 0000 0000 0000
000003d0: 0000 0000 0000 0000 0000 0000 0000 0000
000003e0: 0000 0000 0000 0000 0000 0000 0000 0000
000003f0: 0000 0000 0000 0000 0000 0000 0000 0000
