Cursed Tennis/Assets/Tennis/results/TennisPro4/Tennis.onnx (onnx, 884278 bytes, 13 tensors)

60 f4 [84]
3.0877378 2.268749 2.9465704 3.094396 1.3348732 7.900336 3.482175 4.5512924
4.7930355 1.3348732 0.0004959026 6.5820036 2.268749 1.3348732 0.60500103 0.28991953
0.0004959026 0.0004959026 7.7775784 3.482175 0.29214877 2.932138 2.1951585 3.0087783
3.1322272 1.3357067 8.215998 3.5997517 4.6394763 4.8319535 1.3357067 0.0004959026
6.7219567 2.1951585 1.3357067 0.617968 0.26036197 0.0004959026 0.0004959026 8.06895
3.5997517 0.31157374 2.7500913 2.1016312 3.0688407 3.169465 1.33522 8.537447
3.7442787 4.72875 4.856496 1.33522 0.0004959026 6.860535 2.1016312 1.33522
0.6308181 0.22358234 0.0004959026 0.0004959026 8.363785 3.7442787 0.3324133 2.5357587
1.9849957 3.1272545 3.2063854 1.3333777 8.864461 3.9151886 4.8211493 4.86822
1.3333777 0.0004959026 6.997742 1.9849957 1.3333777 0.64353997 0.1751331 0.0004959026
0.0004959026 8.661951 3.9151886 0.354735
00000000: 7f9d 4540 2f33 1140 9c94 3c40 960a 4640
00000010: 20dd aa3f 8dcf fc40 f5db 5e40 30a4 9140
00000020: 8c60 9940 20dd aa3f 76ff 013a c69f d240
00000030: 2f33 1140 20dd aa3f 59e1 1a3f 5570 943e
00000040: 76ff 013a 76ff 013a ece1 f840 f5db 5e40
00000050: 8694 953e 26a8 3b40 7a7d 0c40 d38f 4040
00000060: 6976 4840 70f8 aa3f ba74 0341 5562 6640
00000070: 9776 9440 5d9f 9a40 70f8 aa3f 76ff 013a
00000080: 451a d740 7a7d 0c40 70f8 aa3f 2733 1e3f
00000090: 2a4e 853e 76ff 013a 76ff 013a 6b1a 0141
000000a0: 5562 6640 9886 9f3e 7f01 3040 2081 0640
000000b0: e367 4440 84d8 4a40 7de8 aa3f 6299 0841
000000c0: 43a2 6f40 ec51 9740 6a68 9b40 7de8 aa3f
000000d0: 76ff 013a 8189 db40 2081 0640 7de8 aa3f
000000e0: 4c7d 213f c5f2 643e 76ff 013a 76ff 013a
000000f0: 10d2 0541 43a2 6f40 1332 aa3e df49 2240
00000100: 5714 fe3f f024 4840 6b35 4d40 1fac aa3f
00000110: d5d4 0d41 7392 7a40 db46 9a40 75c8 9b40
00000120: 1fac aa3f 76ff 013a 81ed df40 5714 fe3f
00000130: 1fac aa3f 09bf 243f 1756 333e 76ff 013a
00000140: 76ff 013a 5a97 0a41 7392 7a40 d39f b53e

action_model._continuous_distribution.log_sigma f4 [1, 4]
-0.2025838 -0.35213342 -0.4315026 -0.5261373
00000000: 2172 4fbe d54a b4be e9ed dcbe efb0 06bf

action_model._continuous_distribution.mu.bias f4 [4]
0.005864693 0.0101092635 -0.08640046 -0.013637386
00000000: 9c2c c03b 53a1 253c b9f2 b0bd 586f 5fbc

action_model._continuous_distribution.mu.weight f4 [4, 256]
0.011193758 0.015280762 -0.019807622 -0.04821181 -0.0058850655 0.041038316 -0.011608962 -0.016784078
-0.057216436 -0.07071058 -0.007127079 0.029080456 0.006631721 -0.0528402 0.011895343 -0.031317856
-0.017055701 -0.0074562943 -0.0064822123 0.009591479 -0.0063303458 0.06729333 0.02561916 0.03431565
-0.009676193 0.0030399791 0.011701923 0.0073413034 0.02348743 0.032797467 0.030671837 -0.032123446
0.013410258 -0.015271024 0.004232859 -0.07857832 -0.0029439498 -0.013135948 -0.052796166 -0.019508868
0.046894204 -0.049664512 0.01400312 -0.00084076106 -0.002400127 0.00803042 0.02475228 -0.016290154
-0.0006741006 -0.0058249086 -0.019807946 -0.03517218 0.059826214 0.0056376406 -0.020992883 -0.01867282
0.05034386 -0.03861024 -0.025041886 -0.015252036 0.007774148 -0.021058697 0.0026506318 0.034902565
0.020442408 -0.04204914 0.039753877 0.04719978 0.07374087 0.020102752 -0.02573903 -0.0077858604
0.05743676 -0.0125329355 0.027049769 -0.010840962 0.03710973 0.04714418 0.024604091 0.004480423
0.040934555 -0.015975952 0.048061565 0.021252992 -0.019217728 0.009506752 0.037389785 -0.0006926243
0.033490736 -0.00629398 0.025203256 0.0037492097 -0.025339628 0.06644961 0.012910078 -0.0098981
0.0012980835 0.00362642 0.09687212 -0.022447135 0.02291315 -0.010446474 -0.036162857 0.080609836
0.010492392 -0.013663101 -0.044309318 -0.003464243 -0.053579565 0.023513725 -0.0027994483 0.035411503
-0.0040167957 -0.008268321 0.020603731 0.02562154 0.059367016 0.0044628563 -0.008994694 0.037552007
-0.023368962 0.0034759461 0.0010710532 -0.06516964 0.01195538 0.0016613343 -0.043706436 -0.0146183185
-0.007696075 -0.026688946 0.016238928 -0.02572778 -0.0024848431 -0.00019314305 -0.009380056 -0.009455928
0.0034127606 -0.010094928 0.0009483801 -0.039978437 -0.039320268 0.06626318 0.053608872 0.065483235
0.00654101 -0.02932944 -0.014603788 0.035641268 -0.016043147 -0.023676783 -0.011127813 -0.03314969
0.017795686 -0.03386559 -0.012095743 -0.018432409 -0.005222386 0.03041698 0.025907552 0.031796467
0.045532215 -0.0020932907 -0.015703028 0.063133046 0.042744588 -0.01832899 0.028566822 -0.03152289
-0.01381038 -0.008497507 -0.025918446 0.014942787 -0.009151243 0.029296879 0.021297745 -0.025171412
0.006565733 -0.014021217 -0.033563968 0.028702958 -0.03122625 0.09644172 -0.018004535 -0.022681475
0.036778793 0.015247816 -0.024382787 -0.008772753 0.05533833 0.0059281345 -0.036691 -0.018434856
-0.06938726 0.028315991 0.08408879 0.023741232 0.026909959 -0.0036744804 0.062421914 0.030510299
-0.04045578 0.0755491 0.022838531 -0.011199589 0.062246803 0.0144706555 0.060413066 0.059501965
-0.016251909 -0.0067118807 -0.02514594 -0.034508165 -0.025692962 -0.0029926593 0.04838895 0.0111597385
0.069135115 -0.047317017 0.058711447 -0.02926615 -0.0065547945 -0.0054222397 -0.05518989 0.042941723
-0.0055413013 0.041318987 -0.039472498 -0.013669098 -0.02914394 0.053858455 -0.015385941 0.025027651
0.008438943 -0.021482978 0.034250442 0.03693412 -0.024298651 0.014925351 -0.01790639 0.09079408
0.06799838 0.054883998 0.0330145 0.001958549 -0.009924682 -0.08025011 0.012936978 -0.026515754
0.016830921 -0.00020028539 -0.04387588 0.02129088 -0.0069756806 -0.020980872 -0.018646173 0.017684
00000000: 0666 373c 295c 7a3c 9843 a2bc bf79 45bd
00000010: 82d7 c0bb cb17 283d 8433 3ebc c37e 89bc
00000020: c85b 6abd b5d0 90bd 468a e9bb 233a ee3c
00000030: e84e d93b f76e 58bd afe4 423c 2747 00bd
00000040: 66b8 8bbc ee53 f4bb bd68 d4bb 9425 1d3c
00000050: ca6e cfbb 16d1 893d 46df d13c 918e 0c3d
00000060: e588 1ebc 633a 473b 6cb9 3f3c 518f f03b
00000070: b668 c03c a356 063d 8143 fb3c e093 03bd
00000080: b3b6 5b3c 5133 7abc cbb3 8a3b aced a0bd
00000090: 48ef 40bb 2938 57bc cb40 58bd 10d1 9fbc
000000a0: 2314 403d 046d 4bbd 586d 653c 8566 5cba
000000b0: 734b 1dbb 0692 033c 4bc5 ca3c ee72 85bc
000000c0: 20b6 30ba e0de bebb 4644 a2bc b410 10bd
000000d0: 550c 753d f5bb b83b 44f9 abbc bef7 98bc
000000e0: 5d35 4e3d c525 1ebd a424 cdbc ade3 79bc
000000f0: 48be fe3b 4a83 acbc 39b6 2d3b fef5 0e3d
00000100: d676 a73c b83b 2cbd f6d4 223d 8e54 413d
00000110: 7405 973d 87ae a43c a9da d2bc 8820 ffbb
00000120: cf42 6b3d f156 4dbc 7a97 dd3c 4a9e 31bc
00000130: 5f00 183d 411a 413d 858e c93c 83d0 923b
00000140: feaa 273d 00e0 82bc 34dc 443d c11a ae3c
00000150: 7f6e 9dbc 35c2 1b3c 0826 193d 3b91 35ba
00000160: 952d 093d bb3d cebb 0f77 ce3c 4db5 753b
00000170: 0d95 cfbc bc16 883d cb84 533c a42b 22bc
00000180: 7424 aa3a 3ba9 6d3b e464 c63d 0ee3 b7bc
00000190: 5cb4 bb3c b027 2bbc 811f 14bd c516 a53d
000001a0: 48e8 2b3c 33db 5fbc b07d 35bd 5a08 63bb
000001b0: 3f76 5bbd db9f c03c f376 37bb a70b 113d
000001c0: 539f 83bb da77 07bc 28c9 a83c 44e4 d13c
000001d0: d42a 733d 273d 923b 7b5e 13bc 22d0 193d
000001e0: 4470 bfbc b3cc 633b 9562 8c3a a977 85bd
000001f0: 80e0 433c 21c1 d93a 8505 33bd ac81 6fbc
00000200: 5b2f fcbb c7a2 dabc 8007 853c 11c3 d2bc
00000210: c0d8 22bb 7186 4ab9 ceae 19bc 09ed 1abc
00000220: 9fa8 5f3b 3265 25bc b69c 783a 6ec0 23bd
00000230: 4a0e 21bd fdb4 873d fa94 5b3d 131c 863d
00000240: f855 d63b 4b44 f0bc ba44 6fbc 94fc 113d
00000250: eb6c 83bc d0f5 c1bc 6e51 36bc f8c7 07bd
00000260: 42c8 913c a5b6 0abd 392d 46bc 90ff 96bc
00000270: 8d20 abbb 082d f93c 133c d43c 033d 023d
00000280: fd7f 3a3d 972f 09bb a3a3 80bc e64b 813d
00000290: f314 2f3d ae26 96bc f804 ea3c 251e 01bd
000002a0: ef44 62bc 2139 0bbc ec52 d4bc 97d2 743c
000002b0: 18ef 15bc 0200 f03c 9c78 ae3c 4734 cebc
000002c0: 5c25 d73b 3fb9 65bc 5f7a 09bd 7722 eb3c
000002d0: 31ce ffbc 3d83 c53d 3f7e 93bc 80ce b9bc
000002e0: 5ca5 163d fad1 793c 69be c7bc 98bb 0fbc
000002f0: 72aa 623d cc40 c23b 4d49 16bd b204 97bc
00000300: e81a 8ebd f0f6 e73c be36 ac3d f97c c23c
00000310: 4672 dc3c 8dcf 70bb 1fae 7f3d bcf0 f93c
00000320: f6b4 25bd 7db9 9a3d df17 bb3c 7b7e 37bc
00000330: 81f6 7e3d 5416 6d3c b173 773d 55b8 733d
00000340: b922 85bc 56ef dbbb dcfe cdbc 6f58 0dbd
00000350: 0c7a d2bc 7e20 44bb 7e33 463d 56d7 363c
00000360: b696 8d3d 7dcf 41bd 6a7b 703d 91bf efbc
00000370: 9ac9 d6bb 0bad b1bb cb0e 62bd a9e3 2f3d
00000380: ce93 b5bb 193e 293d eaad 21bd 5af4 5fbc
00000390: 46bf eebc af9a 5c3d 5015 7cbc ca06 cd3c
000003a0: 7e43 0a3c 12fd afbc 314a 0c3d 3b48 173d
000003b0: f70d c7bc 7689 743c 6cb0 92bc 3ff2 b93d
000003c0: bc42 8b3d 0bce 603d 363a 073d 005b 003b
000003d0: 229b 22bc 2b5a a4bd 9ef5 533c 9137 d9bc
000003e0: 00e1 893c b303 52b9 32b7 33bd 366a ae3c
000003f0: 4094 e4bb 14e0 abbc dcbf 98bc 09de 903c

network_body._body_endoder.seq_layers.0.bias f4 [256]
0.034325656 0.00024545984 -0.0057517732 -0.0016075873 -0.03947799 0.02993439 -0.005339711 0.046920728
0.008914952 0.02755513 -0.009066856 0.014458891 -0.004099711 -0.031322055 -0.0310921 0.025542412
0.046061426 0.057988316 -0.004696153 0.0048178495 0.030039443 0.043156154 0.009677879 -0.075933985
0.029996762 -0.012966135 -0.022856032 -0.09261363 -0.0028773681 0.0052298848 0.028234962 0.0028863437
0.01451935 0.06371956 -0.018903393 0.049039803 -0.034830377 0.019343505 0.033645928 0.042665247
0.0029642996 -0.024250874 0.031676278 -0.026541732 0.0010343563 0.13869727 -0.0072337636 0.016991751
-0.013411904 -0.020500287 -0.04159756 -0.05126345 0.023157606 0.0020816473 -0.041273843 0.07514815
0.02276434 0.053150095 0.032751918 0.07783681 0.039244194 -0.041484404 0.020888329 -0.023198716
0.01188115 -0.100736044 -0.013548655 0.019378595 -0.03842436 -0.023040365 -0.003994433 0.034058105
-0.033352137 -0.012782581 -0.016080473 -0.060165875 -0.025848813 -0.013782526 0.051305085 0.019054174
0.022423362 -0.026321419 -0.070728585 0.009996906 0.03273007 -0.017731968 -0.0041163717 -0.02301118
-0.001680836 -0.013379952 0.040464323 -0.053764146 0.027332058 -0.013515965 0.014117826 0.046998207
-0.004793197 -0.021273205 -0.03600769 -0.038768094 0.013146038 0.027125154 0.046687588 0.012819407
-0.0074805613 -0.012629255 0.050186697 -0.008287283 0.014832918 0.008151505 0.019571148 -0.0040261685
0.012792294 -0.07152036 0.0504651 0.0023663219 0.0050708405 0.014098404 0.00075994054 0.08652014
-0.08572663 0.011863713 0.028832555 0.014688492 -0.03130388 -0.021945681 0.030852456 0.0004933063
-0.0061610965 0.021727286 -0.0522795 0.014047087 -0.013613748 0.008653731 -0.0066108494 -0.04057749
0.01222664 -0.007143864 0.02244935 -0.029728713 -0.035543445 0.024600493 0.028858513 -0.009562588
0.054357287 0.070151255 -0.043809555 -0.024044674 0.01703595 -0.01032991 0.005488755 0.0061113928
0.036918197 0.026319146 0.055882595 -0.046482433 0.05905796 0.013962243 -0.011493126 -0.050321717
0.011801657 0.019725528 0.015871473 -0.015250588 -0.00054138945 0.041737195 0.030043025 -0.030280225
-0.033766083 -0.035003953 -0.009955357 -0.0041588587 0.017448664 -0.0023228726 -0.06191131 0.009143913
0.058975406 -0.016448416 0.011923975 0.03871429 0.015053224 0.017782427 0.022727268 0.058090232
-0.028791482 0.03981269 0.012911763 0.0048223375 -0.013493162 0.019723417 0.007859948 -0.0008958391
0.015781328 0.011985591 -0.0030360762 -0.007234208 0.0014306989 -0.0016670829 0.049963534 -0.030653374
0.012390273 -0.054909114 -0.05456626 0.046079006 -0.00013600035 0.02814693 0.019907048 0.023761433
0.00078469777 0.036964018 0.0950388 0.035075504 -0.015013192 0.010941502 -0.008735534 0.009656862
-0.017061148 -0.029712973 0.027591476 0.016044116 -0.036160402 0.008071269 -0.018132063 0.004180914
0.05212108 -0.05954473 -0.014990925 -0.08063522 0.043200873 -0.0018786398 -0.01837692 0.02683543
0.0046419124 -0.034827095 -0.06370512 0.02480978 -0.026412662 0.102885775 0.05099972 0.0016337403
0.044935398 -0.004197321 -0.040402755 0.010759165 -0.07163866 0.040501717 0.025069708 -0.009464052
-0.014892448 0.039713774 -0.008379107 0.01481714 -0.0072225183 -0.01558382 -0.02696715 0.032295525
00000000: 0f99 0c3d 10b1 8039 5f79 bcbb aeb5 d2ba
00000010: acb3 21bd f738 f53c bef8 aebb f32f 403d
00000020: 0510 123c 4cbb e13c 268d 14bc fce4 6c3c
00000030: de56 86bb 8e4b 00bd dcb4 febc 523e d13c
00000040: e8aa 3c3d 2885 6d3d 30e2 99bb 0ddf 9d3b
00000050: 4715 f63c 82c4 303d f78f 1e3c 4783 9bbd
00000060: c5bb f53c e96f 54bc 933c bbbc 37ac bdbd
00000070: 3a92 3cbb 745f ab3b 024d e73c d028 3d3b
00000080: 91e2 6d3c 677f 823d 4adb 9abc f6dd 483d
00000090: 4caa 0ebd 4576 9e3c 50d0 093d c1c1 2e3d
000000a0: b244 423b c5a9 c6bc fcbe 013d 0c6e d9bc
000000b0: 3d93 873a a806 0e3e 3509 edbb 4932 8b3c
000000c0: 9abd 5bbc 38f0 a7bc 3462 2abd a0f9 51bd
000000d0: 05b5 bd3c 3f6c 083b c30e 29bd 46e7 993d
000000e0: 487c ba3c eab3 593d e026 063d e868 9f3d
000000f0: 85be 203d 8deb 29bd 001e ab3c 3c0b bebc
00000100: 28a9 423c b34e cebd 2efb 5dbc dcbf 9e3c
00000110: dd62 1dbd 26bf bcbc bce3 82bb 8380 0b3d
00000120: 409c 08bd 086e 51bc 32bb 83bc 7e70 76bd
00000130: e4c0 d3bc 1bd0 61bc 4825 523d 8017 9c3c
00000140: 33b1 b73c 04a0 d7bc 26da 90bd 10ca 233c
00000150: f70f 063d a242 91bc a1e2 86bb f181 bcbc
00000160: 7f4f dcba 9637 5bbc ebbd 253d cb37 5cbd
00000170: 7be7 df3c 1172 5dbc 744e 673c 3181 403d
00000180: 4010 9dbb 2545 aebc cd7c 13bd 4bcb 1ebd
00000190: 7b62 573c 9235 de3c 7c3b 3f3d 7d08 523c
000001a0: 7f1f f5bb efea 4ebc 9190 4d3d 62c7 07bc
000001b0: c405 733c e48d 053c ac53 a03c f3ed 83bb
000001c0: c596 513c 4479 92bd 7eb4 4e3d 4b14 1b3b
000001d0: 4b29 a63b fefc 663c bf36 473a 7931 b13d
000001e0: 7291 afbd 0560 423c 4032 ec3c 00a8 703c
000001f0: 7f38 00bd 6ec7 b3bc 4abe fc3c 3a51 013a
00000200: 06e3 c9bb 6cfd b13c 0723 56bd c125 663c
00000210: 330c 5fbc 61c8 0d3c d39f d8bb 9534 26bd
00000220: 3f52 483c 1317 eabb b3e7 b73c a189 f3bc
00000230: 0196 11bd f986 c93c b068 ec3c 67ac 1cbc
00000240: bfa5 5e3d 76ab 8f3d a671 33bd 56f9 c4bc
00000250: fa8e 8b3c c83e 29bc 04db b33b 1442 c83b
00000260: 8937 173d 409b d73c 26e5 643d 5d64 3ebd
00000270: c2e6 713d e4c1 643c aa4d 3cbc 251e 4ebd
00000280: bd5b 413c 6e97 a13c e404 823c 9add 79bc
00000290: 08ec 0dba 9ff4 2a3d ca1c f63c 3c0e f8bc
000002a0: 4e4e 0abd 4e60 0fbd cb1b 23bc 0947 88bb
000002b0: 80f0 8e3c 563b 18bb b796 7dbd 5ad0 153c
000002c0: 3290 713d d4be 86bc c75c 433c e092 1e3d
000002d0: cca1 763c 74ac 913c 892e ba3c 06f0 6d3d
000002e0: 1ddc ebbc a212 233d dc8b 533c b304 9e3b
000002f0: 6c12 5dbc 0193 a13c 03c7 003c bfd6 6aba
00000300: d847 813c 365f 443c e8f8 46bb ef0c edbb
00000310: 4a86 bb3a 0582 daba 90a6 4c3d c91c fbbc
00000320: 9200 4b3c 61e8 60bd df80 5fbd 57bd 3c3d
00000330: 519b 0eb9 6494 e63c 1b14 a33c 56a7 c23c
00000340: 2db4 4d3a 9567 173d b4a3 c23d 55ab 0f3d
00000350: e4f9 75bc fc43 333c 7c1f 0fbc d137 1e3c
00000360: d2c3 8bbc 9f68 f3bc 8507 e23c f36e 833c
00000370: ee1c 14bd 5b3d 043c b189 94bc 0c00 893b
00000380: ea7c 553d 2de5 73bd 7f9c 75bc 1424 a5bd
00000390: 66f3 303d b13c f6ba 328b 96bc fad5 db3c
000003a0: 2f1b 983b dba6 0ebd d477 82bd e13d cb3c
000003b0: 5e5f d8bc c7b5 d23d 15e5 503d 3a23 d63a
000003c0: 2e0e 383d ae89 89bb 5c7d 25bd 3547 303c
000003d0: 4ab7 92bd 21e5 253d fd5e cd3c 1c0f 1bbc
000003e0: 74ff 73bc e9aa 223d 8648 09bc 97c3 723c
000003f0: e0aa ecbb 4753 7fbc 36ea dcbc 5048 043d

network_body._body_endoder.seq_layers.0.weight f4 [256, 84]
-0.17705138 -0.2387006 0.16093984 -0.071251564 0.17809106 0.12493231 0.16960722 0.17195827
-0.013388564 -0.06946416 -0.18132225 -0.15583366 0.1213768 -0.17583252 -0.04182027 -0.004516485
0.066093065 0.02059914 -0.023069099 0.0075924527 0.034875114 -0.095878825 0.16254546 -0.14421831
0.10577287 0.20933951 0.0964868 -0.17505819 -0.11379063 0.008199824 -0.015520606 -0.1317581
-0.000624409 -0.25373158 -0.16634889 -0.12968706 -0.16470362 -0.059343882 -0.020061115 0.11904068
-0.087517455 0.20728268 -0.2350627 -0.11183249 0.13632877 -0.060014274 0.026908342 -0.03663087
0.08941164 0.043768484 0.06612967 0.24435164 -0.22524574 -0.09559013 -0.017686717 0.16762021
-0.06435006 -0.13403653 0.18509029 0.052541703 0.08230796 0.053186193 0.14170177 -0.11152859
0.087499015 0.07632709 0.14581008 0.170871 0.1053568 0.18440498 -0.1796287 0.050071433
-0.021531282 0.031632748 -0.08164745 -0.08537696 -0.079298824 0.12055335 -0.3860619 0.09609736
-0.081718266 -0.27410376 -0.028785767 0.21344899 -0.13013105 0.11408747 -0.20519404 -0.050651908
-0.024628464 -0.0132187735 0.15988071 -0.11223908 -0.022268781 0.08626924 -0.025035484 0.12374582
-0.015298928 0.14033814 -0.17462483 -0.09594918 -0.05982891 0.1710369 -0.07875724 -0.03506418
-0.038800586 -0.04801593 -0.007398063 0.14185488 -0.028015655 0.18203887 0.13181911 0.106082335
0.12539454 0.08090285 0.027113896 0.03071555 0.0059662107 -0.13258918 0.1285325 0.0032796678
0.10123416 -0.1508486 -0.08546928 0.010978862 -0.10850564 -0.06890439 0.0027871497 0.04419039
0.0231058 -0.0027911107 0.1155714 -0.0624363 -0.15021023 0.03760899 0.08198709 0.09040402
-0.1024432 -0.015633164 0.134173 0.09960906 -0.20796962 -0.103929386 0.064559914 -0.13542871
-0.084281094 -0.22744693 0.05043364 0.034708098 0.063813396 0.0009916028 0.23719485 0.09230149
0.10610019 0.14125764 -0.05575768 0.05306329 -0.033560377 0.19163975 0.04840044 0.0054111606
0.003759215 -0.004726707 -0.32065386 0.20194106 0.0480357 -0.12090764 -0.14991143 0.103115536
-0.06000118 -0.0007568192 -0.069792844 -0.11751136 0.047616836 0.18981546 -0.07932285 -0.006794314
-0.16172984 0.18759152 -0.018702466 -0.0010179938 -0.05989828 0.12474948 -0.040142316 0.23558341
0.008604732 0.039864857 -0.024092745 -0.015800541 0.13382934 0.03283746 0.12978663 0.10943021
0.04492532 -0.09812191 -0.14458911 0.10095579 0.10743145 -0.024901707 0.054254405 0.068337455
0.0071977107 0.06003571 0.13084972 0.06534022 0.2021729 -0.060023624 -0.08749726 -0.037493445
0.034573443 0.12202924 -0.14345813 0.07761283 0.12277518 0.09063699 -0.18486583 -0.16152693
0.02218057 0.18746321 -0.053514246 -0.0870584 0.04152449 -0.105655916 0.013697613 -0.09329191
0.1188343 -0.028703755 0.056437384 0.081952624 0.0061195414 -0.050674412 0.13222453 -0.0037433023
-0.02263236 0.056979805 0.0033141337 -0.012477337 0.07464042 -0.15554437 -0.009627703 -0.029817877
0.029580185 -0.09068943 0.23776934 0.03859236 -0.08188089 0.19937387 -0.14698997 -0.100885324
-0.18867488 0.085220255 -0.07858483 -0.019931383 -0.21066707 -0.08956234 -0.034717105 0.16577648
00000000: f54c 35be ee6d 74be 6acd 243e 57ec 91bd
00000010: 815d 363e 83dc ff3d 84ad 2d3e d415 303e
00000020: b55b 5bbc 3a43 8ebd 8aac 39be dc92 1fbe
00000030: 6694 f83d 710d 34be bb4b 2bbd 06ff 93bb
00000040: cd5b 873d 87bf a83c 68fb bcbc 1cca f83b
00000050: 35d9 0e3d 1e5c c4bd 5172 263e f7ad 13be
00000060: 729f d83d 195d 563e df9a c53d 7442 33be
00000070: 100b e9bd 8e58 063c 244a 7ebc 98eb 06be
00000080: 61af 23ba 1be9 81be 5d57 2abe afcc 04be
00000090: 11a8 28be 9212 73bd 3557 a4bc 9acb f33d
000000a0: 5a3c b3bd e941 543e 47b4 70be 6f08 e5bd
000000b0: c599 0b3e 87d1 75bd e26e dc3c 400a 16bd
000000c0: 731d b73d 9546 333d fe6e 873d 5137 7a3e
000000d0: d2a6 66be c2c4 c3bd bce3 90bc a2a4 2b3e
000000e0: f7c9 83bd df40 09be 4f88 3d3e f835 573d
000000f0: 1391 a83d c4d9 593d 451a 113e 1a69 e4bd
00000100: af32 b33d 6151 9c3d 3d4f 153e cff8 2e3e
00000110: 4ec5 d73d a9d4 3c3e 96f0 37be b417 4d3d
00000120: 5f62 b0bc 5791 013d c736 a7bd 1eda aebd
00000130: 6c67 a2bd ade4 f63d e8a9 c5be b1ce c43d
00000140: e85b a7bd 5457 8cbe 21d0 ebbc 5f92 5a3e
00000150: 1341 05be b1a6 e93d 631e 52be 6078 4fbd
00000160: a2c1 c9bc 8e93 58bc c5b7 233e 9add e5bd
00000170: 056d b6bc edad b03d 3717 cdbc 736e fd3d
00000180: 5ba8 7abc cdb4 0f3e dad0 32be 0181 c4bd
00000190: 290f 75bd 4c24 2f3e 7a4b a1bd 759f 0fbd
000001a0: 5ded 1ebd 5aac 44bd 736b f2bb 6842 113e
000001b0: 1681 e5bc 6668 3a3e 97fb 063e b241 d93d
000001c0: 6d67 003e 65b0 a53d f61d de3c 2d9f fb3c
000001d0: 3480 c33b 75c5 07be 069e 033e b2ef 563b
000001e0: db53 cf3d 0e78 1abe 850a afbd afe0 333c
000001f0: 3438 debd bf1d 8dbd 9da8 363b fb00 353d
00000200: 6048 bd3c 11eb 36bb b3b0 ec3d 35bd 7fbd
00000210: b6d0 19be e20b 1a3d d9e8 a73d be25 b93d
00000220: becd d1bd 1f11 80bc a664 093e d6ff cb3d
00000230: fdf5 54be eed8 d4bd fd37 843d d3ad 0abe
00000240: 919b acbd d9e7 68be 8193 4e3d 142a 0e3d
00000250: 99b0 823d abf8 813a 35e3 723e 9008 bd3d
00000260: 0e4b d93d d8a5 103e 2a62 64bd e458 593d
00000270: 9b76 09bd 363d 443e 8a3f 463d 1b50 b13b
00000280: 295d 763b 7ee2 9abb be2c a4be a3c9 4e3e
00000290: 15c1 443d 6d9e f7bd 6282 19be 3d2e d33d
000002a0: ccc3 75bd 4765 46ba 8def 8ebd cca9 f0bd
000002b0: df09 433d fc5e 423e 0574 a2bd d6a2 debb
000002c0: 829c 25be fe17 403e ea35 99bc 346e 85ba
000002d0: e657 75bd a87c ff3d 456c 24bd c73c 713e
000002e0: ddfa 0c3c 5549 233d 265e c5bc 2370 81bc
000002f0: 8f0a 093e 9380 063d c9e6 043e f21c e03d
00000300: 9d03 383d 24f4 c8bd 2b0f 14be e9c1 ce3d
00000310: 0505 dc3d aafe cbbc de39 5e3d 82f4 8b3d
00000320: c6da eb3b 01e8 753d 78fd 053e 18d1 853d
00000330: 6a06 4f3e 55db 75bd c331 b3bd ba92 19bd
00000340: e29c 0d3d 77ea f93d b0e6 12be 7af3 9e3d
00000350: 8e71 fb3d e39f b93d 784d 3dbe 5167 25be
00000360: 07b4 b53c 5bf6 3f3e c131 5bbd ad4b b2bd
00000370: 9515 2a3d 2162 d8bd f46b 603c d40f bfbd
00000380: 665f f33d 2324 ebbc e32a 673d c7d6 a73d
00000390: 6f86 c83b f98f 4fbd de65 073e 3152 75bb
000003a0: 8067 b9bc a863 693d f031 593b bf6d 4cbc
000003b0: 14dd 983d 0647 1fbe 83bd 1dbc 9f44 f4bc
000003c0: 2552 f23c 61bb b9bd ce79 733e 0613 1e3d
000003d0: 2bb1 a7bd aa28 4c3e 8a84 16be f79c cebd
000003e0: fd33 41be f587 ae3d 15f1 a0bd 2447 a3bc
000003f0: 1cb9 57be 766c b7bd 8633 0ebd 4fc1 293e

network_body._body_endoder.seq_layers.2.bias f4 [256]
-0.033320908 -0.033791382 -0.0018020154 -0.039999455 0.035762034 -0.060020175 -0.06232979 0.002566116
0.012456791 -0.01928834 -0.032133415 -0.047933303 0.03802991 -0.007727403 -0.012374897 0.027529886
-0.0009221682 -0.00392304 0.0012310259 -0.0063890945 0.015769599 -0.011263305 -0.064742364 0.029622335
-0.024648122 0.027633429 0.0063931965 0.008789077 -0.03514991 0.018757513 -0.016899021 0.013347461
-0.052556273 -0.01719731 -0.02193143 -0.008865392 -0.026596738 0.0061837346 0.015770746 0.01628938
0.007142304 -0.0026647905 -0.051903825 -0.036374453 -0.044483252 -0.014586548 -0.019288871 0.056256417
-0.0044116597 0.022298556 0.013264065 -0.017696932 0.023466928 0.007823245 0.011843349 -0.03443441
-0.090455666 -0.0020976237 0.00084188994 0.03470041 0.01659843 -0.020302873 0.010083334 -0.051937863
-0.0028582525 -0.0009897943 -0.04288015 0.019493116 0.02082689 0.046631724 0.022326302 -0.013601116
-0.010224845 -0.0129227275 -0.051272873 0.018991603 -0.027301876 -0.08258039 -0.03663933 0.002766875
-0.006274505 0.023577891 0.024736281 -0.053293463 -0.018437905 -0.028716248 -0.017081162 0.010764243
-0.010287157 0.021517744 -0.017701283 -0.030738821 -0.04095994 0.03495523 -0.042768177 -0.018949186
-0.01893062 0.022495558 0.0061898157 -0.093897045 -0.015649132 -0.010307929 -0.030672628 -0.022980757
0.015598451 0.03646609 0.033942603 -0.032056462 -0.08089326 0.009584131 -0.01407047 -0.028226554
-0.013340741 0.019787231 0.008023348 0.020080758 -0.0359728 0.02620637 -0.014761678 -0.01948988
-0.09760083 0.030670483 -0.004575972 -0.020175643 0.0042635812 0.0074610417 -0.010241108 -0.014030951
-0.034202885 0.00023502298 0.0095375255 -0.00344118 -0.081045076 -0.09066008 0.011106377 -0.014773176
-0.02477738 0.025055604 -0.019800356 -0.017462652 0.0017881326 -0.017780853 -0.021887949 -0.07107276
0.041434113 -0.029066613 -0.023506882 -0.015379135 -0.0074110236 -0.03806153 0.004827406 -0.024682214
0.00026065754 -0.013191568 -0.003376718 -0.03937175 0.00039614033 -0.043876026 -0.033007488 0.019472444
0.03584886 -0.040742755 -0.014924957 0.012150746 -0.055572074 0.0013231896 -0.026491245 -0.04651593
0.02988221 -0.010426071 0.02360663 0.018014584 0.007211327 -0.0025112042 0.019385725 0.0028893128
0.045751188 0.013956271 -0.013388438 0.035869636 0.019914526 -0.00031552964 -0.062993824 0.0056862426
0.015749589 -0.035701163 -0.050930105 0.035109833 -0.002735189 0.06374725 0.029189596 0.0050817677
0.0050835973 -0.04333325 0.012582161 0.03137759 0.005543854 -0.04425989 -0.015698353 -0.020716637
-0.044705175 0.028008131 -0.025128767 -0.036310893 0.017744401 -0.05108699 -0.008623988 0.026951749
0.0018335053 0.02083276 -0.053800456 0.017925428 0.039953053 -0.021062892 0.012347718 -0.0046922057
0.0019843574 0.037032217 -0.026909754 -0.018663183 -0.051309373 0.020404866 -0.05571913 0.0069978293
-0.03771072 -0.029767446 -0.030772042 -0.032988705 -0.0036706992 0.0001898235 0.02729073 -0.022686318
-0.018341983 0.0021740638 0.026564717 -0.018069187 -0.010951276 0.025204074 0.00028141463 -0.030850109
0.0049884254 0.040297832 -0.0043902486 -0.02583129 -0.09393521 0.011068534 -0.02363753 -0.015263733
0.0306262 0.023089191 -0.022556664 0.040986203 -0.043885376 -0.010700111 0.06355281 -0.013640144
00000000: 817b 08bd d568 0abd 9a31 ecba 78d6 23bd
00000010: 367b 123d b7d7 75bd 864d 7fbd 482c 283b
00000020: 9117 4c3c 9502 9ebc 549e 03bd b655 44bd
00000030: 40c5 1b3d 2836 fdbb 14c0 4abc 5b86 e13c
00000040: a9bd 71ba d88c 80bb 605a a13a 9c5b d1bb
00000050: 3f2f 813c ba89 38bc a597 84bd 8aaa f23c
00000060: dcea c9bc 805f e23c 057e d13b 1000 103c
00000070: 5af9 0fbd 5ba9 993c d16f 8abc 4faf 5a3c
00000080: 3f45 57bd 60e1 8cbc 8ba9 b3bc 2640 11bc
00000090: 67e1 d9bc eda0 ca3b a731 813c 4e71 853c
000000a0: fd09 ea3b c4a3 2ebb 1b99 54bd 61fd 14bd
000000b0: 1234 36bd 6bfc 6ebc b203 9ebc 216d 663d
000000c0: af8f 90bb 76ab b63c 8551 593c 28f9 90bc
000000d0: b73d c03c 112d 003c 9b0a 423c 190b 0dbd
000000e0: d240 b9bd 4978 09bb 47b2 5c3a 0422 0e3d
000000f0: 6ef9 873c 3652 a6bc 9134 253c ccbc 54bd
00000100: 8551 3bbb fcbb 81ba 19a3 2fbd 07b0 9f3c
00000110: 279d aa3c e800 3f3d a6e5 b63c 37d7 5ebc
00000120: 1c86 27bc d9b9 53bc 8103 52bd 4794 9b3c
00000130: 2fa8 dfbc e81f a9bd 1f13 16bd 7654 353b
00000140: 5d9a cdbb 6c26 c13c bea3 ca3c 3f4a 5abd
00000150: 170b 97bc 563e ebbc cbed 8bbc 825c 303c
00000160: 778b 28bc fb45 b03c 4802 91bc fbcf fbbc
00000170: 9cc5 27bd 372d 0f3d af2d 2fbd 533b 9bbc
00000180: 6314 9bbc 9b48 b83c f0d3 ca3b 184d c0bd
00000190: 9c32 80bc 96e2 28bc 2a45 fbbc 2442 bcbc
000001a0: a590 7f3c 775d 153d 6607 0b3d a34d 03bd
000001b0: 5eab a5bd c206 1d3c d487 66bc 603b e7bc
000001c0: 2093 5abc d518 a23c 5c74 033c 6780 a43c
000001d0: 3758 13bd beae d63c f7da 71bc 3ea9 9fbc
000001e0: f2e2 c7bd aa40 fb3c 09f2 95bb 6447 a5bc
000001f0: 83b5 8b3b c17b f43b 52ca 27bc 13e2 65bc
00000200: 5318 0cbd 8070 7639 4843 1c3c 6c85 61bb
00000210: f6fa a5bd feab b9bd 85f7 353c 310b 72bc
00000220: eff9 cabc 6941 cd3c 5b34 a2bc d60d 8fbc
00000230: c65f ea3a 27a9 91bc 5b4e b3bc 988e 91bd
00000240: d1b6 293d 1b1d eebc 8191 c0bc c4f8 7bbc
00000250: 2cd8 f2bb 68e6 1bbd 372f 9e3b 5b32 cabc
00000260: dda8 8839 7221 58bc ed4b 5dbb 4644 21bd
00000270: 0eb1 cf39 59b7 33bd dc32 07bd ad84 9f3c
00000280: 41d6 123d e0e1 26bd cf87 74bc ec13 473c
00000290: 8b9f 63bd e06e ad3a 2b04 d9bc 7d87 3ebd
000002a0: 89cb f43c 1cd2 2abc b162 c13c 5293 933c
000002b0: ff4c ec3b 0493 24bb d0ce 9e3c a05a 3d3b
000002c0: 9965 3b3d d8a8 643c 2e5b 5bbc 0aec 123d
000002d0: ca23 a33c ac6d a5b9 e802 81bd a953 ba3b
000002e0: 4805 813c 623b 12bd 169c 50bd 54cf 0f3d
000002f0: db40 33bb eb8d 823d 051f ef3c f584 a63b
00000300: 4e94 a63b 357e 31bd 6925 4e3c ca85 003d
00000310: 38a9 b53b dc49 35bd d599 80bc f0b5 a9bc
00000320: c61c 37bd 4f71 e53c d8da cdbc bbba 14bd
00000330: b55c 913c 9740 51bd a14b 0dbc eac9 dc3c
00000340: 3b52 f03a 77a9 aa3c de5d 5cbd 59d8 923c
00000350: d0a5 233d 168c acbc 154e 4a3c 13c1 99bb
00000360: fe0b 023b 18af 173d d871 dcbc 88e3 98bc
00000370: c729 52bd 1b28 a73c be39 64bd 0c4e e53b
00000380: 8e76 1abd dcda f3bc a615 fcbc 2a1f 07bd
00000390: 1d90 70bb 5c0b 4739 cf90 df3c a8d8 b9bc
000003a0: ed41 96bc bd7a 0e3b 409e d93c d505 94bc
000003b0: fb6c 33bc c678 ce3c d58a 9339 5eb9 fcbc
000003c0: f275 a33b 570f 253d 13dc 8fbb 249c d3bc
000003d0: 1a61 c0bd cc58 353c 7ea3 c1bc bd14 7abc
000003e0: cce3 fa3c 8b25 bd3c c1c8 b8bc 26e1 273d
000003f0: 27c1 33bd 854f 2fbc fa27 823d e97a 5fbc

network_body._body_endoder.seq_layers.2.weight f4 [256, 256]
0.06497489 0.060219284 -0.009111818 -0.09310311 -0.11170047 -0.11926277 0.013082844 0.06619822
0.019756509 -0.11839355 -0.01686048 0.053611357 -0.08281227 -0.014862082 -0.040492002 0.062611625
-0.05373288 0.054093357 -0.1247783 0.09805247 -0.056821197 0.055552717 -0.07358228 -0.07084783
-0.059667606 -0.116945185 0.16427854 -0.0069236346 -0.06462747 -0.0005948576 -0.124995224 -0.15387863
-0.089018114 0.029998558 -0.11775499 -0.0783254 -0.01257224 -0.10153253 -0.030326288 -0.09429723
-0.12732631 0.05330796 0.084598094 0.010959526 -0.0709942 0.082535766 -0.14203636 -0.15931179
-0.024291873 -0.010278676 0.07700018 -0.041825 0.033806156 -0.103259616 0.041039642 -0.034717035
0.051645085 -0.10188162 -0.08037439 0.08026349 -0.0435282 0.10994176 -0.042479314 -0.1439754
-0.0136324065 -0.19521849 0.037257615 -0.12676138 -0.08571682 -0.10536441 -0.06269313 0.052563246
-0.09420096 -0.04579496 -0.048302345 -0.05178139 0.100104906 0.057087846 -0.097016186 0.04348563
0.06022784 -0.019659748 -0.076007485 0.08631844 -0.07650234 0.0345308 -0.028352948 -0.065822005
-0.06773536 -0.11601836 -0.10164726 -0.09979231 -0.079455435 -0.04892868 0.058656026 -0.05933263
-0.12815925 0.04208745 -0.080357745 -0.0403232 -0.061897036 0.0067280475 -0.04767045 0.0791809
-0.1873002 -0.076152705 -0.03203067 0.013451826 0.08077346 0.073103525 -0.036816955 0.06582354
-0.07113566 0.003926559 -0.04553307 -0.056808066 0.05947829 -0.1380762 -0.111777924 -0.04333873
0.00018812502 -0.040110804 0.019267213 -0.07582825 0.091082215 0.0015979909 -0.105259575 -0.09726778
-0.049883958 0.046032477 0.07549692 -0.14759539 -0.13513495 -0.03507366 -0.0580336 -0.0070339357
-0.040789552 0.105889685 -0.0906648 0.06739264 -0.04275246 -0.09390188 0.023355296 0.067870095
-0.20334882 -0.01833614 0.13522923 0.026624836 -0.08656729 0.08252454 -0.09107675 -0.07153533
-0.03044267 -0.047494512 -0.0051585734 -0.025664592 -0.042229258 -0.11288075 -0.13203855 -0.0056819776
-0.014883393 0.054655988 0.019240811 -0.0453231 -0.04516851 -0.03062298 -0.005001579 0.03681145
0.035309948 0.03494718 0.12340549 -0.048398115 0.0768898 -0.038330317 0.08420483 -0.09661982
-0.059162848 -0.01422168 -0.1631294 -0.16717711 -0.14862145 -0.13881837 -0.115706936 -0.0041727116
0.04436727 -0.06468525 -0.06621466 -0.19496103 0.045516446 -0.01551398 -0.06347838 -0.03102559
-0.102777466 -0.028797701 0.020886594 0.004551559 0.035917208 0.014795914 0.058778528 0.005647177
-0.039310668 0.010789613 -0.076104045 -0.01840465 -0.023399914 0.10168615 -0.057140138 -0.1635366
-0.07405004 0.007923835 -0.004512008 -0.14509623 -0.0951094 -0.06914511 -0.055953972 -0.03303098
-0.06133858 0.05788837 0.1058752 -0.11969345 -0.006401719 0.060156666 -0.02773478 -0.0996944
-0.076951824 -0.0727588 0.046149634 -0.058509577 0.049669426 0.04558719 -0.033621233 -0.042891502
-0.024416074 -0.0512415 -0.15413167 -0.1375279 -0.04035815 0.033229876 0.1166361 -0.13477838
-0.03554295 0.040165823 0.043700274 0.015035524 0.07243549 -0.042898316 -0.0043381383 -0.10485336
-0.0030116742 -0.11949126 0.035971425 0.10099779 -0.08826421 -0.061840147 -0.044883728 -0.07530035
00000000: 8e11 853d 7fa8 763d bc49 15bc d8ac bebd
00000010: 37c3 e4bd 0a40 f4bd 6d59 563c ef92 873d
00000020: 67d8 a13c 5178 f2bd fd1e 8abc 9597 5b3d
00000030: 7b99 a9bd 1780 73bc f1da 25bd 863a 803d
00000040: 0217 5cbd ff90 5d3d c48b ffbd bccf c83d
00000050: 58bd 68bd 3f8b 633d 4eb2 96bd ab18 91bd
00000060: 0566 74bd f580 efbd a238 283e a8df e2bb
00000070: 685b 84bd 38f0 1bba 7ffd ffbd 5c92 1dbe
00000080: 214f b6bd 89bf f53c 8729 f1bd 1169 a0bd
00000090: ccfb 4dbc 49f0 cfbd d66e f8bc e81e c1bd
000000a0: d461 02be 7359 5a3d c441 ad3d 958f 333c
000000b0: 6865 91bd 8308 a93d fb71 11be a122 23be
000000c0: c0ff c6bc e467 28bc 45b2 9d3d b150 2bbd
000000d0: 5378 0a3d c779 d3bd 2f19 283d 7333 0ebd
000000e0: cc89 533d 50a7 d0bd 549b a4bd 2f61 a43d
000000f0: a04a 32bd 2529 e13d cafe 2dbd 4a6e 13be
00000100: 755a 5fbc 5be7 47be 719b 183d bccd 01be
00000110: 4d8c afbd 4cc9 d7bd 4165 80bd 8f4c 573d
00000120: 6fec c0bd 7f93 3bbd aed8 45bd b918 54bd
00000130: cd03 cd3d f2d4 693d 6cb0 c6bd fd1d 323d
00000140: 78b1 763d 7b0d a1bc d0a9 9bbd b9c7 b03d
00000150: 42ad 9cbd 2b70 0d3d 7144 e8bc b0cd 86bd
00000160: d6b8 8abd 099b edbd 702c d0bd e95f ccbd
00000170: 88b9 a2bd 7169 48bd 4d41 703d c606 73bd
00000180: 2e3c 03be e463 2c3d 9a92 a4bd f129 25bd
00000190: bf87 7dbd f476 dc3b 1742 43bd 9829 a23d
000001a0: a0cb 3fbe f3f5 9bbd 9832 03bd 0c65 5c3c
000001b0: 8e6c a53d 4db7 953d 60cd 16bd 7ece 863d
000001c0: 93af 91bd 5daa 803b e280 3abd 93af 68bd
000001d0: 829f 733d d963 0dbe d3eb e4bd f483 31bd
000001e0: 6d43 4539 3a4b 24bd 46d6 9d3c d74b 9bbd
000001f0: 5089 ba3d ad73 d13a 5592 d7bd 5434 c7bd
00000200: 1f53 4cbd 8d8c 3c3d 219e 9a3d 3f23 17be
00000210: d160 0abe 66a9 0fbd a4b4 6dbd ee7c e6bb
00000220: f212 27bd b1dc d83d 77ae b9bd 2705 8a3d
00000230: 341d 2fbd a14f c0bd 9b53 bf3c 7aff 8a3d
00000240: ac3a 50be ac35 96bc 8879 0a3e 541c da3c
00000250: 314a b1bd a002 a93d 7286 babd 1d81 92bd
00000260: e862 f9bc 9b89 42bd 4009 a9bb 8d3e d2bc
00000270: 96f8 2cbd 062e e7bd 1d35 07be e22f babb
00000280: 7ad9 73bc f5de 5f3d e89e 9d3c b7a4 39bd
00000290: 9e02 39bd 0bdd fabc 49e4 a3bb 9ac7 163d
000002a0: 2aa1 103d c624 0f3d 04bc fc3d 1a3d 46bd
000002b0: 6678 9d3d 4000 1dbd 9573 ac3d 9de0 c5bd
000002c0: be54 72bd 0d02 69bc 650b 27be 7a30 2bbe
000002d0: 3930 18be 6726 0ebe c2f7 ecbd 3ebb 88bb
000002e0: 74ba 353d b379 84bd 8d9b 87bd dda3 47be
000002f0: 746f 3a3d 592e 7ebc f400 82bd 6129 febc
00000300: fe7c d2bd 28e9 ebbc 5d1a ab3c 3f25 953b
00000310: ec1d 133d 906a 723c c1c1 703d f40b b93b
00000320: 3904 21bd ebc6 303c 70dc 9bbd 59c5 96bc
00000330: 2db1 bfbc d440 d03d c70b 6abd 2376 27be
00000340: 8ca7 97bd f9d2 013c 77d9 93bb 1b94 14be
00000350: b8c8 c2bd f49b 8dbd fe2f 65bd 7e4b 07bd
00000360: 2a3e 7bbd 5b1c 6d3d 19d5 d83d d721 f5bd
00000370: 83c5 d1bb d666 763d 0d34 e3bc 942c ccbd
00000380: eb98 9dbd 9102 95bd 6607 3d3d bda7 6fbd
00000390: 2b72 4b3d a2b9 3a3d 6bb6 09bd 00af 2fbd
000003a0: 3804 c8bc 9be2 51bd b1d4 1dbe 1dd4 0cbe
000003b0: 964e 25bd 0d1c 083d e8de ee3d 5803 0abe
000003c0: 7c95 11bd eb84 243d 0fff 323d 8f57 763c
000003d0: 0f59 943d 25b6 2fbd f126 8ebb 5cbd d6bd
000003e0: 825f 45bb d5b7 f4bd c656 133d eed7 ce3d
000003f0: dec3 b4bd 184c 7dbd 00d8 37bd 1237 9abd

network_body._body_endoder.seq_layers.4.bias f4 [256]
0.032984875 -0.03515536 0.005674674 0.011321871 -0.06590168 -0.021110056 -0.04149894 -0.008291053
-0.02371824 -0.012972557 -0.051441856 0.04254233 -0.06347405 0.038648877 0.00060350326 -0.025484402
-0.06962086 -0.008034025 -0.056316044 -0.007177424 -0.0137583865 -0.004165099 -0.06251021 0.03119099
-0.005933578 -0.020085897 -0.1428526 0.043006096 -0.00095203915 0.017163733 -0.008426329 0.017796842
-0.052936643 -0.0054579126 -0.044765003 -0.08227981 -0.001308975 -0.014396714 -0.0045513785 0.03646989
0.032340012 -0.07171929 0.016432108 -0.012659727 0.0028365431 0.009004484 0.023537397 -0.001792701
-0.018976636 0.0114581585 0.006236478 0.0022881557 -0.013949341 -0.013288457 0.012834993 -0.07846365
0.0362146 -0.043837573 -0.04108998 -0.03176418 0.010251067 -0.0042954697 0.0036288335 -0.0054102177
-0.039477166 -0.03611521 0.020081615 0.009737025 -0.016596984 -0.035438895 0.022689983 0.03959668
-0.089675285 0.0033586638 -0.030280948 0.013210332 0.008213088 -0.014514927 -0.016347049 0.013943804
-0.08111947 0.00647175 0.004903352 0.0072939843 0.018023921 0.02404007 0.005930592 -0.00033657547
0.03635919 -0.011938862 0.009685925 0.02246369 0.0026001881 0.014283755 0.025181888 0.034614697
0.011827031 0.01258574 0.0013597907 -0.053595483 0.009309224 0.01830985 0.008441495 -0.035732944
-0.019869553 0.034652654 -0.04679564 -0.04988359 -0.0046912017 -0.023359459 0.0033878696 0.027969293
-0.07584369 0.009619563 -0.015823806 0.010337882 -0.06803831 -0.006784239 -0.024575446 -0.016083796
-0.04881861 0.020221064 0.007627938 -0.001823445 0.033891022 -0.035726044 0.025649052 0.02195272
-0.00657439 -0.007619703 -0.010224232 -0.046723627 0.007896494 0.0030723854 -0.03520558 0.014772685
-0.04281324 0.014196975 0.018032754 0.020506462 -0.030187905 -0.046391632 0.01155799 0.0107331965
-0.017500892 0.011290694 -0.004291591 -0.0036715327 -0.025766546 0.00910648 0.011104182 -0.009772657
-0.035919134 0.0079882 -0.014525005 -0.011165955 -0.07259044 -0.02337706 0.022051398 -0.026787668
-0.02475361 0.013436645 0.031083122 0.055596005 0.00087208237 -0.027470354 0.011163245 0.00036368845
-0.061235446 0.021030392 -0.062404 0.0009850386 0.011879076 0.014112407 -0.03965962 0.02563737
-0.025745286 -0.02448417 -0.0073398165 -0.041998535 -0.037688844 0.014619444 -0.055584524 0.020701561
-0.0036212723 -0.07891561 -0.058496457 -0.007946621 -0.047262494 -0.017285872 -0.017790686 -0.034861796
-0.020496117 -0.018923027 -0.009455489 -0.053409196 -0.004067305 -0.040525794 0.018911147 -0.01041271
-0.0029713276 -0.012127955 -0.009553831 0.032865744 0.015572813 -0.046003997 -0.014062508 -0.061232302
-0.020538794 0.017865088 0.0020722838 0.041412763 -0.06745676 0.026841128 -0.019781193 -0.0155593455
-0.041558567 0.018100558 0.034512803 -0.06373065 0.02593658 -0.0576112 -0.045047935 -0.0486717
-0.0068644225 -0.031875245 -0.003467156 -0.0034117834 -0.0037111894 -0.13361445 -0.028861351 0.0016629468
0.021049805 0.022658093 0.021651534 0.015606966 -0.043046124 0.027508385 -0.03839379 -0.040080752
-0.021171108 0.020493874 -0.041652624 -0.009778487 0.024158098 0.022702144 0.02623102 -0.016707793
0.043056786 -0.03517905 0.025305022 -0.009929049 -0.015386965 0.035393875 0.0062539065 -0.0018417264
00000000: 261b 073d 11ff 0fbd 9ef2 b93b 5e7f 393c
00000010: 76f7 86bd ffee acbc cbfa 29bd 32d7 07bc
00000020: c14c c2bc d98a 54bc b2b4 52bd de40 2e3d
00000030: affe 81bd 494e 1e3d 6b34 1e3a aac4 d0bc
00000040: 6295 8ebd 25a1 03bc a7ab 66bd 9930 ebbb
00000050: db6a 61bc 627b 88bb 5a05 80bd 3f84 ff3c
00000060: 766e c2bb 2e8b a4bc f447 12be 2927 303d
00000070: 4492 79ba f59a 8c3c 960e 0abc afca 913c
00000080: 18d4 58bd 4ad8 b2bb 825b 37bd 5182 a8bd
00000090: ea91 abba 32e0 6bbc bb23 95bb 7461 153d
000000a0: f676 043d 90e1 92bd a19c 863c be6a 4fbc
000000b0: 4ce5 393b 8b87 133c 80d1 c03c 10f9 eaba
000000c0: e474 9bbc 00bb 3b3c 5f5b cc3b e2f4 153b
000000d0: c78b 64bc d4b7 59bc dd49 523c 8db1 a0bd
000000e0: c355 143d 078f 33bd f84d 28bd 281b 02bd
000000f0: 17f4 273c 03c1 8cbb b9d1 6d3b 3248 b1bb
00000100: cfb2 21bd 8bed 13bd 3382 a43c 0b88 1f3c
00000110: 66f6 87bc 6028 11bd 58e0 b93c 2130 223d
00000120: ada7 b7bd 071d 5c3b c00f f8bc 2670 583c
00000130: 3090 063c 04d0 6dbc 3fea 85bc 8e74 643c
00000140: f721 a6bd f910 d43b 4cac a03b 6002 ef3b
00000150: e7a6 933c aeef c43c 6955 c23b 6576 b0b9
00000160: 60ed 143d 379b 43bc b7b1 1e3c c605 b83c
00000170: eb67 2a3b 6906 6a3c 3f4a ce3c 24c8 0d3d
00000180: 2ac6 413c 6b34 4e3c 013b b23a f086 5bbd
00000190: b785 183c 8afe 953c 324e 0a3c b55c 12bd
000001a0: 79c5 a2bc f1ef 0d3d c9ac 3fbd bc52 4cbd
000001b0: a7b8 99bb 565c bfbc 0507 5e3b dc1f e53c
000001c0: f053 9bbd 5f9b 1d3c eda0 81bc 3860 293c
000001d0: ab57 8bbd 524e debb 7252 c9bc 2ac2 83bc
000001e0: 06f6 47bd a5a6 a53c c8f3 f93b a900 efba
000001f0: 50d1 0a3d 7955 12bd f61d d23c 31d6 b33c
00000200: fb6d d7bb b4ae f9bb 8a83 27bc 4661 3fbd
00000210: 4c60 013c 135a 493b ba33 10bd 2209 723c
00000220: f05c 2fbd 6e9a 683c 6db9 933c 2bfd a73c
00000230: a04c f7bc 2705 3ebd b95d 3d3c 4ada 2f3c
00000240: 085e 8fbc 9afc 383c 79a0 8cbb 199e 70bb
00000250: 5d14 d3bc 5833 153c 51ee 353c 7f1d 20bc
00000260: f11f 13bd f0e0 023c 49fa 6dbc 69f1 36bc
00000270: 4caa 94bd 4081 bfbc 22a5 b43c d071 dbbc
00000280: 15c8 cabc 6025 5c3c 08a2 fe3c a3b8 633d
00000290: 759c 643a 8209 e1bc 0be6 363c 70ad be39
000002a0: 05d2 7abd ee47 ac3c 569b 7fbd 691c 813a
000002b0: 75a0 423c ba37 673c 2072 22bd 7605 d23c
000002c0: c7e7 d2bc 0793 c8bc d882 f0bb a806 2cbd
000002d0: 9e5f 1abd 6486 6f3c 99ac 63bd 5296 a93c
000002e0: de52 6dbb 829e a1bd fb99 6fbd 8b32 02bc
000002f0: 5196 41bd 1a9b 8dbc c6bd 91bc 3ecb 0ebd
00000300: 79e7 a7bc 7704 9bbc 32eb 1abc 9ac3 5abd
00000310: 0747 85bb 60fe 25bd 8deb 9a3c 129a 2abc
00000320: 9bba 42bb 55b4 46bc ac87 1cbc 3b9e 063d
00000330: 1d25 7f3c b06e 3cbd 6f66 66bc b9ce 7abd
00000340: f940 a8bc ce59 923c 27cf 073b 6ea0 293d
00000350: c526 8abd ede1 db3c 2b0c a2bc a0ec 7ebc
00000360: 5139 2abd 9f47 943c 4c5d 0d3d 3785 82bd
00000370: f378 d43c b9f9 6bbd 2f84 38bd fa5b 47bd
00000380: f3ee e0bb 9e8f 02bd 3a39 63bb 3a98 5fbb
00000390: 6d37 73bb 3ad2 08be a46e ecbc 3cf7 d93a
000003a0: a470 ac3c 779d b93c 8f5e b13c 5cb4 7f3c
000003b0: 2251 30bd 4459 e13c cf42 1dbd b72b 24bd
000003c0: 086f adbc c5e2 a73c f19b 2abd f235 20bc
000003d0: 34e7 c53c d9f9 b93c 70e2 d63c c8de 88bc
000003e0: 505c 303d e817 10bd 7a4c cf3c 73ad 22bc
000003f0: 9c19 7cbc 2bf9 103d 92ed cc3b 1566 f1ba

network_body._body_endoder.seq_layers.4.weight f4 [256, 256]
-0.059266493 -0.14996909 0.041489664 -0.017719466 0.13091241 0.08134698 -0.08266537 0.046387628
0.058510955 -0.022538386 0.005861711 -0.0137951095 0.046443455 -0.044666577 -0.006231034 -0.03764842
-0.055422336 0.00052995613 -0.045857985 -0.015052537 0.0036008027 0.08477264 -0.035879865 0.05447824
0.11139904 -0.07414312 0.061904136 -0.05861011 0.03689039 0.021612247 -0.020984791 0.0118560055
0.101876386 -7.358189e-06 0.08428791 -0.004558973 -0.050796565 0.08479646 -0.10279139 -0.029334253
0.061971974 0.011730506 0.078821786 0.1393169 0.03276584 0.098368086 0.055070035 -0.0119368965
0.13010705 -0.05994708 -0.02982308 -0.12125196 -0.063938245 -0.040923286 0.042176794 -0.0079706
0.13667275 0.0855784 0.15505889 -0.031579453 -0.009952787 -0.009929323 0.15586956 0.033512
0.06804488 -0.026256662 -0.10460271 0.007865002 -0.038241096 0.0061297272 0.005371042 0.0023474223
-0.06361996 -0.15363544 -0.008352313 -0.0258311 0.013071053 -0.15754831 -0.035260983 -0.07478066
-0.03531843 -0.028562672 0.06891593 0.03059766 0.03757866 -0.09954907 -0.10226562 0.06920774
-0.04685471 -0.0052825506 -0.028345633 -0.061650783 0.009310549 0.019542387 -0.22090204 0.0032464964
-0.10386632 -0.22908068 -0.13834389 0.11180675 -0.10074123 0.021113966 0.067283206 -0.018329341
0.028667338 -0.001119265 -0.0017061472 -0.07191177 -0.05958553 -0.1073598 0.108716436 -0.00022773449
0.07118348 -0.04698282 0.07457328 -0.033066623 -0.061351597 -0.007962602 -0.14056423 -0.031391844
-0.0094067585 0.026837459 0.06748563 -0.002929703 0.10320346 -0.13050888 0.0072068586 -0.0208254
0.060725663 -0.02008825 -0.02429366 -0.02186097 0.05847778 0.08709516 -0.100065425 -0.019618435
-0.072598666 0.051617045 0.13285574 0.11534154 -0.014623877 -0.00078537647 0.04778733 -0.026879795
-0.09517275 -0.0119763715 0.02312883 -0.02708363 -0.07177557 0.007191218 -0.06944995 0.0078718
-0.02525762 0.031060606 -0.12497697 -0.07557704 0.050095793 -0.03733008 0.048167016 0.0015925242
-0.06942034 0.027954573 0.0030715256 0.0957973 0.036496837 -0.10667138 -0.08308311 -0.0019942438
-0.0124511365 -0.025735082 0.04541686 0.11188136 0.06490668 -0.0041408106 -0.020359302 -0.06342051
0.060878966 -0.013451559 0.035988096 -0.097093455 0.00029700328 -0.15172812 0.018377759 0.041511636
0.020537395 0.060422648 0.014204327 0.012312864 0.045412984 0.051761348 -0.033343893 0.15128131
0.0012451848 -0.060349282 0.004213727 0.05086277 0.031738676 -0.009464535 0.048878174 -0.04448202
-0.07093313 -0.09338177 -0.098362565 -0.054623507 0.1398987 -0.002250209 -0.043093592 0.051349904
0.021899644 -0.027588192 0.033992194 -0.007687155 -0.014165165 -0.07088274 0.026223177 -0.058234774
-0.047716822 0.08324014 0.1585383 0.04495249 -0.105314605 0.15247822 -0.11399474 0.07451053
-0.097361915 0.08345557 -0.05991097 -0.047755294 0.07396289 0.042645242 0.07197474 -0.0421685
0.025875581 -0.049526908 -0.03353714 -0.034935374 0.075633585 0.02738454 -0.0027231604 0.01754491
-0.07116049 -0.0065638567 0.053198762 -0.027131287 -0.08263979 0.0164154 -0.0257192 0.070556834
0.0011755269 -0.08872276 -0.058731385 0.054256722 -0.01849975 -0.015200379 0.019824306 0.11378664
00000000: 6cc1 72bd 7f91 19be 11f1 293d 6a28 91bc
00000010: e70d 063e 3f99 a63d 764c a9bd f400 3e3d
00000020: 2fa9 6f3d 6ca2 b8bc 9913 c03b e204 62bc
00000030: 7e3b 3e3d 4df4 36bd b42d ccbb 3b35 1abd
00000040: 8802 63bd c1ec 0a3a 95d5 3bbd eb9e 76bc
00000050: 72fb 6b3b 479d ad3d c4f6 12bd 9324 5f3d
00000060: 2e25 e43d 59d8 97bd 318f 7d3d 2811 70bd
00000070: 611a 173d 2b0c b13c 4ce8 abbc b13f 423c
00000080: 91a4 d03d 5de6 f6b6 249f ac3d 7063 95bb
00000090: 0f10 50bd c4a9 ad3d 4b84 d2bd 634e f0bc
000000a0: 53d6 7d3d 4f31 403c 516d a13d 17a9 0e3e
000000b0: 7935 063d 3575 c93d 1e91 613d f992 43bc
000000c0: c83a 053e 128b 75bd 884f f4bc f352 f8bd
000000d0: 0ef2 82bd 2d9f 27bd 93c1 2c3d 1f97 02bc
000000e0: f1f3 0b3e ba43 af3d c2c7 1e3e 7559 01bd
000000f0: 0411 23bc 99ae 22bc 459c 1f3e e143 093d
00000100: 1d5b 8b3d 3618 d7bc f239 d6bd 36dc 003c
00000110: b2a2 1cbd e1db c83b 91ff af3b 36d7 193b
00000120: 2e4b 82bd 9c52 1dbe 24d8 08bc be9b d3bc
00000130: f827 563c 5854 21be d26d 10bd 9a26 99bd
00000140: 0faa 10bd 44fc e9bc cc23 8d3d f2a7 fa3c
00000150: 15ec 193d 62e0 cbbd a370 d1bd cabc 8d3d
00000160: b9ea 3fbd 3f19 adbb 1a35 e8bc 8885 7cbd
00000170: 468b 183c 5b17 a03c 2534 62be 2cc3 543b
00000180: ddb7 d4bd 2094 6abe 05aa 0dbe f0fa e43d
00000190: 6b51 cebd 32f7 ac3c c7cb 893d 6a27 96bc
000001a0: c4d7 ea3c 4db4 92ba cda0 dfba 7a46 93bd
000001b0: f50f 74bd 74df dbbd b9a6 de3d 03cc 6eb9
000001c0: a5c8 913d 0f71 40bd e0b9 983d de70 07bd
000001d0: d04b 7bbd 9375 02bc 12f0 0fbe bc94 00bd
000001e0: ce1e 1abc 3bda db3c e835 8a3d 4300 40bb
000001f0: 565c d33d 1fa4 05be 8327 ec3b 079a aabc
00000200: 79bb 783d 1d90 a4bc 7f03 c7bc c715 b3bc
00000210: 6686 6f3d f25e b23d 1aef ccbd d7b6 a0bc
00000220: 9cae 94bd 656c 533d 560b 083e 2f38 ec3d
00000230: fc98 6fbc b9e1 4dba a6bc 433d 0433 dcbc
00000240: eee9 c2bd 8b38 44bc ac78 bd3c 7dde ddbc
00000250: 12ff 92bd 4fa4 eb3b c63b 8ebd b9f8 003c
00000260: 11e9 cebc d072 fe3c edf3 ffbd 23c8 9abd
00000270: 3f31 4d3d 6de7 18bd c74a 453d 3fbc d03a
00000280: 402c 8ebd fd00 e53c a64b 493b 6031 c43d
00000290: b57d 153d 8676 dabd 7a27 aabd dcb1 02bb
000002a0: daff 4bbc 61d2 d2bc 0807 3a3d 0e22 e53d
000002b0: cbed 843d a3af 87bb 8dc8 a6bc 9de2 81bd
000002c0: 395c 793d ed63 5cbc 4168 133d efd8 c6bd
000002d0: 1bb7 9b39 9e5e 1bbe f48c 963c 1b08 2a3d
000002e0: 0a3e a83c bd7d 773d 44b9 683c e5bb 493c
000002f0: f702 3a3d b503 543d 9b93 08bd 7de9 1a3e
00000300: 7835 a33a cf30 77bd 4e13 8a3b 7b55 503d
00000310: 6a00 023d 2311 1bbc 7b34 483d c732 36bd
00000320: 6445 91bd f13e bfbd 5072 c9bd e6bc 5fbd
00000330: 9b41 0f3e 3e78 13bb e882 30bd 4754 523d
00000340: e266 b33c a200 e2bc 663b 0b3d 88e4 fbbb
00000350: 0215 68bc f82a 91bd fdd1 d63c 9687 6ebd
00000360: b772 43bd ce79 aa3d dd57 223e 1a20 383d
00000370: 2faf d7bd 4023 1c3e 1376 e9bd fa98 983d
00000380: af65 c7bd c1ea aa3d 3565 75bd 0e9b 43bd
00000390: db79 973d c7ac 2e3d 7e67 933d e1b8 2cbd
000003a0: 07f9 d33c badc 4abd 3d5e 09bd 6518 0fbd
000003b0: c8e5 9a3d 8b55 e03c 0d77 32bb 58ba 8f3c
000003c0: 97bc 91bd 9f15 d7bb f2e6 593d 6f42 debc
000003d0: 0d3f a9bd 9779 863c 12b1 d2bc 1a80 903d
000003e0: 2314 9a3a 47b4 b5bd 5290 70bd 4c3c 5e3d
000003f0: ca8c 97bc 030b 79bc 9566 a23c f808 e93d
