Cursed Tennis/Assets/Tennis/results/TennisPro6/Tennis.onnx (onnx, 931754 bytes, 13 tensors)

60 f4 [128]
000000 b9 17 09 41 c8 6b f5 3f d8 bc 13 40 02 17 4f 40
       8.568292 1.9173517 2.308401 3.2357793
000010 39 27 9b 3f b5 b0 98 41 74 36 02 40 99 bd e0 3f
       1.2121345 19.086283 2.0345736 1.7557861
000020 23 4e b4 40 d4 54 7d 40 ba 64 a4 3f ba 64 a4 3f
       5.634538 3.9583025 1.2843239 1.2843239
000030 39 27 9b 3f a5 a1 d7 3e b5 b0 98 41 b9 17 09 41
       1.2121345 0.42115512 19.086283 8.568292
000040 d8 bc 13 40 99 bd e0 3f 74 36 02 40 c8 6b f5 3f
       2.308401 1.7557861 2.0345736 1.9173517
000050 02 17 4f 40 d4 54 7d 40 5c 86 a4 3f 80 1e d2 3f
       3.2357793 3.9583025 1.2853503 1.6415558
000060 70 d2 1b 40 bb a2 d9 3f b9 17 09 41 f7 ff 3e 40
       2.434719 1.7002786 8.568292 2.9843729
000070 80 1e d2 3f b5 b0 98 41 28 6e 0d 40 5c 86 a4 3f
       1.6415558 19.086283 2.2098484 1.2853503
000080 e3 1c e9 40 fb 2c f8 3f d7 07 1a 40 e9 8c 52 40
       7.284776 1.9388727 2.4067285 3.2898505
000090 2a 6d 9e 3f 69 c1 9e 41 3f ae 12 40 82 07 f0 3f
       1.2377064 19.844439 2.2918851 1.8752291
0000a0 c6 1a c9 40 00 eb 85 40 48 43 b0 3f 48 43 b0 3f
       6.2845182 4.1849365 1.3770533 1.3770533
0000b0 2a 6d 9e 3f c5 38 dd 3e 69 c1 9e 41 e3 1c e9 40
       1.2377064 0.43207374 19.844439 7.284776
0000c0 d7 07 1a 40 82 07 f0 3f 3f ae 12 40 fb 2c f8 3f
       2.4067285 1.8752291 2.2918851 1.9388727
0000d0 e9 8c 52 40 00 eb 85 40 66 5a b0 3f fe 27 da 3f
       3.2898505 4.1849365 1.3777587 1.7043455
0000e0 df 7f 22 40 60 58 e8 3f e3 1c e9 40 4c a5 4d 40
       2.5390546 1.815197 7.284776 3.213214
0000f0 fe 27 da 3f 69 c1 9e 41 9d 6b 18 40 66 5a b0 3f
       1.7043455 19.844439 2.3815682 1.3777587
000100 2a aa ab 40 e8 9f f5 3f 3f 08 20 40 d6 6b 56 40
       5.364522 1.9189425 2.5005033 3.3503318
000110 c3 31 a2 3f 2a 9b a4 41 f7 1d 28 40 87 e5 00 40
       1.2671436 20.575764 2.626829 2.0140092
000120 de e1 de 40 91 f9 8b 40 e6 56 bd 3f e6 56 bd 3f
       6.9650717 4.3742146 1.4792144 1.4792144
000130 c3 31 a2 3f d4 2e e2 3e 2a 9b a4 41 2a aa ab 40
       1.2671436 0.44176352 20.575764 5.364522
000140 3f 08 20 40 87 e5 00 40 f7 1d 28 40 e8 9f f5 3f
       2.5005033 2.0140092 2.626829 1.9189425
000150 d6 6b 56 40 91 f9 8b 40 c2 65 bd 3f 35 22 e2 3f
       3.3503318 4.3742146 1.4796679 1.7666689
000160 93 b9 28 40 29 21 f7 3f 2a aa ab 40 f6 89 5b 40
       2.6363266 1.9306995 5.364522 3.4302955
000170 35 22 e2 3f 2a 9b a4 41 de b2 29 40 c2 65 bd 3f
       1.7666689 20.575764 2.6515422 1.4796679
000180 45 de 3c 3f f1 87 ed 3f 26 ce 25 40 74 d8 5a 40
       0.73776656 1.8557111 2.5907073 3.4194613
000190 66 9f a6 3f ef 43 aa 41 da 01 42 40 9a c3 0b 40
       1.3017395 21.28317 3.031363 2.1838136
0001a0 9c 6f f5 40 01 6b 90 40 24 a8 cb 3f 24 a8 cb 3f
       7.669874 4.513062 1.5910687 1.5910687
0001b0 66 9f a6 3f 5d a7 e6 3e ef 43 aa 41 45 de 3c 3f
       1.3017395 0.45049563 21.28317 0.73776656
0001c0 26 ce 25 40 9a c3 0b 40 da 01 42 40 f1 87 ed 3f
       2.5907073 2.1838136 3.031363 1.8557111
0001d0 74 d8 5a 40 01 6b 90 40 51 af cb 3f f9 1b ea 3f
       3.4194613 4.513062 1.5912877 1.8289787
0001e0 fa 94 2e 40 e7 02 03 40 45 de 3c 3f 08 f4 68 40
       2.7278428 2.0470521 0.73776656 3.6398945
0001f0 f9 1b ea 3f ef 43 aa 41 45 01 42 40 51 af cb 3f
       1.8289787 21.28317 3.0313275 1.5912877

action_model._continuous_distribution.log_sigma f4 [1, 6]
000000 08 e1 47 bc b2 6e 81 3c 9d 00 1f 3c a8 ca 0f 3b
       -0.012199648 0.015799854 0.009704736 0.002194086
000010 5d 4f f6 3b 07 c1 21 3c
       0.007516785 0.009872681

action_model._continuous_distribution.mu.bias f4 [6]
000000 d8 60 40 bb 0d 14 9b 3b d6 ae f0 bb 76 dd 3f bc
       -0.0029354598 0.004732615 -0.007345061 -0.011710515
000010 db cc 62 bc 96 86 d7 3b
       -0.013842787 0.006577323

action_model._continuous_distribution.mu.weight f4 [6, 256]
000000 2b 3e b7 3c dc a7 a5 bc 78 93 e3 bc 73 71 9d 3c
       0.022368511 -0.020221643 -0.02778028 0.019219136
000010 8d 18 85 bc 73 91 a4 bc 5a 23 06 bd aa f7 ca bc
       -0.016247058 -0.020088887 -0.032748558 -0.024776299
000020 b0 a2 bc 3c 2f 44 a9 bc cd 2d 8b 3b 26 86 07 bd
       0.023026794 -0.020662395 0.0042474032 -0.03308692
000030 1f 9b cd bb 4b 7b 0a bc f2 00 93 3b e8 72 ec bb
       -0.0062745954 -0.008452247 0.0044861967 -0.0072158463
000040 34 d6 f3 3b bc fa 1f bd 57 1f 1f bc 56 0d 28 bc
       0.0074413065 -0.03905748 -0.009712062 -0.010257086
000050 0e 12 e1 3b b5 e2 22 3c 6e a4 bb ba 51 a6 69 bb
       0.0068686074 0.0099417465 -0.0014315972 -0.003565211
000060 06 07 07 3c 73 a2 2a bd e7 97 6f 3c 46 52 b6 3c
       0.008241421 -0.04165883 0.014623619 0.022256028
000070 75 9d 8d 3c 8d ba b2 3c ce 46 98 bc 32 a8 dc bc
       0.017286995 0.02181747 -0.01858845 -0.02693567
000080 a3 42 29 3c 85 88 d4 bc 24 52 4c 3c 33 0f 8a 3c
       0.010330829 -0.025944004 0.012470756 0.01685295
000090 1d ab 51 3b 76 65 85 bc a4 51 4b ba 7c 36 ac bc
       0.003199286 -0.016283732 -0.0007756001 -0.021022074
0000a0 53 6f 5a 3c 62 36 9b 3b 3c 9b bf 3c 27 0e 96 bb
       0.013332206 0.0047367075 0.023389451 -0.004579324
0000b0 8e de 51 bc a9 a9 04 bc ee e1 57 bb e6 7d 13 3c
       -0.012809409 -0.008097091 -0.003294106 0.0090021845
0000c0 90 77 40 3c f1 7f ec 3a 9e 27 d8 3c 74 a6 b2 ba
       0.011747256 0.0018043501 0.026386078 -0.0013629929
0000d0 76 72 8f 3c fd e5 8d 3b 41 14 14 bc 33 6c c4 bb
       0.017510634 0.0043303953 -0.009038032 -0.0059943437
0000e0 d5 14 85 bb c1 5b 7e 3c 5e ee 4e 3c 1f 7d f5 3b
       -0.0040613213 0.0155248055 0.012630073 0.0074917222
0000f0 65 82 bc bb c3 35 9e 3b eb 57 98 3b 0f 5f 0e bb
       -0.005752849 0.0048281862 0.0046491525 -0.002172414
000100 0d 25 31 3b e7 e8 1b bc 04 12 bb bc b0 ed 39 bb
       0.002703014 -0.009515977 -0.022835739 -0.0028370433
000110 7f ea a7 bb af 7e 0c bc 33 df e3 3c 65 3d 1d bc
       -0.0051243897 -0.008575126 0.02781639 -0.009597157
000120 4d 29 a1 bb 1a 70 6d bc ee f5 89 bc 70 94 5f bc
       -0.0049182535 -0.014492059 -0.016840901 -0.01364623
000130 6d ca 91 bc 46 36 1e bb 5f 47 56 bc 28 71 33 3c
       -0.01779672 -0.0024141236 -0.01307854 0.0109522715
000140 b2 b5 fd 3c fc 4c 5b bc b9 2c bd ba 32 d8 9d 3c
       0.030970428 -0.013385054 -0.0014432884 0.019268129
000150 e1 6c fe 3c c2 d7 24 bc 3e cf eb bb 7f b1 f2 ba
       0.031057777 -0.010061206 -0.007196336 -0.0018516033
000160 62 42 b1 3a 4a ff a2 3c 39 98 73 3c 4c 35 d0 3b
       0.0013523812 0.019897122 0.014867836 0.0063540097
000170 c0 46 47 bc 10 e7 9a 3c 06 c8 d9 bb eb 33 2f 3c
       -0.012162864 0.018909007 -0.006646159 0.010693531
000180 6b 9d 90 3b f0 40 19 3c 04 6e 9e bb 50 be 99 3b
       0.004413297 0.009353861 -0.004834892 0.0046918765
000190 95 0c ff 3b 05 4c d1 bc 05 ad 4b bd a6 af 5d 3c
       0.0077834823 -0.025548944 -0.04972555 0.013530647
0001a0 14 93 af bc 96 a7 59 bc 10 cc ba 3c a2 ab bc bb
       -0.021432437 -0.0132845845 0.022802383 -0.005757765
0001b0 29 84 a7 3b a5 ef e2 3c 69 39 d6 ba 41 e8 3d bb
       0.0051121903 0.027702162 -0.0016344014 -0.0028977545
0001c0 6b 62 91 3c d3 aa b9 bc 59 b0 42 3b 78 19 94 3c
       0.017747125 -0.022664463 0.0029707162 0.01807855
0001d0 1c 9f 20 bc 29 60 cc bc c9 4c e0 bc 06 bc 4c 3a
       -0.00980356 -0.024948196 -0.027380364 0.000781
0001e0 e9 92 2d 3c be 4d a4 bb 42 c5 74 3b 6d 81 2e 3d
       0.010594108 -0.0050141504 0.003734902 0.0426039
0001f0 c7 73 56 3c 92 eb 10 3d ae 92 9f bc f7 68 9e bb
       0.013089127 0.035380907 -0.019479122 -0.00483429
000200 15 42 e7 bc cf 8e 69 3c ab 9c cf 3c f1 61 9f bc
       -0.028229753 0.01425524 0.02534326 -0.019455882
000210 61 ba b3 bb 1a a5 dc 3c 21 a1 a0 bc 51 bf b4 3b
       -0.0054848646 0.026934195 -0.019608082 0.0055159708
000220 07 23 0b bc a2 9e c0 3a fc 67 9e bb 64 b0 b7 3c
       -0.008492238 0.0014695714 -0.0048341732 0.022422977
000230 d1 c0 a2 3b a5 d1 36 bb 17 49 52 3c fb b3 82 bc
       0.004966833 -0.0027895954 0.012834809 -0.015954962
000240 14 6d 9c bc 3a 32 7f bc b6 3d bb 37 41 d4 f3 38
       -0.019094981 -0.01557594 2.2320874e-05 0.00011626678
000250 31 6c e6 b8 0d 3c d8 ba c9 0b 96 bc 2e 5e 83 bc
       -0.00010987407 -0.0016497389 -0.018316166 -0.01603612
000260 fc 74 40 bb 84 31 5e ba 95 b7 c9 bc 79 26 0e 3c
       -0.0029366603 -0.00084760063 -0.024623672 0.008676165
000270 bf aa 52 bb 83 13 85 b9 39 1c 58 3c 74 c5 b2 3c
       -0.003214523 -0.00025382274 0.013190323 0.021822669
000280 a2 ab 9d 3b ae 09 c2 3c 1e 8d 3f 3a 95 a5 2a 3c
       0.00481172 0.023686256 0.00073071 0.010415454
000290 39 75 1c 3c 92 e7 9a 3c c5 5b 48 3b d9 28 22 bb
       0.009549432 0.01890925 0.0030572277 -0.0024743585
0002a0 f5 18 e9 3c 69 7f e2 3b 5f d9 f7 ba df bf 69 3c
       0.028454283 0.006912161 -0.0018909386 0.014266937
0002b0 bb 6f a7 ba 31 e7 73 bc fa 0f 0f 3c ee 7b 09 3d
       -0.0012774387 -0.014886663 0.008731836 0.033565454
0002c0 61 bc 6f bc 81 26 c7 b9 43 14 c5 bc 4c 31 c1 bc
       -0.014632315 -0.00037984925 -0.024057513 -0.023583077
0002d0 ba 90 b6 bc d2 69 28 39 f0 aa 58 bd 1c c6 ae bc
       -0.022285808 0.0001606115 -0.052897394 -0.0213347
0002e0 dd c1 0a bc bb 13 0f bb fe 06 0f 3c dc e6 80 bc
       -0.008469072 -0.0021831829 0.008729694 -0.015735082
0002f0 ba 97 f0 bc 25 8f 63 3c b4 6b 9e 3b 24 dd bf 3c
       -0.029369224 0.013889109 0.0048346166 0.023420878
000300 48 14 8d 3c df 2b 7f 3c 98 e9 51 3c a5 f3 92 bc
       0.017221585 0.0155744245 0.012812041 -0.017938444
000310 c7 a3 22 bc 6c e7 03 bc a1 e2 93 bb ac 51 4c bb
       -0.009926743 -0.008050781 -0.0045131003 -0.003117661
000320 bb 71 77 bc 6e ec a3 3c b2 1f 3e bb ae 42 8d 3c
       -0.015102799 0.0200102 -0.002901059 0.01724371
000330 27 30 e9 bb 72 c3 c9 3b 41 64 00 3d ff be f9 ba
       -0.007116336 0.006157332 0.03134561 -0.0019054114
000340 50 c6 af 3b a8 64 73 3c 7b c7 fe ba fd 4a c6 3c
       0.005364217 0.014855541 -0.0019438112 0.02420568
000350 a4 a1 ab ba 82 31 94 3c 16 12 73 3c d4 43 e2 bb
       -0.0013094437 0.018090013 0.014835855 -0.0069050584
000360 71 bf 86 3c 28 94 9c 3c d8 5b b8 bb 43 16 e8 3c
       0.016448708 0.019113615 -0.005626183 0.028330928
000370 7e 2e 82 bc 36 b0 cd 3c 11 97 f2 3b 80 dd 06 3c
       -0.01589131 0.025108438 0.0074032624 0.008231521
000380 ab 37 5f bc e8 89 ee 3b 3f 93 b1 bc 54 6b 56 3c
       -0.013624112 0.0072796233 -0.021676658 0.013087112
000390 b6 89 ff bb 99 b3 94 ba b2 b3 22 bc f4 65 a7 3c
       -0.007798399 -0.0011345028 -0.009930538 0.020434357
0003a0 27 33 cf 3b 44 87 4f 3b fb 01 12 bc 27 89 9a bc
       0.0063232365 0.0031666318 -0.008911605 -0.018864227
0003b0 26 11 ff 3b 33 da d9 bb 4d 06 c2 bb 8c 83 7e bc
       0.0077840267 -0.006648326 -0.0059211613 -0.015534293
0003c0 32 f1 35 3c cb 52 86 bc d6 f9 41 bb a4 97 38 ba
       0.011104869 -0.0163969 -0.0029598377 -0.0007041639
0003d0 71 56 1d 3c 47 c5 3d 3b 37 14 75 bb 8e 0e 3b bb
       0.009603129 0.0028956698 -0.0037396082 -0.002854261
0003e0 25 96 89 bb 9a f9 03 3c 23 63 95 bb 1f 3f e1 3b
       -0.004198807 0.008055115 -0.004558937 0.0068739797
0003f0 b8 de af bc d4 70 6b 3c eb 87 09 3a a7 eb ac bc
       -0.021468505 0.014370162 0.00052463886 -0.021108462

network_body._body_endoder.seq_layers.0.bias f4 [256]
000000 25 ed c2 3b c6 ec 57 bc c6 68 78 3c 9b 6f 2f 3a
       0.00594868 -0.01317901 0.015161699 0.0006692351
000010 44 b7 4a 3b be b4 5f bc 54 8c 80 3b 67 45 81 3b
       0.0030931989 -0.013653932 0.0039229784 0.003945041
000020 17 88 39 bc aa 3e 1b bc ae 95 ca 3b f9 53 43 bc
       -0.01132395 -0.0094753895 0.006182394 -0.011921876
000030 8e 19 94 3c d0 79 1b 3c e3 4a 22 3b 52 77 49 bb
       0.018078592 0.009489492 0.0024763874 -0.0030741286
000040 34 9b 9b ba 86 fa 0b 3c 5e 63 b2 3b 9a 50 99 ba
       -0.0011871816 0.008543616 0.0054439744 -0.0011696995
000050 90 2a 46 ba 4e a9 36 3c 18 fc 3c 3c 23 df 6e 3c
       -0.0007559443 0.011148764 0.011534713 0.014579567
000060 cc 4d 3b 3c 83 6b 3a bc a9 02 65 3b 28 7a 88 3b
       0.011432122 -0.011378172 0.0034944213 0.004164953
000070 88 eb da 3b fd 43 12 3c a9 14 b6 3c 01 da 61 3c
       0.0066809095 0.0089273425 0.022226648 0.013784886
000080 38 71 f5 3a 81 9b 28 3c fc 02 78 3c f8 3d e1 bb
       0.0018725758 0.010290981 0.01513743 -0.0068738423
000090 45 d4 4b 3b c2 64 e1 3b a0 b3 86 bb 31 58 8c 3c
       0.0031101864 0.0068784663 -0.0041107684 0.017131897
0000a0 70 11 a8 3c 59 d4 a0 bc 91 e9 b8 3b bd f2 da 3b
       0.020516127 -0.019632505 0.0056430777 0.0066817687
0000b0 72 c3 b6 bb 0c c9 34 3c 3a 37 f7 3b 17 f9 39 3c
       -0.005577498 0.011034261 0.0075444253 0.011350892
0000c0 03 c3 5c 3c b8 26 6c 3c 97 f7 da 3b a8 b4 c4 3b
       0.013474229 0.014413528 0.006682347 0.006002981
0000d0 bb 43 3d 3c f7 3c 26 3b 96 47 09 ba 45 07 f5 3a
       0.011551793 0.0025365928 -0.00052368024 0.0018694183
0000e0 ed 3c 7e 3c 99 a0 24 3c 79 2a ab 3b 08 0d 2a 3c
       0.0155174555 0.010048055 0.005223569 0.010379083
0000f0 6c 6c 88 bc 2e 5f 72 3c 47 a3 50 bb 2b 69 58 3c
       -0.016653262 0.0147932 -0.0031835602 0.013208668
000100 54 72 c9 3c 9c b8 33 3c 5b 14 b8 bb 5d 44 b8 bc
       0.024590649 0.010969307 -0.005617661 -0.022493536
000110 77 9b c1 3b d6 e2 87 3c 9b 6e 32 3b 17 e9 92 3b
       0.0059084254 0.016587656 0.002722657 0.004483353
000120 02 9f aa 3a 04 b9 88 3c 51 70 d5 bb 0a 26 75 3c
       0.0013017359 0.016689785 -0.0065136333 0.0149626825
000130 ed 21 f3 3c 41 1c c0 3b 24 f7 e4 3b 87 1d 0e 3c
       0.029679263 0.005862743 0.0069874693 0.008674032
000140 dc fe 09 bb 36 99 76 3c 7b fe 7e 3c a9 5d 60 3c
       -0.002105645 0.015051177 0.015563603 0.013694205
000150 7a 10 ab ba b6 8c d2 3a 06 65 81 3b a0 f7 1b 3c
       -0.0013051175 0.0016063664 0.0039488105 0.009519488
000160 35 fd 49 3b 57 08 b3 3b 49 cf b6 3c 01 7d 0e 3b
       0.003082109 0.0054636407 0.022315638 0.0021741989
000170 89 85 48 3c 39 29 55 bb 0b c1 7d 3c 35 6a 1e 3c
       0.0122388685 -0.0032525791 0.01548792 0.009668876
000180 3d c9 39 bc 14 11 f5 bb d0 a9 a5 bb e2 06 d6 bb
       -0.011339483 -0.0074788425 -0.0050556436 -0.006531582
000190 b4 d0 c5 bb 46 e6 a5 3b 09 52 b8 3b 23 b9 a1 3c
       -0.0060368422 0.005062851 0.0056250137 0.0197416
0001a0 49 28 84 3b d1 cb 09 bc 4e 12 97 3c 8d 4d 8c 3b
       0.0040331227 -0.00841041 0.018441346 0.0042817057
0001b0 1c ca c5 bb 2f 6d 66 3c 00 09 67 bc d3 d3 6d bc
       -0.006036056 0.014064117 -0.014101267 -0.014515835
0001c0 e4 0c 8b bb 33 45 4a 3b c9 f9 37 3c f1 ac e0 bb
       -0.00424348 0.0030864 0.011228987 -0.0068565537
0001d0 d0 be 56 3c d1 94 c7 b9 3d aa 21 bc f2 f0 e1 bb
       0.013107017 -0.00038067115 -0.009867248 -0.006895178
0001e0 74 9f 05 3c eb de d2 bb 41 ec 4b 3c d8 6f 58 3c
       0.008155692 -0.0064352653 0.012446464 0.013210259
0001f0 d7 44 25 bc 2b 58 db bb 93 7d b8 3b ed d8 e5 bb
       -0.0100872135 -0.00669386 0.005630204 -0.007014385
000200 b0 bc 75 3c c7 0b 56 bb f2 3e bf 3c ab c2 8e ba
       0.0149986 -0.0032660828 0.023345444 -0.0010891756
000210 9b db 4d bb 7f 3d b7 3c ac ad 79 3b c5 59 bd 3c
       -0.0031411413 0.02236819 0.0038097901 0.023114095
000220 ab 94 15 3c fe ec c7 bb a7 31 e5 bb ca 0e 75 39
       0.0091296835 -0.0061012497 -0.0069944444 0.0002337053
000230 95 76 b6 39 bb 93 2b bc 1d f0 00 3c f4 54 9d 3c
       0.00034802096 -0.010472233 0.0078697475 0.019205548
000240 24 44 5e 3a 64 d3 0e bc 7f 51 49 3b 45 cc 1d bc
       0.00084787817 -0.008717392 0.0030718741 -0.009631221
000250 62 0c a4 3c 03 72 b2 ba 41 77 be 3b 50 89 69 bc
       0.020025436 -0.00136143 0.005812556 -0.014253929
000260 b9 a0 73 3b 2c 44 d3 39 52 40 e1 bb f2 7c 55 bb
       0.0037174656 0.00040295848 -0.0068741227 -0.0032575694
000270 80 59 43 bb 61 c2 5f ba 94 34 1f 3c b9 d2 26 ba
       -0.0029807985 -0.00085357396 0.009717125 -0.00063637976
000280 bf a9 67 3c e7 51 38 3c ef b9 27 3c ee dc f9 bb
       0.014139592 0.011249996 0.010237201 -0.007625214
000290 f7 ef 51 3c a0 99 50 3b ca 7f 4f 3c 32 27 3c 3c
       0.01281356 0.003182985 0.012664745 0.011483954
0002a0 ff f0 7c bc ed f4 bd 3a 67 77 d8 bb 0d 62 71 3c
       -0.015438317 0.0014492549 -0.0066060307 0.01473285
0002b0 db 79 15 bc 61 92 92 3c 00 3b b1 3c a2 71 b8 3b
       -0.009123291 0.017892065 0.021634579 0.0056287805
0002c0 eb eb 82 3b 7a 3d fa bb 8b 16 9a bb 38 1c 35 3c
       0.003995409 -0.007636723 -0.0047023944 0.011054091
0002d0 fd 26 e2 39 4a d8 25 bc 5a 33 ac 3c 3b f8 52 ba
       0.00043135128 -0.010122368 0.02102058 -0.00080478535
0002e0 ab 66 e6 3b 4e 19 3b 3c ae 1a 42 3c 82 42 a2 3b
       0.007031282 0.011419607 0.011847181 0.004951776
0002f0 55 ab ce 3c 5f 23 61 bc 2e 1a 7b 3c 30 e3 96 bc
       0.025228182 -0.013741343 0.015326066 -0.018418878
000300 28 58 d6 3b 36 ab 17 bc 70 5f f2 3b 10 ec 6d bc
       0.0065412708 -0.009257128 0.007396631 -0.014521614
000310 59 c3 11 bb b9 ab 24 3c c5 68 e9 3b dc 3b d1 3b
       -0.002224168 0.0100507075 0.007123085 0.0063853096
000320 5c 56 08 3c ca 24 bc bb 05 1c a9 3a 6e 07 32 bb
       0.008321371 -0.0057416903 0.0012902027 -0.0027165073
000330 bd c1 f0 3b c4 0d 3f bb fe c9 81 3b 12 70 d3 3b
       0.007347314 -0.0029152492 0.003960847 0.006452569
000340 62 fd 86 3c 8e b2 52 3c 1d b0 9a 3b d7 eb fd bb
       0.016478244 0.012859954 0.0047207014 -0.0077490616
000350 8a 6a 7e bc 66 b0 7f 3c a5 35 b6 3b 2f 1b ad bc
       -0.015528331 0.0156060215 0.005560594 -0.021131126
000360 45 27 7c 3c c6 4c 34 3c 26 a2 17 bc fe e7 90 3c
       0.015390222 0.011004632 -0.009254968 0.017688747
000370 93 cd 59 3c c3 b5 53 3b 09 24 b3 bb ac 8f d3 3b
       0.013293642 0.0032304383 -0.005466942 0.006456336
000380 80 a1 a0 3b 4c f4 cd 3c 95 1c 17 3c a2 3f cd bb
       0.004902065 0.025140904 0.009223123 -0.006263689
000390 dc ff 2d 3c 73 3a 95 3c e9 9b d1 3b cb 30 e2 3b
       0.010620084 0.018216347 0.0063967598 0.006902789
0003a0 9b dc b1 3b 43 d5 8e bb 81 d9 fd 3b ee 46 2d ba
       0.0054279095 -0.004358919 0.0077468758 -0.00066099956
0003b0 4c 23 47 3c 5e 0a ba bb 90 40 c9 3b 42 f9 8b 3c
       0.0121544115 -0.0056775054 0.0061417297 0.017086629
0003c0 84 4c 9c 3c 90 da 7d 3c bc 37 53 3c d8 1b a5 3a
       0.019079454 0.015494004 0.012891706 0.0012596799
0003d0 ef bd af 3b 0b 35 52 3c af 43 1e 3c d5 ba fe 3a
       0.005363218 0.012830029 0.009659692 0.0019434342
0003e0 c5 55 67 3c 8b 3c 2b 3c 28 31 4f bb 6a 6d 9a 3c
       0.01411957 0.010451446 -0.0031614993 0.018851
0003f0 6e 3d 15 3c 49 24 91 bb 4a b9 c6 bb 65 41 80 3c
       0.009108884 -0.0044293744 -0.0060645686 0.015656183

network_body._body_endoder.seq_layers.0.weight f4 [256, 128]
000000 5e 4e 11 3d 58 f3 4c bd be 91 0f 3e 6a 14 33 bd
       0.035475127 -0.05003676 0.1402044 -0.04372064
000010 50 86 93 3d b7 7e ed 3d 48 7a 02 bc c5 f0 fb bc
       0.072033525 0.115964346 -0.007963724 -0.030754456
000020 9f 94 df bd a5 21 7a bd cb 51 87 3c 23 fe 94 bb
       -0.10917019 -0.061067242 0.016518494 -0.004546897
000030 ae bb db bd c4 ef 40 3e c7 90 21 bc 90 64 86 bd
       -0.107291564 0.18841463 -0.009861178 -0.065621495
000040 6b 44 07 bd 34 c6 d4 3d a4 10 a4 bd d6 83 90 bd
       -0.033024233 0.10389367 -0.080109864 -0.07056396
000050 65 ca fd 3d 63 db 29 be 0a 6a ca 3d df 8f f9 3c
       0.12392119 -0.16587596 0.098835066 0.03046411
000060 10 ec fc bd 2c d9 56 bc 31 78 6f bd cc 8a 09 bd
       -0.12349713 -0.013113301 -0.058464233 -0.033579633
000070 36 0d de bc 04 6b be bb 58 8f 40 bc 44 e4 d4 bd
       -0.027105909 -0.005811097 -0.011752926 -0.10395101
000080 2d 9b 0c 3d 30 54 c6 3c 11 3e c5 3d 83 f7 bc bd
       0.034327675 0.024210066 0.09630979 -0.092268966
000090 32 56 f3 3c dc c2 fa 3c 9c 8d ec 3c 0f fe 50 bd
       0.029704187 0.030610494 0.028876118 -0.05102354
0000a0 68 69 c0 3c 56 15 3b 3d 33 b9 34 bd a7 ca cd bc
       0.023487762 0.045674644 -0.044121932 -0.025121046
0000b0 41 fe af bc 63 05 ec bb 6f 31 ea bd c2 72 3a 3c
       -0.021483542 -0.0072027906 -0.1143521 0.011379899
0000c0 ab 96 04 be 2a 1d c0 3d 31 1e c0 bd aa 48 15 3e
       -0.129481 0.093805626 -0.093807586 0.145785
0000d0 f6 b7 3c 3d 11 0c e9 3d 28 fb c1 3d a5 cc 23 bd
       0.046073876 0.113792546 0.094717324 -0.039990086
0000e0 b9 09 26 bc 28 fa d7 3d 8f 7f 0f 3d e7 d8 c4 3d
       -0.010134154 0.105457604 0.03503376 0.09611683
0000f0 df 3b 0c be 90 85 2a 3c 7b 51 af bd 2a 7a 69 bd
       -0.13694714 0.01040782 -0.08560463 -0.05700127
000100 22 79 b9 bd c0 8f c2 ba 07 e4 bb bc c3 e7 1b 3e
       -0.090563074 -0.0014843866 -0.02293588 0.15225129
000110 c2 33 a1 bd 79 96 90 bc d9 f6 0d 3e a3 47 3c 3e
       -0.078712 -0.017649876 0.13863696 0.18386702
000120 d9 09 17 3e f4 03 97 bd c9 b8 e3 bc ad f8 30 be
       0.1474985 -0.07373801 -0.027798073 -0.17282362
000130 81 d1 e7 3c 2e 17 b6 bd e1 eb 94 3d 87 7b ad bd
       0.028298141 -0.0889114 0.07271553 -0.084708266
000140 ca 7b ec bd 55 25 1a 3d 78 81 01 be 35 ac 99 bd
       -0.115470484 0.03763326 -0.12647045 -0.07503549
000150 d5 bc 8b 3d ef 3d 94 3d 4b e2 1d 3d 61 ac fc bd
       0.06823126 0.072383754 0.038545888 -0.12337566
000160 48 90 55 3d 62 28 0a be a5 43 e6 3d 4f 7a 08 bd
       0.05213955 -0.13491967 0.11243371 -0.033319768
000170 ce c6 fa bd a5 2f d0 3c c8 b3 33 3e 44 d8 82 bd
       -0.1224495 0.025413344 0.1754905 -0.06388906
000180 06 e3 64 3d 6e 14 ef 3c a7 f9 4d bd 7c 36 3d 3e
       0.05588057 0.029184546 -0.050286915 0.18477815
000190 39 3e 6b bd 70 ca 67 bd 67 bf 06 3e a2 26 fa bc
       -0.057432387 -0.056589544 0.13158952 -0.030536
0001a0 08 b2 f8 3d 8d 94 3a 3e 63 d8 a8 bd 48 c9 12 bc
       0.12143332 0.1822073 -0.082443975 -0.008959122
0001b0 fb d5 fa bd 6b 97 95 bb e0 85 b2 bd 24 2e 04 bd
       -0.12247845 -0.0045651696 -0.08716941 -0.032270566
0001c0 05 d4 ee bc 59 1a 20 be 93 12 e5 3d f0 fb 55 bd
       -0.029153833 -0.15635051 0.111851834 -0.05224222
0001d0 0e eb 22 3e 68 f0 f2 bb f3 bb 86 3d 77 e9 15 3e
       0.15909979 -0.0074139126 0.06578817 0.14639841
0001e0 67 da 44 3d 0e cc 09 be 3d ea b3 3b bd f5 90 bc
       0.048059847 -0.13456747 0.00549057 -0.017695302
0001f0 43 27 c8 bd 2a e7 7f bd bd 16 71 3c 1f 46 9d 3d
       -0.097731136 -0.062476315 0.014714894 0.0767939
000200 3b 48 ea bd a9 97 67 bc 8f a0 30 3d 1e 3f 66 bd
       -0.11439558 -0.01413528 0.04312187 -0.056212537
000210 60 ca 48 3d 92 d5 62 bd 20 76 d3 3c 4c fe c6 3c
       0.049021125 -0.055379458 0.025813162 0.02429118
000220 29 52 5e 3d 7d af 4a 3e 7d e6 14 3e 23 7f b4 bd
       0.054277573 0.19793506 0.1454105 -0.08813312
000230 4a 40 91 bd 68 22 9e bc 21 f7 dc bd 70 d5 8b 3d
       -0.0709234 -0.019303516 -0.107893236 0.06827819
000240 9b bb 08 bc f8 af 41 bd 57 ff d2 bd e8 fd 28 bd
       -0.00834551 -0.047286958 -0.103026085 -0.04125777
000250 0c 24 c2 bd 35 f6 8e 3d 42 10 d8 bd dc ae b3 3d
       -0.09479532 0.06980554 -0.10549976 0.08773586
000260 54 4c 17 bc 9b a3 f8 3d dd 3d ae 3d 85 46 9e 3d
       -0.009234507 0.1214058 0.08507893 0.07728294
000270 e7 54 31 bd 30 9f 54 bb fc 5f 4c 3d f1 af 97 3d
       -0.04329386 -0.0032443516 0.049896225 0.07406605
000280 11 4f 67 3c 35 35 20 3e f8 5a fc 3c bd 70 2a 3d
       0.014117972 0.15645297 0.030805096 0.04161142
000290 9c 64 f4 3d 30 22 05 bd 3e c5 df 3d d6 c4 07 bd
       0.11933252 -0.032503307 0.10926293 -0.0331467
0002a0 00 47 97 bd 72 db 8c 3c 58 9f 74 3d 82 94 b7 bc
       -0.07386589 0.017194483 0.059722275 -0.022409681
0002b0 c2 81 03 3e 2b 94 f3 3d d8 05 27 3d d2 68 fb 3d
       0.12842467 0.11893495 0.040777057 0.12275852
0002c0 87 33 03 3d f9 65 84 bd 8f fc bf 3d 6f 7e bf 3b
       0.032031562 -0.06464762 0.093743436 0.0058439295
0002d0 f3 cb e6 bd 12 c3 41 bd 52 65 b6 bc 9b e4 81 bc
       -0.11269369 -0.047305174 -0.02226511 -0.015856078
0002e0 05 3b ce 3c c5 fd eb bd 99 75 a8 bd 0b e9 b2 3c
       0.025174627 -0.11523012 -0.08225555 0.02183964
0002f0 11 cd d1 bd 08 d4 ec 3d 49 bf ca bb 64 d0 4d bc
       -0.102441914 0.11563879 -0.0061873537 -0.012561891
000300 76 04 f3 3d a7 45 63 3d d7 9a b6 3d 80 62 c4 3d
       0.11866085 0.055486348 0.08916252 0.095891
000310 9f d3 08 3e 3f e5 1c 3e 20 4a 2b bd 7b d0 4c 3d
       0.13361977 0.15321825 -0.041818738 0.05000351
000320 65 94 96 3d 79 97 7c bd 11 79 d7 bd 46 b7 92 bd
       0.07352523 -0.061667893 -0.105211385 -0.07163863
000330 9e 41 c9 bd 51 01 a9 bd a7 9e b4 bc a9 3a 9a 3d
       -0.098269686 -0.08252204 -0.022048308 0.0753072
000340 36 6a 3c be f0 5e 56 3d 94 a5 a9 3c 28 33 04 3d
       -0.18399891 0.052336633 0.020708837 0.03227535
000350 e5 8c b9 bc eb 19 a0 3c dc e4 a0 bd 13 4d 52 3c
       -0.022650192 0.019543609 -0.078561515 0.012835759
000360 fc 6c fb bd 9a 78 01 3e ea b5 47 be 84 df 9b 3c
       -0.122766465 0.12643662 -0.19502988 0.019027479
000370 70 6c e9 3d 57 05 d2 bc 84 9c 4b 3d 3f 05 84 3d
       0.11397636 -0.025637312 0.04970981 0.06446313
000380 d1 82 56 3d 97 0b ce 3d b0 04 8a 3d 66 de 98 3e
       0.05237085 0.10060804 0.06739175 0.29857177
000390 72 cc 6d bd d8 04 9a bd d9 6f 07 be ea 88 21 3e
       -0.058056302 -0.07520455 -0.1322626 0.15774885
0003a0 42 46 91 3d ec 4e 25 3c a9 72 b1 3d ce a1 36 bc
       0.07093479 0.010089617 0.08664448 -0.011146976
0003b0 6c 42 de 3c df f8 9e 3c be a2 44 3c 5c d8 c9 3d
       0.027131282 0.01940578 0.012001691 0.098557204
0003c0 02 f9 3e bc f3 89 f3 3c 00 ab ab 3d ff 16 c5 3d
       -0.011656048 0.029728865 0.08382225 0.09623527
0003d0 c4 49 c2 bc a6 8e 19 be 38 44 8a bd 98 28 26 bd
       -0.023716815 -0.14995822 -0.06751293 -0.040566057
0003e0 1c f5 3d 3b be fb cf 3c 9d 43 6a be a5 51 21 3e
       0.0028985208 0.025388595 -0.22877355 0.15753801
0003f0 b1 de 53 bc 76 5a 8b 3d 9b ec 8e 3d 2b 9f 10 be
       -0.012931512 0.068043634 0.06978723 -0.14123218

network_body._body_endoder.seq_layers.2.bias f4 [256]
000000 6e c9 2d bc b2 02 72 3b 53 e2 15 3c 57 23 bb 3c
       -0.010607107 0.0036927876 0.009148198 0.022844
000010 34 39 0a 3c c9 3c 09 bc a2 40 e6 3b 71 67 59 3b
       0.00843649 -0.008376309 0.007026748 0.0033173228
000020 1c 1a 81 bc 5e 76 22 3b 96 c7 ba 3b 4a b2 fc 3b
       -0.01575952 0.002478979 0.005700062 0.0077116834
000030 8c 8c da 3b c8 b9 c2 bb 7e a3 80 bc f7 cb 43 3c
       0.0066695865 -0.005942557 -0.01570296 0.0119504845
000040 aa ef 6f 3c 07 9a bf 3b 08 71 9e 3c d4 ec 16 39
       0.014644543 0.005847219 0.019341007 0.0001439334
000050 da 98 59 3c 82 22 0c 3c 38 1a 4a bc 17 ed 94 bb
       0.013281072 0.008553149 -0.012335353 -0.004544865
000060 a7 2a 66 3c bd 29 7a bc 73 9a 24 3c aa e4 8a 3c
       0.014048255 -0.01526874 0.010046589 0.016954739
000070 4f 10 0e 3a 09 a9 0e 3b 0b 3f c8 3b bc 48 a3 bb
       0.00054193 0.0021768233 0.006111031 -0.004983036
000080 2b 59 84 bb ab ab 25 3b d9 29 0f bc 13 2d 4d bc
       -0.00403895 0.0025279324 -0.008738005 -0.012522954
000090 b9 ff d0 3b 5b b2 c1 3b d3 83 0e 3c d5 93 1b 3c
       0.0063781408 0.005911154 0.0086984215 0.009495695
0000a0 50 fc 95 3b 18 9f 8b 3c 15 f2 27 bc 27 f9 06 ba
       0.004577197 0.017043635 -0.010250588 -0.0005148821
0000b0 46 42 16 3c ce 30 73 3c fe de a7 3b 15 14 c0 3c
       0.009171074 0.014843179 0.0051230183 0.023447076
0000c0 ef ee 59 3c 80 52 50 bc 67 d9 0e bb 0e 07 35 3c
       0.013301595 -0.012714982 -0.0021797062 0.011049045
0000d0 8d a4 95 bb 4b 3c ba 3c 4b 25 bb 3c d8 d0 84 3b
       -0.004566735 0.022733828 0.022844931 0.0040532164
0000e0 6d 6d 35 bc fa e2 08 bc 90 26 ba bb 73 0a a0 3b
       -0.011073452 -0.008354897 -0.0056808665 0.004884058
0000f0 2e b0 ff 3b ff a5 6e 3c 2a 23 5d bb e7 c5 62 3b
       0.0078029847 0.014565944 -0.0033742883 0.0034602822
000100 6c 44 c6 bb 12 57 0c ba 18 d0 16 bb f3 52 ed bb
       -0.006050637 -0.00053535507 -0.0023012217 -0.0072425543
000110 4a 17 2d 3b 2f eb f7 b9 cc 6d 1f 3c 13 e5 4e 3c
       0.0026411586 -0.00047286737 0.009730767 0.012627858
000120 4b 19 36 bc ee 40 16 3c 39 14 2b 3c ba dc b1 3a
       -0.011114429 0.009170754 0.010441833 0.001356981
000130 a6 e4 f0 3b 99 69 73 ba 9f 09 d9 bb 64 73 86 3c
       0.007351476 -0.00092854496 -0.0066234614 0.016412444
000140 d2 0d df b9 bd a9 11 3c 0c a1 78 bb 6c 97 17 bc
       -0.0004254417 0.008890566 -0.0037937788 -0.00925241
000150 0d dd ab 3b a1 bd b9 3a 9b d5 6b 3c ef c2 20 3c
       0.005244857 0.0014170894 0.014394189 0.009812101
000160 db fb e0 3b f9 b2 a6 3b be 59 92 bc b3 0d 4b 3c
       0.006865961 0.005087253 -0.017865058 0.012393403
000170 b2 21 06 bc 0b b2 9b 3b 86 37 90 bb 07 bf 74 3c
       -0.0081867445 0.004751449 -0.00440115 0.014938123
000180 93 6f 4b 3c 1b 25 16 bc f7 ea 34 bc 16 a3 47 bc
       0.012416738 -0.00916412 -0.011042348 -0.012184879
000190 60 cf b9 bb a9 fc 99 3b 53 b6 bc 3b 0a 76 01 3c
       -0.005670473 0.004699309 0.0057590394 0.007901678
0001a0 d1 07 17 3c aa 45 8a 3b 53 67 8f 3c 51 59 58 3b
       0.009218172 0.0042197304 0.017505324 0.003301222
0001b0 48 ec 4b 3c 92 1e 36 3c 04 a5 86 3c 73 f9 4a bc
       0.012446471 0.011115687 0.016436107 -0.012388575
0001c0 a9 e4 fd 3b 97 0a 2e 3c f8 41 77 3b d1 e1 e2 3b
       0.0077482057 0.010622642 0.003772853 0.006923892
0001d0 ce a5 ae bb a1 4e 08 3c 81 7d 88 3c 38 cc d0 bb
       -0.005329824 0.008319528 0.016661407 -0.006372001
0001e0 ee d5 3d bb ba 86 f2 3b 4d ec 56 bc e1 68 f7 3b
       -0.0028966623 0.0074013146 -0.013117862 0.0075503443
0001f0 ae 17 07 ba 80 11 c8 3b 90 7b f1 ba 20 6e 68 3c
       -0.000515337 0.006105602 -0.0018423665 0.014186412
000200 ab 6d ab bb c1 18 68 3c 67 43 d9 bb b4 3c 5f bc
       -0.0052315793 0.014166058 -0.0066303494 -0.013625313
000210 49 7d 61 bc 4f 96 00 ba 7e 27 87 3b 19 54 88 39
       -0.01376278 -0.000490521 0.004124581 0.000260026
000220 3f f1 47 3c e6 6b 4b bc e6 b4 19 3c 8b 96 72 3c
       0.012203514 -0.012415862 0.009381508 0.0148064
000230 05 05 c8 bb 0b 96 68 3c 86 76 34 3c d5 ac 48 3c
       -0.006104114 0.014195929 0.011014586 0.012248238
000240 78 fc 36 3c b0 d0 ae bb 14 3a 19 3b 18 43 c0 b7
       0.011168592 -0.005334936 0.0023380565 -2.2919427e-05
000250 1a a8 a7 3a da 3b 8c 3b bd b6 01 bc 80 20 40 3a
       0.0012791187 0.004279596 -0.007917103 0.00073290616
000260 b6 4b a0 3c 56 f8 1b bc c7 48 07 3c 88 c0 c6 bb
       0.019567352 -0.009519657 0.008257098 -0.006065432
000270 de ea 23 3c e2 c8 dc 39 6c e2 b1 3b 6a 58 d4 bb
       0.010004727 0.0004211134 0.005428603 -0.0064802663
000280 17 e5 09 3c 99 b9 67 3c e6 7e 38 bc 94 06 a7 bc
       0.008416436 0.014143371 -0.011260724 -0.020388879
000290 a8 df 4a bc 25 7d 21 3c 36 f4 fa 3b 57 63 7d 3c
       -0.012382425 0.009856497 0.0076585067 0.015465579
0002a0 99 8a 0e 3c 55 32 0d 3c 5b 6d 2f 3b 49 9d a9 3b
       0.008700036 0.008617957 0.0026768062 0.0051762206
0002b0 39 e8 2a 3c 7a e0 2c 3c 19 d8 50 3c a9 90 9c ba
       0.010431343 0.010551566 0.012746834 -0.0011944968
0002c0 c7 5d d7 bb 79 f2 15 3c cc 83 07 3c a0 b1 de 3b
       -0.0065724584 0.009152048 0.008271169 0.006796077
0002d0 88 a7 46 bb 9a e8 27 3c a9 6f e7 3b 79 b9 4d 3c
       -0.0030312259 0.010248328 0.0070628715 0.012556427
0002e0 c0 3b 60 bb d0 c3 00 3c a1 68 84 ba 3c 1a 98 3c
       -0.0034215301 0.007859185 -0.0010101983 0.018567197
0002f0 5c f2 36 bb 93 78 b3 3b bd 0c cc bb 8f 48 c9 bb
       -0.0027915454 0.00547702 -0.0062271045 -0.006142683
000300 75 49 b2 3b c9 c7 b3 3b 85 44 2b bc 54 18 aa 3a
       0.0054408857 0.0054864627 -0.010453348 0.0012977221
000310 c3 70 95 bb 75 6b 5d 3c f5 e7 0f bc f4 91 75 bb
       -0.0045605614 0.013514389 -0.00878333 -0.0037471028
000320 16 fa fd 3b d0 c9 f9 3a 22 b3 bb bb 5a 37 e1 bb
       0.00775076 0.0019057337 -0.0057281414 -0.0068730535
000330 1b 8b 12 3c a6 df 22 bb d7 7e b6 3b db 93 62 3c
       0.008944298 -0.0024852543 0.0055693197 0.013829197
000340 d0 3f 45 bb 26 1e 0e 3c d7 b4 cd 3b 34 e7 fc 3b
       -0.003009785 0.00867418 0.0062776613 0.0077179912
000350 d7 b2 01 3c 3c e3 c7 3b 9c 27 18 3c 31 f2 2a 3c
       0.007916174 0.0061000865 0.009286787 0.0104337195
000360 0a d3 b4 bb 72 3f 22 bc 48 b6 a4 ba b4 07 dd 3b
       -0.005518322 -0.009902822 -0.0012566531 0.006745303
000370 8b 17 7f 3c b4 b8 e3 3b 0d 0a 59 3c 00 74 a0 3c
       0.015569578 0.0069495086 0.013247025 0.019586563
000380 0d e0 6d 3a ff cf 70 3b 0d bf bb 3b 34 09 10 3c
       0.00090742187 0.003674507 0.005729562 0.008791257
000390 8e bb 1a bb af ec 0c 3c c1 eb 11 bb fc 2e 68 3c
       -0.0023610326 0.008601352 -0.0022265764 0.014171358
0003a0 53 09 e5 b9 fa 30 65 3c 16 79 e7 bb b3 a7 f8 3b
       -0.0004368523 0.013988728 -0.007063995 0.0075883507
0003b0 85 b7 d0 3a f0 e8 63 3c b8 c6 a7 3c 54 6b 8b 3b
       0.0015923834 0.013910517 0.020480499 0.004254738
0003c0 f9 b6 5c 3c 0f 19 a2 3c 00 80 89 3a 34 cd 46 3c
       0.013471358 0.01978734 0.0010490417 0.012133885
0003d0 34 a1 07 3a 7f 5e 47 3b d9 45 f5 3a 23 93 a3 3b
       0.00051738624 0.0030421314 0.0018712833 0.0049919053
0003e0 0b f1 46 3a 4f 71 e9 bb 86 9b b2 bc 0e ae fe bb
       0.0007589019 -0.007124103 -0.021802675 -0.007772214
0003f0 6a 5d 1f ba e5 87 b6 bb 02 75 1e bc 9e 4b 0f 3b
       -0.00060792884 -0.005570399 -0.0096714515 0.002186514

network_body._body_endoder.seq_layers.2.weight f4 [256, 256]
000000 c5 e4 e3 bb 6d 29 7a 3d e5 21 6b bb 0a b3 a0 bd
       -0.0069547617 0.061074663 -0.0035878357 -0.07846649
000010 f2 31 43 3c 3b 1d 08 3d 5d bc 8d 3d 10 a2 0a be
       0.011913763 0.033231 0.06920693 -0.13538384
000020 6e 57 7c bc 61 3b d5 3c 22 38 69 3d d0 e0 3b bd
       -0.015401704 0.02602929 0.056938298 -0.045868695
000030 d8 28 82 bd 02 b3 68 bd 28 cb 86 bc e5 c2 6e 3d
       -0.063554466 -0.05681134 -0.016454294 0.058291335
000040 63 fc a0 bd d2 1a 8e 3c 57 3e 22 3d 8f 89 2b 3d
       -0.07860639 0.017346773 0.039610233 0.041879233
000050 c5 24 9f 3b b3 cd c3 bd 6b f8 b5 3c df 57 6c bd
       0.004856678 -0.095607184 0.022213181 -0.057700988
000060 ce f5 4b bd 28 78 88 3c ed 28 e2 3c 0b a0 b6 bc
       -0.049794964 0.016658857 0.027607406 -0.022293111
000070 1c a6 f1 bc a1 98 27 bd 75 5a 70 3c bf a3 7f bd
       -0.029498152 -0.040917043 0.014670004 -0.06241202
000080 b5 52 07 3c 65 d7 6a bd 6c 0e 32 3c af 86 91 3d
       0.008259465 -0.057334322 0.010867696 0.07105767
000090 3c bb 6e 3c 9a 90 d5 bd 4f 7b 1b 3e 1d 23 4b 3d
       0.014571007 -0.10427971 0.15183757 0.049594034
0000a0 ad 4d 62 bd a4 7e 93 bd d7 6f b2 3d be ef af 3c
       -0.05524986 -0.07201889 0.08712738 0.021476623
0000b0 be 5f 64 bd 5b 1e fe 3c 3e c7 2e 3d 81 91 6b bd
       -0.05575537 0.031020334 0.04267048 -0.05751181
0000c0 6f d5 0e bd e7 07 68 bd 12 d6 b6 3c a2 30 f4 bd
       -0.034871515 -0.05664816 0.022318874 -0.119233385
0000d0 77 47 7a bc 22 5d de 3c b5 82 9f 3c b4 eb 02 be
       -0.015275828 0.027144019 0.019471506 -0.12785226
0000e0 4a e1 ba bc f7 9b 19 3b 9e 3b dc bd 03 27 a9 3c
       -0.022812504 0.002343891 -0.107535586 0.020648485
0000f0 70 7c c9 bd 2d 93 2f 3c e3 d7 81 3c 58 99 66 bc
       -0.09838188 0.010716242 0.015850013 -0.014074646
000100 ea 9f fb 3c 45 25 7a 3d db c7 ee 3d 92 e7 da bc
       0.030715901 0.0610707 0.11659213 -0.02672175
000110 a2 6e 99 3d b3 5c 35 3c ba 64 50 bd 93 e1 36 bd
       0.07491805 0.0110694645 -0.05087731 -0.044648718
000120 55 6b 0f bd 7a 33 c7 3c 11 6e e2 3c e7 c1 ae 3d
       -0.03501447 0.024316538 0.027640374 0.08533078
000130 5e ce f9 3b cd e4 24 bc 81 67 78 3d eb f8 95 bc
       0.007623478 -0.010064316 0.060645584 -0.01830717
000140 30 a1 c6 3b 15 b9 32 bb 8c aa c7 bd 41 93 05 3e
       0.0060616955 -0.0027270962 -0.09749326 0.13044454
000150 70 bb a7 3d bf c8 b9 bd 26 f0 f0 bd 5a e2 72 3d
       0.08190048 -0.090714924 -0.11764555 0.059297897
000160 cd 77 ef 3a 90 ec 18 3d 4e 62 96 3c 67 78 03 bb
       0.0018269956 0.03733498 0.018357422 -0.002006078
000170 98 99 ce bd 6e 7a 0a bd b4 75 ec bd c0 a1 93 bd
       -0.100878894 -0.033808164 -0.115458876 -0.07208586
000180 b0 09 84 bb 79 94 7d 3d a5 c8 df 3c 2b f6 2d bd
       -0.004029475 0.061909173 0.027317354 -0.042471092
000190 2f a6 0d 3d 99 27 0c 3d 3d 5a da bd 46 7f 19 bd
       0.034582313 0.03421745 -0.10661743 -0.037474893
0001a0 5f 3a b7 3d 84 4c 9b bb 7b 8e 39 3d 62 cd 00 3b
       0.0894668 -0.004739346 0.045301896 0.0019653668
0001b0 fb 58 a2 3c c5 41 5f 3c 3a 2d 38 bd ff 11 cb 3b
       0.01981782 0.0136265205 -0.044965006 0.0061972137
0001c0 54 af f3 3a 9e a2 89 bd df 84 35 3d 50 a4 07 bd
       0.001859168 -0.0672047 0.04431617 -0.033115685
0001d0 4d ea 74 bd c0 23 39 bd 30 45 95 bd e6 e9 ac bc
       -0.05979376 -0.04520011 -0.07288587 -0.021107625
0001e0 30 1f 57 bd ea 53 93 bc c8 36 cd bc 5f 60 0f 3d
       -0.052519977 -0.01798435 -0.025050536 0.035004016
0001f0 c5 d5 f4 3c 37 20 e4 3d 17 b1 5c 3d 9d 80 2e 3d
       0.02988709 0.11138957 0.053879824 0.042603124
000200 19 af 7c 3c 6e 76 90 3c af fd 8d 3d b6 1d d4 bd
       0.015422606 0.017634597 0.06933152 -0.103572294
000210 f5 77 84 bd 1c cb ba 3c b8 7f 4b bd 08 63 c0 3d
       -0.064681925 0.022801928 -0.04968235 0.09393889
000220 3b b7 9a 3b 63 0b 9b bd 00 7a 76 bd 07 84 ce bd
       0.00472155 -0.07570531 -0.060174942 -0.10083776
000230 de 1c a4 3d 08 46 31 3d 86 75 b4 3d dc d2 fa bd
       0.080133185 0.043279678 0.08811478 -0.122472495
000240 fd 62 93 bd c2 f2 05 bd 89 5a 84 bd 8c 70 55 bc
       -0.07196615 -0.032702215 -0.06462581 -0.013027322
000250 c1 bd 4d 3c 0d 35 9b bc 0e 60 e9 bc 03 16 78 bd
       0.012557448 -0.018946195 -0.028488185 -0.060567867
000260 9e c9 40 bb d8 30 e3 3b 28 21 0d bd 8a 7d 0c 3e
       -0.0029417048 0.006933313 -0.03445545 0.13719764
000270 a3 f7 f5 bd cc d0 01 3e c9 b9 84 bd 7f 08 cc ba
       -0.120101236 0.12677306 -0.06480748 -0.0015566497
000280 9f 2c a3 3d b9 72 f1 3c 0a 22 18 bb ac ff cc 3d
       0.07967495 0.02947365 -0.0023213648 0.10009703
000290 ab 30 a2 3a 26 5a 6a 3d 58 44 04 bd 18 d4 eb 3c
       0.0012374123 0.05721488 -0.03229174 0.028787658
0002a0 22 85 91 3b d1 1d 2f bd 20 26 c5 bb 57 69 4d bc
       0.0044409195 -0.042753045 -0.0060165077 -0.012537322
0002b0 a1 8b f4 bd e0 62 dc 3c 5d ad f9 bc ef db fe ba
       -0.119406946 0.026902616 -0.030478174 -0.0019444207
0002c0 52 94 b0 3d 27 1d 8b 3d b9 4a ff bc 52 e1 d7 bc
       0.0862204 0.0679267 -0.03116356 -0.026352558
0002d0 88 8a d1 3b 66 54 18 be 08 9b c7 3c 19 e6 c5 bd
       0.006394688 -0.14875945 0.024365917 -0.09663028
0002e0 6f 03 9e 3b 6b 5a 7d 3d 63 51 ec 3c a4 c4 24 bd
       0.0048221867 0.061853807 0.028847402 -0.040226594
0002f0 df ae 1c 3d eb 83 b3 3c 1c 78 cd bd 89 25 92 3d
       0.038252708 0.02191349 -0.10032675 0.071360655
000300 f1 d2 67 bd 9d 20 22 bd 79 a7 26 bd e3 3e 5a 3c
       -0.056597654 -0.039581884 -0.040687058 0.013320657
000310 51 8e 78 bd 4e 5a c5 bc e0 17 b5 3d af c5 82 bd
       -0.0606826 -0.024090912 0.088424444 -0.063853614
000320 6b 12 54 bc 9f 91 5f 3d 9d 5c 39 bd c4 a8 11 3d
       -0.012943844 0.054582234 -0.04525434 0.035561338
000330 e0 60 5d bd ce 8e 73 3d de fc 6c bd 98 a8 88 bd
       -0.054047465 0.05946236 -0.05785834 -0.06672782
000340 d3 b9 38 bd d6 c4 79 bd a9 b5 15 be 90 b5 21 3d
       -0.04509909 -0.060978733 -0.14620079 0.039479792
000350 36 86 50 bd b2 4a e6 bc 3a cd 26 bd f0 18 fe ba
       -0.050909244 -0.02811179 -0.040723063 -0.0019386094
000360 4b 86 ef bd c5 d6 56 3d 45 91 e9 3d 30 81 cd bc
       -0.11695536 0.052450914 0.11404661 -0.025086015
000370 41 93 06 3b f7 a0 c5 3d 5b 96 22 bc 7e 26 40 3d
       0.0020534548 0.09649842 -0.009923543 0.04691171
000380 65 45 8a 3d 87 99 b4 3d bf 90 6e 3d e1 b8 9f 3d
       0.06751517 0.088183455 0.05824351 0.07798935
000390 ab 86 92 3c 66 96 8b bd 11 64 ee bc 49 3f af 3d
       0.01788648 -0.068157956 -0.02910045 0.085569926
0003a0 ac a8 12 bc 31 01 c0 bd 68 be 51 bc 87 42 2f 3d
       -0.008951347 -0.09375227 -0.012801744 0.042788055
0003b0 36 7f 3d be b0 55 07 3d b0 f7 68 bc bb d4 a7 bc
       -0.18505558 0.033040702 -0.01421921 -0.02048718
0003c0 ec 9a a9 bd ca 87 a5 3c f0 ae a7 3b f1 73 b3 3d
       -0.08281502 0.02020635 0.0051172897 0.087623484
0003d0 76 67 34 3d 1a 98 0b 3e ff eb 02 be 37 f2 32 3e
       0.04404398 0.13632241 -0.12785338 0.1747521
0003e0 18 87 d2 bd 24 96 9b bc 60 37 0a bd 31 2f 8a bd
       -0.10279673 -0.018992491 -0.033744216 -0.06747282
0003f0 6f 25 0b 3d 28 fc 50 3d c7 b4 59 bd 78 fe c1 3c
       0.033971246 0.051021725 -0.05315092 0.02368091

network_body._body_endoder.seq_layers.4.bias f4 [256]
000000 fe 89 e0 3b b3 5b 5d 3c 05 1b eb bb 81 2e 32 3c
       0.0068523875 0.013510632 -0.007174852 0.010875345
000010 98 33 26 3c 63 09 83 3a 88 e0 86 3c 76 df 4f 3c
       0.010144137 0.0009997304 0.016464487 0.012687555
000020 d0 5e 6f 3b 37 63 6b bc 3e d8 fc ba 54 35 39 bc
       0.0036525019 -0.014366916 -0.0019290519 -0.011304218
000030 c3 27 29 3c 1e 80 80 bb 05 3a 1e bc 9a 56 8e 3b
       0.010324421 -0.0039215228 -0.009657388 0.00434382
000040 1c 52 3b 3c 53 ab 02 3c ad f9 7f bb f1 04 0c 3c
       0.011433151 0.007975417 -0.003905873 0.0085461
000050 88 4c 41 bc b6 5c 77 bc d3 3d 4a 3c 31 d7 55 3c
       -0.011798032 -0.015097788 0.012343842 0.013051794
000060 8a 06 b8 38 25 ac ca bb eb 93 4e ba 88 37 67 3b
       8.775022e-05 -0.006185072 -0.0007880318 0.0035280902
000070 18 24 16 bc ed 48 4a 3c f2 1c 9d bb 99 af e2 3b
       -0.009163879 0.012346488 -0.0047947103 0.0069179055
000080 4f eb 5f 3c 6d 29 4f 3c 9f c6 26 3c 4c 94 85 3b
       0.013666942 0.012644154 0.010179191 0.0040765163
000090 c5 fe e5 3b e0 24 3d ba 5c d6 23 3c 83 0d b2 3b
       0.0070188963 -0.00072152726 0.009999838 0.0054337396
0000a0 32 be de 3b d5 7e eb 3b fc 33 8f 3b 8f d4 06 3c
       0.0067975754 0.0071867504 0.0043702107 0.008229389
0000b0 19 d0 96 3b 30 99 42 3c ab 37 a5 3b 66 e9 07 3b
       0.004602444 0.011877343 0.0050420365 0.0020738482
0000c0 38 0f 3f 3c 4a cd 08 3c 0f 91 15 3c 81 3b c0 bb
       0.011661343 0.008349726 0.009128823 -0.0058664684
0000d0 54 16 eb 3a d1 b6 3b 3c 1a 90 3d bc 60 06 82 3c
       0.0017935731 0.011457161 -0.011570001 0.01587218
0000e0 32 bd 71 3b 98 62 8f 3b db ec 51 bc 2f 44 98 3b
       0.003688645 0.004375767 -0.012812818 0.0046468
0000f0 33 c8 2b ba 42 68 18 bc 65 c5 0f bc ec 21 58 bb
       -0.00065529643 -0.009302201 -0.00877509 -0.0032979203
000100 74 a5 83 3b 5d 80 0c 3c c4 52 50 bb d6 39 0a bc
       0.0040175263 0.008575526 -0.0031787613 -0.008436641
000110 4a c4 df 3b 59 c8 ae ba 31 c3 7a bb ad 4a d5 bb
       0.0068288194 -0.0013334855 -0.0038263316 -0.006509146
000120 a9 a6 0b bc 40 62 17 3c 82 5c 64 bb 0b 2f 6f 3c
       -0.008523622 0.009239733 -0.0034845178 0.014598618
000130 d8 b5 89 3c b4 ed 23 3c 3d 3e 0b 3c 21 a9 d2 3b
       0.016810343 0.010005403 0.0084987255 0.006428853
000140 f4 4e 24 3c 49 75 43 bc 9c 4a bd 3b a6 c2 6a 3c
       0.0100285895 -0.011929818 0.0057767164 0.014328634
000150 7e 23 99 bb 51 c1 03 3c 58 93 05 3c b3 2d 28 3c
       -0.0046734205 0.008041696 0.008152805 0.010264802
000160 36 7e e8 bb 82 68 53 bc 68 b1 c8 3b ac e0 66 3c
       -0.0070951236 -0.012903335 0.006124664 0.014091652
000170 96 07 37 3c b4 4c 8c bc e4 3e 26 3c 1f f9 f2 3b
       0.011171242 -0.017126419 0.01014683 0.0074149515
000180 aa f2 e5 bb 0b 0b 52 bc 33 83 b8 bb 11 4d 05 bc
       -0.007017453 -0.012820016 -0.0056308745 -0.00813605
000190 ea 0a 61 3c 7c d5 a2 3c 91 93 fa 3b 71 16 c9 ba
       0.013735512 0.019877188 0.007646986 -0.0015341771
0001a0 e4 a0 b3 3b f3 1a 33 3c 05 4c 0a bc 2c 4d fc bb
       0.005481826 0.010931718 -0.008440976 -0.0076996293
0001b0 11 09 14 3c cb 8f 0a 3c 7c 6b 09 bc f0 35 2c 3c
       0.009035365 0.0084571345 -0.008387443 0.010510907
0001c0 66 a8 d0 bb 86 04 9d 3c 49 7f a3 3c d4 92 1c 3c
       -0.006367731 0.019167196 0.019958155 0.009556491
0001d0 16 fb 10 3c 31 11 d8 bb 58 4a f1 bb ef e9 09 3b
       0.008848926 -0.0065938463 -0.007363599 0.0021043976
0001e0 08 e7 ac 3a e0 4e 0d 3c d3 2e 6c bb 25 cb 72 3c
       0.0013191411 0.008624762 -0.0036038652 0.014818941
0001f0 af 7f 6e 3b 10 05 3e bc e3 25 38 3c c3 dd 8a 3b
       0.0036392023 -0.011597887 0.011239502 0.004237862
000200 64 5d 26 bc 1a 9b 75 bc 4e 5e e6 3b c6 7d 02 bc
       -0.010154102 -0.014990592 0.007030285 -0.007964557
000210 b3 d6 50 3c 7f af 98 3b ab ca 3f bc 19 48 1e 3c
       0.012746501 0.0046595926 -0.011706035 0.009660744
000220 bf 6f 8a ba 20 f4 03 3c 3b 1a 57 3c d2 3b 1a 3b
       -0.0010561867 0.008053809 0.013128812 0.002353419
000230 89 32 9e 3b 18 8a 07 bc d8 0f 0a bc 37 0d c3 bb
       0.0048278016 -0.00827267 -0.008426629 -0.005952503
000240 83 cd 56 3c f7 b3 22 bc 0f a0 81 3c 00 4c 80 bb
       0.013110521 -0.009930602 0.015823392 -0.00391531
000250 bb e6 31 bc bb d2 b2 bb 0b 65 12 3c 6f d3 97 3b
       -0.010858233 -0.00545725 0.008935223 0.004633359
000260 09 54 6e 3c 5f 73 ed ba 73 56 02 3c ac dd f9 bb
       0.014546403 -0.0018116048 0.007955181 -0.0076253023
000270 b3 a3 1f bc f4 e1 8e bb d4 13 c3 bb 11 d7 45 3c
       -0.009743619 -0.004360432 -0.0059532914 0.012075202
000280 69 f4 1e ba f8 89 1b bc 3c 40 06 bc 60 b3 0c 3c
       -0.00060636416 -0.0094933435 -0.008194026 0.008587688
000290 ce 3f 23 bc 48 4e 4e 3b 9d c9 d5 ba 84 f8 57 3c
       -0.009963943 0.0031479765 -0.0016310696 0.013181809
0002a0 58 0a 4d 3b 39 ae 6b 3c fe 11 19 bc 3c 25 6d bb
       0.0031286683 0.0143848 -0.009342669 -0.0036185523
0002b0 d5 65 54 3c 5f 27 e7 3b 3e b3 ca 3b 50 71 f8 bb
       0.012963732 0.007054254 0.006185918 -0.0075818673
0002c0 bf 72 1d 3b 2f 7e 28 bc f2 66 03 3c 54 2a 09 3c
       0.0024024693 -0.010283991 0.00802015 0.008371908
0002d0 5e d8 d6 3b 63 7c c1 3b 5a 08 7d 3c c3 82 a6 ba
       0.0065565547 0.0059047206 0.015443886 -0.0012703765
0002e0 9d 9b 88 3c c2 73 cb 3b 89 92 af 3c 3f 26 16 3c
       0.016675765 0.0062088678 0.021432178 0.009164392
0002f0 d6 af 82 3b 31 44 92 3a 38 1e 25 3c 9d b8 c6 3a
       0.0039882464 0.0011159239 0.0100780055 0.001516122
000300 5e 7d 4f 3b 86 49 32 bb 33 fa 85 3c e8 db 53 3c
       0.0031660418 -0.0027204468 0.016354656 0.012930848
000310 23 27 0d 3c eb 68 0d 3b 54 69 2c bc 5c 62 81 3a
       0.008615288 0.0021577429 -0.010523159 0.0009871232
000320 e0 15 7f 3b 0e 8b 6d 3c c8 73 47 3c c9 0c 18 3c
       0.003892295 0.014498485 0.0121736005 0.009280392
000330 c4 b5 0c 3c 1f cd 85 3b ee 4d 62 3a 28 7c 1e bc
       0.008588258 0.00408329 0.0008632828 -0.009673156
000340 71 bd 27 39 be 03 a5 bb 3a c0 0d bc 04 fc 24 bc
       0.00015996934 -0.0050358465 -0.008651787 -0.010069851
000350 79 a1 a3 bb 5a 2c 6a 3b b5 5d 30 bc 5c 0a 42 3c
       -0.0049936143 0.0035732002 -0.010764529 0.01184329
000360 33 01 d9 3b 64 07 be 3b 47 13 23 bc 39 58 53 3c
       0.0066224574 0.005799221 -0.009953327 0.012899452
000370 75 d3 03 3c 00 34 1a 3c 22 0f 0f 3c fe 4f 37 39
       0.008046021 0.009411812 0.008731635 0.0001748204
000380 77 d3 01 bb 63 0e 61 3b 2c ef 7a 3c 22 80 cf bb
       -0.001980988 0.003434085 0.015315812 -0.0063324133
000390 b8 b7 3a ba 3d 13 26 3c 5d 7c 3f 3c 46 d7 21 3c
       -0.0007122713 0.010136423 0.011687365 0.009877985
0003a0 e6 d6 13 bc 91 aa 2a 3c 88 54 cd bb dd cb 8b bb
       -0.009023404 0.010416643 -0.0062661804 -0.0042662458
0003b0 30 e2 00 3c 0d d9 60 3c 96 b7 0a 3b 34 11 50 bc
       0.007866427 0.013723624 0.0021166555 -0.012699414
0003c0 02 c6 13 bc a2 4f 2f bc c1 36 6c 3c f5 d3 2b 3c
       -0.009019377 -0.010700138 0.014417351 0.010487546
0003d0 45 c3 30 3c 9c fa 01 3c 4f ce 0e bb d6 73 0c 3c
       0.010788743 0.007933285 -0.002179045 0.008572539
0003e0 49 10 a0 bc e1 bf 6c 3c 64 ec 33 3c 7a d7 f9 bb
       -0.019539015 0.014450044 0.010981653 -0.0076245638
0003f0 f8 67 2c bc 3d b8 ad 3b a4 01 7a 3b 31 e2 6f 3c
       -0.010522835 0.005301504 0.003814795 0.014641331
